modeldata/model_58_epoch.pth (torch_old, 43016 bytes, 5 tensors)

weight f4 [64, 1, 9, 9]
0.011628987 0.0053231944 0.026642663 0.0033953453 -0.0012623837 -0.02977089 0.017595055 -0.0068476927
-0.0076506347 -0.027613698 0.01608896 0.0053762575 -0.019042715 0.016126692 0.022501219 -0.024464574
-0.0006429339 -0.02019473 0.014099941 -0.0129959 0.0051398054 -0.021410286 -0.017960785 0.0026058054
-0.030544495 0.02978151 -0.026824083 -0.03226404 0.014843201 -0.008244812 -0.026683854 -0.019339623
0.011715914 -0.0033131433 -0.031083688 -0.007117385 -0.01536371 0.0050493125 0.018578617 0.00024540746
0.01398511 -0.0049968874 0.025627742 -0.02554425 0.00054419186 0.02101241 -0.019610683 0.008287542
-0.009559373 -0.022658546 0.021202734 -0.018359907 -0.021229014 -0.028579485 0.008174165 0.0031311084
0.031777095 -0.005546817 -0.027712652 -0.0323367 0.0028026146 -0.021856302 0.006335741 -0.027498545
-0.011709198 -0.006693354 -0.02263578 0.012676403 -0.022597523 -0.02635094 -0.028354453 0.030405615
-0.0051814453 -0.012619825 -0.020673996 0.009246559 0.009018075 0.0026991987 -0.031952724 -0.0071992865
0.016197484 -0.0023459871 -0.0199284 -0.0058948416 0.031025259 0.060473043 0.040898662 0.0526798
-0.016210813 -0.03326733 0.028361475 -0.02599297 0.025697663 0.03841637 0.026216656 0.049099635
0.0057884185 0.045374148 0.036235843 0.03063985 -0.008298387 0.022988385 -0.011587308 0.023230065
0.04449045 -0.023078319 0.057008587 -0.004336102 0.03361449 0.023510607 0.012745263 -0.0063637407
-0.027897205 -0.0040071644 -0.015255626 0.032854404 0.013320658 0.013385574 0.0097786505 0.026609564
-0.010464275 -0.037449352 -0.08777825 -0.044431217 0.017370172 0.075759925 0.022304948 0.037320685
0.050951954 0.0009181076 -0.03498915 -0.06379267 -0.06372387 0.042184312 0.07249223 0.005833662
0.035719834 0.020511074 0.007889266 -0.0069124093 -0.05684643 -0.012884405 0.031379797 0.051114865
-0.009551233 0.025101017 0.028118055 0.04119445 0.016952896 0.051919587 0.050427493 0.040678624
0.034655463 -0.013943779 0.029037405 -0.014330012 -0.0032880066 0.044618927 0.029286714 0.01799703
0.00079688005 -0.008256767 -0.02586865 -0.008260437 -0.03461807 -0.008746453 0.0064092474 0.01925833
-0.014789367 -0.0018821638 0.024211874 -0.014770971 -0.027106026 -0.007480146 -0.030360837 -0.024821308
-0.031146962 0.013455977 -0.017512802 0.0081818495 -0.040561017 -0.014020773 -0.008402455 -0.040330384
-0.030136866 -0.023301285 -0.056937348 -0.03051512 -0.023666194 -0.008527865 0.00069930113 0.014981247
0.0060229483 0.0709607 0.022687461 0.034794386 -0.008780184 -0.035193946 -0.018672246 -0.027417064
-0.02032694 -0.003411096 -0.029375866 -0.016755397 0.031573877 -0.0041084867 0.0028746943 0.0018991494
0.0058192587 0.017797153 -0.01432543 -0.036073066 -0.012428644 0.0016209813 0.018021446 -0.023316713
0.011075965 0.020152558 -0.009484366 -0.005771529 0.038445055 0.031987317 -0.010329454 0.020923031
-0.023092225 0.005394126 -0.008991096 -0.010529037 -0.014845928 0.010875272 0.027975658 0.035067607
-0.018253172 -0.021688119 0.03644176 0.027463578 0.015804766 0.006925436 0.011015609 0.0041826954
-0.019663822 0.0019567967 0.0060804514 -0.0007352541 -0.0095376875 -0.030089978 -0.008150386 0.046119142
-0.023106318 -0.026690057 0.043104216 0.008197657 0.013060696 -0.009103483 -0.037201703 0.0172557
00000000: 8287 3e3c 316e ae3b b741 da3c 7184 5e3b
00000010: 9176 a5ba 15e2 f3bc 8123 903c 9c62 e0bb
00000020: 2db2 fabb 1f36 e2bc ffcc 833c 512b b03b
00000030: 78ff 9bbc 201c 843c 7a54 b83c ee69 c8bc
00000040: 908a 28ba 6b6f a5bc 7003 673c c1ec 54bc
00000050: d06b a83b a064 afbc 7f22 93bc 29c6 2a3b
00000060: 7338 fabc 5af8 f33c 2ebe dbbc 4c27 04bd
00000070: e630 733c 3f15 07bc 1998 dabc 216e 9ebc
00000080: 1bf4 3f3c 5221 59bb 38a3 febc f438 e9bb
00000090: 12b8 7bbc b474 a53b 2f32 983c 08aa 8039
000000a0: ce21 653c eebc a3bb 45f1 d13c 2d42 d1bc
000000b0: 19a8 0e3a 3822 ac3c 95a6 a0bc 78c8 073c
000000c0: eb9e 1cbc 6a9e b9bc 5bb1 ad3c 8467 96bc
000000d0: 78e8 adbc 861f eabc efec 053c 4833 4d3b
000000e0: b328 023d 13c2 b5bb a505 e3bc 7d73 04bd
000000f0: 12ac 373b fd0b b3bc 0c9c cf3b a144 e1bc
00000100: f0d7 3fbc ec53 dbbb ac6e b9bc b0b0 4f3c
00000110: 711e b9bc eddd d7bc 9947 e8bc 3215 f93c
00000120: 1dc9 a9bb 62c3 4ebc 835c a9bc e17e 173c
00000130: 8cc0 133c 0ae5 303b dce0 02bd fee7 ebbb
00000140: 96b0 843c 22bf 19bb e240 a3bc 8429 c1bb
00000150: af28 fe3c 95b2 773d 5b85 273d c6c6 573d
00000160: 8acc 84bc 5343 08bd 5356 e83c 36ef d4bc
00000170: e883 d23c 7c5a 1d3d 50c4 d63c b31c 493d
00000180: c6ac bd3b 3eda 393d 096c 143d 6c00 fb3c
00000190: f5f5 07bc 2352 bc3c b1d8 3dbc fa4c be3c
000001a0: 9e3b 363d be0e bdbc d681 693d dc15 8ebb
000001b0: 59af 093d 5199 c03c 82d1 503c ed86 d0bb
000001c0: ae88 e4bc 884e 83bb bcf2 79bc 5792 063d
000001d0: e43e 5a3c 2b4f 5b3c a236 203c 4dfc d93c
000001e0: 5a72 2bbc 7e64 19bd 15c5 b3bd 82fd 35bd
000001f0: e44b 8e3c 0528 9b3d deb8 b63c 93dd 183d
00000200: ffb2 503d 28ad 703a c850 0fbd bba5 82bd
00000210: a981 82bd 75c9 2c3d ce76 943d 4e28 bf3b
00000220: f64e 123d d706 a83c fb41 013c 7e81 e2bb
00000230: cdd7 68bd 1d19 53bc 1a88 003d d25d 513d
00000240: c67c 1cbc a6a0 cd3c d657 e63c 83bb 283d
00000250: cde0 8a3c a2a9 543d 0f8d 4e3d a19e 263d
00000260: e3f2 0d3d 7374 64bc dadf ed3c 6dc8 6abc
00000270: 997b 57bb 56c2 363d b1ea ef3c 826e 933c
00000280: b7e5 503a 6447 07bc 7eea d3bc c956 07bc
00000290: adcb 0dbd 484d 0fbc aa04 d23b a5c3 9d3c
000002a0: 1a4f 72bc f0b2 f6ba fb57 c63c f101 72bc
000002b0: 750d debc 031c f5bb 4ab7 f8bc 0e56 cbbc
000002c0: ea27 ffbc 7576 5c3c 0277 8fbc 2a0d 063c
000002d0: 4f23 26bd 62b7 65bc 73aa 09bc 7931 25bd
000002e0: 97e1 f6bc 56e2 bebc 2337 69bd d8fa f9bc
000002f0: 9bdf c1bc 75b8 0bbc 4e51 373a e773 753c
00000300: 275c c53b d853 913d 0edb b93c 8f84 0e3d
00000310: c3da 0fbc 8727 10bd 8af6 98bc c099 e0bc
00000320: af84 a6bc b28c 5fbb a8a5 f0bc 9d42 89bc
00000330: 9c53 013d 7ca0 86bb 5e65 3c3b e1ec f83a
00000340: 7baf be3b 56cb 913c 35b5 6abc 5ac1 13bd
00000350: 83a1 4bbc 1b77 d43a b6a1 933c b102 bfbc
00000360: f777 353c fa16 a53c 5064 1bbc 181f bdbb
00000370: 9078 1d3d 2205 033d df3c 29bc c766 ab3c
00000380: e82b bdbc 35c1 b03b 644f 13bc fb81 2cbc
00000390: 563c 73bc 322e 323c 352d e53c 0da3 0f3d
000003a0: ad87 95bc 48ab b1bc f443 153d 4cfb e03c
000003b0: ff78 813c c5ee e23b d07a 343c fe0e 893b
000003c0: 0616 a1bc 9a3d 003b 863e c73b 11be 40ba
000003d0: f643 1cbc 427f f6bc 3289 05bc 6de7 3c3d
000003e0: 7649 bdbc 1ba5 dabc 0c8e 303d 774f 063c
000003f0: 88fc 553c c626 15bc d060 18bd d35b 8d3c

bias f4 [64]
-0.0044528805 0.03600286 -0.0018124552 0.009344466 0.004152365 0.018685527 -0.0034228691 -0.0010486149
-0.0029686023 0.0073145675 0.0046699014 -0.0077266553 0.002258501 0.018102307 0.03348519 0.002729916
0.0067659575 0.0013826865 0.0033984503 -0.00036332515 0.0005575911 0.0045454116 -0.004094956 0.0009210249
0.003412779 0.0052188346 0.012297352 0.0040293965 0.027255228 0.009379119 0.003244835 -0.001995138
0.0093127005 0.0073287226 0.0022350017 -0.0026088099 0.016852552 -0.003089614 0.0014231284 0.0015948627
0.006485523 0.00047744767 -0.006578013 0.0046754736 -0.00044644278 0.0019940059 -0.0032151043 -0.0050217053
-9.29107e-06 0.005156989 0.01705583 -0.005863912 0.0022629043 0.014428036 0.0029837957 0.0037658548
0.005903716 0.0055465223 0.009494222 0.00078309455 0.0057391403 0.0052684518 0.0036922758 0.0013557607
00000000: 78e9 91bb bc77 133d e88f edba 8819 193c
00000010: 9010 883b 6412 993c 3752 60bb ad71 89ba
00000020: e28c 42bb 0aaf ef3b f905 993b e22f fdbb
00000030: 5c03 143b 4a4b 943c c427 093d 64e8 323b
00000040: f7b4 dd3b 433b b53a 89b8 5e3b ad7c beb9
00000050: 4e2b 123a adf1 943b fb2e 86bb ef70 713a
00000060: eea8 5f3b c202 ab3b d57a 493c 0709 843b
00000070: 5b46 df3c e0aa 193c 4ca7 543b dcc0 02bb
00000080: 4c94 183c c825 f03b 1b79 123b 91f8 2abb
00000090: 5d0e 8a3c 1f7b 4abb 4488 ba3a b60a d13a
000000a0: 8384 d43b f151 fa39 5f8c d7bb b734 993b
000000b0: 8910 eab9 dead 023b 80b4 52bb 1e8d a4bb
000000c0: d7e0 1bb7 f6fb a83b abb8 8b3c 0f26 c0bb
000000d0: 3c4d 143b 9263 6c3c c98b 433b 8fcc 763b
000000e0: f673 c13b 9abf b53b a78d 1b3c 9648 4d3a
000000f0: 660f bc3b faa2 ac3b 1cfa 713b c8b3 b13a

weight f4 [32, 64, 1, 1]
0.044759903 -0.23531865 -0.16188851 0.15827738 -0.1591308 0.0870929 -0.23622455 0.09269278
0.0017235222 0.020786285 -0.13534917 -0.25640938 0.17249957 0.17292546 0.19077666 -0.23153861
-0.18519874 0.021410543 -0.15135495 0.14819682 0.09924904 -0.23717733 0.079238415 -0.14977422
0.14546086 0.042039797 0.03284814 -0.09378576 -0.032801308 -0.16434705 0.16903545 0.14718217
0.08660575 -0.17758578 0.10229498 0.23961678 -0.0046500233 0.19099359 -0.100242645 0.08936378
-0.16593973 0.22721691 0.2535863 -0.2800854 0.16642143 0.01810131 0.12800768 0.05843911
0.18091919 -0.03563186 0.110065214 -0.09734161 -0.20536636 -0.29545006 0.1464115 0.01373862
-0.20511648 -0.049816072 0.21210895 -0.0484458 -0.035089664 0.09797594 -0.12607569 0.055875055
-0.0078425575 0.25074074 0.09132941 0.00087213557 0.18565062 0.05279127 -0.28611812 -0.1459824
0.053274807 -0.23650585 0.04742302 -0.017556755 -0.004876534 -0.21078011 -0.014542103 -0.16697273
-0.24026196 0.18676764 -0.09091639 0.23523147 -0.22231738 0.07800758 -0.08301206 -0.2500752
0.07730885 0.5270012 0.12333947 -0.12913603 0.010047579 -0.14544903 0.03323045 0.20557392
0.12127913 -0.15516627 -0.23622063 0.15668052 -0.1742222 -0.15910152 0.1314249 -0.10666576
-0.11637366 0.1311651 0.096262135 -0.1795821 0.16054621 -0.02329205 -0.05402548 -0.029865429
-0.122687854 0.20096344 0.21744713 0.17157963 0.21603918 -0.12876283 -0.005940837 0.02234166
0.105257004 -0.12050257 -0.18551627 0.19481534 -0.044024408 -0.038117882 0.08523026 -0.112660386
-0.21517606 0.29164743 0.2409122 0.11904244 -0.076855764 -0.07610487 0.2573778 -0.15815027
-0.43169925 0.09002177 0.1992082 0.12295289 0.15305884 -0.102819726 0.17131996 -0.021493558
0.016913073 0.24523835 -0.1164517 -0.030316908 -0.2017817 -0.19144547 -0.08716529 -0.1372769
-0.20004216 0.24935071 -0.10927601 -0.17783308 0.24421388 0.12538311 -0.2957709 -0.14530008
0.1671277 -0.018269435 -0.12288791 -0.1459925 -0.12534755 -0.092114136 0.096579485 -0.20347063
-0.11691503 0.24562809 -0.14635351 -0.16590473 0.08530969 0.17644235 0.07529007 0.13626502
-0.24319917 -0.22519968 -0.0686499 -0.12411578 0.18690415 -0.23362765 -0.024760246 -0.117384925
0.111917675 0.15178661 0.07323184 0.19955422 0.15848657 -0.062904224 -0.20418337 -0.19456734
0.23017384 -0.12602615 0.16955426 0.19121891 0.17885585 -0.17258456 0.034332857 -0.21045703
0.011409875 -0.10389211 0.11932436 0.19092566 -0.16836306 0.19662517 -0.2386565 0.11223617
-0.00970037 -0.04314155 -0.14531355 0.060027286 -0.15149246 0.18478885 -0.49517155 -0.019922795
0.17706151 0.2852033 0.3085544 0.2010024 -0.041101523 0.10898758 -0.084490724 0.3290799
0.17292008 -0.2082197 -0.22461568 0.22929156 0.21523185 -0.1160678 -0.20508394 0.040258694
0.112581395 -0.12627369 0.14548384 0.19682522 0.2033707 0.09806859 -0.08716306 -0.30533808
0.15278548 -0.24276847 -0.09306897 0.13524316 0.113656275 0.021924796 -0.16133885 -0.010928844
-0.3533195 -0.2630957 -0.11284968 0.33237898 -0.17132798 -0.15358654 -0.44118884 0.06856686
00000000: 2956 373d 5ff7 70be 1ac6 25be 7713 223e
00000010: 2ff3 22be c35d b23d d9e4 71be b6d5 bd3d
00000020: cfe7 e13a 0048 aa3c f998 0abe 1748 83be
00000030: baa3 303e 5f13 313e f55a 433e 7518 6dbe
00000040: bda4 3dbe 2a65 af3c cbfc 1abe e8c0 173e
00000050: 1543 cb3d 9dde 72be c047 a23d 6a5e 19be
00000060: b1f3 143e ec31 2c3d c58b 063d c012 c0bd
00000070: aa5a 06bd 984a 28be a117 2d3e ecb6 163e
00000080: 5b5e b13d 0cd9 35be 0880 d13d 1a5e 753e
00000090: 395f 98bb d393 433e 044c cdbd 5c04 b73d
000000a0: 1bec 29be 8dab 683e 10d6 813e 5b67 8fbe
000000b0: 616a 2a3e 3349 943c 7214 033e d95d 6f3d
000000c0: e142 393e b7f2 11bd df69 e13d 0a5b c7bd
000000d0: 8f4b 52be 3b45 97be e5ec 153e f317 613c
000000e0: 0e0a 52be f00b 4cbd 1733 593e 1a6f 46bd
000000f0: 2eba 0fbd 9ca7 c83d fc19 01be 3edd 643d
00000100: 127e 00bc 1761 803e ea0a bb3d 07a0 643a
00000110: 321b 3e3e a93b 583d 137e 92be 697c 15be
00000120: af36 5a3d 972e 72be a43e 423d 2fd3 8fbc
00000130: 55cb 9fbb bed6 57be 0042 6ebc e6fa 2abe
00000140: 3b07 76be 0440 3f3e 5f32 babd 85e0 703e
00000150: 2ba7 63be 70c2 9f3d 3a02 aabd db09 80be
00000160: 1a54 9e3d 8de9 063f 6799 fc3d 3c3c 04be
00000170: 9a9e 243c 97f0 14be a71c 083d f881 523e
00000180: 3161 f83d e8e3 1ebe d2e3 71be dc70 203e
00000190: 4e67 32be 82eb 22be 4094 063e 9473 dabd
000001a0: 5055 eebd 2550 063e 1525 c53d 5fe4 37be
000001b0: 3a66 243e f8ce bebc d249 5dbd 58a8 f4bc
000001c0: c543 fbbd 5cc9 4d3e 76aa 5e3e 92b2 2f3e
000001d0: 6039 5d3e 67da 03be 5aab c2bb db05 b73c
000001e0: fc90 d73d 0dca f6bd faf7 3dbe ac7d 473e
000001f0: f052 34bd 7f21 1cbd 348d ae3d 7dba e6bd
00000200: 1d57 5cbe d052 953e b0b1 763e 86cc f33d
00000210: 8e66 9dbd dfdc 9bbd 06c7 833e 25f2 21be
00000220: af07 ddbe 555d b83d 3cfd 4b3e bace fb3d
00000230: 75bb 1c3e 2693 d2bd 806e 2f3e 4213 b0bc
00000240: 498d 8a3c c31f 7b3e 3b7e eebd 2a5b f8bc
00000250: dd9f 4ebe 480a 44be b783 b2bd 5192 0cbe
00000260: dad7 4cbe cb55 7f3e 1acc dfbd e019 36be
00000270: 3413 7a3e 6e64 003e 496f 97be 8bc9 14be
00000280: 8623 2b3e c8a9 95bc a8ac fbbd 0f7f 15be
00000290: 1c5b 00be 56a6 bcbd 77cb c53d 9b5a 50be
000002a0: 2671 efbd ee85 7b3e b2dd 15be eee2 29be
000002b0: d9b6 ae3d 4ead 343e ae31 9a3d 0f89 0b3e
000002c0: 3409 79be bf9a 66be 5298 8cbd 6a30 febd
000002d0: cd63 3f3e 163c 6fbe 00d6 cabc 8267 f0bd
000002e0: 1835 e53d f36d 1b3e 93fa 953d f157 4c3e
000002f0: 4e4a 223e eed3 80bd 7215 51be a93c 47be
00000300: b1b2 6b3e 000d 01be a29f 2d3e e4ce 433e
00000310: fd25 373e 02ba 30be 9ca0 0c3d 0c82 57be
00000320: 7cf0 3a3c 63c5 d4bd 5460 f43d 0482 433e
00000330: 5e67 2cbe 1c58 493e 5f62 74be 14dc e53d
00000340: 4dee 1ebc 32b5 30bd 13cd 14be 2cdf 753d
00000350: d720 1bbe 4a39 3d3e 2087 fdbe 2135 a3bc
00000360: 9d4f 353e 2b06 923e d8fa 9d3e 93d3 4d3e
00000370: 125a 28bd e134 df3d 7909 adbd 297d a83e
00000380: f611 313e 8c37 55be a701 66be 68cb 6a3e
00000390: bd65 5c3e f4b4 edbd 8601 52be 4de6 243d
000003a0: 1391 e63d e44d 01be b7f9 143e 8d8c 493e
000003b0: 6940 503e 2fd8 c83d 8c82 b2bd 4655 9cbe
000003c0: cc73 1c3e 4c98 78be f29a bebd 2f7d 0a3e
000003d0: 9fc4 e83d a19b b33c 0336 25be e50e 33bc
000003e0: 4be6 b4be 7bb4 86be bc1d e7bd 942d aa3e
000003f0: 9a70 2fbe ca45 1dbe 81e3 e1be c86c 8c3d

bias f4 [32]
-0.0013616028 -0.0026064944 0.017802252 -0.008687833 -0.0016082666 0.002946487 0.005457563 0.0023900247
-0.029484332 -0.0035827167 0.0037919283 0.0030272326 -0.0014029585 -0.0014183967 0.004839365 -0.0018909228
0.006560315 0.008295379 0.0048918007 0.0038552387 -0.008708466 -0.0034165252 0.031171598 0.003804103
0.0023806002 0.0019666525 -0.004104718 -0.0013859553 -0.0012009218 -0.0018352154 0.003801469 0.017944342
00000000: cf77 b2ba b8d1 2abb 07d6 913c 6a57 0ebc
00000010: 79cc d2ba d919 413b 5bd5 b23b f6a1 1c3b
00000020: 2089 f1bc 03cc 6abb 0082 783b 8964 463b
00000030: 7ae3 b7ba 7fe9 b9ba 8993 9e3b d7d8 f7ba
00000040: e9f7 d63b 57e9 073c 664b a03b 2ca8 7c3b
00000050: f4ad 0ebc c8e7 5fbb 945b ff3c 424e 793b
00000060: d803 1c3b f4e2 003b df80 86bb f1a8 b5ba
00000070: 4068 9dba 9c8b f0ba 1122 793b 0300 933c

weight f4 [1, 32, 5, 5]
-0.06269884 0.07712641 -0.075435355 -0.0756363 -0.043247767 -0.017470948 -0.01793627 0.04768529
0.010562861 0.08267862 0.07792488 0.03476967 0.015489448 0.009132664 -0.074496344 -0.037777875
0.04846634 -0.02747814 0.029258221 0.044187926 0.050036 0.0023383005 -0.067264706 -0.08258411
-0.0631043 0.027996996 -0.0745475 0.034169924 0.08058761 0.043714225 -0.07127869 -0.034811065
-0.044282563 0.039735306 0.0026201548 -0.07008883 -0.07131326 0.07222488 -0.059440177 -0.04965889
-0.0846007 0.06680141 -0.08676712 -0.052284483 -0.011306797 0.006880574 -0.056222532 -0.008661719
0.08230953 0.053472478 0.016117427 0.06476444 0.024428505 -0.044802234 0.0015989924 0.006727099
-0.021799363 -0.095030814 -0.0003461772 -0.08119515 -0.033752624 -0.012285504 0.12283871 0.039461326
0.013776773 -0.003651688 -0.020156872 0.011580544 0.03003557 -0.06580185 0.011055387 -0.020614324
-0.10359392 0.03687956 -0.07875772 -0.028228382 -0.051531892 0.00214095 0.045385577 -0.016981993
0.026960475 -0.03811777 0.02377972 0.04604293 -0.016322833 -0.057765752 0.1014619 0.1270581
0.06589266 -0.05412446 0.07780147 -0.063217945 0.04511211 0.030416867 0.0032667846 -0.03804108
-0.025514187 0.048221067 0.045071144 -0.056701146 -0.011284795 -0.048485756 0.0076699806 0.04539811
-0.0254552 -0.019166287 0.033498578 -0.043292463 -0.080671646 0.03215062 0.0048640934 0.018779734
0.024420794 0.016290415 0.008812051 -0.039925843 0.015647104 0.054642398 0.039630525 -0.0727718
-0.05006486 0.03294378 0.046070263 -0.06755918 -0.0274848 0.06337846 0.04017981 0.03038719
-0.068675816 0.050271176 -0.040632896 0.048113417 0.04546623 0.01773892 0.0042149876 0.03798111
0.046665493 -0.015490186 0.05341985 -0.0390516 -0.08153065 0.030584712 -0.020557825 -0.044891335
0.07892207 0.052897025 0.029739846 -0.024539644 -0.051273704 -0.049965795 -0.03903114 0.02569313
-0.027153099 0.025389701 -0.0333263 -0.072717205 0.01646746 -0.009763845 -0.09011114 -0.004316905
0.03310497 0.09070981 0.052477587 0.00035089345 0.031302396 -0.081944734 0.032698598 -0.03603081
-0.04249744 -0.024054825 -0.07059613 0.070748545 -0.02280209 -0.021392887 0.044109948 0.06965128
0.04557257 -0.04972886 -0.024204502 -0.010992802 0.078493066 -0.012280071 -0.074775405 0.013954019
0.0030175021 -0.005647546 0.06510672 -0.072026834 0.03894385 0.06963071 -0.050406553 0.08057615
0.04690739 0.031940006 0.07730615 -0.035559196 0.07654226 0.08361762 -0.009783111 -0.062289145
0.054870732 0.050976917 -0.00089256064 0.010716357 0.004009065 0.028907478 0.08112384 0.04211671
0.06514115 -0.052646175 -0.08159545 -0.013196106 -0.05961158 0.07685134 0.05575103 -0.07825377
0.012050808 -0.06412587 -0.010662749 0.07112829 -0.06239766 -0.00461653 -0.053358674 0.013689202
-0.06819369 -0.084238134 0.08035762 -0.044859592 -0.024523912 0.083051875 0.046381325 -0.039591536
-0.01557703 -0.030675802 -0.07949855 -0.052652285 0.008887899 -0.0151489 -0.062414486 -0.0715075
0.00822343 0.03399479 -0.0670452 0.022257045 0.05822993 -0.07527269 0.056722708 -0.018791946
0.020399276 0.07312243 -0.052914962 0.022919375 0.033601593 0.07257708 -0.026412806 0.005563906
00000000: 4068 80bd 74f4 9d3d da7d 9abd 34e7 9abd
00000010: 9224 31bd 3c1f 8fbc 16ef 92bc a751 433d
00000020: da0f 2d3c 6953 a93d 1497 9f3d a46a 0e3d
00000030: 74c7 7d3c 2ba1 153c 8a91 98bd f9bc 1abd
00000040: a484 463d d619 e1bc f0ae ef3c 66fe 343d
00000050: 8cf2 4c3d 2c3e 193b 14c2 89bd dc21 a9bd
00000060: d43c 81bd f559 e53c 5cac 98bd c3f5 0b3d
00000070: 1e0b a53d b00d 333d 90fa 91bd 0c96 0ebd
00000080: a261 35bd 7dc1 223d e7b6 2b3b bc8a 8fbd
00000090: b00c 92bd a3ea 933d 8b77 73bd 1f67 4bbd
000000a0: 2243 adbd 2dcf 883d f6b2 b1bd 4128 56bd
000000b0: 2540 39bc 7076 e13b 9949 66bd e2e9 0dbc
000000c0: e691 a83d f505 5b3d b208 843c 38a3 843d
000000d0: 4a1e c83c 8c82 37bd 4895 d13a ff6e dc3b
000000e0: 9494 b2bc 849f c2bd 1e7f b5b9 a549 a6bd
000000f0: 3140 0abd 2349 49bc dd92 fb3d 33a2 213d
00000100: f9b7 613c 2951 6fbb 0620 a5bc 52bc 3d3c
00000110: 280d f63c 1fc3 86bd a721 353c 5fdf a8bc
00000120: 0d29 d4bd 060f 173d ba4b a1bd 353f e7bc
00000130: 1b13 53bd 2e4f 0c3b 3ae6 393d d21d 8bbc
00000140: 37dc dc3c 6121 1cbd b0cd c23c 8397 3c3d
00000150: 76b7 85bc c89b 6cbd 42cb cf3d 851b 023e
00000160: bbf2 863d 9cb1 5dbd 6156 9f3d 6978 81bd
00000170: 7ac7 383d cb2c f93c 8d17 563b f7d0 1bbd
00000180: 2103 d1bc 7483 453d 859c 383d 763f 68bd
00000190: dce3 38bc 0099 46bd 7654 fb3b 5ef3 393d
000001a0: 6c87 d0bc 9e02 9dbc ce35 093d 7053 31bd
000001b0: 2d37 a5bd 5eb0 033d f962 9f3b f5d7 993c
000001c0: 1e0e c83c 7a73 853c 6c60 103c 4889 23bd
000001d0: 5b2e 803c b5d0 5f3d 9e53 223d 6209 95bd
000001e0: d010 4dbd 0ff0 063d 2cb4 3c3d 785c 8abd
000001f0: ce27 e1bc 91cc 813d 9693 243d 8eee f83c
00000200: e8a5 8cbd 26e9 4d3d ae6e 26bd 9312 453d
00000210: cc3a 3a3d 3651 913c e11d 8a3b 1592 1b3d
00000220: 5124 3f3d 8dca 7dbc c6ce 5a3d 92f4 1fbd
00000230: 8bf9 a6bd ca8c fa3c e268 a8bc fadf 37bd
00000240: e5a1 a13d 8daa 583d faa0 f33c 5d07 c9bc
00000250: 6004 52bd efa8 4cbd 1edf 1fbd 667a d23c
00000260: 2d70 debc 10fe cf3c 2981 08bd c2ec 94bd
00000270: c4e6 863c 89f8 1fbc 308c b8bd d374 8dbb
00000280: 1499 073d 11c6 b93d bdf2 563d 1ff8 b739
00000290: f136 003d a4d2 a7bd f7ee 053d 0b95 13bd
000002a0: cc11 2ebd a00e c5bc b494 90bd 9de4 903d
000002b0: 73cb babc 2340 afbc a2ac 343d 55a5 8e3d
000002c0: 4eaa 3a3d 7db0 4bbd 8548 c6bc 271b 34bc
000002d0: f9c0 a03d 5a32 49bc d923 99bd 669f 643c
000002e0: 49c1 453b 0d0f b9bb ac56 853d ce82 93bd
000002f0: 9683 1f3d 8c9a 8e3d 1a77 4ebd 1c05 a53d
00000300: f721 403d 86d3 023d b052 9e3d 85a6 11bd
00000310: 30c2 9c3d b73f ab3d 5749 20bc e722 7fbd
00000320: 22c0 603d 2ccd 503d bbfa 69ba a993 2f3c
00000330: 7a5e 833b 60cf ec3c 4124 a63d 9282 2c3d
00000340: b968 853d 84a3 57bd 841b a7bd 7b34 58bc
00000350: 462b 74bd 3c64 9d3d 315b 643d 8343 a0bd
00000360: c170 453c 6d54 83bd d0b2 2ebc b5ab 913d
00000370: b094 7fbd 4346 97bb a08e 5abd ad48 603c
00000380: 22a9 8bbd 0b85 acbd 8992 a43d b1be 37bd
00000390: 5fe6 c8bc 1a17 aa3d 58fa 3d3d bc2a 22bd
000003a0: cd36 7fbc d24b fbbc 23d0 a2bd eca9 57bd
000003b0: 8d9e 113c 1833 78bc 55a6 7fbd 8672 92bd
000003c0: 91bb 063c 1f3e 0b3d fe4e 89bd 6854 b63c
000003d0: 8282 6e3d 9128 9abd 1256 683d 91f1 99bc
000003e0: 621c a73c 36c1 953d 5cbd 58bd 6ac1 bb3c
000003f0: d3a1 093d 4ba3 943d ab5f d8bc 6d51 b63b
