modeldata/model_148_epoch.pth (torch_old, 43016 bytes, 5 tensors)

weight f4 [64, 1, 9, 9]
000000 58 e5 18 3d 57 97 8c 3a 51 1c a3 3c ea 38 21 3b
       0.037328094 0.0010726255 0.019910963 0.0024600574
000010 69 27 0d bd 09 8d 3a bd 42 93 23 3d 17 23 1f ba
       -0.034461413 -0.045544658 0.039935358 -0.00060705974
000020 85 0b 00 bc f1 ff 5b bc 63 cb b1 3b 0d 09 a6 3b
       -0.0078152465 -0.01342772 0.005425857 0.005066997
000030 63 0f 8a bc 24 aa 64 bc 9e 24 83 3c 63 9e f1 3c
       -0.01685304 -0.01395658 0.016008671 0.02949447
000040 3c ee 21 3c e5 80 62 bc b2 2c 0b 3c d2 55 d0 bc
       0.00988346 -0.013824676 0.008494543 -0.025431547
000050 0c 42 ac 3c d0 11 42 bb d6 a3 0c bd 08 21 27 bc
       0.021027587 -0.0029612668 -0.034335934 -0.010200746
000060 60 4b 1e 3c 35 6a 15 3d 8b df 1c 3c 3e 46 e0 bc
       0.0096615255 0.03647824 0.009574781 -0.027377244
000070 9b 39 01 3d 53 4f 6e 3d 3d 01 09 3d e7 15 da bc
       0.031549077 0.05818112 0.033448447 -0.026621772
000080 ac 81 93 bb 94 d3 11 bc 78 73 63 bd 64 6c a5 3c
       -0.004501542 -0.008900542 -0.05553004 0.020193286
000090 7e fb 64 bb 82 fa 14 3d cf f1 cd 3d ad 89 5c 3d
       -0.003493994 0.036371715 0.10055887 0.053842235
0000a0 37 bd c3 bc a5 aa eb bc 28 75 d0 3b 4d cf 17 bd
       -0.023893936 -0.028767893 0.0063616224 -0.03706293
0000b0 dd 38 0b 3d ae b5 91 bb 2f ee 5b bd 1c 63 a4 bb
       0.033989776 -0.0044467067 -0.053693946 -0.0050166976
0000c0 5e 53 6b bd f8 80 b0 bd 04 bd da bb 55 be e5 bd
       -0.057452552 -0.08618349 -0.0066753644 -0.112179436
0000d0 6d 90 37 bd 85 c4 80 3c a0 1d 18 3d 42 6b 48 3c
       -0.04481547 0.015718708 0.037137628 0.0122326035
0000e0 62 34 23 3d 4a 6a b3 bb 13 74 3a 3c 3d e4 68 3c
       0.039844878 -0.005475317 0.011380213 0.0142145725
0000f0 c5 3c d3 bc 32 34 87 3b 22 52 66 3d 53 e3 cc bc
       -0.025785813 0.004126095 0.05623067 -0.02501074
000100 ca 04 e1 bc e8 28 8f bc 95 75 93 bc f5 f4 9a 3d
       -0.027468104 -0.01747556 -0.018000403 0.07566253
000110 55 f0 56 3c 93 d9 25 bd 95 c9 5e bc fb b8 a8 3c
       0.013118823 -0.040490698 -0.013597866 0.020596018
000120 15 4d 76 3c d5 50 82 bc a7 71 ae bc f0 8f 80 3c
       0.015033026 -0.015907684 -0.021294428 0.015693635
000130 0f ab 55 3d 39 ae 0e 3c cd 26 b9 bc 3c bf 21 3c
       0.052165087 0.00870853 -0.02260151 0.009872254
000140 7f 43 2a bd d2 3d ad ba 22 b0 ab bc 65 22 f9 bb
       -0.041568276 -0.0013217276 -0.02095801 -0.007602977
000150 09 ab f1 3c 24 6b 72 3d a3 ef 1b 3d b7 7c 57 3d
       0.029500501 0.05918421 0.038070332 0.05260917
000160 f5 28 82 bc a9 17 05 bd d5 d8 ea 3c eb da d3 bc
       -0.01588867 -0.032493267 0.028667847 -0.025861224
000170 06 c9 d0 3c 1c 29 23 3d dc 0a de 3c ee 8e 44 3d
       0.02548648 0.039834127 0.027104788 0.04798787
000180 83 91 d7 3b 79 34 3c 3d 88 3b 13 3d 86 bd ed 3c
       0.0065786256 0.04594848 0.035945445 0.029021036
000190 3c cd 01 bc 40 73 b8 3c 58 f6 37 bc 6b af c1 3c
       -0.007922467 0.022515893 -0.0112281665 0.023643216
0001a0 d9 ed 36 3d 11 59 ba bc d0 fc 66 3d f8 2b 96 bb
       0.044660423 -0.022747548 0.056393445 -0.004582878
0001b0 2f 13 ec 3c d2 82 c9 3c 3c 38 5a 3c a6 02 e3 bb
       0.028817741 0.024598513 0.013319071 -0.006927806
0001c0 ed f3 f0 bc 20 48 d0 ba 6e 10 4a bc ae a9 01 3d
       -0.029413188 -0.0015890636 -0.012333019 0.03165596
0001d0 d3 4a 30 3c ec f1 43 3c 60 a6 30 3c 57 6e e6 3c
       0.010760027 0.011959534 0.010781854 0.028128786
0001e0 ca 7c 29 bc d2 54 23 bd 09 82 b3 bd 11 16 27 bd
       -0.010344693 -0.039875813 -0.087650366 -0.04079253
0001f0 b2 ba 96 3c 57 f4 96 3d 77 17 bc 3c 80 1a 19 3d
       0.01839957 0.07370823 0.022960408 0.037378788
000200 e7 67 52 3d 62 07 00 3b 74 47 0c bd ae a3 81 bd
       0.05136862 0.001953565 -0.03424783 -0.063300475
000210 09 26 7d bd 41 c6 2e 3d 65 7d 90 3d c4 97 00 3c
       -0.06180385 0.04266954 0.07055167 0.007848684
000220 dc 18 16 3d 03 57 b7 3c d8 4d 3e 3c d1 be 42 bb
       0.0366448 0.022380358 0.011615239 -0.0029715786
000230 da 98 58 bd 98 79 1b bc 4e d3 02 3d 1d 72 4a 3d
       -0.052880146 -0.009489439 0.031939797 0.049425233
000240 a4 d0 0a bc d1 cb c7 3c b1 fd e0 3c be 42 2b 3d
       -0.008472595 0.02438918 0.02746472 0.041811697
000250 53 92 8f 3c 38 13 60 3d 93 16 55 3d da 96 25 3d
       0.017525828 0.05470583 0.05202348 0.040427066
000260 ae e4 03 3d 14 c3 6d bc b0 0b f3 3c cc f0 61 bc
       0.032200508 -0.014511842 0.029668659 -0.013790321
000270 b3 89 73 bb 1e 60 2c 3d cc 34 ec 3c f6 4e 9e 3c
       -0.0037160933 0.042083852 0.02883377 0.01932476
000280 a7 fc 70 3b 54 31 dd bb 73 0c c8 ba f0 65 cb 3b
       0.0036771686 -0.006750265 -0.0015262499 0.0062072203
000290 3a 12 0a bd c0 e3 80 3c 60 5e 31 3c d6 0c d3 bc
       -0.03370879 0.0157336 0.010825723 -0.025762957
0002a0 56 a7 c0 ba ff e7 22 bd 1a 90 35 3b ce b3 c9 bc
       -0.0014698307 -0.03977203 0.00277043 -0.02462187
0002b0 a9 14 09 bb 47 73 c4 3c b1 dd 32 3d 28 ef af 3d
       -0.0020916855 0.02398075 0.043668453 0.08590537
0002c0 13 86 1f 3d c3 18 fb 3d 4d 4a d6 3c 47 ef 51 3d
       0.038946223 0.12260582 0.026158476 0.051253583
0002d0 86 c4 46 3c ca ff 8e 3d 4a f1 2a 3c 00 24 e1 bd
       0.012131816 0.06982382 0.010433504 -0.109931946
0002e0 40 37 37 be 15 39 8a be b8 88 64 be 6e be 04 be
       -0.1789217 -0.26996675 -0.22317779 -0.12963268
0002f0 e5 36 34 3d 39 9d 03 bd fa 79 ae bc 92 fc 28 bd
       0.043997664 -0.03213236 -0.021298397 -0.041256495
000300 1d 85 86 3c 76 dd d8 3d 38 cb f3 3d 5e 5d a9 3d
       0.016420895 0.10589115 0.11903995 0.082697615
000310 35 ac 89 bb 7d 8b 1f bd 6c e4 36 3b 77 18 6a bc
       -0.004201437 -0.038951386 0.0027907146 -0.014288059
000320 a2 a0 3b 3c 1b ec eb ba 43 9f 01 be 65 aa be bd
       0.011451872 -0.0017999442 -0.1265841 -0.09309844
000330 e2 6d 5a 39 6c 8f c7 3c 2e 1a 74 bc 35 6b 15 3a
       0.00020831035 0.024360381 -0.01489882 0.0005699874
000340 48 48 66 bc 50 c3 dd 3c bb 3a 03 3d 97 6f e0 bc
       -0.014055319 0.027070671 0.03203843 -0.02739696
000350 c6 38 f7 bc 63 eb f5 bc 5e b2 f7 3c ea 15 f8 bc
       -0.030178439 -0.030019468 0.03023642 -0.030283887
000360 85 a6 d9 3c db e7 88 3c 67 6d b5 bc 8b a7 c8 3c
       0.02656866 0.01671212 -0.022146894 0.024493953
000370 60 08 c8 3d ea 5d 80 3d bd e7 cb bc 2e 5f ed 3c
       0.097672224 0.06267913 -0.024890775 0.02897605
000380 c1 7b 56 bb df fa 91 3a 79 d9 4c bc f9 ca 06 bd
       -0.0032727572 0.0011137387 -0.012503021 -0.032908414
000390 cd 0c 76 bc c9 5d 35 3d 22 5c 7e 3d d9 64 10 3d
       -0.0150177 0.044278894 0.062099583 0.035252426
0003a0 32 08 48 bc a6 24 90 ba 42 15 f5 3b 69 63 ab 3c
       -0.012208985 -0.001099725 0.007479341 0.020921426
0003b0 a2 14 a1 bb 07 a6 dc bb de d9 05 bc a3 2c fc bb
       -0.0049157897 -0.006733659 -0.008169619 -0.007695751
0003c0 ba c5 29 bd 7d d7 48 bc 91 db 01 3c cc cd 1c bc
       -0.041448332 -0.012258408 0.007925884 -0.00957055
0003d0 0a ce 86 3b 26 45 2c bd 7e 45 f3 bc 01 b2 68 3d
       0.0041139172 -0.042058133 -0.029696222 0.056810383
0003e0 b7 b5 c7 bc 5a a8 a9 bc 92 b2 4b 3d 7c ff 44 3c
       -0.02437864 -0.02071016 0.049730845 0.012023803
0003f0 75 0f 07 3d 80 c7 c4 bb 23 19 87 bd b7 2a 3d 3b
       0.032973725 -0.0060052276 -0.06596591 0.0028864571

bias f4 [64]
000000 c7 f7 91 ba b0 d7 15 3d f9 79 86 b9 5e 1b b4 3c
       -0.0011136465 0.03658265 -0.00025649348 0.021985706
000010 25 90 94 3b 3f 78 a4 3c 8c 54 94 bc 5b 20 b8 39
       0.004533785 0.020076869 -0.018106721 0.00035119322
000020 44 75 32 3a c0 82 48 3c a2 f6 d2 3b 5a 1f bf bb
       0.0006807635 0.0122382045 0.0064380923 -0.005832595
000030 b9 4c d4 3a 25 6f 86 3c 2d 1f 0a 3d ec 85 16 3b
       0.0016197182 0.01641042 0.033721138 0.0022968007
000040 94 21 5a 3c 67 2f 42 3c 0c f5 84 3b 43 17 d7 b9
       0.01331367 0.011852122 0.004057532 -0.00041025327
000050 31 a3 b9 3b 6a cc 72 3b 48 49 a3 bb 8b 57 1d 3b
       0.005665206 0.003704811 -0.004983101 0.0024008479
000060 87 11 30 3b 77 ab 2f 3c 3d f4 68 3c 32 c1 e9 3b
       0.0026865916 0.010722033 0.014218387 0.0071336264
000070 cb da 0f 3d 7c 9a 92 3c 0d d1 70 3b 34 6d ab 3c
       0.035120767 0.01789593 0.0036745698 0.020926096
000080 f0 94 b4 ba d1 a7 15 3c 17 c4 1d 3b 51 4c 2e bb
       -0.0013777297 0.009134249 0.0024073177 -0.002659578
000090 81 09 7c 3c 43 b8 47 bb df 29 03 3b 0d dd 01 bc
       0.015383125 -0.0030474819 0.002001397 -0.007926238
0000a0 b1 51 34 3c d4 15 6f 3c 0c d3 cf bc 03 b3 ba 3b
       0.011005805 0.014592607 -0.02536919 0.0056976094
0000b0 e3 c7 00 3c 89 a8 ca 3b 9e ff a3 3c 14 3d f2 bb
       0.007860157 0.0061846417 0.020019349 -0.007392535
0000c0 d7 2c 78 3b 09 46 e9 bb d4 51 92 3c 38 d0 98 3c
       0.0037868524 -0.0071189445 0.017861284 0.018653974
0000d0 57 af d7 ba 3b a5 bf 3c a4 24 7e 3b 3e b1 33 3c
       -0.0016455454 0.023394218 0.0038779164 0.010967551
0000e0 49 7b 00 3c fe 28 15 3c 89 c0 a4 3c 08 99 27 3c
       0.0078418935 0.009104012 0.02011134 0.010229357
0000f0 d1 b0 c7 ba 53 62 89 3b 5c d7 f1 bb ff 13 ca 3b
       -0.001523519 0.0041926294 -0.007380409 0.0061669345

weight f4 [32, 64, 1, 1]
000000 68 d5 69 3d ed 19 68 be c2 04 11 be 5c 73 d4 3d
       0.057088286 -0.2266614 -0.14161971 0.103735656
000010 23 73 d9 bd 84 b7 ab 3d 05 ab 7d be 0f 45 80 3d
       -0.10617664 0.08384612 -0.2477227 0.06263172
000020 10 67 29 bd dd 83 13 3e e5 b6 ee bd 96 8d 97 be
       -0.041358054 0.1440577 -0.11655978 -0.2960021
000030 b5 b5 31 3e 9d 13 45 3e 90 40 4e 3e 29 25 64 be
       0.17354472 0.19245763 0.20141816 -0.222798
000040 30 96 3e be d1 f5 11 3d 22 29 1e be dc 73 0b 3e
       -0.1861198 0.03563482 -0.15445378 0.13618416
000050 38 dd b6 bd da 36 64 be 71 a9 38 3e 98 20 2c be
       -0.08928913 -0.22286549 0.18033387 -0.16809309
000060 3a c1 25 3e 45 e6 16 3d 5f cb 93 3d 3b ff 94 bd
       0.16186991 0.036840696 0.07216524 -0.07275244
000070 be 10 05 bd 76 af 6e be 2e 1e 3d 3e ee 85 70 3e
       -0.03248667 -0.2330912 0.18468544 0.2348859
000080 4b ad 60 3e d1 4b 31 be 7d 68 e0 3d 12 7c a5 3e
       0.21941106 -0.17314078 0.109574296 0.3232122
000090 0b 4d c4 bc 77 bd 43 3e a5 d0 c4 bd 60 91 24 3d
       -0.023962518 0.19115244 -0.09610108 0.040177703
0000a0 bd 69 32 be d8 33 b4 bd 82 72 80 3e b9 8e 88 be
       -0.17423148 -0.08798951 0.25087363 -0.2667139
0000b0 2e 89 44 3e 39 60 40 3c bf fb 92 3d 27 b8 42 3c
       0.19192955 0.011741691 0.07176923 0.011884726
0000c0 3a 25 17 3e b1 4f ef bd 6b 29 d4 3d 45 69 be be
       0.14760295 -0.11685122 0.10359462 -0.3718969
0000d0 3c 39 58 be e7 ac 9a be 26 27 30 3e 41 40 db 3c
       -0.21115583 -0.3021004 0.17202434 0.026764037
0000e0 64 a3 69 be 91 2c 7c bd 54 03 63 3e f2 40 a6 bc
       -0.22816235 -0.06156594 0.22169238 -0.02029464
0000f0 dc e8 71 bd f7 94 c6 3d 85 2e ea be c2 90 a0 3d
       -0.059059963 0.096963815 -0.45738617 0.0784011
000100 9e b1 20 bd 60 81 8e 3e 44 10 81 be 07 bd 2a 3d
       -0.03923189 0.2783308 -0.25207722 0.041684177
000110 ff 11 62 3e 3f 93 90 3d 00 5a 58 bf 0a fb 32 be
       0.22077177 0.07059335 -0.8451233 -0.17478576
000120 f6 b6 39 bd 73 2e 14 be b1 00 2b 3d b3 c4 c1 bd
       -0.0453405 -0.14470844 0.041748706 -0.094613455
000130 b4 0e 29 3c 1c 4a 18 be 59 e5 dd 3b b0 c7 4e be
       0.010318447 -0.1487202 0.006771725 -0.20193362
000140 d5 aa 56 be 96 8c 4f 3e d0 d0 9f bd 98 ea 1c 3e
       -0.20963605 0.20268473 -0.078035 0.15323865
000150 79 0e 10 be c6 04 8d 3d a7 02 80 bd 59 19 56 be
       -0.14068021 0.06885676 -0.06250506 -0.20908107
000160 cb 34 45 3d 0b 57 4f 3f de 36 0f 3e 64 e6 36 be
       0.04814605 0.8099219 0.13985774 -0.17861325
000170 39 a1 6a 3c ed 83 54 bd ad d2 3e 3d 5b b1 2b 3e
       0.014320665 -0.051883627 0.046587635 0.16766874
000180 30 58 3e be 11 8d 1d be 2e e5 85 be 53 d9 83 3e
       -0.18588328 -0.15385844 -0.26151413 0.25751743
000190 f5 9b 52 be 5c f8 2e be fd 35 f8 3d 59 a9 4e 3d
       -0.20567305 -0.17086929 0.121196724 0.05045447
0001a0 81 37 bc bd fd e8 b5 3b 9e 78 ec 3d 8b ec 6d be
       -0.09190274 0.005551456 0.115464434 -0.23234765
0001b0 fd 7b 43 3e f5 34 ad 3b c7 90 85 3d ea dd 87 be
       0.19090267 0.005285854 0.06521755 -0.26536494
0001c0 44 dc 19 be a1 b6 03 3e 88 67 48 3e b9 d7 d8 3e
       -0.15025431 0.12862636 0.19570744 0.42352083
0001d0 64 02 89 3e 35 6f c9 bd cf d8 a1 3c 35 48 45 3c
       0.26759636 -0.09835664 0.019756703 0.012041141
0001e0 96 b0 27 3e 3e b8 e1 bd b7 31 6b be d4 41 80 3e
       0.16375956 -0.110214695 -0.22968183 0.25050223
0001f0 54 16 e5 bd a1 28 63 bc 2d b7 58 3e e2 b0 11 be
       -0.111858994 -0.013864667 0.21163626 -0.14227632
000200 91 65 c4 be 87 3a 9d 3e 6c e8 5e 3e a6 80 8b 3e
       -0.3835874 0.30708715 0.2176835 0.27246588
000210 75 14 dc bd f8 33 ca bd d8 30 f1 3e e9 e6 51 be
       -0.10746089 -0.098731935 0.47107577 -0.20498241
000220 a5 99 1c bf 24 21 9e 3e 7a 9e 3f 3e 1e 6e f1 3d
       -0.6117194 0.3088466 0.18712798 0.11788581
000230 0f 82 24 3e ea 6d 54 bd a7 e8 56 3e 16 56 92 bd
       0.16065238 -0.051862635 0.20987187 -0.07145326
000240 a1 90 40 3d 82 fe ab 3e 55 be 29 be 87 b2 e2 3d
       0.04701293 0.33592612 -0.16576512 0.11069208
000250 d0 e9 04 bf 58 5c 1b be 1e cf f3 bc 2b 2f 9e bd
       -0.5191927 -0.15171945 -0.029761847 -0.0772384
000260 bb 1f 58 be 31 c6 39 3c ed 85 a3 be 42 9a 35 be
       -0.21105854 0.011338756 -0.31938115 -0.17734626
000270 9d 8a 91 3e 35 51 e5 3e a7 17 6c be 50 23 9a bd
       0.28426066 0.4478852 -0.23055898 -0.075262666
000280 87 78 43 3f d8 57 b7 3b 82 a6 23 bd 0c e8 fd be
       0.76355785 0.0055951886 -0.039953716 -0.495911
000290 2b 61 62 be 48 7c cf bd 52 0a d8 3d 01 ad 22 be
       -0.22107379 -0.10131127 0.105488434 -0.15886308
0002a0 da d6 83 bd 43 8b 85 3f 1f ae 0f bf 80 2f 76 be
       -0.06437464 1.0433124 -0.5612506 -0.24041557
0002b0 0d 83 92 bd 3b f2 8c 3e fa 36 1c 3f 1f 8c 16 3f
       -0.07153902 0.27528557 0.6102139 0.5880756
0002c0 c8 16 9a be 02 2d a9 bd 91 4b 92 bd 8c 6c 45 bf
       -0.30095506 -0.08260538 -0.071433194 -0.77118754
0002d0 d4 3b 3c 3e 59 6e 7e be cb e7 85 bc 43 e0 09 be
       0.18382198 -0.24846782 -0.016345879 -0.13464455
0002e0 6e bb 94 3e c7 68 74 3e b2 83 bb 3d 32 d4 a6 3e
       0.29049248 0.23868094 0.09155978 0.32583767
0002f0 19 d7 15 3e 89 d7 d2 bc 40 fe 97 be 48 f7 95 be
       0.14632834 -0.02573754 -0.29686165 -0.29290223
000300 f5 0a a1 3e dd 6d b7 bd 0a ba 56 be 75 b8 a3 3e
       0.31453672 -0.08956502 -0.20969406 0.31976667
000310 fe f3 e4 3d 24 21 3f be 99 a9 e2 bd cb 1f 8a be
       0.1117935 -0.18664986 -0.110675044 -0.2697738
000320 05 1e cf 3c 83 0e 0c be 55 3a 18 3e c1 8f ee 3d
       0.02528287 -0.13677411 0.14866002 0.11648513
000330 8c ee 1a be 85 eb 6f 3e da ed 4e be 6a ad 15 3e
       -0.15130061 0.23429687 -0.2020792 0.14616933
000340 79 ed dc 3a 88 ee 38 bc 98 2f 45 be 9f 50 4f 3e
       0.001685544 -0.011287339 -0.19256437 0.20245598
000350 d0 f6 90 be f0 81 a9 3e f3 bf 26 bf 35 e8 a4 3d
       -0.28313303 0.33106947 -0.6513664 0.080521025
000360 d7 00 3c 3e 49 e1 9c 3e d4 4d b9 3e e6 29 73 3e
       0.18359695 0.3064063 0.3619219 0.23746452
000370 ad f7 ac 38 c7 30 71 3e 12 c2 68 bd 62 00 df 3e
       8.247732e-05 0.23553763 -0.056825705 0.4355498
000380 c1 f0 05 3e dc 6a 55 be e1 61 b6 be fe c1 fc 3d
       0.13080122 -0.20841545 -0.3562155 0.123416886
000390 6b 69 6c 3e 08 cb b1 bd be 2b 3a be 5e d2 2b 3e
       0.23087089 -0.08681303 -0.18180749 0.16779467
0003a0 c3 9f bd 3d c9 a5 d7 be c7 ed c6 3d 6a 62 57 3e
       0.09258988 -0.42118672 0.09713321 0.21033636
0003b0 ce 5d 96 3e 34 f2 d8 3b 83 f7 aa be 7f 37 1d bf
       0.29368442 0.0066206697 -0.3339196 -0.61412805
0003c0 f0 e2 f6 3d d3 67 81 be 4d e8 90 bd b6 4e 39 3e
       0.12055004 -0.25274524 -0.07075558 0.18096432
0003d0 96 14 b3 3d b4 76 09 3d 9e 15 45 be ff c6 5b 3d
       0.08744161 0.03356047 -0.19246528 0.053656574
0003e0 d8 03 c4 be 53 12 a6 be 5e d7 1c be 25 5c 7e 3e
       -0.38284183 -0.32435855 -0.15316531 0.24839838
0003f0 00 b6 89 be 0d bf 75 be 39 bf 14 bf 7b be cd 3d
       -0.26896667 -0.23998661 -0.5810428 0.10046097

bias f4 [32]
000000 63 1a 90 bc 33 b4 8f bc 8d c3 f2 3c b9 70 1b bd
       -0.017590707 -0.01754198 0.029634262 -0.037949298
000010 b1 84 dd 3a 48 31 0f 3c 2c 69 2b bb d2 96 1a 3a
       0.0016900507 0.008739777 -0.0026155217 0.0005897108
000020 b2 15 14 bd 75 e3 c8 bb 44 79 1f bc 65 d0 9d 3b
       -0.036153503 -0.0061306306 -0.009733502 0.0048161023
000030 2d 0d e3 bb fe ca 28 3c 15 5e b6 3b d7 d8 f7 ba
       -0.006929061 0.010302303 0.0055654147 -0.0018909228
000040 21 4f 0b 3c 99 b6 2b 3c ac 36 e0 3b 56 8b 77 3b
       0.0085027525 0.010480546 0.006842455 0.003777226
000050 01 62 72 bc d4 fe 4e 3c 77 4a cc 3c 0f da 20 3b
       -0.014793874 0.012633998 0.024937851 0.0024544036
000060 ad 2e 9b 3a 77 a4 72 ba 33 4a ea bb 06 20 6d ba
       0.0011839472 -0.00092560746 -0.0071499585 -0.00090456044
000070 40 68 9d ba 1a cc 3c 3c 93 22 89 3b 64 91 d1 bb
       -0.0012009218 0.011523271 0.00418503 -0.0063955057

weight f4 [1, 32, 5, 5]
000000 69 95 78 bd fd fd 93 3d 9e c8 b4 bd 3f c0 a5 bd
       -0.060689364 0.07226179 -0.08827327 -0.08093309
000010 1e 82 ad bc 18 4f 52 bc 27 14 1f bc f7 ae 08 3d
       -0.021180209 -0.01283624 -0.009709395 0.033369984
000020 b3 a1 3a bc c1 bf c2 3d 93 80 aa 3d 2e 82 4f 3d
       -0.011391091 0.095092304 0.08325305 0.05066126
000030 9f 46 c8 3c 91 b1 8a 3a 7d e4 8a bd 30 29 00 bd
       0.024447737 0.0010581483 -0.06781862 -0.03128928
000040 e5 11 38 3d 95 64 d8 bc 88 b9 e9 3c ea 04 48 3d
       0.04493894 -0.026415149 0.028530851 0.04883281
000050 3e 61 76 3d 60 48 2d 3a ae b3 89 bd 2c 8a ac bd
       0.06015133 0.0006610211 -0.06723724 -0.08424792
000060 d6 79 80 bd 9c e0 46 3d 50 6c 7f bd df f1 1b 3d
       -0.06273238 0.048554048 -0.062359154 0.038072463
000070 46 b9 c7 3d 7b ce 4a 3d 0d de ef bc af f5 b1 bc
       0.09752135 0.04951332 -0.029280687 -0.021723596
000080 91 08 00 bd 50 a2 3f 3d ba 86 08 3c e5 46 b8 bd
       -0.03125817 0.046785653 0.008332903 -0.08997897
000090 3d e8 a6 bd 7e 84 e7 3d c4 77 a7 bd 3f ef 66 bd
       -0.08149765 0.11304568 -0.0817714 -0.056380507
0000a0 10 9e 49 bd de 24 43 3d 90 ff a9 bd d4 87 5e bd
       -0.049223006 0.04764258 -0.08300698 -0.054328755
0000b0 79 e3 55 bb 16 51 04 3d de 2d be bc 32 c7 c0 bc
       -0.0032636805 0.032303892 -0.02321523 -0.023532484
0000c0 27 84 b8 3d 60 86 63 3d 49 0f 92 bb 8b 60 99 3d
       0.09009581 0.05554807 -0.0044573885 0.07489117
0000d0 a3 a2 8c 3d b4 72 00 3c 69 39 8c 3c a6 8d 58 3c
       0.06866958 0.007839847 0.017117219 0.013217365
0000e0 1d fa 78 bd 5c a3 10 be ea 82 5e bd fa 9e 81 bd
       -0.0607854 -0.14124817 -0.054324068 -0.063291505
0000f0 bc d8 a1 bc 6b 21 39 bd 39 dc 4c 3e 0e 7c bd 3d
       -0.019756667 -0.045197885 0.20005883 0.09252177
000100 87 a4 b3 bc 78 e0 39 3c 8f 72 6d bd ab 13 80 3d
       -0.021929039 0.011345021 -0.05797058 0.06253751
000110 ca 47 6f 3d 82 cc 98 bd 5a 50 b8 3c 4e 50 a2 bc
       0.058418073 -0.07460882 0.022499252 -0.019813683
000120 40 0c f7 bd 3f b9 11 3b 3c 3d a8 bc ff f5 90 bc
       -0.120628834 0.002223566 -0.020537011 -0.017695425
000130 77 cb 2d bd 05 42 0a 3c a3 c5 e4 3c fe 59 99 bc
       -0.042430367 0.008438592 0.027926272 -0.01871967
000140 9b de 27 3c 1e ca 62 bd b4 98 22 3d 46 46 11 3d
       0.010245944 -0.055368535 0.03969641 0.03546741
000150 3d d0 b5 bc b8 e5 b8 bd a8 93 b0 3d e3 2c 30 3e
       -0.022194022 -0.090281904 0.08621913 0.17204623
000160 80 2a 59 3d 57 20 c1 bd b5 9d 63 3d d3 46 9e bd
       0.053019047 -0.094299965 0.055570323 -0.077283524
000170 28 a5 4d 3d 22 07 33 bd 12 78 12 bc 28 83 0e bd
       0.050206333 -0.043707974 -0.00893976 -0.03479305
000180 c4 2a 39 3b 1e 7c 0d 3d 18 ca f3 3c 16 f2 3d bd
       0.002825425 0.034542195 0.029759452 -0.04637345
000190 26 63 3a bc 42 e0 46 bd 50 c8 02 3c c4 2c 39 3d
       -0.011376178 -0.048553713 0.0079823285 0.045208707
0001a0 44 2b d3 bc 31 77 98 bc 1c c4 09 3d ae ec 31 bd
       -0.025777467 -0.018611522 0.03363429 -0.043438606
0001b0 e4 e1 a5 bd 88 60 04 3d d5 dd a5 3b 5a 74 9b 3c
       -0.08099726 0.032318622 0.005061845 0.01897638
0001c0 d6 8d cb 3c e8 d2 83 3c 2b 76 13 3c 91 1d 24 bd
       0.024847906 0.016091779 0.009000341 -0.04006726
0001d0 fe 1f 81 3c 57 8a 62 3d 6b fe 21 3d a4 bd 94 bd
       0.015762325 0.055307712 0.039549273 -0.072627336
0001e0 58 65 4e bd 57 a3 06 3d 73 fe 3e 3d 2a 81 8a bd
       -0.050389618 0.032870617 0.04662938 -0.06762917
0001f0 f9 a1 e1 bc cb 29 82 3d da 8e 24 3d 37 d6 f6 3c
       -0.027543055 0.063556276 0.040175296 0.030131442
000200 34 44 8d bd c1 c0 4e 3d 2b f7 25 bd c9 68 45 3d
       -0.06897774 0.050476793 -0.04051892 0.048195634
000210 a6 31 3b 3d fb d3 90 3c 13 7b 90 3b 28 84 1a 3d
       0.045701645 0.017679205 0.004409203 0.03772369
000220 b5 87 3e 3d 8e eb 78 bc c5 bb 5a 3d 64 15 20 bd
       0.04651614 -0.015192879 0.053401727 -0.0390829
000230 3f d5 a6 bd 6f 13 fa 3c 9c 59 aa bc e5 0f 38 bd
       -0.08146142 0.030526845 -0.020794682 -0.044937033
000240 61 3e a2 3d e1 17 59 3d 01 e7 f6 3c f3 06 ca bc
       0.07922054 0.05300129 0.030139448 -0.024661517
000250 49 96 53 bd 94 a3 4b bd 16 30 64 bd 84 ed 77 3c
       -0.051656995 -0.049716547 -0.05570992 0.015132312
000260 ac 2e ff bc 9a df c5 3c 69 99 ff bc b9 46 b4 bd
       -0.031150185 0.024154473 -0.031201081 -0.08802552
000270 46 70 11 3d ed b2 17 bb d9 c0 c8 bd 61 28 f0 3b
       0.035507463 -0.002314742 -0.09802408 0.0073290323
000280 f6 b4 19 3d 95 7e f4 3d 0c b9 70 3d 0d b8 b3 bc
       0.037526093 0.11938206 0.058770224 -0.021938348
000290 e3 d3 11 3d 5a 10 47 bd df d4 28 3d f0 57 41 bd
       0.03560246 -0.04859958 0.041218635 -0.047203004
0002a0 f6 90 57 bd 70 ff 7f bc c7 7d 6e bd a2 d6 8d 3d
       -0.05262848 -0.015624866 -0.05822542 0.069257036
0002b0 30 9c c1 bc c0 15 ab bc 14 bb 0b 3d 40 82 8d 3d
       -0.023634046 -0.020884395 0.03411396 0.06909609
0002c0 ee 88 3b 3d cf b3 48 bd 85 c8 c9 bc 8f 00 43 bc
       0.045784883 -0.048999604 -0.024631748 -0.011901989
0002d0 3b 9d a1 3d 76 bf 42 bc 1d df 99 bd d9 9a 5e 3c
       0.078913175 -0.011886468 -0.075132586 0.013586723
0002e0 38 e4 3b 3b 6c 0a a2 bb 91 a4 86 3d 97 52 94 bd
       0.0028669965 -0.00494509 0.06574357 -0.07242315
0002f0 90 0f 1e 3d 9e cd 8f 3d 9d a3 4f bd 8d 62 a5 3d
       0.03858906 0.0702164 -0.050693143 0.08075438
000300 56 8d 42 3d 3d 20 00 3d a3 c6 9d 3d df 53 13 bd
       0.04749807 0.031280745 0.077039026 -0.035968658
000310 72 d9 9b 3d a2 c2 ac 3d 8d 25 1e bc c3 b5 7f bd
       0.07609834 0.08435561 -0.0096525075 -0.0624292
000320 cb f4 60 3d be 0e 53 3d c4 aa 81 ba ad 38 26 3c
       0.054920953 0.05152773 -0.0009892811 0.0101453485
000330 fe a9 86 3b 6d 0a ee 3c b3 ca a6 3d 1c b3 2c 3d
       0.00410962 0.029057706 0.081441306 0.042163
000340 c2 63 85 3d ae ab 55 bd 80 9c a7 bd 85 eb 53 bc
       0.06513168 -0.05216568 -0.08184147 -0.01293457
000350 7e e5 72 bd ab 22 9f 3d fa 11 66 3d 6f 47 9f bd
       -0.059300892 0.07770284 0.056169488 -0.07777297
000360 61 b0 4e 3c e5 20 84 bd 74 01 2a bc d2 bf 93 3d
       0.012615294 -0.06451587 -0.010376323 0.07214321
000370 25 97 7c bd 7d 13 69 bb fb 14 5c bd 40 22 56 3c
       -0.06166758 -0.0035564594 -0.053730946 0.013069689
000380 db 25 8a bd f3 2f ad bd 2d 4b a4 3d 25 71 37 bd
       -0.067455016 -0.08456411 0.08022151 -0.044785637
000390 9b 42 cb bc 41 cd ab 3d cd 13 3e 3d 50 fe 1d bd
       -0.024812033 0.083887585 0.046405602 -0.03857261
0003a0 fc 0e 7a bc 1b 39 fc bc f7 f2 9f bd 89 8d 55 bd
       -0.015262362 -0.030788949 -0.07810014 -0.05213693
0003b0 38 dd 1b 3c fe f6 69 bc 91 fc 7d bd 48 6e 8f bd
       0.009513192 -0.014280079 -0.062008444 -0.07003456
0003c0 1f e9 0e 3c c7 ea 0b 3d 1f 28 8a bd 82 1f ba 3c
       0.008722573 0.034159448 -0.06745934 0.022720102
0003d0 21 a7 72 3d af fd 98 bd ba 7f 6b 3d 6e 1b 95 bc
       0.059241418 -0.07470261 0.057494856 -0.018201556
0003e0 6c 2a af 3c 77 cf 96 3d 01 ee 3b bd 26 4a 85 3c
       0.021382533 0.073637895 -0.045881275 0.016270708
0003f0 64 3a 32 3d 21 7f a7 3d 31 cb 57 bc 1c 46 42 3c
       0.043512717 0.08178545 -0.013171003 0.011857536
