modeldata/model_137_epoch.pth (torch_old, 43016 bytes, 5 tensors)

weight f4 [64, 1, 9, 9]
00000000: 97ba 223d b1f1 233b 04c7 a43c 2676 133a
00000010: c28e 0abd 8028 2cbd 4213 203d 9e48 98bb
00000020: d88e dbbb 94bb 67bc 3118 ba3b 6133 bc3b
00000030: 6ab5 7dbc 7501 0abc 43a7 af3c 15b6 e23c
00000040: 7f43 0f3c 3b3a 47bc cebc f53b fb72 d6bc
00000050: 7eed 983c b230 96bb b885 02bd 1dee 0cbc
00000060: 9821 7f3b f71e 0a3d bab4 c03b cf25 e0bc
00000070: b484 013d 564c 5e3d 26e5 ec3c 7540 d6bc
00000080: 4969 85bb f62f 0bbc d1ea 4dbd 567a b73c
00000090: ccd6 69bb 4df4 153d 1222 c53d 748f 493d
000000a0: 4d0c c9bc 7ad4 fbbc 810c 053c f03e 06bd
000000b0: 28ce 123d f2a0 65bb 718b 50bd fa41 1cbb
000000c0: e442 52bd a949 a7bd d1a5 f1bb a69e dbbd
000000d0: 4dab 2ebd 61ea 813c c5d2 133d 2e1f 363c
000000e0: 0b27 233d 4883 5bbb 0df2 f83b 69ee 163c
000000f0: d7b1 c9bc 642d 1b3b b7af 693d d401 cbbc
00000100: fe68 dcbc 9381 82bc 1e04 86bc fcc7 913d
00000110: 9682 363c ba9b 1bbd 84c7 6fbc 7678 ca3c
00000120: 9169 463c 010f 84bc 0b6a 96bc 054f 9f3c
00000130: ebf0 513d 3c8c 323c 5a12 c0bc 551f 933b
00000140: f32b 22bd 3ab3 dbba 5240 abbc 6ab3 f4bb
00000150: 72cf f23c 5573 733d 3196 1d3d fa33 583d
00000160: a7e6 80bc 8520 05bd fd93 e93c eb57 d4bc
00000170: c667 d03c 648f 223d fca7 dd3c 1370 453d
00000180: fa1b d83b 4d47 3c3d ab9b 133d 9958 ee3c
00000190: 6690 03bc d913 b83c 0cd4 38bc 55c9 c13c
000001a0: 3930 373d 39f1 babc 3af7 663d 6e99 95bb
000001b0: 723a f03c fc14 c93c 63c5 583c 3976 e2bb
000001c0: 28ce efbc 0433 e3ba 9180 4ebc 2b18 023d
000001d0: c390 323c 9d9d 473c a16f 303c 49ac e53c
000001e0: 0e5a 29bc 4c8a 22bd 36a1 b3bd 3471 28bd
000001f0: e7da 963c 3854 973d 850c bc3c 042a 193d
00000200: 1005 523d a497 ee3a bc6a 0cbd 59bd 81bd
00000210: a916 7ebd dda7 2e3d 2cbe 903d a4b0 fa3b
00000220: 261f 163d b701 b63c c478 393c c342 50bb
00000230: 107f 59bd 9fdc 1fbc cc4d 023d 6c9c 4a3d
00000240: 29bb 10bc 3408 c73c e476 e03c f300 2b3d
00000250: ba53 903c 69df 5f3d 57a3 543d 8759 253d
00000260: 403f 043d 92ba 6ebc de96 f13c 5781 65bc
00000270: ab9d 77bb c7a4 2d3d bf2e ee3c 468b 9e3c
00000280: 1ed6 623b 3374 e2bb f7f1 85bb 21f4 4a3b
00000290: 0f68 0abd 23ce 963c e8e0 723c 3fb6 bfbc
000002a0: eb4d b1bb 8d4a 1fbd 6813 5a3b 0182 84bc
000002b0: 6531 9b3a 4344 da3c d6e0 323d cc86 a43d
000002c0: f29f 0c3d fda8 eb3d 5bee d53c 95dc 5c3d
000002d0: 585b 603c 2c3f 833d cd25 e53b 31e0 dcbd
000002e0: 4611 31be 1ea4 83be 06bb 5ebe 61d9 03be
000002f0: 0494 0e3d f6d7 f4bc 66ec 9abc dcd9 1abd
00000300: f41d 953c eafa d23d 5f88 e03d b999 a63d
00000310: 976f 20bb a0d6 20bd 5030 a23a 4b5a 88bc
00000320: 9ef7 ce3b 3a25 11bb aeed f0bd 191f b6bd
00000330: 7090 a83b 3a9a bb3c 32d9 7bbc b290 073b
00000340: 40c9 43bc c0e1 d03c ddf0 e33c ba48 f1bc
00000350: 849c 04bd 975d debc 15e5 f43c 8556 febc
00000360: 448e dc3c fffb 8f3c 8c51 afbc 4242 b73c
00000370: d1b7 bd3d 4fb4 753d 289b bdbc b634 ef3c
00000380: 3187 bebb d323 733b 80c2 3dbc 2870 01bd
00000390: cedf 55bc b50f 393d f70a 813d 7f7d 1b3d
000003a0: b306 19bc 0d9f 86ba 1b71 283c 9e69 a03c
000003b0: aaf2 f2bb 6a0b fdbb 707c dabb a8f9 e8bb
000003c0: fe33 26bd fbb3 3cbc a71d c23b 6c70 32bc
000003d0: bd5e ad3b dd18 2abd 6c8a e1bc 0dad 673d
000003e0: 32bf d3bc 2854 acbc b870 4e3d 041b 813c
000003f0: 8ac1 f33c 47ed cdbb 0ad9 85bd a7a1 913b
0.039728727 0.0025015885 0.02011443 0.00056252105 -0.03382755 -0.04203081 0.039080866 -0.0046473285
-0.006700378 -0.014143843 0.0056791534 0.0057434295 -0.015485147 -0.008423199 0.021442061 0.027674714
0.00874412 -0.012159879 0.007499314 -0.026177874 0.018667933 -0.0045834417 -0.031865805 -0.0086016925
0.0038929936 0.033720937 0.0058809193 -0.027361779 0.031620696 0.05427202 0.02891786 -0.026153782
-0.004071389 -0.0084953215 -0.050272767 0.022397202 -0.0035681007 0.036609937 0.09625639 0.049209073
-0.024541998 -0.030740965 0.008120657 -0.032774866 0.035841137 -0.0035038558 -0.05091423 -0.0023843036
-0.051333323 -0.081683464 -0.007374503 -0.10723619 -0.042643834 0.01585883 0.036089677 0.011115832
0.039832156 -0.0033494998 0.007597214 0.009212115 -0.024620933 0.0023678178 0.05705234 -0.024781145
-0.026905533 -0.015930926 -0.016359385 0.07118222 0.011139533 -0.03799031 -0.014634971 0.024715643
0.01211013 -0.016120436 -0.018361112 0.01944686 0.051255148 0.010897692 -0.02344625 0.004489819
-0.039592694 -0.0016761788 -0.020904694 -0.007467677 0.029639933 0.05943616 0.03847331 0.052783944
-0.015734984 -0.032501716 0.02851295 -0.025920829 0.025440108 0.03968753 0.02705764 0.048202585
0.006595132 0.045966435 0.03603713 0.029094981 -0.008030033 0.022470402 -0.011281025 0.023655573
0.044723723 -0.022820102 0.056388117 -0.0045654094 0.029324744 0.024546139 0.013230654 -0.006911066
-0.029273108 -0.001733393 -0.012603895 0.03176133 0.010898772 0.012183574 0.010768802 0.028036254
-0.010336412 -0.03968267 -0.08770983 -0.041123584 0.018414928 0.0738911 0.022955189 0.037393585
0.05127436 0.0018203151 -0.034281477 -0.06334943 -0.06203333 0.042640556 0.070675224 0.0076504517
0.0366508 0.022217615 0.011320297 -0.0031778074 -0.053099692 -0.00975719 0.031812474 0.04946558
-0.008833685 0.024295904 0.027400441 0.041748952 0.017618049 0.05465642 0.051913586 0.040368583
0.032286882 -0.014570849 0.029490884 -0.014007888 -0.0037783186 0.042393472 0.029075025 0.01935352
0.0034612487 -0.0069108247 -0.0040876823 0.0030968266 -0.033790644 0.01840884 0.01482413 -0.023402331
-0.0054109 -0.038889457 0.0033275727 -0.016175272 0.0011840282 0.026643878 0.04367145 0.08033523
0.034332223 0.11506841 0.026114633 0.0539213 0.013693653 0.064085335 0.0069930316 -0.107849486
-0.17291746 -0.2571115 -0.21751031 -0.12875892 0.034809127 -0.029888134 -0.018911552 -0.037805423
0.01820276 0.10301764 0.10963511 0.08134789 -0.0024480575 -0.039267182 0.0012374017 -0.016644618
0.0063161394 -0.0022147433 -0.11764084 -0.0889265 0.0051441714 0.02290069 -0.015371608 0.002068561
-0.011949837 0.025498271 0.027824814 -0.029453624 -0.032375827 -0.027144236 0.029894391 -0.031047115
0.026923306 0.017576216 -0.02140119 0.022370461 0.09263576 0.05998641 -0.023145273 0.02919994
-0.005814456 0.003710021 -0.011582017 -0.0316011 -0.0130538475 0.045180995 0.063009195 0.03796148
-0.009339976 -0.001027079 0.010280873 0.019581612 -0.0074141817 -0.007722308 -0.006667666 -0.0071098395
-0.040576927 -0.01151752 0.005923945 -0.010891061 0.0052908347 -0.041527618 -0.027531825 0.05656152
-0.025848005 -0.021036223 0.050400466 0.015759952 0.029755373 -0.006284389 -0.065355375 0.0044443193

bias f4 [64]
00000000: a5ef a2bb b7ba 153d 8b3c 51ba 8ddc b83c
00000010: 41ea 923b 5d95 a33c dd0d 97bc b9ec ffb9
00000020: b39f 183a 3b8f 403c f7c0 d13b 28bf e4bb
00000030: b96a c13a 6fd3 863c 1d1b 0a3d d855 163b
00000040: f7a9 4c3c 1a1a 253c 647a 833b b8be 603a
00000050: c47f af3b 5881 873b 564e 8cbb 2936 0e3b
00000060: 55fb 2c3b 273b 223c 933b 693c b696 e53b
00000070: 7c3c 0d3d 04ad 9c3c 80b0 673b 3d79 8b3c
00000080: 021b 77b9 3564 113c af7a 273b b401 20bb
00000090: bc80 7e3c b6a8 44bb 2aff 0a3b 6dfd c3bb
000000a0: 2d9f 303c e872 7a3c 7421 cabc b633 b73b
000000b0: 17a2 d73b 8513 d03b ee00 a93c 57b7 febb
000000c0: 0d0c 843b b892 9bbb 1d4a 913c 9985 863c
000000d0: 9734 c8ba d9d6 ba3c 6203 7e3b 70e6 303c
000000e0: a5c4 fc3b f4b3 123c 2553 a23c 4199 1c3c
000000f0: 5ee7 2439 307c 893b c25a fabb 0c64 833b
-0.0049724155 0.03655502 -0.0007981739 0.022566104 0.0044834916 0.019968683 -0.018439228 -0.00048813762
0.0005822137 0.011752899 0.006401177 -0.0069807954 0.0014756537 0.016458241 0.033717263 0.002293935
0.012491695 0.010077024 0.004012393 0.0008573341 0.005355807 0.004135292 -0.0042817993 0.0021699762
0.0026394923 0.009901798 0.014235395 0.0070064915 0.03448151 0.019125469 0.0035353005 0.017025584
-0.00023565817 0.008873989 0.0025555303 -0.0024415078 0.015533622 -0.0030007786 0.0021209219 -0.0059811384
0.010780138 0.015286185 -0.024674155 0.005590881 0.006580602 0.006349983 0.020630326 -0.0077733207
0.004029757 -0.004747715 0.017735535 0.016421126 -0.0015274462 0.022807525 0.003875934 0.010797128
0.0077138715 0.008954037 0.019815037 0.009558023 0.0001572645 0.0041957125 -0.0076402137 0.0040097293

weight f4 [32, 64, 1, 1]
00000000: 0d5a 043d 7a64 68be 9584 21be b022 ee3d
00000010: 2349 e0bd da48 ac3d 9b42 78be 3bab 833d
00000020: 43f9 25bd e2b0 093e 8db1 f0bd 7cfa 93be
00000030: 6ee6 303e 3ac7 413e 3026 503e 9964 63be
00000040: e47b 3dbe b9ff 063d 2531 1ebe 3544 0b3e
00000050: de2d 59bd f60f 67be 3db9 393e a5fa 28be
00000060: 49a3 243e 5f65 293d 581d 8a3d 8cec 9cbd
00000070: ab71 07bd d016 6fbe 8d75 3b3e 4b6c 673e
00000080: 50c2 503e c0a1 31be e4ba e03d 90c2 9a3e
00000090: f907 c8bc c034 433e 78d3 c1bd 3a7d 9b3c
000000a0: f5e8 30be 1f51 60bd b5fa 813e 364e 88be
000000b0: 4916 423e b438 a43c ff90 933d 3cb0 cb3c
000000c0: e71b 173e b1e9 debd 8cfe d53d cc00 adbe
000000d0: 206f 57be eaa7 9abe adfb 2e3e 8b49 b93c
000000e0: da5d 68be 65c1 7abd 5097 603e ac63 b4bc
000000f0: 6249 6dbd d4b6 c33d 7e77 e4be de57 a13d
00000100: 6fc5 30bd 9c13 903e a794 4cbe 910b 1e3d
00000110: bf8d 5d3e f371 903d 5ec2 51bf 3cfa 2ebe
00000120: ddc1 15bd 337e 21be a4fc 1a3d c5fb b7bd
00000130: b247 243c 3e02 1dbe f505 a93b cfbc 4ebe
00000140: 585c 56be 6527 4c3e 06bb 9fbd 6cf8 1a3e
00000150: a75c 1cbe 3058 873d 5c16 80bd f581 5abe
00000160: 9008 3e3d fd80 4a3f 184c 113e be98 33be
00000170: 594d 853c ceb0 72bd dcdb 393d c924 2f3e
00000180: 9f24 20be dc68 1bbe e1df 83be 43cf 873e
00000190: 43eb 4dbe 87bd 2ebe f7e3 f73d a5d8 e0b9
000001a0: f727 bebd 4b22 413c 4bd7 ed3d 57db 6bbe
000001b0: f5f8 3f3e 5ea3 223a 9db6 1a3d 3c8c 80be
000001c0: 3d45 13be d1e5 0a3e a698 483e dccb be3e
000001d0: ec72 863e 5fd5 cdbd 5e71 a63c c01e 1e3c
000001e0: ee71 223e b915 d6bd c14f 67be 1b4c 7b3e
000001f0: 392f e5bd b1d0 63bc 6f2f 4a3e 3867 0ebe
00000200: f00f b3be a0ae 9d3e 5cf4 763e 265b 853e
00000210: 77b1 d9bd ad69 c5bd 9ddf ec3e b278 50be
00000220: dea5 1cbf b9ae a03e e770 413e 714e 003e
00000230: 46fa 243e e1c6 62bd 700e 573e d584 87bd
00000240: 3c99 3b3d 2402 a93e 2c3e 2abe 608b e73d
00000250: 0119 03bf 4266 20be 5fae d9bc 3be3 9ebd
00000260: 2b3d 54be 9c07 be3c 9d5d a1be f3e2 37be
00000270: 0b94 903e 0c2e d73e 331c 71be aad8 98bd
00000280: 435f 333f 54e5 833b 2ef3 28bd 5031 ecbe
00000290: f06a 5ebe c655 c7bd 3576 e03d 9546 11be
000002a0: 0607 8cbd f356 823f 87f1 08bf fbd1 71be
000002b0: bc78 83bd 4303 8c3e 84bf 0d3f 6222 173f
000002c0: 7fbf 9bbe 8b78 e7bd 6df6 8fbd b0fe 2fbf
000002d0: fa6d 3b3e 6054 81be 9956 65bc b217 0ebe
000002e0: c2f6 8e3e f558 723e d5fc bc3d c6b7 a33e
000002f0: 85f4 0b3e 3ae5 0abd 3904 90be 7a32 93be
00000300: 7fb5 983e 9597 c0bd f1db 44be f77b 9f3e
00000310: 4eae ec3d 344c 3ebe 13df bdbd aa56 8abe
00000320: 3775 c03c 89a0 17be a0d9 153e 047b ff3d
00000330: 1862 1abe e7a8 6d3e b9be 56be 4f1c 083e
00000340: 5b1a 1f3b 67dd a5bc 84e0 40be 96c5 3d3e
00000350: 856d 89be 8b7d a53e 6ff0 26bf e468 873d
00000360: 04ea 403e a822 a13e b561 b63e 8abb 783e
00000370: 3b41 19bb 2d2e 693e fa3d 7abd a462 d73e
00000380: 6c19 d63d 8e6e 56be a7da b1be 90cf d93d
00000390: 35dc 6c3e 46cb aabd 0740 3abe 546f 2f3e
000003a0: aa62 b73d 71cd cebe 78ec d53d 92d5 4f3e
000003b0: 0be6 933e 1b5c 873c 1f3d 99be b4e8 13bf
000003c0: 31bd ff3d 5fb7 80be f688 93bd c091 2e3e
000003d0: 4f9d b43d 4f9b 083d 1109 44be c2ac 4f3d
000003e0: 3fbf c6be 292c a3be 7f39 1bbe bf00 803e
000003f0: e47c 86be 1f73 6bbe 1764 0fbf 456e c13d
0.03231244 -0.22694579 -0.15773232 0.1162771 -0.1095145 0.08412333 -0.24244158 0.06429144
-0.040520918 0.13446382 -0.11752615 -0.28902042 0.17275402 0.18923655 0.20327067 -0.22206344
-0.18504292 0.03295872 -0.15448435 0.13600238 -0.053022258 -0.22564682 0.18137069 -0.16501863
0.16077913 0.04135644 0.06743878 -0.07662305 -0.033067387 -0.23348546 0.18306561 0.22599904
0.20386624 -0.17346859 0.109731466 0.30226564 -0.024417864 0.19063091 -0.094641626 0.018980611
-0.17276366 -0.054764863 0.25386587 -0.2662217 0.18953814 0.02004657 0.0720539 0.024864309
0.14756738 -0.10884417 0.104489416 -0.3378967 -0.21038485 -0.30206233 0.17088194 0.022618076
-0.22692052 -0.06121959 0.21932721 -0.022020184 -0.05793131 0.09556356 -0.44622415 0.078780875
-0.043157037 0.2813996 -0.19978581 0.03858525 0.21636103 0.07052984 -0.81937206 -0.17087644
-0.036561836 -0.15770797 0.037838593 -0.08983568 0.010026859 -0.15332887 0.005158181 -0.20189212
-0.20933664 0.19936903 -0.07799344 0.15133828 -0.15269719 0.06608617 -0.06254265 -0.21338637
0.046394885 0.7910307 0.14189184 -0.17538735 0.016272234 -0.059250645 0.04537569 0.17103876
-0.1563897 -0.1517672 -0.25756744 0.26525316 -0.20109276 -0.17064486 0.12104028 -0.00042886022
-0.092849664 0.011787961 0.116133295 -0.2303289 0.18747313 0.0006204153 0.03777181 -0.2510699
-0.14381881 0.1356423 0.19589481 0.37264907 0.26259553 -0.10050463 0.02031773 0.009650886
0.15863773 -0.10453362 -0.22589017 0.2454075 -0.11190648 -0.013904736 0.19744657 -0.13906562
-0.34973097 0.3079729 0.24116653 0.26046103 -0.10629552 -0.09639297 0.46264353 -0.20358542
-0.61190593 0.31383303 0.18890725 0.12529923 0.16111097 -0.055365447 0.21001601 -0.066171326
0.045800433 0.33009446 -0.16625279 0.113058805 -0.5121003 -0.15664008 -0.026572404 -0.077581845
-0.20726459 0.023196988 -0.31516734 -0.17957668 0.28237948 0.42027318 -0.23545913 -0.074632004
0.7006723 0.004025141 -0.04124754 -0.46131372 -0.21720481 -0.09733157 0.10960046 -0.14187081
-0.06837277 1.0182785 -0.5349354 -0.23615257 -0.06419513 0.27346238 0.55370355 0.5903684
-0.30419537 -0.113022886 -0.07029424 -0.68748 0.18303671 -0.25259686 -0.013997697 -0.13876227
0.27922636 0.23666747 0.092279114 0.31976146 0.13667496 -0.033910014 -0.28128222 -0.28749448
0.2982597 -0.09403912 -0.19224526 0.31149265 0.115566835 -0.18583757 -0.09271064 -0.27019244
0.023493392 -0.14807333 0.14633799 0.12474635 -0.15076482 0.23208962 -0.20971192 0.13292049
0.0024277184 -0.020247174 -0.18835646 0.18532404 -0.2684137 0.32322344 -0.6521062 0.06611803
0.1883927 0.31471753 0.3562142 0.2429029 -0.0023384828 0.22771521 -0.06109426 0.42067444
0.104540676 -0.20940611 -0.3473713 0.106352925 0.23130877 -0.083395526 -0.18188487 0.17132312
0.089543656 -0.40391114 0.104454935 0.20296314 0.28886446 0.016523411 -0.29929444 -0.5777695
0.12487257 -0.251399 -0.072038576 0.17047787 0.08819067 0.03335124 -0.19144084 0.050701864
-0.38817784 -0.3186963 -0.15158652 0.2500057 -0.2626716 -0.22993134 -0.560121 0.0944486

bias f4 [32]
00000000: b8ab 7dbc f591 84bc 91ba f43c 8882 0ebd
00000010: aa39 d33a e3fe 013c 7e36 80bb 4355 0f3a
00000020: af14 14bd 1eaa c9bb 8ebe 19bc 23f6 a33b
00000030: 9994 d4bb 43d2 0d3c d533 b43b d7d8 f7ba
00000040: ef63 0f3c ee9c 293c 7d36 c93b bf11 7e3b
00000050: 9eee 8bbc ba2b 3f3c 0c0a d43c a680 093b
00000060: 585e 733a fbd2 9bba 21dd dcbb 87ba 64ba
00000070: 4068 9dba 9a6e 293c a126 903b ab79 a2bb
-0.0154828355 -0.016182879 0.029874118 -0.034792453 0.0016115208 0.007934305 -0.003912746 0.0005467722
-0.036152538 -0.0061543128 -0.009383811 0.005003707 -0.006487441 0.008656087 0.005499343 -0.0018909228
0.008751853 0.010352356 0.0061405287 0.0038767902 -0.017081555 0.01166814 0.025883697 0.0020981221
0.00092837727 -0.0011888439 -0.006740228 -0.00087253045 -0.0012009218 0.010341311 0.004399136 -0.0049583516

weight f4 [1, 32, 5, 5]
00000000: 35ab 74bd a008 953d 2289 b1bd 4f7f a3bd
00000010: 9be7 b8bc f4c7 4bbc 1b9b 22bc a5a6 0e3d
00000020: 374c 18bc 8a89 c03d 9096 a73d e89c 4a3d
00000030: f425 bf3c ca6e 9e3a da26 8dbd e89e 03bd
00000040: a907 3a3d 17d0 d9bc f8af ec3c 0a25 4a3d
00000050: 02f5 7a3d 74e2 043b 2c9f 89bd 14e0 abbd
00000060: 5ad3 7fbd 4e96 4c3d b8f4 79bd 07b0 1e3d
00000070: 890a c53d 1074 4a3d 1b10 01bd 5851 bebc
00000080: 67e1 06bd 2782 3e3d 1b60 0d3c 1928 b8bd
00000090: 93fb a5bd 1773 df3d 1e8b a3bd 92f5 63bd
000000a0: 8237 52bd 9e88 4f3d 37b4 a9bd 13d7 5abd
000000b0: 9a3b 6ebb 0cb8 053d 6d47 c7bc 8571 aebc
000000c0: 5bb6 b63d 30c9 613d a4a5 82ba aac8 983d
000000d0: 517c 873d 1b5d e13b 674f a53c baee 443c
000000e0: 2166 7ebd dae9 0fbe 0a6c 4dbd e910 86bd
000000f0: 9738 a5bc 1975 2abd 6ffc 473e 0eb2 b83d
00000100: c8ae a3bc f2ce 393c 7a99 65bd 939a 743d
00000110: 9996 713d 3a41 9dbd 1347 c43c df94 aebc
00000120: 84d9 f8bd cfd3 d33b 68d1 cebc 45dd 92bc
00000130: c152 2dbd 3e15 1d3c 0827 f53c 23b6 98bc
00000140: b491 3d3c 2cd9 5ebd fb0f 1f3d beaa 143d
00000150: be72 b8bc 690a b3bd 8109 b33d d627 2d3e
00000160: 12e4 603d d3ae bbbd a8ca 673d 215d a8bd
00000170: 9ccf 5f3d dfe9 0abd 0747 f3bb a8a6 fdbc
00000180: 0aa6 12ba 2c18 153d ba0d fe3c 6295 43bd
00000190: 707f 3abc 6edf 46bd 6604 023c 0035 393d
000001a0: 56f5 d2bc a2f8 98bc 42b2 093d 95e3 31bd
000001b0: 58d2 a5bd b04c 043d 588d a53b f353 9b3c
000001c0: 3e16 cb3c b6ea 833c 3d1e 133c b6f0 23bd
000001d0: 1d1c 813c dd3a 623d c206 223d f2c8 94bd
000001e0: b836 4ebd 4dba 063d 0ccd 3e3d 2178 8abd
000001f0: 39ac e1bc 8d27 823d 2c96 243d 7006 f73c
00000200: 7030 8dbd 2abb 4e3d 7e11 26bd 245b 453d
00000210: 6024 3b3d 8ef6 903c 5d03 903b 969c 1a3d
00000220: fd9c 3e3d dd10 79bc 70c8 5a3d 5413 20bd
00000230: 77cd a6bd fc3c fa3c dc26 aabc 9efb 37bd
00000240: c837 a23d 5d1c 593d 9ab9 f63c 110a cabc
00000250: 687a 53bd 9ec3 4bbd e045 54bd 0e00 913c
00000260: 3da4 f8bc e584 c73c 3bf7 fabc 6cc3 adbd
00000270: 1fe5 0a3d 9989 4cbb 1688 c8bd 50de d13b
00000280: bd04 193d 6642 ee3d 3e60 6f3d 893f a4bc
00000290: 5854 113d 5a0c 50bd 9e17 243d 87ed 3bbd
000002a0: 69d5 53bd f01f 85bc a0a2 72bd b9ee 8b3d
000002b0: cff3 c6bc 8b6d a9bc a445 103d 7191 8d3d
000002c0: 1258 3b3d 3c0b 49bd 8070 c9bc b0f3 41bc
000002d0: ff90 a13d 2fa2 43bc e6d6 99bd 1351 5f3c
000002e0: a689 3d3b ef4b a3bb 3e77 863d da48 94bd
000002f0: 1527 1e3d 89b6 8f3d 247a 4fbd 4853 a53d
00000300: 5267 423d b667 003d e4cf 9d3d 4624 13bd
00000310: 4def 9b3d 86aa ac3d 7b0f 1ebc a0b3 7fbd
00000320: 2ef0 603d 57f3 523d fddd 7fba dc38 273c
00000330: 7e64 863b 5a92 ed3c 09bd a63d e5cd 2c3d
00000340: 7566 853d 18f4 55bd 82a5 a7bd f371 54bc
00000350: 4503 73bd 28f3 9e3d 1dcc 653d 845e 9fbd
00000360: 862d 4e3c 3f1e 84bd 7f8a 2abc 67a1 933d
00000370: 2ed4 7cbd 0fe5 6cbb 090d 5cbd 23a6 563c
00000380: c84e 8abd e52d adbd 7e61 a43d 0d5d 37bd
00000390: f82f cbbc ca8c ab3d 89dc 3d3d 3774 1ebd
000003a0: 3db8 7abc a158 fcbc 904f a0bd 8cd8 55bd
000003b0: 5415 1b3c c8a9 6abc 6428 7ebd 41b1 8fbd
000003c0: 6c73 0e3c db03 0c3d 54fb 89bd 01f8 b93c
000003d0: fb24 723d fa13 99bd 1d50 6b3d f922 95bc
000003e0: ac9d ae3c 34ae 963d 8460 3dbd 5d62 903c
000003f0: 7d14 2d3d 0b22 a63d 95b0 65bc 5794 353c
-0.05973359 0.07277036 -0.08668734 -0.079832666 -0.022571376 -0.012437809 -0.009924675 0.034826893
-0.009295515 0.094012335 0.081830144 0.049466044 0.023333527 0.0012087461 -0.06892176 -0.032133967
0.04541746 -0.026588483 0.028892502 0.04935173 0.061268814 0.0020276578 -0.06719813 -0.08392349
-0.06245742 0.04994803 -0.061024398 0.03874209 0.0962115 0.049427092 -0.0315095 -0.023232147
-0.032929804 0.04651084 0.00862887 -0.08992023 -0.081046246 0.109106235 -0.07985519 -0.055654116
-0.051322468 0.050667398 -0.082863264 -0.053427767 -0.0036351443 0.032646224 -0.02432605 -0.021294365
0.089215 0.055123508 -0.0009967578 0.07460149 0.06615508 0.006877554 0.020179464 0.0120198075
-0.062109116 -0.14054051 -0.050151862 -0.06546194 -0.020168586 -0.04161558 0.1952989 0.09018336
-0.019980803 0.0113408435 -0.05605457 0.059717726 0.05898151 -0.076784566 0.023959672 -0.021311222
-0.12150863 0.0064644585 -0.025246337 -0.017927775 -0.04231525 0.009587584 0.029925838 -0.018641537
0.011570383 -0.05440633 0.0388336 0.036295645 -0.02251565 -0.0874222 0.08742047 0.16909727
0.054905005 -0.091642044 0.056589752 -0.08220888 0.05464135 -0.033914443 -0.0074242386 -0.030963257
-0.00055942 0.036400005 0.031012405 -0.047749884 -0.0113829225 -0.048552923 0.007935619 0.04521656
-0.02575175 -0.018673245 0.033617266 -0.04342993 -0.080967605 0.032299697 0.00505225 0.018960929
0.02479088 0.01610313 0.008979377 -0.04002448 0.015760476 0.055231918 0.039557226 -0.0726489
-0.050345153 0.032892514 0.046582267 -0.06761194 -0.027547942 0.063552 0.040182278 0.030154437
-0.06894004 0.050471462 -0.040544026 0.04818262 0.045688987 0.017695691 0.004394932 0.03774699
0.046536434 -0.015201774 0.05341381 -0.039080933 -0.08144658 0.030546658 -0.020770483 -0.044917695
0.07920796 0.053005565 0.030117799 -0.024663003 -0.051630408 -0.049747102 -0.05182445 0.017700221
-0.030351752 0.024355361 -0.030635467 -0.084845394 0.033909913 -0.0031209944 -0.09791581 0.0064046755
0.037358034 0.11633758 0.058441393 -0.020049827 0.035480827 -0.05079303 0.040061586 -0.04588082
-0.051717196 -0.01625058 -0.059237123 0.06832642 -0.024286179 -0.020682117 0.035222664 0.06912506
0.045738287 -0.04908298 -0.024589777 -0.011837885 0.07888984 -0.011940523 -0.07511692 0.013630169
0.0028921156 -0.004983417 0.065657124 -0.07240458 0.03861149 0.07017238 -0.05065359 0.08072525
0.047461815 0.031348906 0.077056676 -0.035923265 0.076140024 0.08430962 -0.0096472455 -0.062427163
0.054916553 0.0515016 -0.0009760557 0.010206427 0.004101335 0.02900045 0.08141524 0.042188544
0.06513683 -0.05223474 -0.08185865 -0.012966621 -0.05932929 0.07761222 0.05610286 -0.07781699
0.012584096 -0.064510815 -0.010408997 0.072085194 -0.061725788 -0.0036147272 -0.05372337 0.0131011335
-0.067533076 -0.08456019 0.08026408 -0.044766475 -0.024803147 0.08376463 0.046352897 -0.03868505
-0.015302715 -0.03080398 -0.07827675 -0.05220847 0.009465534 -0.014322706 -0.06205024 -0.070162304
0.008694511 0.034183364 -0.0673739 0.022701265 0.0591173 -0.07474513 0.05744945 -0.018205153
0.021315418 0.07357445 -0.046234623 0.017625028 0.042255867 0.08111962 -0.014019151 0.01108273
