modeldata/model_110_epoch.pth (torch_old, 43109 bytes, 5 tensors)

weight f4 [64, 1, 9, 9]
000000 e7 3b 08 bc cc 6b 16 3c 7a c7 ec bc 21 26 f6 3c
       -0.008315063 0.009180974 -0.028903712 0.030047478
000010 a8 ce 92 bc c1 92 c1 3c ab 2d 2a bd 8b f8 9e 3a
       -0.017920807 0.023629548 -0.04154746 0.0012128515
000020 93 a9 58 3c f8 da 2f bc 6a d8 af 3c 0a 45 94 bb
       0.013224023 -0.010733359 0.021465499 -0.0045248317
000030 5b df 06 3d e1 72 08 3d 97 64 7b b9 a9 70 15 3d
       0.032927852 0.033312682 -0.00023974698 0.036484394
000040 dc b8 b3 ba e9 6d 29 3c c9 ee d6 3a 9f c1 f1 3b
       -0.0013711709 0.010341146 0.0016398068 0.0073778178
000050 aa 91 10 3d b4 a3 08 bc b5 7a 21 3d bc a6 7c 3b
       0.035295166 -0.008339811 0.039423663 0.003855153
000060 b9 16 aa 3c a3 c7 19 bd e5 2c b3 bb 0d 69 18 bc
       0.020762788 -0.037543904 -0.0054679983 -0.00930239
000070 9a 77 cd 3b 5d 31 93 bc 68 07 a3 bc e8 7e 10 bd
       0.006270361 -0.017967874 -0.019900993 -0.035277277
000080 1f 0d 7a bc a8 d1 45 3d 53 44 8a 3c ad a5 c8 bb
       -0.015261917 0.048295647 0.016878283 -0.0061232657
000090 64 aa 0d 3c 8e fc fe bb f0 e2 3b 3c fa 4b 91 bd
       0.008646581 -0.0077815717 0.01146768 -0.070945695
0000a0 35 53 cf bd 6f 85 9c bc 30 93 97 38 1c 34 74 bc
       -0.10123292 -0.019106595 7.227657e-05 -0.014905002
0000b0 98 0d b9 bc 9b 30 15 ba 60 3b 18 3d 18 0a 76 3c
       -0.02258949 -0.00056911417 0.037166 0.015017055
0000c0 4b 6d 2f bd aa b2 b1 bd da 1d 23 ba 5b 44 ba 3b
       -0.04282884 -0.086766556 -0.0006222405 0.005684418
0000d0 66 71 27 3c 99 d3 2f 3c db 4f 0d 3b c2 33 9e bc
       0.010219907 0.010731601 0.002156249 -0.01931179
0000e0 f2 45 92 3b 58 16 e8 3c 88 76 25 bd b9 64 32 bc
       0.0044639045 0.028330967 -0.040396243 -0.010888272
0000f0 71 12 3d 3d c9 25 e1 3c 83 98 9f 3c 35 84 74 3c
       0.046160165 0.027483838 0.019481903 0.014924099
000100 9d 86 62 bc 6f 55 31 bc 05 d5 c2 3c 20 c3 00 bc
       -0.01382604 -0.010823592 0.023783216 -0.007859021
000110 1b c6 06 bc 8b 8a 8c bb 34 4d 55 bb ab d7 bd ba
       -0.008225943 -0.0042889765 -0.0032547237 -0.001448383
000120 ab 94 41 bc 98 30 97 bc a8 c6 19 bb 47 72 e3 3c
       -0.01181523 -0.018455788 -0.0023464356 0.027764453
000130 35 32 cb bb d4 17 f2 bb 27 5e ea bc 1a b7 ec 3b
       -0.0062010535 -0.0073880944 -0.028609348 0.007223976
000140 ec 48 80 3c ef 23 fd 3b 44 d9 4c 3a c7 34 57 3c
       0.015659772 0.007725231 0.00078143575 0.013135142
000150 48 8f 0f bd 5f 4a 91 3c 2f f5 19 bd 09 92 34 bc
       -0.035048753 0.017735658 -0.03758734 -0.011021146
000160 f5 86 c3 bc 5d 33 01 bd e4 86 cd bc 45 af 2c bc
       -0.023868063 -0.031543124 -0.025088735 -0.010539834
000170 ca a2 7f bc 5d 45 bb 3c 55 f7 fe bb 30 99 f4 bc
       -0.015602777 0.022860223 -0.007780949 -0.029858202
000180 2e 8a 39 bd 1e 18 44 3c cb e4 4b 3c 58 3d a9 bc
       -0.045297794 0.011968641 0.012444685 -0.020659134
000190 93 5b 27 3c 65 f9 4d bb c2 b7 65 bc 8b 87 3a 3d
       0.010214704 -0.0031429168 -0.014020862 0.04553942
0001a0 25 1c ac 3c d1 ef c0 3b 86 eb af 3a 43 ef a2 ba
       0.021009514 0.0058879633 0.0013421632 -0.0012430925
0001b0 f6 7c 22 bd 7f f5 a5 3c 81 ea 28 3d 06 84 97 3b
       -0.039669953 0.020258663 0.041239265 0.0046238927
0001c0 37 2a c4 3d 20 80 25 3c 2d dc 81 3b bb c3 4b 3c
       0.09578364 0.010101348 0.0039630146 0.0124368025
0001d0 51 86 b1 bb 5d 09 8b bc 99 7a db 3b 2d 15 b2 3c
       -0.005417623 -0.016972238 0.0066979644 0.021738613
0001e0 30 b5 12 bd 98 da 24 3c 10 12 80 bc f4 ac 4f bd
       -0.035817325 0.010061882 -0.015633613 -0.05070205
0001f0 cf 15 c2 bc 1e 4b 97 3c 46 e6 b5 bb 46 c5 25 bc
       -0.02369204 0.018468436 -0.0055511324 -0.010117834
000200 ba 37 15 bd 4e 5c f0 bb 9a f6 e0 bc dc 34 9b bc
       -0.036430098 -0.0073352223 -0.027461339 -0.018946104
000210 7a 18 9a 3c ad 49 b9 3b c2 ea 3b bc bb f3 99 3c
       0.0188105 0.005654535 -0.011469545 0.018792978
000220 56 e5 90 3c 3f f2 a6 3c 2d d2 6c bc 19 db bc 3c
       0.01768748 0.020379184 -0.014454407 0.023053693
000230 42 89 a0 bc 71 7e f6 bb 76 5c 11 bb cd d9 2f bc
       -0.0195967 -0.007522397 -0.0022180355 -0.01073308
000240 2e ca bd bc b1 e3 ac 3c 5b ec 9a 3c 64 d3 28 bc
       -0.023167696 0.021104665 0.018911531 -0.010304306
000250 53 47 21 3d a2 75 98 bb 64 8d d8 bc b2 52 43 bc
       0.03937466 -0.004652695 -0.026434608 -0.011921572
000260 9a 50 b2 3b 00 f7 c4 bc ae 55 9a bc 67 a2 48 bc
       0.0054417374 -0.02404356 -0.018839683 -0.012245751
000270 61 17 77 bc 40 57 28 3d 5f 23 02 bc 36 46 ce bc
       -0.015081258 0.041098833 -0.007943003 -0.025179964
000280 0c 5c 75 3c 44 5d f4 3b e3 5a d6 3c 6f 11 2d bc
       0.014975559 0.007457407 0.026166385 -0.0105632385
000290 7b 55 67 bc 37 fa 09 bd 33 2f c6 bc 3e 50 ab bc
       -0.014119501 -0.03368589 -0.024192428 -0.020912286
0002a0 c4 8f 01 bd 2f e7 df bc 83 76 2b 3d 87 b8 45 ba
       -0.031631246 -0.027331917 0.04186107 -0.00075424503
0002b0 b1 d9 98 3c 93 64 a9 3c f3 62 6e bb da 1f 5a bc
       0.01865849 0.02067784 -0.0036374896 -0.013313258
0002c0 e9 d8 42 bc b3 5c 9e bc 7a 5d 08 bd 4d 45 9e bc
       -0.011892536 -0.019331312 -0.03329227 -0.019320155
0002d0 d3 25 1e bc 3c de 89 3b 3b 8e c0 bb 5a 5f 91 3b
       -0.009652573 0.0042074006 -0.00587633 0.0044364156
0002e0 d0 6b 62 bc cd 4c d0 3c 6d b6 21 3d e6 44 0f 3d
       -0.01381965 0.025427246 0.039480615 0.034977816
0002f0 0c de 31 bb b0 1d e5 39 4f 06 13 bc f0 7d c3 3c
       -0.0027140407 0.00043700403 -0.008973672 0.023863763
000300 10 4c a4 bb 5f 31 0c 3d 72 e8 38 3d af 5d da 3c
       -0.00501395 0.03422677 0.045143552 0.026656
000310 41 98 24 3d 8e e9 13 3c 05 e7 d1 3c 47 61 a2 bc
       0.040184263 0.009027852 0.025622854 -0.019821776
000320 3f 8a 13 bd 3b f9 87 bc a0 a8 09 3d 2b 34 40 3d
       -0.036020514 -0.016598335 0.03360808 0.04692475
000330 1b 29 e8 3c e3 4d 85 ba 97 c5 c2 3c 57 5a 0d 3d
       0.028339913 -0.0010170307 0.023775859 0.034509983
000340 38 58 bc 3a 17 17 93 3c 36 49 5d bc 68 94 ef 3c
       0.0014369553 0.017955346 -0.013506224 0.02924557
000350 e5 09 c1 3b 9f 5a c6 3c 40 f0 02 3d 72 c7 61 bb
       0.005891072 0.024213133 0.0319674 -0.0034451154
000360 61 25 aa 3b e3 87 3b bc e6 2e 74 3b 76 ad b9 bc
       0.005192444 -0.011445972 0.00372594 -0.02266572
000370 3b ab d2 3c 0f f9 be 3c c9 ae 9f 3c 5b 01 1e bc
       0.025716415 0.02331212 0.019492524 -0.009643878
000380 03 b9 0c 3d a6 a2 f4 bc c7 7d 00 3c cd 61 d1 bc
       0.03435613 -0.029862713 0.007842488 -0.02555933
000390 d1 68 22 3d c1 0d ec bb 83 9f db 3c cf 61 f6 3b
       0.039650742 -0.007203788 0.02680946 0.007518984
0003a0 10 c0 0e 3c 2d a2 56 bc 1c c1 80 bc 8b d8 63 bc
       0.008712783 -0.013100189 -0.015717082 -0.013906608
0003b0 94 7d 83 3c 60 bf af 3a 87 37 04 3d cd 4b e5 3c
       0.016051091 0.0013408475 0.032279518 0.027990246
0003c0 32 b1 10 bc bb ac d9 3a 9e 56 e9 bc 3a c1 c0 3a
       -0.008831309 0.0016607264 -0.028483685 0.0014706024
0003d0 e2 af 05 bc a5 61 2c bc 1b 78 87 3b 87 a6 c6 3c
       -0.0081596095 -0.010521327 0.0041341907 0.024249328
0003e0 70 38 36 3c 1d 3c 26 bc a3 3c 5a 3c e0 f9 57 3c
       0.011121854 -0.010146168 0.013320121 0.013182133
0003f0 04 23 b9 3b 60 61 39 3c 7f b6 ec 3c e2 d7 4b bd
       0.005649926 0.01131472 0.028895615 -0.04976643

bias f4 [64]
000000 ab cc a6 3c cf cc 18 bc a5 4e 99 3b 8a d1 72 3c
       0.020361265 -0.009326174 0.0046785646 0.014820466
000010 5a 37 0e 3c 51 e5 f6 38 16 7e 82 3c 20 9a 6c 3c
       0.008680189 0.000117729076 0.015929263 0.014441043
000020 0b 84 b8 3c 26 77 56 bb a8 fc c1 3b 5c 64 26 3d
       0.0225239 -0.0032724827 0.0059200116 0.040623054
000030 62 69 bc 3b 1e 56 e4 3b f6 3f 3b 3b f3 ab e9 3b
       0.0057498673 0.006968274 0.002857206 0.0071310936
000040 dc a6 ba 3b 11 6b b7 bb 65 f4 56 3c c8 ba 99 38
       0.0056961607 -0.00559748 0.013119792 7.330399e-05
000050 8c 08 24 bc c3 2e 59 bd af ce 05 bb a6 09 6e ba
       -0.010011803 -0.05302311 -0.0020417382 -0.0009080417
000060 71 83 63 3b aa 23 81 3c 6e 0a 94 3a 14 6a 94 bb
       0.0034715796 0.015764076 0.0011294612 -0.004529247
000070 ca db 9c 3c a2 13 55 bb 49 43 1d bc 8a 1e a2 3b
       0.019147772 -0.0032512923 -0.009598562 0.004947488
000080 eb 96 80 3b e5 3e 5a 3c da 11 50 3c b8 71 24 3c
       0.003924241 0.013320659 0.012699569 0.010036878
000090 0e de a0 3b e2 96 21 3c 8f 43 00 3d f0 b4 58 3b
       0.0049092835 0.009862633 0.03131443 0.0033066832
0000a0 be 73 89 3c 7c b1 58 3b 62 46 9c 3a e1 3c 8f bc
       0.016778823 0.0033064773 0.0011922831 -0.017485084
0000b0 c3 3c 41 3c 99 e4 09 b9 c7 f2 ab 3c b3 01 0c bc
       0.011794272 -0.00013150497 0.020989789 -0.008545327
0000c0 7c 57 8d bc a2 d4 61 3b a9 df 1c 3c e7 07 82 bb
       -0.01725363 0.0034459014 0.009574809 -0.003968227
0000d0 9a 33 53 3c 7a f7 b3 bc 3f 9b 9c 3c a6 00 76 3c
       0.012890721 -0.021968592 0.019116996 0.015014803
0000e0 c5 dd e7 3c 0f 39 8d 3b 11 07 88 3b 30 7d 86 3b
       0.02830399 0.0043097804 0.004151233 0.004104279
0000f0 5d cb 5d bc 06 39 02 bc 45 68 13 bb c1 f4 d1 3c
       -0.013537255 -0.007948166 -0.002249257 0.025629403

weight f4 [32, 64, 1, 1]
000000 4b 25 1c 3d 4b bf 7c 3e 33 16 0e be 86 79 f9 bc
       0.038121503 0.24682347 -0.13875656 -0.030453455
000010 13 48 38 be ed 2a f3 3d 34 89 85 be 58 f8 26 3e
       -0.17996244 0.11873422 -0.2608124 0.16305673
000020 73 c1 2c be c6 81 31 3e a1 1c c5 bd d0 4c 53 3d
       -0.1687067 0.17334661 -0.09624601 0.051586926
000030 b3 c3 bb bd c8 c9 0b be 0a c5 c0 3e 1b a2 5b 3e
       -0.09168186 -0.13651192 0.3765033 0.21448557
000040 8b 1a 08 3f b6 22 c6 39 78 69 01 be 80 ee c0 bd
       0.531655 0.00037791365 -0.1263789 -0.0942049
000050 43 70 71 3e a5 7c 29 be a8 53 ce 3c 29 3e c5 3e
       0.2357798 -0.16551454 0.025186375 0.38523987
000060 58 6c 3f be b1 26 14 be a6 17 65 be e7 1b 52 3e
       -0.18693674 -0.14467885 -0.22372302 0.20518456
000070 e0 10 a0 3e ac 71 67 3d b8 d2 28 bb 3b 59 ce 3c
       0.31262875 0.05650489 -0.0025760364 0.025189033
000080 53 22 2b bd 65 d7 cd 3d 23 f6 fd bd e6 6a 47 bd
       -0.04178078 0.10050849 -0.124004625 -0.04868593
000090 1b 9c 49 be fe 12 4c 3e 4f f6 31 3e b1 3c 35 be
       -0.19688456 0.1992912 0.17379116 -0.17698933
0000a0 a7 b8 26 3d d7 84 e6 3c f8 a6 fe 3c c1 79 85 be
       0.040703442 0.028139515 0.031085476 -0.26069453
0000b0 48 c4 be 3d b3 c2 72 be b4 ce 39 3e 05 dc 42 be
       0.093147814 -0.23707084 0.18145257 -0.19029243
0000c0 bf fb ac 3d 98 ac a9 3e 76 c1 06 3d 4b de 94 bd
       0.08446454 0.3313949 0.032899342 -0.072689615
0000d0 10 35 67 3e c8 e3 81 3e b9 36 79 3d d4 f4 8b be
       0.22578835 0.25369096 0.060843203 -0.27335227
0000e0 b9 63 3e be 52 40 c5 bd 10 bb 07 3e a1 86 cf bd
       -0.18592729 -0.09631409 0.13254952 -0.101331
0000f0 19 4f 41 be 90 83 b4 be 72 74 3e 3e 7f ae c9 be
       -0.1887783 -0.35256624 0.18599108 -0.39390942
000100 9d 19 54 be 91 69 d1 bc 27 8c b2 3b ee e1 78 3e
       -0.20712896 -0.025563033 0.0054488364 0.24304935
000110 82 a3 73 bc 48 db 5b be 20 aa 6e 3e f1 7b 80 3e
       -0.014870526 -0.21470368 0.23307085 0.2509456
000120 2a 66 e2 3d 11 ff 75 3d 2c 21 13 be 9d fb 75 bd
       0.110546425 0.060057703 -0.14368123 -0.06005441
000130 86 dc 71 be 65 07 76 3e 90 92 1d 3d 3f 35 d7 bc
       -0.2361928 0.24026258 0.03846985 -0.026270507
000140 3e 56 a2 be 24 c2 31 bd 6f c2 2e bc 72 c4 2c 3e
       -0.31706423 -0.043398038 -0.010666474 0.16871813
000150 f1 be 25 bc f8 ed 58 3e 2e fd 89 3d 62 ae 82 3e
       -0.010116325 0.21184528 0.06737743 0.2552367
000160 0c 11 43 3d fe 91 22 3e 79 a9 6e 3d 13 9f 46 be
       0.04762368 0.15876004 0.05826709 -0.1939662
000170 4b 54 91 3e 23 a9 84 3e 5d b0 8b bc 24 82 2d be
       0.28384623 0.2591029 -0.01705187 -0.16944176
000180 38 66 13 be 3b f1 83 3e bb 72 47 bd f4 80 17 3d
       -0.14394462 0.25769982 -0.0486934 0.036988214
000190 e3 e6 6a bd 1d 9c 44 bd 34 84 f1 bb 8c ce 00 be
       -0.057349097 -0.048000444 -0.007370496 -0.12578791
0001a0 a9 2f 73 3c 08 33 6c 3e 67 e2 fc bc 81 30 94 be
       0.014842906 0.23066342 -0.030869676 -0.28943256
0001b0 16 24 56 be 1c 0e cb 3e cf 1b a4 3e b4 3e 19 be
       -0.20912203 0.39659202 0.32052466 -0.14965326
0001c0 5c 37 7e 3d fd 63 6a 3e e7 e8 6c be fc 65 26 be
       0.062064514 0.22889705 -0.2313572 -0.16249841
0001d0 c4 d7 57 be bf 58 81 3e 9e d5 5f 3d 68 e8 6e be
       -0.21078402 0.2526302 0.05464708 -0.23330843
0001e0 9b 64 9d 3d a1 f6 91 3c e8 c3 8c bd cb 18 93 3d
       0.076852046 0.017817797 -0.06873304 0.07182463
0001f0 ad fe ac be 5f f6 35 3e f2 a5 82 3e fb a4 6e be
       -0.33788052 0.17769764 0.2551723 -0.23305123
000200 02 f3 d3 bd 1b b7 90 3d 94 37 19 be 0e d7 92 3e
       -0.103490844 0.070661746 -0.14962608 0.286797
000210 95 12 94 3e d7 09 50 3e 87 62 25 3e 73 51 65 3d
       0.28920427 0.20316254 0.16150866 0.05598588
000220 15 36 83 3e 5f a1 18 be ba 0a 3f be d3 8c 57 3c
       0.256272 -0.14905308 -0.18656436 0.013156134
000230 2e 04 4b 3c 7a 84 88 3e 8e 8d 20 be f6 22 3b 3e
       0.012391133 0.26663572 -0.15678999 0.18275055
000240 46 f4 0e bf 01 f0 45 be aa 13 1c 3e 0b 74 cc 3d
       -0.5584148 -0.19329835 0.15241876 0.09983071
000250 0b 94 67 3d 1c d0 7c 3e 78 7c c4 3c f5 9b a9 bd
       0.05653767 0.24688762 0.023985133 -0.082816996
000260 12 d2 94 bd ad a3 29 be 2e 89 1b ba b4 e9 11 be
       -0.0726663 -0.16566344 -0.0005933222 -0.14249307
000270 d6 4e 52 3d 50 bb 2c bf 83 f7 93 3c 22 81 a9 bd
       0.051344715 -0.67473316 0.018062359 -0.08276583
000280 e6 0b 0a 3e 4c e8 6c 3e cb b7 9e bc d5 0f 2e 3e
       0.13481101 0.23135489 -0.019374749 0.16998227
000290 37 50 7e be 4c d7 74 3e 17 46 77 bd 79 43 0f bd
       -0.24835287 0.23910254 -0.060369577 -0.034976456
0002a0 c1 49 ae 3c e2 d0 1b be a1 79 85 3d 8d 32 4a 3e
       0.021275403 -0.15216401 0.065173395 0.19745846
0002b0 bc c7 dc be 2d 77 93 bc 61 bf cd 3d c0 5d ef bd
       -0.43121135 -0.018001163 0.10046268 -0.11687803
0002c0 fe f2 8c be 46 20 80 be 6c f3 83 3e 19 a0 bc bc
       -0.27529138 -0.25024623 0.25771654 -0.02302556
0002d0 7d 25 44 3e b9 be 90 3e 6b 1f 11 3e f1 fc 3d be
       0.19154926 0.2827051 0.14172141 -0.1855352
0002e0 17 66 5f be 86 f4 26 be c2 77 7a 3e 12 14 6d 3c
       -0.21816288 -0.16304216 0.24459746 0.014470117
0002f0 6a f3 23 3c ec 39 38 3d d0 87 58 3e 6f 31 70 3e
       0.010006765 0.044977114 0.21145558 0.23456357
000300 a0 e3 41 be 5a a6 0b be 81 e6 f0 3d 0d 63 9e 3e
       -0.18934488 -0.13637677 0.11762715 0.30934945
000310 15 9c 82 3e 5f 12 02 be d6 77 54 be 04 8f 0c 3e
       0.25509706 -0.1270232 -0.20748839 0.13726431
000320 4d 92 8a be ae 5d 2a be 88 0e 98 3d 3e c9 d4 bd
       -0.27064744 -0.16637298 0.074246466 -0.103899464
000330 ab b4 29 3e 29 7a c2 bd db ff 5f 3e 09 d8 0e 3e
       0.16572826 -0.094959565 0.21874945 0.13949598
000340 8e d0 3c bd 6a ca ee bc 6c 1e 78 3e 6b a2 2d be
       -0.04609733 -0.029149253 0.24230355 -0.16956489
000350 b8 5b 9a bb 08 67 02 3e 8d 8c 7e 3e c4 9e c5 3e
       -0.0047106408 0.12734616 0.24858303 0.3859769
000360 72 34 32 3e 41 80 88 3e 03 22 52 be ad b4 8d 3c
       0.17402819 0.2666035 -0.20520787 0.017298067
000370 e6 01 29 3e 92 51 81 be 95 9c 0d be f3 cc 96 be
       0.1650463 -0.25257546 -0.13829263 -0.2945324
000380 1f 6f 7b bd d5 6b 77 bd 6c 6f 7a 3e 68 55 ac bd
       -0.06138527 -0.06040557 0.24456567 -0.084147274
000390 82 6f 1e 3e c9 87 af 3d 1c 12 d9 be f4 11 67 3e
       0.15472224 0.08570821 -0.4239663 0.22565442
0003a0 a8 98 ab be e5 eb 00 be 8f 80 15 3e 68 87 4e 3e
       -0.33514905 -0.12589987 0.14599822 0.20168841
0003b0 27 ed 26 3e 5d 80 6d 3e 7a f5 36 3d ee b7 4f be
       0.16301404 0.23193498 0.0446677 -0.20285007
0003c0 fb 57 90 be 51 bb 70 bd 45 5b 29 bd f4 18 70 be
       -0.28192124 -0.05877239 -0.041346807 -0.23447019
0003d0 ea 34 ef 3d 52 b6 e7 bd f6 71 08 be 8c ea 3f bd
       0.116800144 -0.11314072 -0.13324723 -0.04685454
0003e0 7f 8a df 3d 35 ef 89 3e 45 56 7c bc da 4f ad 3d
       0.10915088 0.26940313 -0.015401428 0.08462496
0003f0 b5 b4 cb bd 31 06 8c 3e 9d af 09 be 0e 6b 8f 3d
       -0.099465765 0.27348474 -0.13445897 0.07002841

bias f4 [32]
000000 5f 59 fd 38 6d 6a 0b 3c 6e 85 4c b9 09 26 59 3c
       0.00012080627 0.008509261 -0.00019504662 0.013253697
000010 85 4d 6e 3b 08 fe ce 3c 11 81 da bb 11 c7 99 ba
       0.0036362123 0.025267616 -0.006668218 -0.00117323
000020 76 35 ae 3c 51 06 96 3b ab d8 92 b9 85 8b 9c 3c
       0.021265727 0.0045783897 -0.0002800872 0.019109497
000030 6e 4c 87 bb a9 48 5e 3b 6e 50 bf 3b 71 fb 9e ba
       -0.004128984 0.003391782 0.0058384454 -0.0012129379
000040 ae 3b 47 bc 65 39 25 3b 1e 04 3a bb 58 26 80 3b
       -0.012160225 0.0025211212 -0.0028383802 0.003910821
000050 cc 27 03 bc 34 81 8e bb 1c cb 98 3c 57 8e 85 bb
       -0.008005094 -0.0043488983 0.018651538 -0.004075806
000060 6b 77 71 3c 66 a6 f2 3c e6 34 72 bb 75 98 32 bc
       0.014737944 0.02962036 -0.00369578 -0.010900606
000070 84 91 57 3c 8b d3 d7 b8 2c 42 46 bb ae 77 da 3b
       0.013157252 -0.00010291402 -0.0030251844 0.006667099

weight f4 [1, 32, 5, 5]
000000 6e d0 87 bd a0 9b 35 3d 7f 17 8d bd 4b 6d 92 bd
       -0.06631552 0.04433787 -0.06889247 -0.07149752
000010 54 ac 9f bc c5 38 a8 3c 23 c0 93 3d 69 dc 86 3b
       -0.019491352 0.020534882 0.072143815 0.0041156304
000020 55 2d 83 bb 2e ce 87 3d ea 37 4b bc f0 66 e3 3c
       -0.0040032067 0.066311225 -0.012403468 0.027759045
000030 f6 11 89 3d 46 09 18 bd 47 92 a9 3d 2c 33 82 3d
       0.06692879 -0.03711822 0.08279853 0.063574165
000040 c7 8c 88 3d 22 fb 22 bd 06 09 10 bd 96 8a 10 bd
       0.06667476 -0.03979028 -0.035164855 -0.035288416
000050 ac 91 22 3d 88 0e a7 3d d4 3d 17 3d 62 b0 60 bd
       0.039689705 0.081570685 0.0369242 -0.05485571
000060 37 8e 68 3d 74 44 f7 3c 9e 1a 8a 3d af c0 80 bd
       0.05677625 0.030184008 0.06743358 -0.062867515
000070 ab 3c 2e bd bd 45 4d bd c2 83 31 3d 6b e0 6a 3d
       -0.042538326 -0.050115336 0.043338545 0.057342928
000080 82 9b 4d bd 33 f6 b4 bd 98 e0 6d 3d 8c 0c 1e 3d
       -0.050197132 -0.08836021 0.058075517 0.038586184
000090 4a 5a 94 3d 69 ce 8a 3d b4 dd 99 3d f9 b2 65 bd
       0.07243784 0.06777651 0.0751299 -0.056078885
0000a0 2a 6f 66 3c 75 5c a7 3d 09 5f 2c 3c e1 ee a8 3d
       0.0140645895 0.08171932 0.010520705 0.082486875
0000b0 58 2c 9b 3d 93 46 88 3d ed 85 84 bd 27 36 e5 bc
       0.07576817 0.06654086 -0.06470857 -0.027979923
0000c0 59 bd 48 3d ae 1c f4 3b f8 1f 8a bd 28 76 72 bc
       0.0490087 0.007449708 -0.06744379 -0.014798678
0000d0 b2 6a 4d bd 82 33 a9 3d cf 10 0d bc 6f 1d 35 bd
       -0.05015058 0.082617775 -0.0086099645 -0.044217523
0000e0 72 7b 05 bd 3c 77 0b bc b3 49 b4 3b c1 ba 95 ba
       -0.03258843 -0.008512314 0.0055019497 -0.0011423455
0000f0 a3 73 a9 3d b7 a8 67 3d 6d e3 bd bc f9 9d a0 3d
       0.08274009 0.056557383 -0.023179734 0.07842631
000100 a7 3a 17 bd 16 13 1f bd 20 01 be 3c df 5f 6c 3d
       -0.03692117 -0.03883656 0.023193896 0.057708617
000110 21 25 a9 3d 29 3d 36 bd 89 5b 88 3c 88 85 3c bd
       0.08259035 -0.04449192 0.01664521 -0.046025783
000120 db 3b c1 3b ea 28 27 3d 1b b1 51 bc 8c 92 fb 3c
       0.005897028 0.040810503 -0.012798573 0.030709527
000130 b7 86 9b 3d 01 a6 89 bd 1b a4 75 bd 27 43 30 bd
       0.07594054 -0.06721116 -0.059970956 -0.04303279
000140 ca 0a 81 bd d1 7b 8b 3d 9a 96 8c bd c7 f9 6b bd
       -0.06300886 0.068107255 -0.068646625 -0.057611253
000150 d0 b9 87 bd 6e c2 a9 ba 07 e2 a1 3d 47 77 95 3d
       -0.06627238 -0.0012951621 0.079044394 0.07298141
000160 0d eb a4 3d fd 6f c9 bc 85 bb 3e 3d a8 75 07 3d
       0.08052645 -0.024589533 0.04656555 0.03307119
000170 c8 99 80 3c bf e4 1f 3d cf d5 75 bd 0b 8e a8 3d
       0.015698329 0.03903651 -0.060018357 0.082302175
000180 e8 4f 5c bc bc 1f 98 3d d5 56 53 3d b6 8e d3 bb
       -0.0134467855 0.07427928 0.05159648 -0.0064562215
000190 b6 80 84 3d 9f 82 6e bd 3d c7 85 bd d5 34 8a 3d
       0.06469862 -0.05823004 -0.06532142 0.06748358
0001a0 72 8f 0c 3b 28 92 bc 3c 2c aa 3d bc a1 d3 87 bd
       0.0021447805 0.023018911 -0.011576217 -0.06632162
0001b0 23 b0 95 3c 2a a8 33 3c 02 80 f0 3c 61 01 1e 3d
       0.018272465 0.010965386 0.029357914 0.038575534
0001c0 32 73 a0 3d 15 bf 32 3d 2f 61 9f 3d 15 88 2d 3d
       0.07834472 0.04363926 0.07782208 0.042366106
0001d0 cd 3a 83 3d 71 67 04 bd 97 b3 13 3d 80 4f 5d bd
       0.064077 -0.032325212 0.036059942 -0.054030895
0001e0 62 11 fd 3c 62 86 a3 3d e5 58 89 3c de 48 aa bd
       0.030892078 0.07984616 0.016766021 -0.083146796
0001f0 74 8f 20 3d e8 c1 b4 bc e3 e6 a6 3c 9e 91 1e 3d
       0.039199308 -0.022065118 0.020373767 0.03871309
000200 be 8c 9a bd 5c be 52 bd 3f f6 44 3c d4 d3 8a bd
       -0.07546376 -0.051451072 0.0120216 -0.06778684
000210 b6 47 89 3d 50 97 95 bc 3c 01 24 3d d1 e7 8d bd
       0.06703131 -0.018260628 0.04004024 -0.06928981
000220 80 a3 9b bd d0 57 a6 3c 99 d9 7e 3d 8e 5a ea bb
       -0.075995445 0.020305544 0.062219236 -0.0071519082
000230 35 b5 cf bb 5a d4 84 bd 0a 59 49 bd 0c 5b 9f 3d
       -0.0063387402 -0.06485815 -0.04915718 0.07781038
000240 f8 9b 9c 3d 02 f6 97 3d 02 05 c2 3d c9 36 15 3d
       0.07646936 0.07419969 0.094736114 0.0364292
000250 c2 cf 82 bd 36 25 b2 3d da 82 ff 3a 74 90 73 3d
       -0.06387283 0.08698504 0.0019493953 0.059463933
000260 7a 4e 28 bd 34 a3 bb 39 44 02 83 bc ec ab 1c ba
       -0.041090466 0.00035789015 -0.015992291 -0.0005976546
000270 1d cf af 3d 23 f7 72 3d df d6 9b bd 42 fe a6 bd
       0.085844256 0.05931772 -0.07609343 -0.081539646
000280 ae c5 6e bd 53 9e 98 3c 56 6f 5b bd c0 51 a9 3d
       -0.05829399 0.018630182 -0.053572975 0.08267546
000290 bb 45 a0 bd ca 5c 0e bd ee a5 74 bd 30 7b 6e 3d
       -0.078258 -0.03475646 -0.059728555 0.05822295
0002a0 4f cd 1d bd cd 05 92 3d 03 ca 60 3d 7c 1b 18 bd
       -0.038525876 0.07130013 0.054880153 -0.037135586
0002b0 f0 1a 23 bd 1d 9f 4c bd df 52 7b 3d b8 91 24 3d
       -0.03982061 -0.04995643 0.06135833 0.04017803
0002c0 08 ab 6a 3d 2b 4f 69 bd b3 72 ce 3c 1b 7c f5 bb
       0.057292014 -0.056960266 0.025201177 -0.007491601
0002d0 08 ec 21 bd 7c 08 a1 bd 4d 4c 6f 3d 33 35 79 bc
       -0.039531738 -0.078629464 0.058422375 -0.015210438
0002e0 80 12 57 bd 63 51 13 3d 00 38 f9 bc 40 34 80 bd
       -0.052507877 0.03596629 -0.03042221 -0.06259966
0002f0 51 fb 05 3b 9b 23 a1 3d b1 d8 58 bd 66 ea fc 3c
       0.0020443986 0.07868119 -0.052941028 0.030873489
000300 88 76 81 bd 55 53 8f bc 43 30 38 bd a1 07 7d bd
       -0.06321436 -0.01749579 -0.0449679 -0.061774854
000310 25 54 da bc 27 fb 79 bd a2 5a 21 3d b3 74 5a 3d
       -0.026651451 -0.061030533 0.039393075 0.05333395
000320 ba c2 99 ba d3 01 5d 3d ec 4d 5d bd 78 5a 54 bd
       -0.0011731007 0.053956818 -0.05402939 -0.05184409
000330 e0 0e 46 3d d3 e3 08 3d 0e 55 ae 3d 14 fb fc 3c
       0.04835403 0.033420395 0.08512317 0.030881442
000340 2a 13 3d 3d ee bd 52 3d 5a a3 89 bd a7 6c ab 3d
       0.046160854 0.051450662 -0.0672061 0.08370333
000350 48 38 8c bd 75 1e 25 3d 18 61 09 bc 2b f7 13 bd
       -0.06846672 0.04031225 -0.008384965 -0.03612439
000360 11 f5 51 3c 67 7b 69 3d 2a 29 8d 3d 59 c6 0b 3d
       0.012814776 0.05700245 0.06892617 0.034124706
000370 69 0c cf 3c 79 55 e7 3c 73 7b 1c bd 70 fc db bc
       0.025274472 0.028238999 -0.038203668 -0.02685377
000380 3c c3 9f 3d 2b 65 35 bc dd 5f 88 3d ab fb f9 bc
       0.0780091 -0.011071484 0.066589095 -0.030515512
000390 27 f0 2a 3d 0d 30 28 3d af 9b 20 3d 5c d4 97 3d
       0.041732933 0.04106145 0.03921097 0.07413551
0003a0 47 36 9f bc d7 7a 38 3d b6 b3 3c bc 78 9a 32 3d
       -0.019435061 0.045039024 -0.011517456 0.043604344
0003b0 b9 93 a5 3d 3e 48 2e 3d 0b fc 49 3d bc e4 1f bc
       0.080848165 0.042549364 0.049312633 -0.009759124
0003c0 bd 2d f4 3c b2 25 c5 3c 7a 5d 84 3d da a4 8a 3c
       0.029806966 0.024065826 0.06463142 0.01692431
0003d0 cc 51 7b bd a5 6c 10 bd 9e b2 51 bd 7d 9a a6 bd
       -0.061357304 -0.03525986 -0.051195733 -0.08134935
0003e0 cd f6 37 3b 02 34 ca 3b 78 c6 3c 3d 91 9a ad bc
       0.0028070689 0.0061707506 0.046087712 -0.021191867
0003f0 11 c0 69 bc 8f ad 83 3d 54 5e 50 3d eb 62 87 bd
       -0.014266984 0.06429588 0.05087121 -0.06610664
