modeldata/model_146_epoch.pth (torch_old, 43016 bytes, 5 tensors)

weight f4 [64, 1, 9, 9]
0	0x3d1af0d1	0.037827317
1	0x3aad6763	0.0013229664
2	0x3ca30a24	0.019902296
3	0x3b024803	0.0019879348
4	0xbd0d4b27	-0.0344955
5	0xbd37ea1b	-0.044900995
6	0x3d22e55b	0.03976951
7	0xbaa869cb	-0.0012848912
8	0xbbf75145	-0.00754753
9	0xbc5e239b	-0.013558294
10	0x3bb11cb9	0.0054050353
11	0x3ba78ab6	0.005112971
12	0xbc88c45d	-0.016695196
13	0xbc55c58c	-0.013047587
14	0x3c8b2904	0.016987331
15	0x3cee9b4d	0.029126788
16	0x3c1ec20f	0.009689822
17	0xbc5dcece	-0.013538076
18	0x3c0a50df	0.008442133
19	0xbcd0b7a4	-0.025478192
20	0x3ca968e9	0.020679908
21	0xbb4f3885	-0.0031619382
22	0xbd0a706d	-0.033798624
23	0xbc20c581	-0.009812714
24	0x3c0defb8	0.00866311
25	0x3d13ca5c	0.036081657
26	0x3c13c5b2	0.009019302
27	0xbcdf4855	-0.02725617
28	0x3d01bcda	0.031674244
29	0x3d6bdb1f	0.057582017
30	0x3d0621ed	0.032747198
31	0xbcd86918	-0.0264173
32	0xbb8de4db	-0.00433026
33	0xbc114b64	-0.008868072
34	0xbd5f723c	-0.0545523
35	0x3ca94b15	0.020665685
36	0xbb5fbdaa	-0.0034140148
37	0x3d159ab8	0.036524504
38	0x3dcca399	0.09992141
39	0x3d59bdc7	0.0531595
40	0xbcc363a3	-0.023851221
41	0xbced20d0	-0.02894631
42	0x3bdaf2a1	0.0066817557
43	0xbd148599	-0.03626022
44	0x3d0ce66a	0.034399427
45	0xbb8dc546	-0.0043264953
46	0xbd5a333e	-0.053271525
47	0xbb947fd4	-0.00453184
48	0xbd668639	-0.05628035
49	0xbdae9aeb	-0.08525642
50	0xbbda4b1b	-0.0066617853
51	0xbde3f0bf	-0.11129903
52	0xbd36283f	-0.044471975
53	0x3c805add	0.015668327
54	0x3d178007	0.03698733
55	0x3c44d98f	0.012014761
56	0x3d2374e3	0.039906394
57	0xbba36280	-0.0049861073
58	0x3c31ae74	0.0108448155
59	0x3c5e2315	0.013558169
60	0xbccfd53b	-0.02537023
61	0x3b81cdbd	0.0039612935
62	0x3d673f0b	0.056456607
63	0xbccd31a5	-0.025048086
64	0xbce121d7	-0.027481956
65	0xbc8cfee6	-0.017211389
66	0xbc914ef9	-0.017737852
67	0x3d994429	0.07483704
68	0x3c536f2f	0.012904926
69	0xbd238b00	-0.039927483
70	0xbc614605	-0.013749604
71	0x3cae1e5f	0.021254716
72	0x3c6d9760	0.014501423
73	0xbc83141c	-0.0160008
74	0xbca980ae	-0.020691242
75	0x3c86615f	0.016403852
76	0x3d551f74	0.05203195
77	0x3c18120b	0.0092816455
78	0xbcb9c71e	-0.022677954
79	0x3c10621a	0.008812452
80	0xbd29d9ea	-0.041467585
81	0xbab4f870	-0.001380695
82	0xbcab99cb	-0.020947358
83	0xbbf88b3c	-0.0075849574
84	0x3cf1d145	0.029518733
85	0x3d7295cc	0.05922489
86	0x3d1c32fe	0.038134567
87	0x3d578963	0.052621257
88	0xbc821429	-0.015878754
89	0xbd05275e	-0.032508247
90	0x3ceaaad6	0.028645914
91	0xbcd3ef86	-0.02587105
92	0x3cd0a85d	0.025470907
93	0x3d230691	0.039801184
94	0x3cddeb93	0.02708987
95	0x3d44ae1e	0.048017614
96	0x3bd71478	0.0065637194
97	0x3d3c23bd	0.04593252
98	0x3d133bab	0.035945576
99	0x3cede606	0.029040348
100	0xbc020eb2	-0.007938074
101	0x3cb85c46	0.022504937
102	0xbc382814	-0.011240024
103	0x3cc1af88	0.02364327
104	0x3d36f5dd	0.044668067
105	0xbcba8fc0	-0.022773623
106	0x3d66ebeb	0.056377333
107	0xbb966cb9	-0.0045905975
108	0x3cecdbd9	0.028913425
109	0x3cc97c86	0.02459551
110	0x3c59fb5c	0.013304558
111	0xbbe2e85c	-0.006924672
112	0xbcf0bffa	-0.029388417
113	0xbad3cdff	-0.0016159414
114	0xbc4b0aef	-0.0123927435
115	0x3d01af26	0.031661175
116	0x3c3080b5	0.010772874
117	0x3c44d115	0.01201274
118	0x3c30d240	0.010792315
119	0x3ce659a3	0.028118914
120	0xbc296509	-0.01033903
121	0xbd232d25	-0.039837975
122	0xbdb38705	-0.08765987
123	0xbd275d3f	-0.04086041
124	0x3c96a91b	0.018391183
125	0x3d970036	0.07373087
126	0x3cbc2cd4	0.022970594
127	0x3d192a0c	0.037393615
128	0x3d525d39	0.051358435
129	0x3afd88e4	0.0019343165
130	0xbd0c474c	-0.03424768
131	0xbd81a622	-0.063305154
132	0xbd7d5832	-0.061851688
133	0x3d2eb6f7	0.042654958
134	0x3d908460	0.070564985
135	0x3c00183c	0.007818278
136	0x3d1621a7	0.036653187
137	0x3cb71ce9	0.022352653
138	0x3c3d741a	0.011563325
139	0xbb44e0b9	-0.0030041172
140	0xbd58bdb7	-0.0529153
141	0xbc1c5ec0	-0.009544075
142	0x3d02af70	0.03190559
143	0x3d4a6d0b	0.049420398
144	0xbc0bcb0c	-0.008532297
145	0x3cc7b588	0.024378553
146	0x3ce0e737	0.027454002
147	0x3d2b386d	0.04180186
148	0x3c8fbfb9	0.017547475
149	0x3d601063	0.054703128
150	0x3d54fe9f	0.052000638
151	0x3d2584aa	0.04040972
152	0x3d03eb17	0.03220662
153	0xbc6de0c9	-0.014518925
154	0x3cf2d750	0.029643685
155	0xbc628739	-0.013826185
156	0xbb74168a	-0.003724488
157	0x3d2c9fdb	0.042144638
158	0x3cec9ac0	0.028882384
159	0x3c9e53b3	0.01932702
160	0x3b6e1027	0.0036325546
161	0xbbde5bc1	-0.0067858403
162	0xbb1b517e	-0.0023699696
163	0x3bac02c2	0.005249352
164	0xbd0b1e55	-0.033964474
165	0x3c835129	0.016029911
166	0x3c3b2495	0.011422296
167	0xbcd17e89	-0.025573032
168	0xbb1642fb	-0.0022928107
169	0xbd237a8c	-0.03991179
170	0x3b314134	0.002704692
171	0xbcbefd17	-0.023314042
172	0xbae57840	-0.0017507151
173	0x3cc680a5	0.024231264
174	0x3d32198f	0.043481406
175	0x3daded47	0.08492523
176	0x3d1bc942	0.03803373
177	0x3df85318	0.12125224
178	0x3cd48536	0.025942426
179	0x3d53661b	0.051611047
180	0x3c4aa174	0.012367595
181	0x3d8cb439	0.06870312
182	0x3c1df7b2	0.009641575
183	0xbde0bc36	-0.109733984
184	0xbe35fa34	-0.17771226
185	0xbe8939cf	-0.26801917
186	0xbe63ad52	-0.22234085
187	0xbe04dcfb	-0.12974922
188	0x3d2d40b4	0.042298034
189	0xbd02531b	-0.031817537
190	0xbcaaca8d	-0.020848537
191	0xbd265fba	-0.040618636
192	0x3c89e457	0.016832514
193	0x3dd836ba	0.10557313
194	0x3df09605	0.11747364
195	0x3da89a67	0.08232575
196	0xbb84818f	-0.004043765
197	0xbd2009c8	-0.039071828
198	0x3b2537d6	0.0025210283
199	0xbc6f96b9	-0.014623337
200	0x3c2cb630	0.010541484
201	0xbaf6ccc9	-0.0018829341
202	0xbe000364	-0.12501293
203	0xbdbd45f0	-0.09241855
204	0x3a82c34a	0.0009976414
205	0x3cc493e3	0.0239963
206	0xbc7692a3	-0.015049609
207	0x3a5525a3	0.00081309135
208	0xbc5f3461	-0.013623328
209	0x3cdb73a6	0.026788544
210	0x3d006ab7	0.03135177
211	0xbce2b05b	-0.027671983
212	0xbcfa6f6c	-0.030570708
213	0xbcf25dab	-0.02958568
214	0x3cf654bc	0.030069701
215	0xbcf9c25e	-0.03048819
216	0x3cd964d4	0.026537336
217	0x3c8a3d07	0.016874803
218	0xbcb47637	-0.022029025
219	0x3cc6768b	0.024226448
220	0x3dc69703	0.09696772
221	0x3d7f279d	0.062293638
222	0xbcc9f67b	-0.024653664
223	0x3cec8a80	0.028874636
224	0xbb7b98c9	-0.0038390628
225	0x3ab47925	0.0013769014
226	0xbc4bbc71	-0.012435065
227	0xbd063f30	-0.032775104
228	0xbc6fecad	-0.01464383
229	0x3d367245	0.04454257
230	0x3d7f7906	0.062371276
231	0x3d122967	0.035684016
232	0xbc41891a	-0.011812473
233	0xba9733fb	-0.0011535877
234	0x3c000026	0.007812535
235	0x3ca8cf5e	0.020606693
236	0xbbb37c83	-0.0054774894
237	0xbbe3b5c4	-0.0069491584
238	0xbc01abe7	-0.00791452
239	0xbbf75a8c	-0.007548636
240	0xbd297482	-0.041370876
241	0xbc489b32	-0.012244033
242	0x3bf6c2b6	0.0075305356
243	0xbc20a35b	-0.009804572
244	0x3b8f052c	0.00436463
245	0xbd2ba0a9	-0.041901264
246	0xbcefa5e5	-0.02925391
247	0x3d68b47c	0.05681275
248	0xbcc95b80	-0.024579763
249	0xbca8992c	-0.02058085
250	0x3d4c9ae2	0.049952395
251	0x3c5295f0	0.012853131
252	0x3d04ae70	0.03239292
253	0xbbc782ba	-0.006088582
254	0xbd86e2eb	-0.0658625
255	0x3b53ed41	0.003233746

bias f4 [64]
0	0xbad625b9	-0.0016338147
1	0x3d15c3f3	0.036563825
2	0xb9b85e65	-0.00035165544
3	0x3cb5b0f6	0.022179108
4	0x3b94b3c1	0.00453803
5	0x3ca43f0f	0.0200496
6	0xbc93ca00	-0.018040657
7	0x394e1bce	0.00019656049
8	0x3a320234	0.00067904894
9	0x3c494505	0.012284522
10	0x3bd2fd3d	0.0064388798
11	0xbbc5bab7	-0.006034221
12	0x3ad36385	0.0016127682
13	0x3c86627b	0.016404381
14	0x3d0a1743	0.03371359
15	0x3b188a5e	0.0023275833
16	0x3c57fba9	0.013182559
17	0x3c3d86f3	0.011567819
18	0x3b852165	0.004062819
19	0xb9502a39	-0.00019852155
20	0x3bba7036	0.005689646
21	0x3b78192e	0.0037856805
22	0xbb9f45e9	-0.004860629
23	0x3b1c1e6b	0.0023821841
24	0x3b303c1f	0.0026891304
25	0x3c2d42e2	0.010575028
26	0x3c691eb3	0.014228511
27	0x3be927ef	0.007115356
28	0x3d0f6b66	0.035014533
29	0x3c942357	0.018083258
30	0x3b6fe572	0.0036605266
31	0x3ca528b3	0.020161008
32	0xba9915fc	-0.0011679525
33	0x3c14e115	0.009086867
34	0x3b1eb398	0.0024215933
35	0xbb2ffbf1	-0.002685305
36	0x3c7c98bb	0.015417273
37	0xbb469ecf	-0.003030706
38	0x3b046335	0.0020200734
39	0xbbf8a0da	-0.0075875344
40	0x3c33faa5	0.010985051
41	0x3c699725	0.014257227
42	0xbcce7fd3	-0.025207436
43	0x3bba5950	0.0056869164
44	0x3bfb041d	0.0076604025
45	0x3bcb9993	0.006213376
46	0x3ca31886	0.019909155
47	0xbbf67374	-0.0075210873
48	0x3b7bb30f	0.0038406288
49	0xbbdadd28	-0.006679196
50	0x3c922f73	0.017844891
51	0x3c963ae1	0.018338623
52	0xbad3e8d0	-0.0016167406
53	0x3cbece2b	0.023291668
54	0x3b7f8298	0.0038987752
55	0x3c336c66	0.010951137
56	0x3c006b34	0.007838059
57	0x3c14e96e	0.009088857
58	0x3ca4cc8e	0.02011707
59	0x3c26c742	0.010179343
60	0xba99fd2d	-0.0011748426
61	0x3b87d4b6	0.00414523
62	0xbbf2282e	-0.0073900437
63	0x3bc0b37a	0.0058807703

weight f4 [32, 64, 1, 1]
0	0x3d58ed41	0.052960638
1	0xbe682133	-0.22668914
2	0xbe14796a	-0.14499441
3	0x3dd97333	0.10617676
4	0xbdda977c	-0.106734246
5	0x3dabd2b7	0.083898
6	0xbe7bd079	-0.24591245
7	0x3d80c6cc	0.062879175
8	0xbd286a84	-0.041117206
9	0x3e1212b5	0.14264949
10	0xbdef05ae	-0.11671005
11	0xbe96e7a3	-0.294736
12	0x3e319eaa	0.17345682
13	0x3e448b79	0.1919383
14	0x3e4ea5ab	0.20180385
15	0xbe63e339	-0.22254647
16	0xbe3e4a62	-0.18583062
17	0x3d0ff240	0.035143137
18	0xbe1e1e29	-0.15441193
19	0x3e0bc262	0.1364837
20	0xbda959c0	-0.082690716
21	0xbe64a365	-0.22327955
22	0x3e390189	0.18066992
23	0xbe2b7147	-0.1674243
24	0x3e259ba4	0.16172653
25	0x3d1a64ba	0.037693717
26	0x3d91f96e	0.07127653
27	0xbd9687a2	-0.07350089
28	0xbd05355d	-0.032521594
29	0xbe6ec89b	-0.23318712
30	0x3e3cf048	0.18451035
31	0x3e6f26e0	0.23354673
32	0x3e5e8d00	0.21733475
33	0xbe3138cf	-0.17306827
34	0x3de08f00	0.10964775
35	0x3ea3b551	0.3197427
36	0xbcc3dd98	-0.023909375
37	0x3e43c484	0.19117934
38	0xbdc40a66	-0.09572296
39	0x3d156021	0.03646863
40	0xbe3223e4	-0.17396504
41	0xbda8dfc0	-0.08245802
42	0x3e80cd92	0.25156838
43	0xbe886f5b	-0.26647457
44	0x3e441903	0.19150166
45	0x3c5c3af4	0.01344179
46	0x3d928dbc	0.0715594
47	0x3c725ec7	0.0147931045
48	0x3e1711da	0.14752904
49	0xbdec2782	-0.11530973
50	0x3dd493b6	0.10379736
51	0xbebbce45	-0.3668081
52	0xbe580f08	-0.21099484
53	0xbe9a9f43	-0.30199632
54	0x3e30081d	0.17190595
55	0x3cd53c49	0.026029723
56	0xbe695a00	-0.22788239
57	0xbd7b4165	-0.061341662
58	0x3e6299b2	0.22128943
59	0xbca88805	-0.020572672
60	0xbd7148c1	-0.058907274
61	0x3dc60499	0.09668846
62	0xbee95a22	-0.45576578
63	0x3da0b66c	0.07847294
64	0xbd245d86	-0.040128253
65	0x3e8edb38	0.27901626
66	0xbe79549d	-0.24348684
67	0x3d2a1ddf	0.041532394
68	0x3e616fd9	0.22015323
69	0x3d90bc2e	0.070671424
70	0xbf578a33	-0.8419525
71	0xbe320751	-0.17385603
72	0xbd33cce8	-0.043896586
73	0xbe16d419	-0.14729346
74	0x3d28e810	0.041236937
75	0xbdbf96f4	-0.09354964
76	0x3c2b8e35	0.0104709165
77	0xbe19090d	-0.14944859
78	0x3bd8ace4	0.006612407
79	0xbe4e969d	-0.20174642
80	0xbe563508	-0.20918667
81	0x3e4f4827	0.20242368
82	0xbd9fc590	-0.07801354
83	0x3e1b9269	0.1519257
84	0xbe12460b	-0.14284532
85	0x3d8c157b	0.068400346
86	0xbd7e2af5	-0.062052686
87	0xbe56c4a8	-0.20973456
88	0x3d453da8	0.048154503
89	0x3f4e60c0	0.8061638
90	0x3e0ff531	0.14058377
91	0xbe35f87d	-0.17770572
92	0x3c74ac06	0.014933592
93	0xbd57f298	-0.05272159
94	0x3d3ef4fe	0.04662036
95	0x3e2ca093	0.16858129
96	0xbe39534c	-0.18098181
97	0xbe1d20a2	-0.1534448
98	0xbe856ce1	-0.2605963
99	0x3e84b2ac	0.25917566
100	0xbe51d41c	-0.2049107
101	0xbe2eb3e9	-0.17060818
102	0x3df885e6	0.12134914
103	0x3d2a2953	0.041543316
104	0xbdbbf22a	-0.091770485
105	0x3bd6312e	0.0065366244
106	0x3ded7a1d	0.11595557
107	0xbe6de27c	-0.23230928
108	0x3e431d34	0.19054109
109	0x3b95c4d9	0.004570585
110	0x3d77b2d6	0.060473286
111	0xbe873582	-0.2640801
112	0xbe184aba	-0.14872256
113	0x3e053f5e	0.13012454
114	0x3e48c2af	0.19605516
115	0x3ed42150	0.41431665
116	0x3e8898d0	0.26679087
117	0xbdca3203	-0.0987282
118	0x3ca5d098	0.020241067
119	0x3c424fbf	0.011859833
120	0x3e26b80f	0.1628115
121	0xbddf1129	-0.10891945
122	0xbe6a339f	-0.22871254
123	0x3e7fcd8c	0.24980754
124	0xbde43e28	-0.11144668
125	0xbc62894f	-0.013826682
126	0x3e568853	0.20950441
127	0xbe10e96f	-0.14151548
128	0xbec11c7e	-0.3771705
129	0x3e9d57e5	0.3073112
130	0x3e62a47a	0.22133055
131	0x3e8a8603	0.27055368
132	0xbddbd2f0	-0.107335925
133	0xbdc941cf	-0.09827005
134	0x3ef0becb	0.47020563
135	0xbe518c32	-0.20463637
136	0xbf1c9bd5	-0.6117528
137	0x3e9f3277	0.3109319
138	0x3e3fe328	0.18738997
139	0x3df41451	0.119179375
140	0x3e249c01	0.16075136
141	0xbd56d717	-0.05245122
142	0x3e5701c2	0.20996764
143	0xbd905cdf	-0.07048964
144	0x3d3fe44f	0.04684859
145	0x3eab6372	0.33474308
146	0xbe29d61d	-0.16585584
147	0x3de4180a	0.111373976
148	0xbf049a92	-0.51798356
149	0xbe1c59fc	-0.15268701
150	0xbcee15fe	-0.029063221
151	0xbd9e0338	-0.07715458
152	0xbe577a5d	-0.21042772
153	0x3c554dae	0.013019009
154	0xbea35070	-0.31897306
155	0xbe363ef0	-0.17797446
156	0x3e9166b7	0.28398678
157	0x3ee2c547	0.44291136
158	0xbe6d1159	-0.23151149
159	0xbd9a120f	-0.07522976
160	0x3f40e835	0.7535432
161	0x3baf2ee5	0.0053461664
162	0xbd24906c	-0.040176794
163	0xbefab9bf	-0.48969838
164	0xbe61abf8	-0.22038257
165	0xbdce4e3d	-0.100735165
166	0x3dd95f0c	0.10613832
167	0xbe202c2e	-0.15641853
168	0xbd854069	-0.06506426
169	0x3f84fdf8	1.0390005
170	0xbf0e9c66	-0.55707395
171	0xbe756d03	-0.23967366
172	0xbd9061d4	-0.07049909
173	0x3e8cb3c7	0.2748091
174	0x3f19bc04	0.60052514
175	0x3f16bc49	0.5888105
176	0xbe9a5648	-0.30143952
177	0xbdb191b7	-0.08670371
178	0xbd91db5a	-0.07121916
179	0xbf41831a	-0.7559067
180	0x3e3c1bf6	0.18370041
181	0xbe7f04fd	-0.24904247
182	0xbc82d447	-0.015970362
183	0xbe0ae0e4	-0.13562351
184	0x3e93bf85	0.28857055
185	0x3e74055e	0.23830172
186	0x3dbb7205	0.09152607
187	0x3ea64f05	0.32482162
188	0x3e141a59	0.14463176
189	0xbcdc9215	-0.026925126
190	0xbe96531a	-0.29360276
191	0xbe956301	-0.29177096
192	0x3e9fefe5	0.31237713
193	0xbdb91f0b	-0.09039124
194	0xbe548a6f	-0.20755933
195	0x3ea30033	0.3183609
196	0x3de6180a	0.11235054
197	0xbe3eda75	-0.18638022
198	0xbddf31f9	-0.108982034
199	0xbe8a1909	-0.26972225
200	0x3cc9e3a4	0.02464468
201	0xbe0f5352	-0.13996628
202	0x3e17d226	0.14826259
203	0x3df0c5e3	0.11756494
204	0xbe1b1a7e	-0.15146825
205	0x3e6f6b71	0.2338083
206	0xbe50871b	-0.20364039
207	0x3e12f477	0.14351068
208	0x3ae3bde8	0.0017375322
209	0xbc582d28	-0.01319436
210	0xbe449a57	-0.19199501
211	0x3e4d36a6	0.20040378
212	0xbe902894	-0.2815596
213	0x3ea8cf14	0.32970488
214	0xbf2733cf	-0.6531343
215	0x3da04ebf	0.078275196
216	0x3e3cb6e4	0.18429142
217	0x3e9dff0c	0.30858648
218	0x3eb8a12d	0.36060467
219	0x3e73e0bc	0.23816198
220	0xb9b36ba0	-0.00034221727
221	0x3e6fb385	0.23408325
222	0xbd6dba6c	-0.058039114
223	0x3edda509	0.43289974
224	0x3e021ce8	0.1270634
225	0xbe55bf90	-0.20873857
226	0xbeb59e8a	-0.35472518
227	0x3df446a3	0.119275354
228	0x3e6c0b6a	0.23051229
229	0xbdb13792	-0.08653177
230	0xbe3a89e2	-0.1821666
231	0x3e2cc995	0.16873772
232	0x3dbbec29	0.09175903
233	0xbed60133	-0.4179779
234	0x3dc83298	0.09775275
235	0x3e55e6b5	0.20888789
236	0x3e95d31b	0.29262623
237	0x3c00df6f	0.007865771
238	0xbea7a40c	-0.32742345
239	0xbf1bc9a6	-0.60854566
240	0x3df867b7	0.12129157
241	0xbe810b86	-0.25204104
242	0xbd917880	-0.07103062
243	0x3e375875	0.17904837
244	0x3db30625	0.08741406
245	0x3d084728	0.033270985
246	0xbe453729	-0.19259323
247	0x3d5869c5	0.052835245
248	0xbec4b387	-0.38418218
249	0xbea5b92c	-0.32367837
250	0xbe1d1f86	-0.15344056
251	0x3e7e39a3	0.24826674
252	0xbe8909c2	-0.26765257
253	0xbe73cfdd	-0.23809762
254	0xbf13ad5f	-0.5768642
255	0x3dcbaf19	0.099455066

bias f4 [32]
0	0xbc8c9adc	-0.017163686
1	0xbc8dcddb	-0.017310074
2	0x3cf33ca1	0.029691996
3	0xbd19c91b	-0.037545305
4	0x3ad92ea7	0.001656969
5	0x3c0d17fe	0.008611677
6	0xbb362a4e	-0.0027796212
7	0x3a1cd051	0.00059819693
8	0xbd13ebaa	-0.03611342
9	0xbbc99a1a	-0.0061524035
10	0xbc1fc680	-0.009751916
11	0x3b9e95ee	0.0048396504
12	0xbbe07a3f	-0.0068505104
13	0x3c22fbab	0.009947698
14	0x3bb68963	0.005570577
15	0xbaf7d8d7	-0.0018909228
16	0x3c0c1d14	0.008551855
17	0x3c2b6a1b	0.010462309
18	0x3bdcf14e	0.006742633
19	0x3b794380	0.0038034618
20	0xbc766236	-0.015038064
21	0x3c4b8142	0.012420954
22	0x3ccc33a3	0.024926966
23	0x3b1eddea	0.0024241158
24	0x3a97dda0	0.0011586435
25	0xba7d814e	-0.0009670452
26	0xbbe86436	-0.007092024
27	0xba6ea3b8	-0.00091033755
28	0xba9d6840	-0.0012009218
29	0x3c37d925	0.011221205
30	0x3b8aa0f3	0.0042306124
31	0xbbd33408	-0.0064454116

weight f4 [1, 32, 5, 5]
0	0xbd77e740	-0.06052327
1	0x3d9429dc	0.072345465
2	0xbdb425eb	-0.08796295
3	0xbda55375	-0.08072559
4	0xbcaf7348	-0.021417275
5	0xbc514b21	-0.01277426
6	0xbc1ff272	-0.009762393
7	0x3d09c5ac	0.03363578
8	0xbc34bfed	-0.011032087
9	0x3dc25636	0.094891
10	0x3da9f380	0.08298397
11	0x3d4e8950	0.05042392
12	0x3cc69e12	0.024245296
13	0x3a8c1d68	0.0010689916
14	0xbd8b551b	-0.06803342
15	0xbd00b585	-0.03142311
16	0x3d38658a	0.04501871
17	0xbcd898df	-0.026440082
18	0x3cea5217	0.028603597
19	0x3d4871e4	0.04893674
20	0x3d773cc7	0.060360696
21	0x3a6bb30a	0.00089912175
22	0xbd89b2bf	-0.06723546
23	0xbdac6de6	-0.08419399
24	0xbd80659c	-0.062693805
25	0x3d4814ae	0.048847847
26	0xbd7e41d9	-0.062074516
27	0x3d1c6424	0.03818144
28	0x3dc748f2	0.0973071
29	0x3d4acb9f	0.049510594
30	0xbcf2cdec	-0.029639207
31	0xbcb44551	-0.022005709
32	0xbd0174dd	-0.03160559
33	0x3d3f68bd	0.046730746
34	0x3c09754e	0.008389784
35	0xbdb879b7	-0.0900759
36	0xbda6c56f	-0.08143126
37	0x3de61416	0.112343
38	0xbda6bd91	-0.08141626
39	0xbd666ab1	-0.056254093
40	0xbd4aff91	-0.049560133
41	0x3d45a57c	0.04825352
42	0xbda9ee67	-0.08297425
43	0xbd5dcdc1	-0.0541513
44	0xbb5a8f96	-0.0033349744
45	0x3d04cb9a	0.032420732
46	0xbcbfddd6	-0.02342121
47	0xbcbdc020	-0.023162901
48	0x3db83a96	0.089955494
49	0x3d632a11	0.05546004
50	0xbb7de1b7	-0.0038739273
51	0x3d99503d	0.07486007
52	0x3d8bb8a7	0.06822329
53	0x3bfb55a4	0.0076701213
54	0x3c9024d5	0.017595688
55	0x3c557939	0.01302939
56	0xbd79f95b	-0.06102882
57	0xbe108ea5	-0.14116915
58	0xbd5ba482	-0.053623684
59	0xbd826b54	-0.063681275
60	0xbca35503	-0.019937998
61	0xbd36efe6	-0.04466238
62	0x3e4bfca4	0.19920594
63	0x3dbc9b64	0.09209326
64	0xbcb16522	-0.02165467
65	0x3c38c5bb	0.011277611
66	0xbd6c45c8	-0.057683736
67	0x3d7e4260	0.06207502
68	0x3d6fe957	0.05857214
69	0xbd9990d6	-0.074983284
70	0x3cbaccb8	0.022802696
71	0xbca4549a	-0.020059872
72	0xbdf75cec	-0.1207827
73	0x3b442f91	0.0029935578
74	0xbcae1d6e	-0.021254268
75	0xbc913059	-0.01772325
76	0xbd2da834	-0.04239674
77	0x3c0debce	0.008662177
78	0x3ce7a194	0.028275289
79	0xbc994fc0	-0.018714786
80	0x3c2c3525	0.0105107175
81	0xbd61f413	-0.055164408
82	0x3d21f83b	0.03954337
83	0x3d11bc9e	0.03558027
84	0xbcb68207	-0.022278799
85	0xbdb7ddf0	-0.08977878
86	0x3db1015c	0.086428374
87	0x3e2fb1c4	0.17157656
88	0x3d5aa67b	0.053381424
89	0xbdc03ea1	-0.093869455
90	0x3d644eb8	0.055739135
91	0xbda00516	-0.0781347
92	0x3d518dd8	0.051160663
93	0xbd2bb7d4	-0.04192336
94	0xbc0fe90a	-0.008783588
95	0xbd0b832d	-0.034060646
96	0x3b161293	0.0022899255
97	0x3d0eadd2	0.034833737
98	0x3cf532f4	0.029931523
99	0xbd3f65e0	-0.046728015
100	0xbc3a68be	-0.011377512
101	0xbd46e03c	-0.04855369
102	0x3c02a4c9	0.007973858
103	0x3d392ed5	0.045210678
104	0xbcd3217e	-0.025772806
105	0xbc988d9f	-0.018622218
106	0x3d09c0fa	0.033631302
107	0xbd31eb69	-0.043437395
108	0xbda5df01	-0.08099175
109	0x3d045d8e	0.032315783
110	0x3ba5cacb	0.005059575
111	0x3c9b6d01	0.018972876
112	0x3ccb76aa	0.024836857
113	0x3c83d718	0.016093776
114	0x3c13666b	0.008996586
115	0xbd241504	-0.040059105
116	0x3c811f47	0.015761985
117	0x3d627c3c	0.05529426
118	0x3d2200da	0.039551593
119	0xbd94bf62	-0.07263066
120	0xbd4e5ca9	-0.050381336
121	0x3d06a765	0.032874484
122	0x3d3ef5a5	0.046620984
123	0xbd8a7f29	-0.06762535
124	0xbce1a27a	-0.027543295
125	0x3d822939	0.06355519
126	0x3d248fd4	0.040176228
127	0x3cf6dea0	0.030135453
128	0xbd8d403a	-0.06897016
129	0x3d4ec018	0.050476164
130	0xbd25fc0a	-0.040523566
131	0x3d456633	0.048193168
132	0x3d3b2f1b	0.04569922
133	0x3c90db75	0.01768277
134	0x3b906686	0.004406753
135	0x3d1a8808	0.037727386
136	0x3d3e8b4b	0.04651956
137	0xbc78f2b7	-0.0151945865
138	0x3d5abe8a	0.05340437
139	0xbd20151d	-0.039082635
140	0xbda6d3ce	-0.08145867
141	0x3cfa1ad4	0.03053037
142	0xbcaa5128	-0.020790651
143	0xbd380beb	-0.04493324
144	0x3da23d4b	0.07921847
145	0x3d591890	0.05300194
146	0x3cf6ded0	0.030135542
147	0xbcca07ea	-0.024661977
148	0xbd5390f5	-0.051651914
149	0xbd4ba93c	-0.04972194
150	0xbd61350f	-0.05498224
151	0x3c7f50f2	0.015583264
152	0xbcfe1131	-0.031014057
153	0x3cc68030	0.024231046
154	0xbcfea849	-0.031086104
155	0xbdb313d6	-0.08744018
156	0x3d10380f	0.03520971
157	0xbb22104e	-0.0024728957
158	0xbdc8aa98	-0.09798163
159	0x3beb1702	0.0071743736
160	0x3d19aa26	0.03751578
161	0x3df3638f	0.11884224
162	0x3d707989	0.058709655
163	0xbcb0ddb8	-0.021590099
164	0x3d11bde6	0.035581492
165	0xbd487231	-0.048937026
166	0x3d27f554	0.041005448
167	0xbd406b64	-0.046977416
168	0xbd56e4ed	-0.052464414
169	0xbc810365	-0.015748689
170	0xbd6f20cd	-0.05838089
171	0x3d8d751e	0.06907104
172	0xbcc2aff6	-0.023765545
173	0xbcaaa802	-0.020832065
174	0x3d0c8407	0.0343056
175	0x3d8d8484	0.06910041
176	0x3d3b8162	0.045777686
177	0xbd48c2fa	-0.04901407
178	0xbcc9b8dd	-0.024624282
179	0xbc42d423	-0.011891398
180	0x3da19b3c	0.07890937
181	0xbc42e216	-0.011894723
182	0xbd99dd27	-0.075128846
183	0x3c5ebef4	0.013595331
184	0x3b3c3a56	0.0028721294
185	0xbba24148	-0.00495163
186	0x3d869cac	0.065728515
187	0xbd9450c6	-0.07241969
188	0x3d1e14a7	0.038593914
189	0x3d8fca09	0.07020957
190	0xbd4f9c4a	-0.05068616
191	0x3da56035	0.08074991
192	0x3d428744	0.04749228
193	0x3d002eb9	0.03129456
194	0x3d9dc916	0.0770437
195	0xbd134ad3	-0.03596003
196	0x3d9bddc6	0.07610659
197	0x3dacbec8	0.08434826
198	0xbc1e1812	-0.0096492935
199	0xbd7fb2ff	-0.062426563
200	0x3d60f436	0.054920398
201	0x3d530927	0.0515224
202	0xba816af0	-0.0009873789
203	0x3c266421	0.0101557085
204	0x3b869394	0.004106948
205	0x3cedf62f	0.029048054
206	0x3da6c7ee	0.08143602
207	0x3d2cb74d	0.042166997
208	0x3d85643c	0.06513259
209	0xbd55b997	-0.052178945
210	0xbda79e34	-0.08184472
211	0xbc54074f	-0.012941196
212	0xbd72eb03	-0.059306156
213	0x3d9f1a68	0.077687085
214	0x3d6603fa	0.056156136
215	0xbd9f4b5c	-0.077780455
216	0x3c4e9721	0.012609274
217	0xbd8420e8	-0.06451589
218	0xbc2a1c34	-0.010382701
219	0x3d93b979	0.072131105
220	0xbd7ca17e	-0.06167745
221	0xbb69c7b3	-0.0035672009
222	0xbd5c144b	-0.05373029
223	0x3c5636b9	0.01307457
224	0xbd8a2df9	-0.0674705
225	0xbdad2f88	-0.084563315
226	0x3da44f29	0.08022911
227	0xbd376ea0	-0.044783235
228	0xbccb3d21	-0.024809422
229	0x3dabc169	0.083864994
230	0x3d3e082a	0.046394505
231	0xbd1e138b	-0.038592856
232	0xbc7a3677	-0.0152717745
233	0xbcfc3f76	-0.03079198
234	0xbda003ba	-0.07813211
235	0xbd559e21	-0.052152757
236	0x3c1bb5ae	0.009503765
237	0xbc6a1d78	-0.014289252
238	0xbd7e05eb	-0.062017363
239	0xbd8f7ace	-0.07005845
240	0x3c0ecea5	0.00871626
241	0x3d0bef68	0.034163862
242	0xbd8a2014	-0.067444
243	0x3cba1a1e	0.022717532
244	0x3d7290b5	0.059220035
245	0xbd9902ac	-0.07471213
246	0x3d6b7694	0.05748613
247	0xbc951dea	-0.01820274
248	0x3caf1361	0.021371545
249	0x3d96c967	0.07362633
250	0xbd3c453c	-0.045964465
251	0x3c871afb	0.016492357
252	0x3d315662	0.04329527
253	0x3da74e12	0.081691876
254	0xbc5a2ace	-0.0133158695
255	0x3c3f6c80	0.011683583
