modeldata/model_79_epoch.pth (torch_old, 43016 bytes, 5 tensors)

weight f4 [64, 1, 9, 9]
0	0x3d116293	0.0354944
1	0x3c1f5e08	0.009727009
2	0x3ccd51d0	0.025063425
3	0xbae43b66	-0.0017412722
4	0xbc4c4008	-0.012466438
5	0xbc96f017	-0.01842503
6	0x3d043407	0.03227618
7	0xbc38ad50	-0.01127179
8	0x3c1bebdb	0.009516682
9	0xbc81440a	-0.015779514
10	0x3c75ee42	0.015010418
11	0x3bba2546	0.005680713
12	0xbc95d619	-0.018290566
13	0x3c5bee17	0.013423464
14	0x3d115c2d	0.035488296
15	0xbc0f6ce0	-0.008753985
16	0xbbdb170a	-0.006686096
17	0xbb9c7b7f	-0.004775464
18	0x3c40fcca	0.01177902
19	0xbc9eb488	-0.019373193
20	0x3bf6133a	0.007509616
21	0xbc816249	-0.015793936
22	0xbca732b9	-0.020409929
23	0x3ad6816b	0.0016365474
24	0xbce40b4f	-0.027837424
25	0x3c953cc2	0.018217448
26	0xbc1a030c	-0.0094001405
27	0xbcec6fa6	-0.028861832
28	0x3cc89b78	0.024488196
29	0x3c8a8c2d	0.016912544
30	0xbb8007d9	-0.0039071855
31	0xbcb65c3e	-0.022260781
32	0x3a824eba	0.0009941675
33	0xbb4e1515	-0.0031445671
34	0xbd1b6d30	-0.037945926
35	0x3c9d5620	0.019206107
36	0xba0c0a6a	-0.0005342128
37	0x3cffd02c	0.031227194
38	0x3d75dbbc	0.06002401
39	0x3ce9b407	0.028528227
40	0xbb38e0ec	-0.0028210236
41	0xbcc603da	-0.024171758
42	0x3d015540	0.03157544
43	0xbcb1685a	-0.021656204
44	0x3d090be9	0.033458624
45	0x3bdeca9d	0.0067990557
46	0xbd04e058	-0.032440513
47	0x3b0b0383	0.002121181
48	0xbca67f7c	-0.020324461
49	0xbd417cd3	-0.047238182
50	0xbb433240	-0.002978459
51	0xbd6a9961	-0.05727518
52	0xbd10744b	-0.035267156
53	0x3bfe2881	0.0077562933
54	0x3cb30150	0.021851212
55	0x3c1730b1	0.0092279175
56	0x3d1ab976	0.037774526
57	0x3bb9e8e7	0.005673516
58	0xbc724538	-0.014787011
59	0xbc9efa34	-0.019406416
60	0x3695ea5a	4.467828e-06
61	0xbc2cf7d4	-0.010557134
62	0x3d40f6b8	0.04711029
63	0xbccb74e3	-0.02483601
64	0xbc41dd14	-0.011832494
65	0xbb8512d1	-0.004061081
66	0xbbc0e0da	-0.0058861794
67	0x3d235c34	0.039882854
68	0xbc50b8a0	-0.0127393305
69	0xbcced331	-0.025247188
70	0xbcdf1d3c	-0.02723562
71	0x3d2f07f0	0.04273218
72	0xbb14d2b1	-0.002270859
73	0xbc24cac1	-0.010058106
74	0xbc301fc2	-0.010749759
75	0x3d012b82	0.031535633
76	0x3cffb725	0.03121526
77	0x3b892330	0.004185103
78	0xbd02dc88	-0.031948596
79	0xbc2a5f32	-0.010398673
80	0x3c03494e	0.008013083
81	0xbb3b1849	-0.002854841
82	0xbca8cbe2	-0.020605031
83	0xbbdac5f6	-0.006676431
84	0x3cfb0543	0.030642157
85	0x3d78037a	0.06055019
86	0x3d25ed4c	0.040509507
87	0x3d5a5efa	0.053313233
88	0xbc82d2a9	-0.015969591
89	0xbd072713	-0.03299625
90	0x3ce6703b	0.028129688
91	0xbcd65984	-0.026165731
92	0x3ccf42de	0.02530044
93	0x3d1f0a5e	0.038828246
94	0x3cdb0b95	0.026738921
95	0x3d49a6eb	0.04923145
96	0x3bd6e4f5	0.0065580555
97	0x3d3bae45	0.045820493
98	0x3d15a397	0.036532965
99	0x3cf5df58	0.030013725
100	0xbc0bb20c	-0.008526336
101	0x3cb71415	0.022348443
102	0xbc3e49a1	-0.011614234
103	0x3cc0ab18	0.023519084
104	0x3d37c692	0.044867106
105	0xbcba3266	-0.02272911
106	0x3d68d5ee	0.056844644
107	0xbb8c0843	-0.004273446
108	0x3d04f5b7	0.032460894
109	0x3cc3a40d	0.023881936
110	0x3c4e5692	0.012593882
111	0xbbd8bdf8	-0.006614443
112	0xbce8121b	-0.028328946
113	0xbb41c0e0	-0.0029564425
114	0xbc64d781	-0.013967396
115	0x3d05e8ee	0.032692842
116	0x3c4b4b17	0.0124080395
117	0x3c57b072	0.013164626
118	0x3c2578e7	0.010099626
119	0x3cdd0c0f	0.026983289
120	0xbc28e4bf	-0.010308444
121	0xbd1cbd00	-0.038266182
122	0xbdb3ca51	-0.08778823
123	0xbd3068b5	-0.043068606
124	0x3c941c49	0.018079894
125	0x3d9a294f	0.0752741
126	0x3cb90059	0.022583174
127	0x3d17fece	0.037108235
128	0x3d4f1264	0.050554648
129	0x3a817555	0.0009876887
130	0xbd0eded9	-0.034880493
131	0xbd829df5	-0.06377784
132	0xbd818815	-0.06324784
133	0x3d2cbd39	0.042172644
134	0x3d92cc89	0.07167918
135	0x3bd73a5b	0.006568236
136	0x3d143501	0.03618336
137	0x3cabbb52	0.020963345
138	0x3c13df35	0.009025385
139	0xbbb54d31	-0.0055328836
140	0xbd62a79e	-0.055335633
141	0xbc3f1983	-0.011663797
142	0x3cff2081	0.031143429
143	0x3d4dd4ed	0.05025189
144	0xbc2470de	-0.010036675
145	0x3cc79734	0.024364091
146	0x3ce1309b	0.027488997
147	0x3d28fe8e	0.041258387
148	0x3c8eba2d	0.01742276
149	0x3d5a7227	0.05333152
150	0x3d5126c2	0.051062353
151	0x3d248b16	0.040171705
152	0x3d095314	0.033526495
153	0xbc70d065	-0.014698123
154	0x3cea5674	0.028605677
155	0xbc71089f	-0.014711528
156	0xbb730b64	-0.0037085647
157	0x3d3494d2	0.04408724
158	0x3cf41893	0.029796874
159	0x3c9a4671	0.018832417
160	0x3ad68903	0.0016367737
161	0xbc0168fd	-0.007898566
162	0xbd0088d9	-0.031380508
163	0xbc40894a	-0.011751482
164	0xbd0a4e2e	-0.033765964
165	0x3be8ed8c	0.007108396
166	0x3c8ca0f8	0.0171666
167	0x3c3e9324	0.011631761
168	0xbc9bb1e4	-0.019005723
169	0xbaf34daa	-0.0018562574
170	0x3d136e18	0.035993665
171	0xbc28beaa	-0.010299364
172	0xbc8b26c6	-0.016986262
173	0x3bf1c935	0.007378722
174	0xbb456baa	-0.0030123987
175	0x3bbbcfaa	0.0057315426
176	0xbc8fec08	-0.017568603
177	0x3ca7464f	0.020419268
178	0xbbddd6da	-0.006769997
179	0x3d06070b	0.03272156
180	0xbd16a234	-0.036775783
181	0xbc2929da	-0.01032492
182	0xbc586d91	-0.013209716
183	0xbd6751d9	-0.05647454
184	0xbd8b6e32	-0.068081275
185	0xbdaee520	-0.08539796
186	0xbdfb6d48	-0.12276703
187	0xbd9ee391	-0.077582486
188	0xbcb4a840	-0.022052884
189	0xbc4da3f3	-0.012551296
190	0xbbbafcf6	-0.005706425
191	0xbbbd0dac	-0.005769452
192	0x3c9dba44	0.019253857
193	0x3db21a3c	0.0869641
194	0x3d53b1a5	0.051683087
195	0x3d61b92d	0.055108238
196	0x3b40a608	0.0029395837
197	0xbd2da374	-0.04239221
198	0xbc8631c6	-0.016381156
199	0xbce6bed0	-0.028167158
200	0xbc90fc97	-0.01769857
201	0xbbcc552b	-0.0062357388
202	0xbd5a7a03	-0.053339016
203	0xbd22193b	-0.039574843
204	0x3ccc6a23	0.024952954
205	0x3bf92e2d	0.0076043815
206	0xbba5646c	-0.0050473716
207	0x3b1fe1d5	0.002439608
208	0x3ad48a61	0.0016215557
209	0x3c93738e	0.017999437
210	0xbbecc5ba	-0.0072257193
211	0xbd19c68b	-0.03754286
212	0xbca91508	-0.020639911
213	0xbc0250ad	-0.007953805
214	0x3cd6d4f4	0.02622459
215	0xbcce33b9	-0.025171148
216	0x3c91cb67	0.017797185
217	0x3cb24de9	0.021765666
218	0xbc56ecf7	-0.01311802
219	0xbac28434	-0.0014840425
220	0x3d599f85	0.053130645
221	0x3d34e95e	0.04416787
222	0xbc78b74c	-0.01518042
223	0x3cef1e7b	0.029189339
224	0xbc77bab1	-0.015120194
225	0x3c04e5db	0.008111442
226	0xbbf3c2e2	-0.0074390033
227	0xbc8342b6	-0.016023021
228	0xbc64e75d	-0.013971177
229	0x3cdfd890	0.027324945
230	0x3d3ca02e	0.046051197
231	0x3d095f84	0.033538356
232	0xbc1b9763	-0.009496543
233	0xbc2be0ea	-0.010490635
234	0x3cfc8359	0.03082435
235	0x3cc0074f	0.023440985
236	0x3b85e214	0.0040857885
237	0xbb0c57a4	-0.0021414543
238	0x3c0fcb12	0.008776443
239	0x3aeff516	0.0018307294
240	0xbd128dcf	-0.03577977
241	0xbb14b07a	-0.0022688196
242	0x3bdce003	0.0067405715
243	0xbbc0169e	-0.005862071
244	0x3b0f9388	0.0021908004
245	0xbd08b200	-0.03337288
246	0xbc482578	-0.0122159645
247	0x3d558736	0.0521309
248	0xbce1a94d	-0.02754655
249	0xbcadb541	-0.021204593
250	0x3d4fe1c1	0.050752405
251	0x3c9f798c	0.019467138
252	0x3c6c8a54	0.014437277
253	0xbc45df7f	-0.012077211
254	0xbd63263a	-0.055456378
255	0x3c290929	0.010317125

bias f4 [64]
0	0xbcbe6191	-0.023239883
1	0x3d142767	0.03617039
2	0x3aaa33b4	0.001298538
3	0x3c7c3c34	0.015395213
4	0x3b7ccffb	0.0038576114
5	0x3c9c46b7	0.019076688
6	0xbc5a6c9c	-0.013331559
7	0xbb5ceea5	-0.003371158
8	0xbb00924b	-0.0019618447
9	0x3b183442	0.0023224507
10	0x3bab3500	0.005224824
11	0xbc28080f	-0.010255828
12	0x3ae1fd5f	0.0017241648
13	0x3c910872	0.017704222
14	0x3d0aac6e	0.033855848
15	0x3b3e203c	0.0029010912
16	0x3bf907b4	0.0075997952
17	0x3ba76634	0.005108619
18	0x3b73d58a	0.0037206137
19	0x3ba6ecf5	0.0050941654
20	0x3b90207a	0.0043984028
21	0x3b99fea5	0.0046995454
22	0xbbc0148e	-0.0058618253
23	0x3a6135f3	0.0008591108
24	0x3b3c16c9	0.0028700104
25	0x3c390bd1	0.011294321
26	0x3c5422e2	0.01294777
27	0x3bb015f3	0.0053737103
28	0x3cf0abd7	0.029378815
29	0x3c236a85	0.009974127
30	0x3b530cda	0.0032203705
31	0xb9520fac	-0.00020032999
32	0x3c2b0b63	0.0104397265
33	0x3c022e64	0.007945631
34	0x3b37a1ae	0.0028019953
35	0x3905b98c	0.0001275299
36	0x3c7d8211	0.015472905
37	0xbb31c6bd	-0.0027126514
38	0x3b049394	0.0020229565
39	0x3c13dfad	0.009025496
40	0x3c05db24	0.008169923
41	0x3bcc6c09	0.0062384647
42	0xbc4427b2	-0.011972355
43	0x3ba1d3c0	0.0049385726
44	0xbb2fcb7b	-0.0026824165
45	0x3bb1041b	0.0054021007
46	0x3a4c0f02	0.0007784219
47	0xbbe9b66e	-0.007132343
48	0x3b54a0ca	0.003244447
49	0x3b5f8c85	0.0034110856
50	0x3c903626	0.017603945
51	0xbb916efa	-0.0044382783
52	0x39bb99db	0.0003578205
53	0x3c94b762	0.01815385
54	0x3b3dfa22	0.0028988202
55	0x3b9fa148	0.004871521
56	0x3be6886a	0.007035305
57	0x3bcbe63c	0.0062225144
58	0x3c67a144	0.01413757
59	0x3aa6e2bc	0.0012732367
60	0x3bc1228c	0.005894011
61	0x3bc7ef03	0.0061014905
62	0xbc3d0870	-0.011537656
63	0xbb576914	-0.0032869028

weight f4 [32, 64, 1, 1]
0	0xbd0764d1	-0.03305513
1	0xbe6beebd	-0.2304029
2	0xbe332019	-0.17492713
3	0x3e210b97	0.15727077
4	0xbe0d591e	-0.13803527
5	0x3db350ac	0.08755621
6	0xbe801bf1	-0.25021318
7	0x3dadfd9e	0.08495639
8	0xbc657b58	-0.014006458
9	0x3d43642b	0.04770295
10	0xbe032d93	-0.12810354
11	0xbe823cb1	-0.2543693
12	0x3e30c512	0.17262676
13	0x3e343401	0.17597963
14	0x3e4d937d	0.20075794
15	0xbe671d82	-0.2256985
16	0xbe3a7773	-0.18209629
17	0x3cf44c0c	0.029821418
18	0xbe1b3955	-0.15158589
19	0x3deaa6d1	0.11457599
20	0x3db8124e	0.08987866
21	0xbe6baf9d	-0.2301621
22	0x3e0e9efc	0.13927835
23	0xbe1d062c	-0.15334386
24	0x3e1ad7d4	0.15121394
25	0x3d409b5c	0.047023162
26	0x3d29fbdd	0.04149996
27	0xbdb20acd	-0.08693466
28	0xbd0c881d	-0.034309495
29	0xbe72b9ea	-0.23703733
30	0x3e337439	0.17524804
31	0x3e2c6296	0.16834483
32	0x3de91549	0.11381013
33	0xbe3188b8	-0.1733731
34	0x3dda86d7	0.1067025
35	0x3e6b2727	0.22964154
36	0xbc58ec8a	-0.013239989
37	0x3e443179	0.19159497
38	0xbdc11e57	-0.09429615
39	0xbbe6c3ba	-0.0070423754
40	0xbe2963df	-0.16542004
41	0x3e5f80f9	0.21826543
42	0x3e869415	0.26284853
43	0xbe8cf4c4	-0.2753049
44	0x3e36cc94	0.17851478
45	0x3d062af5	0.03275581
46	0x3dd5cd3b	0.10439535
47	0x3d28d040	0.041214228
48	0x3e294dfb	0.16533653
49	0xbd545003	-0.051834118
50	0x3de1a777	0.110182695
51	0xbdd44af0	-0.10365856
52	0xbe513e28	-0.20433867
53	0xbe97395a	-0.29535943
54	0x3e20e4ac	0.15712231
55	0x3c60b359	0.013714635
56	0xbe576626	-0.2103506
57	0xbd5bbfa9	-0.05364958
58	0x3e582b35	0.21110232
59	0xbd183b38	-0.03716585
60	0xbd261ddc	-0.04055582
61	0x3dc0081d	0.093765475
62	0xbe7a931c	-0.2447018
63	0x3d8bf019	0.06832904
64	0xbd5684e8	-0.052372843
65	0x3e919fad	0.28442135
66	0x3d33c81b	0.043892007
67	0xbba6d742	-0.0050915787
68	0x3e3f1654	0.18660861
69	0x3d848290	0.06470215
70	0xbeee6cd0	-0.46567392
71	0xbe1eba36	-0.15500721
72	0x3d059dc9	0.03262118
73	0xbe58f90a	-0.21188751
74	0x3cfd7519	0.030939626
75	0xbd32d0a2	-0.043656
76	0x3bcb1466	0.0061975
77	0xbe3a0ad3	-0.18168192
78	0xbb65fbdf	-0.0035092754
79	0xbe3cb65e	-0.18428943
80	0xbe665059	-0.22491588
81	0x3e3d20e4	0.18469578
82	0xbdb0042f	-0.08594548
83	0x3e65fad6	0.22458968
84	0xbe5f8189	-0.21826757
85	0x3d889969	0.06669886
86	0xbd94c8f5	-0.07264892
87	0xbe7441a9	-0.23853172
88	0x3d511152	0.05104191
89	0x3f23e439	0.64020115
90	0x3e0522a4	0.13001496
91	0xbe1b51dd	-0.15167947
92	0x3c2eb7cc	0.010663938
93	0xbe25f010	-0.16204858
94	0x3d149b11	0.036280695
95	0x3e4356ba	0.19076052
96	0x3d472773	0.048621606
97	0xbe163bc8	-0.14671242
98	0xbe796d8e	-0.24358198
99	0x3e22d0a8	0.15899909
100	0xbe2b54ae	-0.16731521
101	0xbe2aa372	-0.16663912
102	0x3e018e74	0.12651998
103	0xbe14b068	-0.14520419
104	0xbdd16d79	-0.102259584
105	0x3dfd91e2	0.123813406
106	0x3dea067a	0.114270166
107	0xbe479540	-0.19490528
108	0x3e24283b	0.16030972
109	0xbc8a4635	-0.01687918
110	0xbd702c0a	-0.05863575
111	0xbd7a9fbf	-0.061187502
112	0xbe020a05	-0.12699135
113	0x3e294ee1	0.16533996
114	0x3e4af7e2	0.19821122
115	0x3e32f502	0.17476276
116	0x3e6f56bf	0.23372935
117	0xbdf05f11	-0.117368825
118	0x3c27117e	0.010197042
119	0x3c115aba	0.008871729
120	0x3e0ba785	0.13638122
121	0xbdb9737d	-0.09055231
122	0xbe454416	-0.19264254
123	0x3e61a58a	0.22035804
124	0xbdc5e322	-0.09662463
125	0xbcd2cf05	-0.02573348
126	0x3e0d3690	0.13790345
127	0xbdef0778	-0.116713464
128	0xbdf1ee17	-0.1181299
129	0x3e9acc3b	0.3023394
130	0x3ebdb897	0.37054893
131	0x3e3b1e11	0.18273188
132	0xbdb9d77d	-0.09074304
133	0xbda89dea	-0.08233245
134	0x3eceee24	0.40416062
135	0xbe359e40	-0.17736149
136	0xbf0969ae	-0.5367688
137	0x3e6a0ac0	0.22855663
138	0x3e4a936a	0.19782797
139	0x3e0c67b3	0.13711433
140	0x3e1c3093	0.15252905
141	0xbdb747f2	-0.08949269
142	0x3e482043	0.19543557
143	0xbd056374	-0.03256555
144	0x3d0bb378	0.0341067
145	0x3e8fbcfb	0.28073868
146	0xbe18af5d	-0.14910646
147	0x3e469435	0.19392474
148	0xbeb89d00	-0.36057281
149	0xbe419879	-0.1890582
150	0xbc976f80	-0.018485785
151	0xbde1a80e	-0.11018382
152	0xbe4f09fd	-0.20218654
153	0x3e88a965	0.26691738
154	0xbe541de9	-0.20714535
155	0xbe430e7f	-0.19048499
156	0x3e85f384	0.2616235
157	0x3e907173	0.28211555
158	0xbe910c83	-0.28329858
159	0xbde3cd06	-0.111230895
160	0x3e98b8a7	0.2982838
161	0xbc8b5f63	-0.017013257
162	0xbdad5604	-0.08463672
163	0xbe842b79	-0.25814417
164	0xbe2f36d0	-0.17110753
165	0xbdc9d56e	-0.098551616
166	0x3de3a7fb	0.11116024
167	0xbc8284ef	-0.015932528
168	0xbdd139ce	-0.102161035
169	0x3ee68828	0.45025754
170	0xbe9251e9	-0.28578117
171	0xbe488957	-0.19583641
172	0x3c8d3f35	0.017242054
173	0x3e716c74	0.23576528
174	0x3e2aff64	0.16698986
175	0x3ecaf207	0.39637777
176	0xbe8e9cf8	-0.27854133
177	0xbe67000d	-0.22558613
178	0xbd79e9e8	-0.061014086
179	0xbe78003a	-0.24218836
180	0x3e352ec5	0.17693622
181	0xbe83fe84	-0.25780118
182	0xbc42e32d	-0.011894983
183	0xbe0e19f6	-0.13877091
184	0x3e2a741c	0.16645855
185	0x3e41f477	0.18940912
186	0x3dbb248a	0.09137829
187	0x3e6f8c3e	0.23393342
188	0x3e126f29	0.14300217
189	0xbd8a383c	-0.06749007
190	0xbe53f344	-0.20698267
191	0xbe6be621	-0.23037006
192	0x3e849bf9	0.25900248
193	0xbe026a5b	-0.12735884
194	0x3d431811	0.047630373
195	0x3e5a0569	0.21291126
196	0x3e284bff	0.1643524
197	0xbe3601cd	-0.17774124
198	0x3cda868c	0.026675485
199	0xbe69fa39	-0.22849359
200	0x3c99726d	0.01873132
201	0xbdde8a46	-0.10866217
202	0x3e08ebc5	0.13371189
203	0x3e2e3b9d	0.17014928
204	0xbe21a1c2	-0.15784362
205	0x3e4e9f34	0.20177919
206	0xbe751ec1	-0.23937513
207	0x3df19dc8	0.117976725
208	0xbc390243	-0.011292043
209	0xbd225c14	-0.039638594
210	0xbe1f8cfc	-0.15581125
211	0x3da0acd3	0.078454636
212	0xbe47f521	-0.19527103
213	0x3e6687d8	0.22512758
214	0xbf06a583	-0.525963
215	0x3aec28fc	0.0018017585
216	0x3e3e96b2	0.18612173
217	0x3e9c5ff0	0.30541945
218	0x3ea670a3	0.3250781
219	0x3e6875d0	0.22701192
220	0xbcf7c8d7	-0.030247135
221	0x3e1d8772	0.153837
222	0xbda16c47	-0.078819804
223	0x3eb048e9	0.34430626
224	0x3d92d5e6	0.07169704
225	0xbe51d477	-0.20491205
226	0xbe88606a	-0.26636058
227	0x3e55db61	0.20884468
228	0x3e69e688	0.22841847
229	0xbdc75071	-0.0973214
230	0xbe42b16e	-0.19012997
231	0x3d8b8ee7	0.06814366
232	0x3dcdc971	0.100481875
233	0xbe8858f7	-0.26630375
234	0x3e0724e9	0.13197674
235	0x3e4c6388	0.19959843
236	0x3e6d58f3	0.23178463
237	0x3d9a47d3	0.07533231
238	0xbe096714	-0.13418227
239	0xbea4e5ba	-0.32206517
240	0x3e11b034	0.14227372
241	0xbe7b698b	-0.2455198
242	0xbdb252da	-0.08707209
243	0x3db69270	0.089146495
244	0x3de13f5c	0.10998413
245	0x3d0a58a2	0.033775933
246	0xbe2c7bb1	-0.1684406
247	0x3ca4e9e0	0.020131052
248	0xbebe7b0c	-0.37203252
249	0xbe8d2c92	-0.27573067
250	0xbe04598f	-0.12924789
251	0x3ea28166	0.31739348
252	0xbe572d0f	-0.21013282
253	0xbe2d796e	-0.16940853
254	0xbf002f96	-0.5007261
255	0x3da9ad24	0.08284977

bias f4 [32]
0	0xbbf1b85f	-0.007376715
1	0xbbd199c6	-0.006396505
2	0x3ceaa125	0.028641293
3	0xbc8a0192	-0.016846452
4	0xba68675d	-0.00088655
5	0x3b72e5a1	0.003706314
6	0xba8c1fd7	-0.0010690641
7	0x3aeca003	0.0018053058
8	0xbd018922	-0.03162492
9	0xbb301471	-0.0026867653
10	0x3b082908	0.002077641
11	0x3b699741	0.0035643133
12	0xbb498800	-0.0030751228
13	0xbaa5042b	-0.0012589743
14	0x3ba32e46	0.0049798815
15	0xbaf7d8d7	-0.0018909228
16	0x3c06aa56	0.008219322
17	0x3c22aabf	0.009928404
18	0x3b57f712	0.0032953662
19	0x3b8ce9cd	0.004300332
20	0xbc188499	-0.0093089575
21	0xbac0da04	-0.0014713411
22	0x3d0a286f	0.033729967
23	0x3ad259ab	0.0016048452
24	0xb987b7bf	-0.00025886108
25	0xb7053b23	-7.941187e-06
26	0xbba308ce	-0.004975415
27	0xba886589	-0.0010406236
28	0xba9d6840	-0.0012009218
29	0xbaa46ff7	-0.0012545575
30	0x3b9cc8a6	0.0047846613
31	0x3c450d05	0.01202703

weight f4 [1, 32, 5, 5]
0	0xbd645e18	-0.055753797
1	0x3d9e1ad2	0.07719959
2	0xbda29f2b	-0.07940515
3	0xbd9dc61c	-0.07703802
4	0xbd0ee913	-0.034890246
5	0xbc455226	-0.0120435115
6	0xbc4d24fa	-0.012521023
7	0x3d32f086	0.043686412
8	0x3b657ba6	0.0035016327
9	0x3db1af74	0.08676043
10	0x3d9cb447	0.07651573
11	0x3d2a0959	0.04151282
12	0x3c963c99	0.018339442
13	0x3bb215b6	0.005434717
14	0xbd951927	-0.07280188
15	0xbd1a8dd4	-0.037732914
16	0x3d433554	0.04765828
17	0xbcdcf924	-0.026974268
18	0x3ce736f7	0.028224451
19	0x3d41edb1	0.04734582
20	0x3d73a191	0.059480254
21	0x3b8fb7c3	0.00438592
22	0xbd8789c7	-0.06618076
23	0xbdaa9c85	-0.08330635
24	0xbd7d8c42	-0.06190134
25	0x3d1aeb92	0.037822314
26	0xbd9441da	-0.07239123
27	0x3d10f0f2	0.035386033
28	0x3dac3f55	0.08410517
29	0x3d43afb9	0.047775004
30	0xbd7779b7	-0.06041881
31	0xbd0bef7d	-0.03416394
32	0xbd31b5ca	-0.04338626
33	0x3d2b5191	0.041825835
34	0x3be4aecc	0.006978845
35	0xbd95f45a	-0.07321997
36	0xbd977497	-0.073952846
37	0x3da6b160	0.081393
38	0xbd85607f	-0.06512546
39	0xbd50253d	-0.050816763
40	0xbd98116a	-0.074251965
41	0x3d774dd9	0.060376976
42	0xbdafadc7	-0.08578067
43	0xbd4d3a21	-0.050104264
44	0xbc0077df	-0.0078410795
45	0x3c9ab97a	0.01888727
46	0xbd468b97	-0.048472967
47	0xbc1cba2b	-0.00956587
48	0x3db16e85	0.08663658
49	0x3d59e330	0.05319518
50	0x3ca23e61	0.019805135
51	0x3d935da4	0.07195595
52	0x3d28c46a	0.04120294
53	0xbca302c5	-0.019898782
54	0x3cd0fd44	0.025511391
55	0x3bd2a24d	0.006428039
56	0xbd28c9a0	-0.04120791
57	0xbdead11a	-0.11465664
58	0xbca3e6f7	-0.020007594
59	0xbda4c3f2	-0.08045186
60	0xbcbbc3a4	-0.022920437
61	0xbc5dccec	-0.013537627
62	0x3e1b5d94	0.15172416
63	0x3d7f0179	0.062257264
64	0xbaef5c67	-0.0018261791
65	0x3c318d06	0.010836845
66	0xbcf4f2e2	-0.029900972
67	0x3cff77ea	0.03118511
68	0x3d47b1ff	0.048753735
69	0xbd9fed15	-0.07808892
70	0x3cda9cdd	0.026686126
71	0xbcaff264	-0.021477886
72	0xbdeec872	-0.11659326
73	0x3d001539	0.03127024
74	0xbd813502	-0.063089386
75	0xbcb0a072	-0.021560881
76	0xbd417458	-0.047230095
77	0x3bb7b3a0	0.0056061298
78	0x3d2ea0af	0.04263371
79	0xbc887861	-0.016658964
80	0x3caf26a7	0.021380736
81	0xbd4224ab	-0.04739825
82	0x3cd6f4e8	0.026239827
83	0x3d2b4acf	0.04181939
84	0xbca716bc	-0.020396583
85	0xbd896857	-0.06709354
86	0x3dc4cd97	0.09609526
87	0x3e102a4b	0.14078633
88	0x3d8115e1	0.06303001
89	0xbd8a2acd	-0.06746445
90	0x3da0c72f	0.07850491
91	0xbda13405	-0.0787125
92	0x3d4971c3	0.049180757
93	0x3c471ef6	0.012153378
94	0x3b7f4147	0.003894882
95	0xbcd0822e	-0.0254527
96	0xbcc30d47	-0.023810042
97	0x3d31a829	0.04337326
98	0x3d37d314	0.044879034
99	0xbd447845	-0.04796626
100	0xbc39c653	-0.011338788
101	0xbd46ca3b	-0.048532706
102	0x3bfd0a1d	0.007722153
103	0x3d39b016	0.045333944
104	0xbcd12c0f	-0.025533704
105	0xbc9be1d6	-0.019028585
106	0x3d094563	0.033513438
107	0xbd31877a	-0.04334209
108	0xbda566ab	-0.08076223
109	0x3d03b9f2	0.032159753
110	0x3ba219b9	0.004946914
111	0x3c9a4516	0.01883177
112	0x3cc8cedc	0.0245127
113	0x3c84e8c7	0.016224278
114	0x3c10f1a8	0.008846678
115	0xbd237dfb	-0.039915066
116	0x3c806b04	0.015676029
117	0x3d6062dd	0.054781783
118	0x3d222c6c	0.039593145
119	0xbd950c62	-0.072777525
120	0xbd4d5c02	-0.050136574
121	0x3d06e199	0.03292999
122	0x3d3d4c53	0.046215367
123	0xbd8a54cb	-0.06754454
124	0xbce1f39a	-0.027581979
125	0x3d81fcaf	0.06347024
126	0x3d24a1fc	0.040193543
127	0x3cf87e5c	0.03033369
128	0xbd8cc540	-0.0687356
129	0x3d4e421c	0.050356016
130	0xbd264fe6	-0.04060354
131	0x3d453964	0.048150435
132	0x3d3abce8	0.04559031
133	0x3c918e20	0.017767966
134	0x3b8c1e54	0.0042760763
135	0x3d1b52d0	0.037920773
136	0x3d3f034e	0.04663401
137	0xbc7b9e42	-0.015357556
138	0x3d5af5c7	0.053457048
139	0xbd1feffc	-0.039047226
140	0xbda6caff	-0.08144187
141	0x3cfac090	0.0306094
142	0xbca8cf40	-0.020606637
143	0xbd379bd7	-0.044826355
144	0x3da1f4db	0.079080306
145	0x3d59024c	0.052980706
146	0x3cf5197b	0.029919377
147	0xbcc96170	-0.024582595
148	0xbd525a6a	-0.051355757
149	0xbd4c5686	-0.049887203
150	0xbd1e8fe8	-0.03871146
151	0x3cd36862	0.02580661
152	0xbcdb3115	-0.026756803
153	0x3cc38fc6	0.023872267
154	0xbcfec5d3	-0.03110019
155	0xbd966d6f	-0.073450916
156	0x3cbd5726	0.023112845
157	0xbbc3e2ae	-0.00597795
158	0xbdc1f7dc	-0.094711035
159	0xba8f83ce	-0.0010949315
160	0x3d06d9a4	0.032922402
161	0x3dc8eb7d	0.09810541
162	0x3d654228	0.055971295
163	0xbbd96a60	-0.0066349953
164	0x3d074ce3	0.03303231
165	0xbd921f6c	-0.071348995
166	0x3d0c165d	0.034201015
167	0xbd1b6834	-0.037941173
168	0xbd3ac254	-0.045595482
169	0xbcab95fc	-0.020945542
170	0xbd8b355a	-0.067972854
171	0x3d8a6b03	0.06758692
172	0xbcc636fe	-0.024196144
173	0xbca9b56f	-0.020716397
174	0x3d2d6526	0.04233279
175	0x3d8e38da	0.06944437
176	0x3d3a6c12	0.04551322
177	0xbd4b0765	-0.0495676
178	0xbcc71f99	-0.02430706
179	0xbc391f81	-0.011299015
180	0x3da10fc6	0.07864337
181	0xbc48cdd8	-0.012256108
182	0xbd9980a4	-0.074952394
183	0x3c630176	0.013855329
184	0x3b4266a0	0.002966322
185	0xbbb199f6	-0.005419965
186	0x3d859147	0.0652185
187	0xbd93c8b4	-0.072160155
188	0x3d1f0210	0.038820326
189	0x3d8ee513	0.06977286
190	0xbd4ed0dd	-0.050492156
191	0x3da504ce	0.08057557
192	0x3d412c85	0.047161598
193	0x3d0233c0	0.031787634
194	0x3d9e1455	0.07718722
195	0xbd124222	-0.0357076
196	0x3d9c6e0b	0.076381765
197	0x3dabc62d	0.083874084
198	0xbc1ed0cb	-0.009693335
199	0xbd7f88e8	-0.062386423
200	0x3d60b70b	0.054862063
201	0x3d51b5ee	0.051198892
202	0xba5f49b1	-0.0008517756
203	0x3c2f0a63	0.010683629
204	0x3b8635d2	0.0040957713
205	0x3cec3a47	0.028836383
206	0x3da65ec7	0.08123546
207	0x3d2cf07b	0.042221528
208	0x3d85767b	0.06516739
209	0xbd57701d	-0.052597154
210	0xbda772b2	-0.08176173
211	0xbc574751	-0.013139562
212	0xbd73d31f	-0.059527513
213	0x3d9deba0	0.077109575
214	0x3d64a22e	0.05581873
215	0xbd9fe9b5	-0.07808248
216	0x3c49221e	0.012276201
217	0xbd83b4bf	-0.06430959
218	0xbc2c97b4	-0.010534216
219	0x3d9298c4	0.07158044
220	0xbd7e9315	-0.062151987
221	0xbb8917fe	-0.0041837683
222	0xbd5b4579	-0.05353305
223	0x3c5c92cf	0.013462736
224	0xbd8b3c3c	-0.06798598
225	0xbdace549	-0.0844217
226	0x3da4ac62	0.08040692
227	0xbd36a2e2	-0.04458893
228	0xbcca12ae	-0.02466711
229	0x3daa744c	0.08322963
230	0x3d3d9986	0.04628899
231	0xbd20add7	-0.039228287
232	0xbc7be431	-0.015374229
233	0xbcfc885b	-0.030826738
234	0xbda277f1	-0.07933033
235	0xbd56dd9c	-0.052457437
236	0x3c15b7fd	0.0091381045
237	0xbc72d92a	-0.014822284
238	0xbd7f3105	-0.062302608
239	0xbd919ab2	-0.07109584
240	0x3c0b4be1	0.008501978
241	0x3d0c4bf9	0.03425214
242	0xbd895a9c	-0.067067355
243	0x3cb83e5a	0.022490669
244	0x3d6f4139	0.05841181
245	0xbd99bdb1	-0.07506884
246	0x3d69f66c	0.05711977
247	0xbc979f03	-0.01850844
248	0x3ca9f7ac	0.020747982
249	0x3d95eded	0.07320771
250	0xbd404b45	-0.046946783
251	0x3cc692d2	0.024239931
252	0x3d114c68	0.035473257
253	0x3d986241	0.074406154
254	0xbcaef98a	-0.021359224
255	0x3c0e4e71	0.008685694
