modeldata/model_162_epoch.pth (torch_old, 43109 bytes, 5 tensors)

weight f4 [64, 1, 9, 9]
00000000: 6e9c a53b 56b8 3b3b f64f 15bd 6da6 e93c
00000010: 0469 c7bc 0e4e b43b 052e 2ebd 8b21 1a3c
00000020: 5149 ab3c faaa cabc 0b05 b93a da65 26bc
00000030: 42e7 423d d7c5 213d 15d2 95bc 1e14 bd3c
00000040: 78fe 2fbc e412 58bb dbd8 1abc b492 34bb
00000050: cc51 3f3d 95ad f03c a132 9a3d 2ddd f23c
00000060: 4d5b 523d 0a2e cabc 8822 143b 6a1e 183a
00000070: 3f83 d83b 4d5d b0bc 31e7 9abc d1eb 48bd
00000080: 819e 8dbc 0c67 993d acbe c63c 596d 913b
00000090: 0377 c83c 3e76 0abc 502a 82bc b88c f4bd
000000a0: 0836 48be 809f b5bd b755 c3bb fd48 f4bc
000000b0: d7ce e5bc 4c20 a83c c194 733d a676 173d
000000c0: 9307 c4bc 4373 e4bd 2f63 36bc cb18 453d
000000d0: 68f7 f83c e5a2 e83c 6a2e dbbc b3e3 d3bc
000000e0: 04b7 623c 514a 413d 1475 2abd e603 34bc
000000f0: 05cb 7a3d 6a8b eb3b aacd 4ebc 3ca9 a73a
00000100: 7828 33bc ff23 41bc 1d30 193d 0a98 a13b
00000110: 4dff 33bb 9308 92b9 e0bc 32bc 8bdb 28bc
00000120: 7fcc 413b 8c49 cd3a 4a8d 4abc 153c b43c
00000130: 6a34 25bc 0c1d 54bc 3b2c dabc 2235 c43b
00000140: 4580 813b 8620 94b9 38fd 383b 59e1 c83c
00000150: e7dd 6dbc 5aaf 223c 9897 81bc 1956 0b39
00000160: 9057 8cbc 6eaf 53bd 76c5 40bd 04d4 d0bc
00000170: 130e 00bd 9495 c73c 3475 03bc 24c0 5bbd
00000180: 8fb6 55bd 1f05 c33b dfcf d9ba 904a 82bc
00000190: 7205 81bb 200f d33b 912e 70bc 11b6 c53d
000001a0: f4a7 e73c 4fa8 9bbc 3e5c f7bc 7171 0ebc
000001b0: 4909 52bd 2583 a83c 352f 2c3d cbb6 6bbb
000001c0: 802f 133e 5a8a 5e3b e1e9 753b 2798 7a3c
000001d0: 6cfa 9c3b 323b 14bc 0711 743c faa0 973c
000001e0: 7c2f 52bd 6b51 963c 4f49 e8bc 208d 90bd
000001f0: 33c0 f2bc 6fe6 0d3c ca18 3c3b 921f 51bb
00000200: 72ac 29bd e280 d1bc 1315 f9bc c349 9dbc
00000210: 9c97 c53c 2f38 a73c d171 f7bb 6511 8e3c
00000220: b1ed 9a3c 60c7 413c 8424 05bd 023b 193d
00000230: 70b1 44bc 1355 2b3c 9521 a53c 851d d0ba
00000240: c2ce e4bc 100a 553c a46d 2f3c 2589 cdbc
00000250: 4b74 613d c18a afbc 3115 ebbc 66d3 c1bb
00000260: e1fa 023b e25d 9abc c9db 0bbc 5c83 023a
00000270: a87f 88bc dcb6 473d 15ea 50bc ab3d 4fbd
00000280: d2eb 493c b9c6 203c 734a ce3c cfef 69bc
00000290: 7418 74bc d99e 25bd d469 d1bc ed62 9fbc
000002a0: 8af9 05bd f3d4 f9bc 4b18 433d 09c1 51bb
000002b0: ebf4 4f3c c575 c23c 4f35 a5bb 76a1 5cbc
000002c0: 9bcc 53bc 8310 99bc 9dbb 0cbd 3dbe 40bc
000002d0: 6071 7abc 3bb6 1a3b fbcf 803b 06bd e23b
000002e0: fe62 84bc ef22 f53c a3de 383d 4f91 0d3d
000002f0: 7179 63bb cd3d adba 59da 1bbc cf48 003d
00000300: 8d44 15bc 8a4d 053d 1f1b 4a3d eb7f d23c
00000310: 6c33 243d 3c2a 073c e354 d93c 7fad 97bc
00000320: 2396 13bd 3968 d0bc c00b 133d 8e59 5f3d
00000330: be60 d03c 862c 5bbb c686 bd3c b273 063d
00000340: 444e 29bb 95d7 8b3c c706 88bc f285 1f3d
00000350: 36a8 a83c e262 d53c 4f82 013d 0512 e5b9
00000360: 31f9 f23a 8581 b2bc 86c3 b53b 919a b6bc
00000370: 1700 d23c c575 e53c 3d7d ae3c 2ddc 34bc
00000380: a2fb 0d3d 6f91 d8bc 8c18 fdba be65 a9bc
00000390: 967c 463d 85e1 4ebb 2c3a f83c 366c 213c
000003a0: a784 3c3c 0ced 27bc 207f 06bc 636d bbbc
000003b0: c477 843c 8faf ca3b 16ae 063d b1ad a63c
000003c0: cccc 45bc fae9 893b 66ee d1bc 5535 4a3c
000003d0: 268c 5abc d320 afbc a0f6 7938 546a c23c
000003e0: 16ed b73c 988c fabb e16f 8339 06f5 afb7
000003f0: c707 f13c d719 e63b e075 643c 703c 83bd
0.0050540483 0.0028643808 -0.03645321 0.02852174 -0.024342068 0.005502469 -0.042524356 0.009407411
0.020908983 -0.024739731 0.0014115883 -0.010156119 0.047583826 0.039495315 -0.018288651 0.023080882
-0.010741822 -0.0032970244 -0.009451116 -0.0027553262 0.046708867 0.029379645 0.07529188 0.02964648
0.051356602 -0.024680156 0.002260359 0.0005802872 0.0066074426 -0.021528864 -0.018909069 -0.049053017
-0.017287495 0.07490358 0.024260841 0.004438084 0.024470812 -0.008451043 -0.015889317 -0.119409025
-0.19551861 -0.08868313 -0.0059611457 -0.02981996 -0.02805273 0.020523213 0.059468035 0.036978386
-0.023929393 -0.11154797 -0.011132046 0.048119348 0.03039141 0.028397987 -0.02675553 -0.025865411
0.01383758 0.047190014 -0.04161556 -0.010987258 0.06122877 0.0071882503 -0.012622276 0.0012791525
-0.0109349415 -0.011788367 0.0373994 0.0049314545 -0.0027465404 -0.00027853678 -0.010909289 -0.010306249
0.0029571352 0.0015662177 -0.0123627875 0.022001306 -0.010083297 -0.012946378 -0.026632419 0.0059877792
0.0039520585 -0.00028252992 0.0028227102 0.024521517 -0.014518238 0.009929502 -0.015819356 0.00013288147
-0.017131597 -0.051680975 -0.047063313 -0.025491722 -0.031263422 0.024363317 -0.008023549 -0.053650036
-0.052176055 0.005951538 -0.0016617737 -0.015904695 -0.0039374167 0.006441012 -0.01465954 0.09653867
0.028278328 -0.019001154 -0.030195352 -0.008694039 -0.051278386 0.020570347 0.042037208 -0.0035967107
0.14373589 0.0033956976 0.0037523436 0.015295065 0.004790595 -0.009047316 0.014896638 0.018509377
-0.051314816 0.01834937 -0.028355269 -0.070581675 -0.029632663 0.008660897 0.00287013 -0.0031909687
-0.041424222 -0.025574151 -0.030405557 -0.019200211 0.024120145 0.020412533 -0.00755141 0.017342279
0.018912168 0.01182732 -0.032505527 0.03740979 -0.012005195 0.010457295 0.020157615 -0.0015877938
-0.027930621 0.013002887 0.010707293 -0.02508981 0.055042546 -0.021428468 -0.028696628 -0.0059150932
0.0019985961 -0.018843595 -0.008536288 0.00049786805 -0.016662434 0.048758373 -0.012751122 -0.05059592
0.01232429 0.009813004 0.025181985 -0.014278366 -0.014898408 -0.040434692 -0.025563158 -0.019456351
-0.032708682 -0.03049705 0.04763059 -0.0032005927 0.01269267 0.023737798 -0.0050417553 -0.01346623
-0.0129272 -0.018684631 -0.03435861 -0.011764106 -0.01528582 0.0023607153 0.003931043 0.006919506
-0.016160484 0.029923884 0.045134198 0.034562405 -0.0034709836 -0.0013217271 -0.009512507 0.031319436
-0.009110582 0.03254465 0.04934227 0.025695762 0.040088102 0.008249816 0.026529735 -0.018515347
-0.036031853 -0.025440322 0.035899878 0.054528765 0.025436755 -0.0033443286 0.023135554 0.03282518
-0.0025834003 0.017070571 -0.016604794 0.0389461 0.020588022 0.026048128 0.031618413 -0.0004369171
0.00185374 -0.021790275 0.00554699 -0.0222905 0.025634808 0.028010258 0.021299953 -0.011038822
0.034663804 -0.026436536 -0.0019309684 -0.020678397 0.04845866 -0.0031567526 0.030301176 0.00985246
0.011506236 -0.0102493875 -0.00820902 -0.022879308 0.01617039 0.006185479 0.032880865 0.020346494
-0.012072753 0.0042088004 -0.025626373 0.012341817 -0.013339078 -0.021377956 5.9595914e-05 0.023732342
0.022451919 -0.0076461546 0.00025069623 -2.0975724e-05 0.029422654 0.0070221233 0.013944119 -0.06408012

bias f4 [64]
00000000: 76aa 323d 4a90 1cbc e827 853b 26fc 263c
00000010: cd1a 2c3c b2d4 643a 4b25 803c 85af 793c
00000020: f42f 283c 2677 56bb d877 d13b 6239 293d
00000030: 0315 a23b 3ee6 d83b 239f b439 9e64 cb3b
00000040: 353b ce3b 934d a4bb 9956 5e3c 80b1 2bb9
00000050: 1ec9 68bc fa50 32bd c22d 3bbb 1cbb 4c3b
00000060: bfde 833b fb20 843c 91e5 843b 9b8f f2bb
00000070: 1505 9c3c 0177 1cbc 8a5a d5bb 93cf a63b
00000080: 0e0f 1b3b 0c60 3c3c 7809 633c 800e 133c
00000090: 4d93 1b3c 558e 333c 8948 073d dd22 713b
000000a0: 27e3 923c c8ce 863b a919 0e3b 4d1b 47bc
000000b0: 343b 75b9 86d9 9abb 076d aa3c ddd3 e0bb
000000c0: ce77 dfbc 820d d5bb 0762 253c 4bb9 f4bb
000000d0: 48d6 793c a5d7 92bc 26af ac3c 5019 823c
000000e0: 5a86 cf3c 3234 ebbb e0c1 44ba cb99 073a
000000f0: 8bfd 77bc 3017 33bc 77e6 01bc db2c ad3c
0.043619595 -0.009555886 0.004063595 0.010191953 0.010504437 0.0008729204 0.015642783 0.015239601
0.010265339 -0.0032724827 0.0063924603 0.04131449 0.0049463524 0.006619244 0.00034450841 0.006207063
0.006293679 -0.0050141304 0.013570451 -0.00016373955 -0.014208106 -0.043534257 -0.002856121 0.0031239456
0.004024356 0.016129008 0.0040556868 -0.007402373 0.019045392 -0.009549857 -0.0065110372 0.0050906627
0.0023660096 0.011497509 0.013857238 0.008975625 0.009495568 0.010959228 0.03302816 0.0036794462
0.01793058 0.0041140057 0.0021682775 -0.012152505 -0.00023387076 -0.004725638 0.020803941 -0.0068611936
-0.027278807 -0.0065018544 0.010094172 -0.0074683777 0.015248843 -0.017925093 0.021079611 0.01588121
0.025332619 -0.007177853 -0.0007505696 0.0005172758 -0.015136133 -0.010930821 -0.007928482 0.021139553

weight f4 [32, 64, 1, 1]
00000000: efb9 543e d286 9a3e 2344 0fbe 0890 75bd
00000010: 324d 38be aeac f23d 62a6 c6be 381c 263e
00000020: d9b0 c9bd c681 313e fad3 c5bd c9d7 4e3d
00000030: 454f bdbd 01a2 f3bd ea20 cb3e 6e9a 5d3e
00000040: 2d6f 0a3f 106c 5cba 3998 03be a89d c5bd
00000050: 10aa 743e 658c 3abe 05a2 39bd 5f5d cd3e
00000060: 1df3 3fbe d6f6 13be c209 b3be 7bbe 513e
00000070: 091d a03e 9e9b f03d 656b 45bb 8395 753c
00000080: ae56 8bbd 05f9 cd3d 1a38 ffbd c218 46bd
00000090: a26c 46be 602d 4c3e 28d2 303e 52fc 35be
000000a0: d18e a83d f3d2 dd3c 079c 003d 536f 8dbe
000000b0: 32ec bc3d fea6 a9be 9426 393e 1ede 7dbd
000000c0: bd78 063d 172c cd3e 00d1 103d a7b9 3a3e
000000d0: d114 663e 7560 893e d6f6 793d 4218 8cbe
000000e0: a19f 3cbe c370 bcbd 9f4b 1a3e b961 cfbd
000000f0: c799 82be ae64 e1be b41d 3f3e 09c6 b6be
00000100: 3f58 7fbe e5ee 76bd 0378 ab3b 65dd 853e
00000110: e2f7 82bc 3c09 5cbe acc9 833e b938 803e
00000120: 892b 5f3e 11ff 753d 0913 13be c07f 77bd
00000130: 01e7 6fbe d6b8 6e3e f835 463d db1c d5bc
00000140: 3074 93be 38eb 31bd 36f3 4bbc e41a 2b3e
00000150: 3c8e e9bb 9644 693e 0965 34bc 7e3c 833e
00000160: 4346 413d 390c 223e 173a a53d e0e8 46be
00000170: 8a1a 913e 3f14 943e 2659 b0bc d1f6 2dbe
00000180: 5e3c 3cbe e768 833e f866 48bd 39cd 163d
00000190: 66da 70bd e4d6 3fbd 269b febb 5a79 02be
000001a0: 86e2 713d 80d9 6a3e 3977 02bd 7c08 8bbe
000001b0: c1a3 8ebe 56d2 ce3e ead4 a33e 9065 14be
000001c0: 1bc1 44bc 68e3 733e 2a18 6bbe 005e 02be
000001d0: 7182 58be 173d 9e3e beb0 5f3d 20e3 6dbe
000001e0: 811a 9d3d 9056 9a3c c411 d3bc 56ad 923d
000001f0: db71 a5be 5d33 103e d6ab 813e 62c5 90be
00000200: ccd1 20be 1d8c 4f3d 99cb 19be 21ed 623e
00000210: 69f2 913e 3ae3 4d3e 739f 673e 5ba7 6d3d
00000220: 0d2c 3c3e 5fa1 18be 4a2b 3ebe acc7 3e3c
00000230: 48b7 683c 535e 9f3e 7baa 3dbe a1d6 343e
00000240: 1cc4 1abf cf06 48be 129e 173e 1575 bb3d
00000250: 491b 553d 327d 743e b235 2f3b 7676 94be
00000260: 3710 9abd 9478 29be 9f29 aebc 38f0 11be
00000270: 583e 463d ced9 32bf 8700 a63c d47a c0bd
00000280: 949b 413e 4673 693e 6ad7 a7bc 7b50 2b3e
00000290: d72c 81be 867d 713e 91f1 7ebd 9949 1bbd
000002a0: 17db 543d 7232 1dbe 2b8a 803d bf8e 3a3e
000002b0: 9634 f8be 4744 babd 9e5f c73d 8c7f e9bd
000002c0: d6d3 89be 2c78 64be e215 833e a827 19be
000002d0: f6a6 443e ddc4 a23e 5dd9 123e 4b9a 37be
000002e0: 8a57 5fbe 5977 11be 4df0 803e 909e 4e3c
000002f0: b207 9cbd 0cd1 8a3d 4b64 593e 5a56 8f3e
00000300: c106 4a3d 17b4 ffbd f02c f13d 8ca9 8b3e
00000310: c31e 833e caa8 01be bf4d 0bbe bd7a 0d3e
00000320: df88 9abe ae5d 2abe d7ac 9a3d 74dc d3bd
00000330: b763 2a3e b0db 68bd 5a1c 203e fa5e 103e
00000340: 0eac 2ebd 1f9f e0bc 28ba 763e 1326 2dbe
00000350: c723 5c3b f188 b33d b2a2 803e 0df5 c53e
00000360: 69a3 333e 048d 893e d5fe f4bd 9ae3 8b3c
00000370: fbd8 293e c659 78be bd5e 12be 1bab a1be
00000380: e53d 01bd 7fe4 78bd 694a 7c3e eb59 a9bd
00000390: d563 1d3e ed20 b43d a0cf d7be 5a54 653e
000003a0: 8eee b3be af35 01be e8f6 153e dab4 6c3e
000003b0: d552 0f3e 06c2 773e 94c3 393d e21f 8bbe
000003c0: d0b9 b0be 71f6 97bd 62b5 1bbd 2cdb 98be
000003d0: d5dc ee3d fc2f 0cbe 3474 08be 63c3 32bd
000003e0: a95a e13d ab4c 8d3e b823 563b 86da af3d
000003f0: d70d d2bd 2344 ce3e 067d 0cbe 4466 bc3d
0.20774053 0.30180985 -0.13990836 -0.059951812 -0.17998198 0.11849342 -0.38798815 0.16221702
-0.09848184 0.17334661 -0.09659572 0.050498758 -0.09243635 -0.11896134 0.3967355 0.21640942
0.5407589 -0.00084084366 -0.12851037 -0.09649211 0.23892999 -0.18217619 -0.04532053 0.401103
-0.18745084 -0.14449629 -0.34968382 0.20482819 0.31272152 0.117484316 -0.0030123827 0.01498926
-0.06803642 0.10057262 -0.124618724 -0.048363455 -0.19377378 0.19939184 0.17267668 -0.17772034
0.08230365 0.027078127 0.0313988 -0.27623996 0.09224738 -0.33135217 0.18081123 -0.061979406
0.03282999 0.400727 0.035355568 0.18234883 0.22468878 0.26831403 0.061026417 -0.27362257
-0.18420269 -0.09201195 0.1506791 -0.10126061 -0.25507948 -0.44022125 0.18663675 -0.35697964
-0.24936007 -0.06028642 0.0052328124 0.26145473 -0.01598734 -0.21487898 0.257398 0.25043276
0.21793951 0.060057703 -0.1436273 -0.060424566 -0.23427965 0.23312697 0.048391312 -0.026014736
-0.28799582 -0.043437213 -0.012448123 0.16709477 -0.0071275514 0.2278007 -0.011010417 0.2563209
0.047186147 0.15824975 0.080677204 -0.19424772 0.2834056 0.28921697 -0.021526884 -0.16988684
-0.18382403 0.25665972 -0.048926324 0.03681681 -0.05880203 -0.046835795 -0.00776996 -0.12741604
0.05905392 0.22934532 -0.03185198 -0.2715491 -0.2785931 0.4039485 0.31998378 -0.14491868
-0.012008931 0.23817217 -0.22958437 -0.1273117 -0.2114351 0.30905983 0.054611914 -0.23231173
0.07671071 0.018840104 -0.025765307 0.071619675 -0.32313427 0.14082094 0.25326413 -0.2827559
-0.15705031 0.05067073 -0.15019073 0.2216077 0.28505257 0.20106211 0.22619419 0.05802093
0.18376179 -0.14905308 -0.18571201 0.011644285 0.014203854 0.3112665 -0.18522064 0.1766
-0.6045549 -0.19533847 0.14806393 0.09153191 0.052027974 0.23875883 0.0026734886 -0.2899663
-0.07522624 -0.16549903 -0.02126008 -0.14251792 0.0483993 -0.69863594 0.020263923 -0.093984276
0.18907005 0.2279788 -0.02048846 0.1672992 -0.25229523 0.2358304 -0.062242094 -0.037911985
0.051966753 -0.15351275 0.062763534 0.18218516 -0.4847762 -0.09095054 0.097350344 -0.11401281
-0.2691943 -0.22311467 0.25602633 -0.14956534 0.19204316 0.3179082 0.1434073 -0.17929952
-0.21810737 -0.14205684 0.25183335 0.012611046 -0.07618655 0.06778154 0.21229665 0.2799557
0.049322847 -0.12485521 0.11776149 0.27277792 0.25609407 -0.12662044 -0.13603877 0.13816352
-0.3018255 -0.16637298 0.07552498 -0.103447825 0.166396 -0.056850135 0.15635815 0.1409873
-0.042644553 -0.027419625 0.2409445 -0.16909055 0.003359066 0.08766354 0.25124127 0.3866352
0.17542805 0.268654 -0.11962668 0.017076302 0.16586678 -0.24252996 -0.14293952 -0.31575856
-0.031553168 -0.060764786 0.2463776 -0.082691036 0.15370114 0.087953426 -0.42150593 0.22395459
-0.3514294 -0.12618135 0.14644969 0.23115864 0.13996442 0.24195108 0.045352533 -0.27172762
-0.34516764 -0.07420052 -0.038014777 -0.29854715 0.11663214 -0.1369018 -0.13325578 -0.043643367
0.1100362 0.27597556 0.0032675099 0.08586602 -0.10256546 0.4028636 -0.13719568 0.09199193

bias f4 [32]
00000000: 921b 9837 4bec 033c eac8 37bb caba 6c3c
00000010: a751 833b c3b4 c83c 9dcd 3cbc cfdf 1d39
00000020: c650 a53c c397 833b a677 90ba 72df 173c
00000030: 7877 acbb def5 91bb 9de1 ed3b 06f5 e0ba
00000040: 535e 50bc b271 913c 3adf 96ba 3ed0 9e3b
00000050: 9590 fdbb 97b0 3c3c bbd1 5b3c 9e79 aa3c
00000060: d6e2 573c 3c4a 073d b51c cabb 7598 32bc
00000070: 01fd 733c ded7 4eba f0eb 18bb d3c1 953b
1.813265e-05 0.008051942 -0.0028043338 0.014448831 0.0040075365 0.024500256 -0.011523631 0.00015056062
0.020180117 0.004015894 -0.0011021986 0.009269582 -0.005263265 -0.0044543585 0.007259561 -0.0017162866
-0.012717801 0.01775441 -0.0011510618 0.0048466017 -0.007738183 0.011516712 0.013416703 0.020809945
0.0131766405 0.03302978 -0.006167973 -0.010900606 0.014891864 -0.0007890443 -0.002333399 0.004570225

weight f4 [1, 32, 5, 5]
00000000: 7d17 88bd 586a 323d f9cf 8cbd c858 93bd
00000010: daa3 9fbc 92d5 ab3c 2702 943d 5d3f 823b
00000020: 4ab0 87bb 0661 893d 89ce 53bc 2e9f ec3c
00000030: 762c 893d 4827 19bd a972 aa3d f935 7f3d
00000040: 71b7 893d 74dc 27bd 9b66 12bd 7dbf 0cbd
00000050: 46fb 1e3d 8d9b a83d 8052 143d d838 5fbd
00000060: 5c99 6d3d fcb5 f03c 369f 893d 52e6 80bd
00000070: 5a1f 2fbd 8af8 4bbd 6fa0 2d3d 49bb 693d
00000080: 1552 4fbd f809 b6bd ceea 6e3d 7712 1a3d
00000090: efc1 943d 1564 8b3d 6655 993d d92a 66bd
000000a0: 5f86 5f3c 2aa9 a73d ff11 313c c256 a83d
000000b0: e76a 9b3d 3fda 873d 7ad7 84bd f08a e9bc
000000c0: 1df8 463d 2ecc ef3b e94c 88bd f62a 7cbc
000000d0: 0e91 50bd 1ae6 a93d 3e63 21bc baf1 36bd
000000e0: c3bd 0cbd fd20 18bc d7a5 b43b 01d2 d8ba
000000f0: d72e a93d f93a 663d 710e b7bc cb65 9f3d
00000100: 7e49 15bd 82b6 20bd 5839 b73c 0ae2 6d3d
00000110: e140 a83d 341d 34bd 94c0 7c3c 9288 46bd
00000120: f7ef 9b3b 6b09 233d 8726 58bc ba73 fa3c
00000130: 3b50 9c3d 417a 89bd 9610 75bd abfe 2ebd
00000140: 7866 81bd 8b44 8b3d d0a8 8cbd f83a 6cbd
00000150: bafd 87bd 92d7 ceba d862 a13d a211 963d
00000160: ce0c a53d 94f0 c9bc f3de 3e3d 50f5 063d
00000170: ae36 823c 2599 1f3d 1aef 75bd 3c68 a83d
00000180: b6a2 5fbc db81 983d b855 533d cccd ddbb
00000190: c32b 843d e8ca 6ebd 754c 86bd 9ace 893d
000001a0: b587 0c3b 853c bc3c d216 3ebc 8161 88bd
000001b0: ccf6 943c 363a 343c b383 ef3c 8d44 1e3d
000001c0: 35d4 a03d 9b9c 323d 6931 9f3d fe2d 2d3d
000001d0: c981 833d 4164 04bd 60f2 123d 1368 5cbd
000001e0: e18c fd3c 9ef1 a33d 821f 873c 8960 aabd
000001f0: 8e1f 223d 1e49 b6bc c13c a83c ac06 203d
00000200: 0726 9abd 1833 53bd 043d 4a3c 2fae 8abd
00000210: cd5d 893d 76c2 8fbc d522 1f3d 5bda 8dbd
00000220: f4a0 9cbd b2ac a73c 1b3e 813d 4b91 04bc
00000230: c5fd c1bb 96a6 83bd f2cb 4abd de23 9f3d
00000240: 6691 9c3d 70b5 973d edb9 c43d cddd 133d
00000250: 7fda 82bd b9bb b23d 2a9d 103b 3fb3 723d
00000260: fdae 28bd e24c 7f3a 0bed 75bc fd61 6bba
00000270: 350c af3d c9db 743d 5848 9abd 494c a6bd
00000280: 71a2 6fbd 57d6 963c 3b7a 58bd 0c26 aa3d
00000290: eaa3 a0bd e031 0fbd bd22 75bd b704 703d
000002a0: d689 1bbd 85ff 913d 8bcb 613d 6b73 16bd
000002b0: 26b2 22bd 9ab8 49bd e656 7d3d 9dcf 243d
000002c0: 553d 6a3d 2d70 68bd c6ff cc3c 1f1a f3bb
000002d0: f5fa 21bd 499a a0bd e266 6f3d ac27 7bbc
000002e0: 58ea 55bd 67e6 143d 559f f4bc de40 80bd
000002f0: f80f 133b d8b4 a13d 195f 58bd 65cb fe3c
00000300: 8477 81bd e85c 8fbc 80f1 37bd 6036 7dbd
00000310: 2ed5 d9bc 0c3f 7abd 5140 213d 9c58 5b3d
00000320: 42d2 f2bb ac9f 583d 49af 71bd 0cf4 6abd
00000330: f916 4e3d e300 023d e2ea b73d 2877 d73c
00000340: cff7 283d a5e7 713d 3590 8fbd d45b af3d
00000350: a30b 9bbd f6d5 003d f49f 89bb 0e64 5cbd
00000360: 391e 993c 1504 5a3d e9da 743d f368 0a3d
00000370: aa12 743c 8ca7 ea3c 22c8 0cbd 96cf f0bc
00000380: 4ece a33d 57f8 34bc 5e92 883d edc8 fabc
00000390: 6b14 2b3d 930d 293d 632d 1f3d b98b 973d
000003a0: fcd1 a0bc a1f2 373d bbc1 38bc 1390 313d
000003b0: 3d9e a53d d7af 2e3d 2267 493d 0c28 1ebc
000003c0: 41ac f43c b1a0 c43c b44f 843d 30b2 8a3c
000003d0: 703a 7abd 83be 10bd 37bd 52bd 50ad a6bd
000003e0: dd13 413b 7cf5 cb3b 112c 3f3d eb97 b1bc
000003f0: 907b 6dbc c7b5 843d 066d 4f3d e95e 86bd
-0.06645105 0.04355845 -0.06875605 -0.07194668 -0.01948731 0.020975862 0.07226973 0.0039748386
-0.0041408883 0.06707959 -0.01292766 0.028884497 0.066979334 -0.037390977 0.08322651 0.06230733
0.06724442 -0.040981725 -0.035742383 -0.034362305 0.03881385 0.08232794 0.03621149 -0.05449757
0.058007583 0.029383652 0.0671982 -0.0629393 -0.04275451 -0.049797572 0.04238933 0.057063375
-0.05061539 -0.0888862 0.058329396 0.037615266 0.072635524 0.068061985 0.074869916 -0.056193206
0.013642876 0.08186562 0.010807513 0.08219673 0.075887494 0.06633424 -0.064864114 -0.028508633
0.048576463 0.0073180413 -0.066552944 -0.015391102 -0.050919585 0.082958415 -0.009850321 -0.044664122
-0.03436066 -0.009285209 0.0055129337 -0.0016542078 0.08260887 0.056208584 -0.022345753 0.07783087
-0.03644704 -0.039236553 0.02236621 0.058076896 0.082155 -0.043973163 0.015426774 -0.048470087
0.0047588306 0.039803904 -0.013192779 0.03057276 0.0763249 -0.06712771 -0.05983027 -0.04272334
-0.063183725 0.06800183 -0.06868136 -0.057673424 -0.066401914 -0.0015780798 0.07880181 0.07327582
0.08059083 -0.02465085 0.04659934 0.032948792 0.015895214 0.03896441 -0.06004248 0.08223006
-0.013649633 0.07446643 0.05159542 -0.0067689177 0.064536594 -0.058298975 -0.06557552 0.06728859
0.0021443192 0.022978077 -0.0116021205 -0.066592224 0.018184088 0.011000207 0.029237604 0.038639594
0.07852975 0.043606382 0.07773096 0.04228019 0.06421239 -0.032322172 0.035875678 -0.05381019
0.030950965 0.08005069 0.016494516 -0.08319194 0.039580874 -0.022251662 0.020536782 0.039068863
-0.075267844 -0.0515624 0.012343649 -0.06771504 0.06707344 -0.01754878 0.038851578 -0.069264136
-0.07647887 0.02046809 0.06310674 -0.008091281 -0.0059201443 -0.06428258 -0.049510904 0.07770513
0.0764492 0.07407653 0.09605775 0.036100198 -0.06389331 0.087272115 0.0022066333 0.059252974
-0.041182507 0.00097389345 -0.015010129 -0.000897914 0.0854725 0.059779916 -0.0753333 -0.08120019
-0.058504526 0.018412752 -0.052850943 0.08308038 -0.07843764 -0.034959674 -0.059847582 0.058598246
-0.037973247 0.071288146 0.055125754 -0.036731165 -0.039720677 -0.049248315 0.06185045 0.040237058
0.057187397 -0.056747604 0.025024306 -0.0074188854 -0.039545972 -0.078419276 0.058447726 -0.015329283
-0.05222544 0.03635254 -0.029861132 -0.062623724 0.0022439938 0.07895821 -0.052825067 0.031102845
-0.06321624 -0.017500356 -0.044908047 -0.061819434 -0.02659091 -0.061095282 0.039367978 0.0535513
-0.0074103186 0.05288665 -0.059005056 -0.057361647 0.050314877 0.031739127 0.08980347 0.026301935
0.041251954 0.059058804 -0.07009927 0.08562437 -0.07570579 0.03145405 -0.004199976 -0.053806357
0.01869117 0.05322655 0.05977908 0.033791494 0.014897028 0.028644346 -0.03437055 -0.02939586
0.07998334 -0.011045537 0.06668542 -0.030613387 0.04176752 0.04127271 0.038861644 0.07399697
-0.019631378 0.044909123 -0.011276658 0.04335029 0.08086822 0.042648163 0.04917062 -0.009653103
0.029867293 0.024002405 0.06460515 0.01693067 -0.061090887 -0.035337936 -0.05144998 -0.081385255
0.0029461302 0.0062243324 0.046672884 -0.021678885 -0.014494792 0.06479984 0.050641082 -0.065610714
