modeldata/model_91_epoch.pth (torch_old, 43109 bytes, 5 tensors)

weight f4 [64, 1, 9, 9]
0	0xbd17f1d2	-0.037095852
1	0x3c1d73d1	0.009610132
2	0xbc738b2f	-0.014864727
3	0x3ccb90d3	0.024849331
4	0xbca24166	-0.019806575
5	0x3d08269f	0.033239957
6	0xbd25260b	-0.040319484
7	0x3b75bf49	0.0037498048
8	0x3b4152a9	0.0029498732
9	0xbd1acd9b	-0.037793737
10	0x3c8a6be7	0.016897155
11	0xbbb09bc1	-0.005389661
12	0x3c375021	0.011188538
13	0x3cc40d19	0.023932027
14	0x3b551549	0.0032513908
15	0x3d0c0ebb	0.034193736
16	0x3be88276	0.0070956303
17	0x3c3d5bd7	0.011557541
18	0xbca1ce12	-0.019751582
19	0x3b28881d	0.0025715895
20	0x3ce3df07	0.027816309
21	0xbcf2351b	-0.029566338
22	0x3cec2ea5	0.028830836
23	0xbbd6f4b7	-0.006559934
24	0x3b3f5e64	0.0029200548
25	0xbcf62305	-0.030045995
26	0x3b59b3b9	0.0033218695
27	0xbcd95a5c	-0.026532345
28	0x3b297620	0.0025857762
29	0xbc876a86	-0.016530287
30	0xbc63903a	-0.013889367
31	0xbc9b79d1	-0.018978985
32	0xbc87fb50	-0.016599327
33	0x3ce80963	0.028324788
34	0x3cd47c6d	0.025938237
35	0x3bd04fa7	0.0063571515
36	0x39f5d137	0.0004688592
37	0xbbe842d1	-0.0070880433
38	0x3cde2b92	0.027120385
39	0xbcf9100f	-0.030403165
40	0xbd309d3c	-0.0431187
41	0x3c377a89	0.011198648
42	0xbb09c5ec	-0.0021022512
43	0x3b1c0b50	0.0023810454
44	0xbbbc5f8b	-0.0057486943
45	0xbc9a1895	-0.01881055
46	0x3cbe34f8	0.023218617
47	0xba9701c8	-0.0011520917
48	0xbd0078a9	-0.03136507
49	0xbd40ebe6	-0.04709997
50	0x3bf805e8	0.0075690635
51	0xbcc570f3	-0.02410171
52	0xbbd48e46	-0.006486687
53	0x3a1b2d14	0.0005919498
54	0x3aace0a1	0.0013189503
55	0xbcc08231	-0.02349958
56	0xbca2df0d	-0.01988175
57	0x3c9eac61	0.019369306
58	0xbcea60e1	-0.028610649
59	0xbc8563cc	-0.016282938
60	0x3ca47701	0.020076277
61	0x3c7e8618	0.0155349
62	0x3c8eb5ca	0.017420668
63	0x3c54b55e	0.012982694
64	0xbc7a99e1	-0.015295477
65	0xbcd6e411	-0.026231797
66	0x3c298269	0.010346034
67	0xbc1b7c6c	-0.009490114
68	0xbc26bcc0	-0.010176837
69	0xbc23a2ba	-0.0099875275
70	0xba8479d5	-0.001010711
71	0x3bf3bdde	0.0074384054
72	0xbd0a7ed4	-0.03381236
73	0xbd05acc4	-0.032635465
74	0xbc59fd61	-0.013305039
75	0x3c865c20	0.01640135
76	0xbc4cc144	-0.01249725
77	0xbbf19c20	-0.007373348
78	0xbd014534	-0.031560138
79	0x3bc8d671	0.006129079
80	0x3cc72cd4	0.024313368
81	0x3c4cfb3b	0.01251107
82	0xbb3c387c	-0.002872019
83	0x3ba2ae55	0.0049646297
84	0xbd300653	-0.04297478
85	0x3c85e0e6	0.016342591
86	0xbd19f31a	-0.037585355
87	0xbc80ea8d	-0.015736843
88	0xbcebed32	-0.028799627
89	0xbd137ebe	-0.036009543
90	0xbc5d5556	-0.013509115
91	0xbb094b21	-0.0020949321
92	0xbc5d26d8	-0.013498031
93	0x3cad0235	0.021119216
94	0xbc8eb9c9	-0.017422574
95	0xbbd753dd	-0.0065712766
96	0xbd2e160c	-0.042501494
97	0x3c60bde9	0.013717153
98	0x3c79c0cc	0.01524372
99	0xbc10c486	-0.008835917
100	0x3c7d09fc	0.015444275
101	0xbc29c898	-0.010362767
102	0xbc238545	-0.009980504
103	0x3cb86a03	0.022511488
104	0x3cfc412d	0.030792797
105	0x3c6707aa	0.014100948
106	0x3c8cdfb5	0.017196516
107	0x3c48612a	0.012230197
108	0xbcfe5537	-0.031046493
109	0x3ca5dde8	0.020247415
110	0x3d02b0a0	0.031906724
111	0x3aa73235	0.0012756052
112	0x3d8029da	0.062579826
113	0x3c794dc1	0.015216292
114	0x3a0c7b81	0.00053589797
115	0x3c2a1925	0.0103819715
116	0xbbfac178	-0.007652458
117	0xbc663e4d	-0.01405294
118	0x3c102fca	0.008800456
119	0x3ca8d00a	0.020607013
120	0xbce441bb	-0.027863374
121	0x3b25d52c	0.0025304062
122	0xbbdf6969	-0.006817986
123	0xbd3361d7	-0.04379448
124	0xbcc439f1	-0.02395341
125	0x3c94ee6c	0.018180095
126	0xbbc637fd	-0.006049155
127	0xbc09df71	-0.008415089
128	0xbd08ecd2	-0.033428974
129	0x3c0435b5	0.008069445
130	0xbce6453a	-0.028109182
131	0xbcbcc427	-0.023042751
132	0x3c60614e	0.013695074
133	0xbbedc4b5	-0.0072561153
134	0xbcb941c3	-0.022614365
135	0x3c75fd59	0.015014016
136	0x3c827631	0.015925499
137	0x3caad6c8	0.020854369
138	0xbb241028	-0.0025034044
139	0x3c28381d	0.010267285
140	0xbccf1e30	-0.02528295
141	0xbc824abf	-0.015904782
142	0xbc8b16bb	-0.016978612
143	0xbcba4a63	-0.022740548
144	0xbc93f16b	-0.018059453
145	0x3cecb5ae	0.028895225
146	0x3cb3d815	0.021953622
147	0x3a0ac55f	0.0005293693
148	0x3cc4664c	0.02397456
149	0x3b288640	0.0025714785
150	0xbcdd7878	-0.027034983
151	0xbc97b1a1	-0.018517317
152	0x3a2a8977	0.0006505469
153	0xbcb31546	-0.02186073
154	0xbc8e70e3	-0.017387813
155	0xbcae6f74	-0.02129338
156	0xbc876d28	-0.016531542
157	0x3cb05d1c	0.021528773
158	0xbba3b966	-0.0049964665
159	0xbc07d8fc	-0.008291479
160	0x3cb9cd5e	0.022680935
161	0x3c433d0f	0.011916413
162	0x3cd7f77f	0.026363133
163	0xbc0fdaf1	-0.008780227
164	0xbc64a667	-0.013955689
165	0xbd01f0f8	-0.031723946
166	0xbccf315c	-0.025292091
167	0xbcad3bb0	-0.021146625
168	0xbd01509b	-0.031571012
169	0xbcdb3603	-0.026759153
170	0x3d279c5e	0.040920608
171	0x3b4a63c1	0.0030882212
172	0x3cc33ef2	0.023833726
173	0x3ca8f12e	0.020622816
174	0xbb3b8afb	-0.0028616774
175	0xbc5c8c3c	-0.013461169
176	0xbc2dedf1	-0.010615812
177	0xbc9519be	-0.018200751
178	0xbd023ecf	-0.03179818
179	0xbcab67ef	-0.020923583
180	0xbc0d2782	-0.008615376
181	0x3b852757	0.0040635276
182	0xbc367b4f	-0.0111377975
183	0x3aab4204	0.0013065939
184	0xbc753396	-0.014965912
185	0x3caefa4c	0.021359585
186	0x3d11e194	0.03561552
187	0x3d0741c0	0.03302169
188	0xbb8e89b0	-0.0043499097
189	0x3a048213	0.0005054783
190	0xbc134746	-0.008989161
191	0x3cacc26c	0.021088801
192	0xbb5c2c86	-0.0033595874
193	0x3d0b9b89	0.034083877
194	0x3d30eb08	0.043192893
195	0x3ce3aaed	0.027791465
196	0x3d2447a5	0.040107388
197	0x3c055942	0.0081389565
198	0x3cc6f84b	0.024288317
199	0xbca7e8be	-0.020496722
200	0xbd138245	-0.036012907
201	0xbc54fcbf	-0.0129997125
202	0x3d025c50	0.031826317
203	0x3d356f7e	0.04429578
204	0x3cf9daa5	0.030499766
205	0x3734bbbe	1.0772548e-05
206	0x3cbd0e89	0.02307822
207	0x3d10436b	0.035220545
208	0x3b612bab	0.0034358304
209	0x3c93a936	0.018025022
210	0xbc3f35e1	-0.011670561
211	0x3ccf2835	0.025287727
212	0x3aa85a14	0.0012844228
213	0x3cc50d3f	0.024054168
214	0x3d03df6f	0.032195505
215	0xbbcdb6b2	-0.0062778825
216	0x3c046989	0.008081802
217	0xbbd5cb17	-0.0065244543
218	0x3afa3c9d	0.001909155
219	0xbcb5fb97	-0.022214694
220	0x3cd3f098	0.02587156
221	0x3cb09e9d	0.021560008
222	0x3c96962f	0.01838216
223	0xbc154d52	-0.009112673
224	0x3d08a756	0.03336271
225	0xbcf94da9	-0.030432539
226	0x3c56b497	0.013104579
227	0xbce4f284	-0.027947672
228	0x3d1417ac	0.036155388
229	0xbc0ac9a8	-0.00847093
230	0x3cd12248	0.025529042
231	0x3bcb9332	0.0062126154
232	0x3c0370c4	0.008022491
233	0xbc613f73	-0.013748038
234	0xbc8fcbd5	-0.01755325
235	0xbc025bdf	-0.007956474
236	0x3c86137e	0.016366716
237	0xbaab88a7	-0.001308699
238	0x3d03234a	0.032016076
239	0x3cfe54dc	0.031046323
240	0xbbdc319f	-0.0067197825
241	0x3ae768ec	0.001765517
242	0xbceab09f	-0.028648673
243	0xbbc2397d	-0.0059272633
244	0xba933f14	-0.0011234009
245	0xbae84155	-0.0017719666
246	0x3c83a51a	0.016069937
247	0x3c46203f	0.012092649
248	0x3ae57c3f	0.0017508342
249	0xbc5b519f	-0.013386159
250	0x3c8d050d	0.017214322
251	0x3ce2074c	0.02759137
252	0xba368fea	-0.0006964194
253	0x3c9add37	0.018904312
254	0x3d13911e	0.036027066
255	0xbd115660	-0.035482764

bias f4 [64]
0	0x3b90816d	0.00440996
1	0xbb1a5ff5	-0.002355573
2	0x3b85f5a3	0.00408812
3	0x3c463a36	0.0120988395
4	0x3c0267e5	0.007959341
5	0xb7b61413	-2.1705438e-05
6	0x3c4050e1	0.011738033
7	0x3c6c28b8	0.014414005
8	0x3b13e6ac	0.002256791
9	0xbb567726	-0.0032724827
10	0x3bb3d67c	0.005488215
11	0x3d258bdc	0.040416583
12	0x3bde50b3	0.0067845224
13	0x3b8137c3	0.003943415
14	0x3b6f7731	0.003653955
15	0x3be9da7e	0.007136642
16	0x3b7a2e59	0.0038174598
17	0xbbc22575	-0.0059248754
18	0x3c38e2ad	0.0112845125
19	0x39769ae1	0.00023518085
20	0xbc134a5c	-0.008989897
21	0xbd3f71a0	-0.04673922
22	0xbb56e398	-0.0032789465
23	0x3a0c2af9	0.00053469796
24	0x3b73ddc8	0.003721105
25	0x3c72ec8a	0.014826903
26	0xba49518d	-0.00076796935
27	0xbb6990ef	-0.0035639366
28	0x3c9a1620	0.018809378
29	0x3a29561d	0.000645967
30	0xbc1d3493	-0.009595054
31	0x3bf41d77	0.0074498015
32	0x3ab30d74	0.0013660626
33	0x3c5d51d2	0.013508277
34	0x3c2be04f	0.010490491
35	0x3c20796a	0.009794572
36	0x3b3105b5	0.0027011458
37	0x3c01a1bc	0.007912096
38	0x3cf88664	0.03033752
39	0x3b52be4f	0.003215689
40	0x3c101d41	0.008796037
41	0x3b4a214e	0.0030842605
42	0x3a67edd7	0.00088473916
43	0xbc8fcf78	-0.017554983
44	0x3c7d1e99	0.01544919
45	0x3b185c6c	0.0023248447
46	0x3ca79a6e	0.02045938
47	0xbbe34dae	-0.0069367504
48	0xbc1190e5	-0.008884643
49	0x3b7f504e	0.0038957777
50	0x3c177b71	0.009245739
51	0x3a6126ee	0.000858887
52	0x3bfe77d0	0.0077657476
53	0xbcb0a9c8	-0.021565333
54	0x3c81c5d3	0.0158414
55	0x3c76bb8b	0.015059362
56	0x3cef4658	0.029208347
57	0x3c0069f1	0.007837758
58	0x3b5e9f35	0.0033969407
59	0x3bc45d76	0.0059925867
60	0xbc3d8d89	-0.011569389
61	0xbacee83a	-0.0015785762
62	0xbaddd6c4	-0.0016924967
63	0x3cd43e93	0.025908744

weight f4 [32, 64, 1, 1]
0	0xbd05526d	-0.03254931
1	0x3e483cdf	0.1955447
2	0xbe0e7e31	-0.13915326
3	0xbc94e344	-0.018174775
4	0xbe36f477	-0.17866693
5	0x3df2e9f0	0.11861026
6	0xbe280c8f	-0.1641104
7	0x3e279536	0.16365513
8	0xbe3befd0	-0.183532
9	0x3e3181c6	0.17334661
10	0xbdc42bd3	-0.09578671
11	0x3d559860	0.05214727
12	0xbdbac06f	-0.09118735
13	0xbe2051ee	-0.15656254
14	0x3ea00fbb	0.31262
15	0x3e5b0161	0.21387245
16	0x3f034956	0.51283777
17	0x3ace1303	0.0015722219
18	0xbdffa427	-0.124824814
19	0xbdbe563c	-0.09293792
20	0x3e70810a	0.23486724
21	0xbdee5a16	-0.11638276
22	0x3d1e7ad9	0.038691375
23	0x3ebf9385	0.37417236
24	0xbe3f121e	-0.18659255
25	0xbe145dbb	-0.1448888
26	0xbe25e853	-0.16201906
27	0x3e51df68	0.20495379
28	0x3ea0133a	0.3126467
29	0x3c9c43c2	0.019075278
30	0xbb178638	-0.0023120772
31	0x3d067df4	0.032834962
32	0xbd15f642	-0.036611803
33	0x3dcdc140	0.10046625
34	0xbdfcfc17	-0.1235277
35	0xbd471fe2	-0.04861439
36	0xbe48e1aa	-0.19617334
37	0x3e4c0abe	0.19925973
38	0x3e33128d	0.17487545
39	0xbe359004	-0.17730719
40	0x3c84880e	0.016178157
41	0x3ceba881	0.028766872
42	0x3cfd39c4	0.030911334
43	0xbe7b641f	-0.24549912
44	0x3dab39dd	0.08360646
45	0xbe612128	-0.21985304
46	0x3e3a39e0	0.1818614
47	0xbe5a02d2	-0.21290138
48	0x3dab118f	0.083529584
49	0x3e914e36	0.28379983
50	0x3d0194be	0.031635992
51	0xbdd18d07	-0.10231977
52	0x3e66fdd4	0.22557765
53	0x3e72a06e	0.23694012
54	0x3d77f2c9	0.060534272
55	0xbe8c634c	-0.27419508
56	0xbe3f4c91	-0.18681552
57	0xbdc8a695	-0.09797398
58	0x3e076072	0.13220385
59	0xbdceb123	-0.1009238
60	0xbe231783	-0.15926938
61	0xbea2b23b	-0.31776604
62	0x3e3def9e	0.18548438
63	0xbec8dd1c	-0.39231193
64	0xbe376c51	-0.17912413
65	0xbd9a5d95	-0.075373806
66	0x3bb1a170	0.005420856
67	0x3e781fa5	0.24230821
68	0xbc6e29ea	-0.01453636
69	0xbe5c02d1	-0.2148545
70	0x3e3cd25a	0.18439618
71	0x3e808442	0.25100905
72	0x3d840262	0.06445767
73	0x3d75ff11	0.060057703
74	0xbe13513c	-0.14386457
75	0xbd7636c4	-0.060110822
76	0xbe730d59	-0.2373556
77	0x3e707837	0.23483358
78	0x3cd2e242	0.025742654
79	0xbcd860b8	-0.026413307
80	0xbea65c3d	-0.32492247
81	0xbd32ca34	-0.043649867
82	0xbc22dd2b	-0.009940426
83	0x3e2d85db	0.16945593
84	0xbc3755e6	-0.011189913
85	0x3e4df8d4	0.20114452
86	0x3db68a8e	0.08913146
87	0x3e76f9c1	0.24118711
88	0x3d432f3d	0.04765247
89	0x3e227bb0	0.15867496
90	0x3d545aef	0.051844534
91	0xbe465c0a	-0.19371048
92	0x3e91528a	0.28383285
93	0x3e705dcf	0.23473285
94	0xbc820175	-0.015869835
95	0xbe2a2122	-0.16614202
96	0xbe028670	-0.12746596
97	0x3e841609	0.2579806
98	0xbd47ad7c	-0.048749432
99	0x3d17236f	0.036899026
100	0xbd674f0f	-0.05647188
101	0xbd470dd8	-0.048597187
102	0xbbf0d9c6	-0.0073501794
103	0xbe00390b	-0.1252176
104	0xbca1267a	-0.019671667
105	0x3e6cb1ba	0.23114672
106	0xbcfaf02a	-0.030632097
107	0xbe9ce343	-0.30642137
108	0xbe45f91e	-0.19333312
109	0x3ec5f187	0.38660833
110	0x3ea4358f	0.32072112
111	0xbdfe7ddd	-0.1242635
112	0x3dce3e94	0.100705296
113	0x3e5f28c7	0.21792899
114	0xbe6dde70	-0.23229384
115	0xbe2f9dcb	-0.17150037
116	0xbe57726a	-0.21039739
117	0x3e746f51	0.23870589
118	0x3d5f4d08	0.054516822
119	0xbe6fbc4b	-0.23411672
120	0x3d9da153	0.07696786
121	0x3c875eee	0.016524758
122	0xbdbd7059	-0.09249944
123	0x3d92f24b	0.0717512
124	0xbeb03521	-0.34415534
125	0x3e6264e0	0.22108793
126	0x3e82f7ca	0.25579673
127	0xbe773be6	-0.24143943
128	0xbe5aff5b	-0.21386473
129	0x3dafafbf	0.08578443
130	0xbe1980e8	-0.1499058
131	0x3ea4c7e5	0.32183757
132	0x3e940483	0.28909692
133	0x3e4e97bd	0.20175071
134	0x3e03f260	0.12885427
135	0x3d61f91b	0.055169206
136	0x3e4bbe8b	0.19896905
137	0xbe18a15f	-0.14905308
138	0xbe3ff977	-0.18747507
139	0x3c5356c2	0.012899103
140	0x3c2f3355	0.010693391
141	0x3e82b944	0.2553197
142	0xbe48885a	-0.19583264
143	0x3e3da1cf	0.18518756
144	0xbf068418	-0.5254531
145	0xbe45b835	-0.1930855
146	0x3e1dc57c	0.15407366
147	0x3dd46e3a	0.103725865
148	0x3d7269ec	0.059183046
149	0x3e785381	0.24250604
150	0x3d5f6807	0.054542568
151	0xbcbc6e34	-0.023001768
152	0xbd930026	-0.07177763
153	0xbe2958a8	-0.16537726
154	0x3c04c4f4	0.008103598
155	0xbe111b2f	-0.14170526
156	0x3d5485e4	0.0518855
157	0xbf21a53a	-0.6314274
158	0x3c822b55	0.015889803
159	0xbd8b539a	-0.06803055
160	0x3dbc7ed0	0.09203875
161	0x3e6dcd5d	0.23222871
162	0xbca19ae8	-0.019727185
163	0x3e2ee314	0.17078811
164	0xbe7a1bd7	-0.24424683
165	0x3e759667	0.23983155
166	0xbd787315	-0.060656626
167	0xbd0b6129	-0.034028206
168	0xbc90be0f	-0.017668752
169	0xbe1b2eb1	-0.1515453
170	0x3d882eaa	0.066495255
171	0x3e49f51a	0.19722405
172	0xbecfdc1c	-0.40597618
173	0x3d5788d3	0.05262072
174	0x3dcefc79	0.10106749
175	0xbdf80406	-0.121101424
176	0xbe3111a9	-0.17291893
177	0xbe849851	-0.25897458
178	0x3e841186	0.2579462
179	0x3b33f909	0.002746167
180	0x3e432511	0.19057108
181	0x3e8689de	0.2627706
182	0x3e0fecb0	0.14055133
183	0xbe41216c	-0.18860406
184	0xbe605830	-0.21908641
185	0xbe2d15e4	-0.16902882
186	0x3e5def64	0.21673352
187	0x3c638d6c	0.013888698
188	0x3dfede7f	0.124447815
189	0x3c8eb952	0.017422352
190	0x3e5685ef	0.20949529
191	0x3e4b13d8	0.19831789
192	0xbe8137e1	-0.25237945
193	0xbe1edbfb	-0.15513603
194	0x3df18c84	0.11794379
195	0x3ea530d0	0.32263803
196	0x3e824991	0.25446752
197	0xbe023496	-0.12715372
198	0xbe65f65f	-0.22457264
199	0x3e0c4b7f	0.13700674
200	0xbe8953d4	-0.26821768
201	0xbe2a5dae	-0.16637298
202	0x3d96e54d	0.073679544
203	0xbdd59b3e	-0.10430001
204	0x3e29ad1e	0.16569945
205	0xbdf86a48	-0.121296465
206	0x3e5636ef	0.20919393
207	0x3e0e4413	0.13893156
208	0xbd2d242f	-0.042270835
209	0xbcf5f276	-0.030022841
210	0x3e78a7a5	0.24282701
211	0xbe2cc3a8	-0.16871512
212	0xbbfab00c	-0.007650381
213	0x3e1c4159	0.15259303
214	0x3e6ad300	0.22932053
215	0x3ec4ee67	0.38463137
216	0x3e318591	0.17336108
217	0x3e87e988	0.26545358
218	0xbe5b14b2	-0.21394613
219	0x3c96d4c4	0.018412001
220	0x3e289076	0.16461357
221	0xbe88bf3e	-0.26708406
222	0xbe0cd203	-0.13751988
223	0xbe9199a9	-0.28437546
224	0xbd83120b	-0.06399926
225	0xbd771eac	-0.060331985
226	0x3e797e29	0.24364533
227	0xbdae0c71	-0.08498467
228	0x3e1f8e43	0.15581612
229	0x3dadf9ce	0.08494912
230	0xbed9d334	-0.42543948
231	0x3e680845	0.22659405
232	0xbea62580	-0.32450485
233	0xbe009586	-0.12557039
234	0x3e15a23f	0.14612673
235	0x3e438c8c	0.19096583
236	0x3e2b5d30	0.16734767
237	0x3e6cf5c6	0.2314063
238	0x3d34ebdf	0.044170257
239	0xbe37e6fe	-0.1795921
240	0xbe6b29e2	-0.22965196
241	0xbd769e4c	-0.060209557
242	0xbd2de7ff	-0.042457577
243	0xbe539741	-0.20663168
244	0x3df09707	0.11747556
245	0xbdbcacdf	-0.0921266
246	0xbe08ad33	-0.1334732
247	0xbd45486a	-0.048164763
248	0x3ddf2faa	0.10897763
249	0x3e88b03a	0.2669695
250	0xbd1412f7	-0.0361509
251	0x3dab8d55	0.08376566
252	0xbdcff232	-0.10153617
253	0x3e388554	0.1801961
254	0xbe087bc4	-0.13328463
255	0x3d2682ec	0.0406522

bias f4 [32]
0	0x3893fbd3	7.056412e-05
1	0x3c087435	0.008328487
2	0x384ee407	4.9326594e-05
3	0x3c401cc9	0.011725613
4	0x3b4939ac	0.003070454
5	0x3cd91b22	0.026502196
6	0xbba47ba1	-0.0050196205
7	0xbb11004f	-0.0022125428
8	0x3ca6c0b9	0.02035557
9	0x3b91cde1	0.0044495915
10	0x3ae1153b	0.0017172465
11	0x3ccc94ad	0.024973238
12	0xbb743ed7	-0.00372689
13	0x3bd9acfe	0.0066429367
14	0x3ba5097d	0.0050365315
15	0xb97c4b55	-0.00024060656
16	0xbc513e1a	-0.012771154
17	0xbafebba7	-0.0019434587
18	0xbb2744e9	-0.0025523251
19	0x3b4da549	0.0031379035
20	0xbbd9b833	-0.0066442727
21	0xbb5c3c7b	-0.0033605385
22	0x3c2d9e5c	0.010596838
23	0xbb9c3baa	-0.0047678547
24	0x3c8e135d	0.017343218
25	0x3cccb1c8	0.024987116
26	0xbac9cf70	-0.0015396904
27	0xbc329875	-0.010900606
28	0x3c3940fe	0.011306999
29	0x38c3e595	9.3410876e-05
30	0xbb700ae2	-0.003662758
31	0x3bac97ae	0.005267105

weight f4 [1, 32, 5, 5]
0	0xbd878c64	-0.06618574
1	0x3d36f24c	0.044664666
2	0xbd8d0cb7	-0.06887191
3	0xbd9258f9	-0.071458764
4	0xbc9f7c0e	-0.019468334
5	0x3ca839aa	0.020535309
6	0x3d93b8ba	0.07212968
7	0x3b879c68	0.004138518
8	0xbb84bbe2	-0.0040507177
9	0x3d872616	0.06599061
10	0xbc44cf48	-0.01201231
11	0x3cdf2239	0.027237998
12	0x3d88de89	0.0668307
13	0xbd174590	-0.036931574
14	0x3da93fe6	0.08264141
15	0x3d833ba8	0.06407863
16	0x3d87e651	0.06635726
17	0xbd20af13	-0.039229464
18	0xbd0e4701	-0.034735683
19	0xbd1162dd	-0.035494674
20	0x3d237924	0.03991045
21	0x3da65544	0.08121732
22	0x3d18a03d	0.03726219
23	0xbd61474a	-0.054999627
24	0x3d66e2c0	0.05636859
25	0x3cf9cc71	0.030492993
26	0x3d8a3349	0.06748063
27	0xbd80c914	-0.062883526
28	0xbd2da92e	-0.04239767
29	0xbd4de5c2	-0.050267942
30	0x3d332103	0.043732654
31	0x3d6b665f	0.057470676
32	0xbd4cee48	-0.05003193
33	0xbdb469a5	-0.088092126
34	0x3d6d94a3	0.05800308
35	0x3d1f9f9a	0.038970567
36	0x3d943fa2	0.072386995
37	0x3d8a94f7	0.06766694
38	0x3d9a0812	0.075210705
39	0xbd65ab16	-0.056071363
40	0x3c6880e5	0.014190887
41	0x3da75253	0.08169999
42	0x3c2b3cd0	0.010451511
43	0x3da93761	0.08262516
44	0x3d9b18bf	0.07573079
45	0x3d886b74	0.0666112
46	0xbd8462ff	-0.064641945
47	0xbce406d9	-0.027835296
48	0x3d4985f2	0.049200006
49	0x3bf660b3	0.0075188517
50	0xbd8b3a31	-0.067982085
51	0xbc6ec99a	-0.014574433
52	0xbd4c4844	-0.049873605
53	0x3da8c17a	0.08240028
54	0xbc03ffc3	-0.008056584
55	0xbd34fef8	-0.04418847
56	0xbd0226ee	-0.031775407
57	0xbc0408d6	-0.008058747
58	0x3baede95	0.0053365924
59	0xba5989de	-0.0008298437
60	0x3da965ab	0.08271345
61	0x3d686938	0.05674097
62	0xbcbf3d29	-0.023344593
63	0x3da0c906	0.07850842
64	0xbd177382	-0.03697539
65	0xbd1ed111	-0.0387736
66	0x3cbfdf0f	0.023421792
67	0x3d6b3d05	0.05743124
68	0x3da94051	0.082642205
69	0xbd36ec4d	-0.044658948
70	0x3c8c0f81	0.017097237
71	0xbd38f274	-0.045153096
72	0x3bca9eec	0.0061834957
73	0x3d28c377	0.041202035
74	0xbc4ef362	-0.012631269
75	0x3cfb5c4f	0.030683665
76	0x3d9b15e2	0.07572533
77	0xbd89b5e9	-0.0672415
78	0xbd75d2ad	-0.06001537
79	0xbd30d3c0	-0.04317069
80	0xbd80ee63	-0.06295469
81	0x3d8ba158	0.06817883
82	0xbd8c6ef1	-0.06857098
83	0xbd6bda99	-0.057581518
84	0xbd879f15	-0.06622139
85	0xba9a9d25	-0.00117961
86	0x3da2285b	0.079178534
87	0x3d953c50	0.07286894
88	0x3da4d78a	0.08048923
89	0xbcc92db8	-0.024557933
90	0x3d3ec42f	0.046573814
91	0x3d07c578	0.033147305
92	0x3c8012ae	0.015633907
93	0x3d2020a7	0.03909364
94	0xbd75dfa6	-0.06002774
95	0x3da8a146	0.082338855
96	0xbc5b6ddf	-0.0133928945
97	0x3d97eb8e	0.07417975
98	0x3d536a5d	0.051615108
99	0xbbd111ad	-0.006380281
100	0x3d849fae	0.06475769
101	0xbd6e8aa3	-0.058237683
102	0xbd858f13	-0.0652143
103	0x3d8a5d28	0.067560494
104	0x3b06c439	0.0020563735
105	0x3cbcda0b	0.02305319
106	0xbc3d7060	-0.011562437
107	0xbd879913	-0.066209935
108	0x3c95f8ed	0.018307174
109	0x3c32dc7e	0.010916827
110	0x3cf154aa	0.029459316
111	0x3d1e0874	0.03858228
112	0x3da05241	0.07828189
113	0x3d32c05a	0.043640472
114	0x3d9f716a	0.07785304
115	0x3d2dc6fe	0.042426102
116	0x3d831c50	0.064018846
117	0xbd047dd3	-0.032346558
118	0x3d13f36f	0.03612083
119	0xbd5d96cb	-0.054098886
120	0x3cfcfad2	0.03088132
121	0x3da34d33	0.07973709
122	0x3c8a065f	0.016848741
123	0xbdaa2c8a	-0.083092764
124	0x3d201841	0.03908563
125	0xbcb39b0b	-0.021924516
126	0x3ca68397	0.020326419
127	0x3d1e4e64	0.038648978
128	0xbd9aa59c	-0.07551119
129	0xbd52dde2	-0.051481135
130	0x3c42f425	0.011899029
131	0xbd8ae62b	-0.06782182
132	0x3d893e0e	0.06701289
133	0xbc97f062	-0.01854724
134	0x3d257fb8	0.040405005
135	0xbd8dd6c9	-0.06925733
136	0xbd9b4dbd	-0.07583187
137	0x3ca59286	0.02021147
138	0x3d7d4cac	0.061840698
139	0xbbe14a82	-0.006875337
140	0xbbd18043	-0.006393464
141	0xbd858853	-0.065201424
142	0xbd4863de	-0.048923366
143	0x3d9f89b6	0.07789938
144	0x3d9c81bb	0.076419316
145	0x3d985be6	0.07439403
146	0x3dc0bac1	0.094106205
147	0x3d1615a1	0.03664172
148	0xbd82a291	-0.06378663
149	0x3db1c590	0.0868026
150	0x3ae81715	0.0017707074
151	0x3d74652a	0.05966679
152	0xbd2793f5	-0.040912587
153	0x395cfb25	0.00021074394
154	0xbc853598	-0.016260907
155	0xba381c4b	-0.0007023259
156	0x3dafbd05	0.085809745
157	0x3d72fcc1	0.059323076
158	0xbd9c40a9	-0.076295204
159	0xbda79486	-0.081826255
160	0xbd6f26df	-0.05838668
161	0x3c97378f	0.01845911
162	0xbd5c1f56	-0.05374082
163	0x3da8f1ae	0.08249222
164	0xbda06ef9	-0.07833666
165	0xbd0e5bb3	-0.03475542
166	0xbd753caf	-0.059872326
167	0x3d6e197f	0.058129784
168	0xbd1f16df	-0.03884017
169	0x3d91c2e9	0.07117254
170	0x3d60a553	0.054845165
171	0xbd194d02	-0.037426956
172	0xbd22f66b	-0.039785784
173	0xbd4dc2f8	-0.050234765
174	0x3d79f551	0.061024968
175	0x3d24bcdd	0.040219177
176	0x3d6b1405	0.05739214
177	0xbd69f0c4	-0.057114378
178	0x3ccea00c	0.0252228
179	0xbbf7fc93	-0.007567951
180	0xbd21b461	-0.039478663
181	0xbda13242	-0.07870914
182	0x3d6f5041	0.058426145
183	0xbc779ab3	-0.015112567
184	0xbd57aa99	-0.05265293
185	0x3d12997b	0.0357909
186	0xbcfb4f2d	-0.030677402
187	0xbd801def	-0.062557094
188	0x3b00fa79	0.0019680543
189	0x3da0bcaa	0.07848485
190	0xbd593984	-0.053033367
191	0x3cfbd1f9	0.030739771
192	0xbd8177e8	-0.063216984
193	0xbc8fa6e8	-0.017535642
194	0xbd384947	-0.044991758
195	0xbd7d1017	-0.061782923
196	0xbcda763b	-0.026667705
197	0xbd79db50	-0.06100017
198	0x3d212e0d	0.039350558
199	0x3d5a3e65	0.05328216
200	0x3b43ff4a	0.0029906803
201	0x3d5c187b	0.053734284
202	0xbd533724	-0.051566258
203	0xbd4f7bc2	-0.050655134
204	0x3d3f64fa	0.046727158
205	0x3d178c32	0.036998935
206	0x3da9f745	0.08299116
207	0x3d01fb52	0.03173382
208	0x3d3f4f86	0.0467067
209	0x3d3d79fd	0.046258915
210	0xbd84a605	-0.06476978
211	0x3dab6c9c	0.08370325
212	0xbd87f629	-0.06638748
213	0x3d31bad4	0.043391064
214	0xbc338545	-0.010957067
215	0xbcde96f5	-0.027171591
216	0x3c25eb7d	0.010126946
217	0x3d6d78c1	0.057976488
218	0x3d93fe6b	0.07226261
219	0x3d0d6bfc	0.03452681
220	0x3cffe64a	0.03123774
221	0x3cf18a7a	0.029484976
222	0xbd2618c3	-0.04055096
223	0xbccf7209	-0.02532293
224	0x3d9d2650	0.07673323
225	0xbc364977	-0.011125914
226	0x3d884c22	0.06655146
227	0xbcf9e348	-0.030503884
228	0x3d2acf15	0.041701395
229	0x3d2829a0	0.04105532
230	0x3d212e6b	0.03935091
231	0x3d980cd9	0.074243255
232	0xbc9e6ce3	-0.01933903
233	0x3d38c18b	0.045106452
234	0xbc3d0e31	-0.011539028
235	0x3d32fdc8	0.043699056
236	0x3da59361	0.08084751
237	0x3d2e2370	0.042514265
238	0x3d4a3d1e	0.049374692
239	0xbc1fa4bb	-0.009743865
240	0x3cf3a6e3	0.029742664
241	0x3cc58037	0.02410899
242	0x3d846c51	0.06465972
243	0x3c8a9288	0.016915575
244	0xbd7bd5e4	-0.06148328
245	0xbd108553	-0.035283398
246	0xbd5168d6	-0.05112537
247	0xbda69386	-0.081336066
248	0x3b34287b	0.0027489949
249	0x3bc91db8	0.006137576
250	0x3d3c433d	0.04596256
251	0xbcaafb87	-0.02087189
252	0xbc672b78	-0.014109485
253	0x3d8327c4	0.06404069
254	0x3d508bb7	0.050914492
255	0xbd879f5e	-0.06622194
