modeldata/model_148_epoch.pth (torch_old, 43109 bytes, 5 tensors)

weight f4 [64, 1, 9, 9]
0	0x3b327250	0.002722878
1	0x3b7ed3b4	0.003888351
2	0xbd1a4e0d	-0.03767209
3	0x3cf05e78	0.029341921
4	0xbcc4a608	-0.024004951
5	0x3bfe9c0a	0.007770066
6	0xbd28da73	-0.041223954
7	0x3c0d6dc2	0.008632125
8	0x3cb8afab	0.022544703
9	0xbca55587	-0.020182384
10	0x3c043540	0.008069336
11	0xbbefc482	-0.0073171267
12	0x3d452d32	0.048138805
13	0x3d1fbad6	0.03899654
14	0xbc68cd24	-0.014209066
15	0x3cebad67	0.028769208
16	0xbc0625ff	-0.00818777
17	0x3b06e2d1	0.002058197
18	0xbbf13095	-0.0073605278
19	0xba179ab9	-0.00057832483
20	0x3d3468e3	0.04404534
21	0x3cb287c9	0.021793263
22	0x3d84decc	0.06487808
23	0x3caed06b	0.021339616
24	0x3d352033	0.04422016
25	0xbcf6b4bd	-0.03011548
26	0xba230ecc	-0.00062201614
27	0xbb1cb2a9	-0.00239102
28	0x3bb4a297	0.0055125463
29	0xbcb02643	-0.02150262
30	0xbc9a2036	-0.018814187
31	0xbd4246b0	-0.047430694
32	0xbc880633	-0.016604519
33	0x3d90f35e	0.070776686
34	0x3caeed61	0.021353425
35	0x3abce4bc	0.001441143
36	0x3ca6b453	0.020349657
37	0xbc1f4a57	-0.009722314
38	0xbc3fb048	-0.011699744
39	0xbde2a74e	-0.11067067
40	0xbe362b95	-0.17790063
41	0xbd95dc31	-0.07317389
42	0xbb3fe155	-0.0029278595
43	0xbcdf6034	-0.027267553
44	0xbcde7956	-0.027157467
45	0x3c967b30	0.018369287
46	0x3d69f06f	0.05711406
47	0x3d0b6c88	0.03403905
48	0xbcdf49dd	-0.0272569
49	0xbdde1729	-0.10844261
50	0xbc0cfe0b	-0.00860549
51	0x3d27a4f6	0.040928803
52	0x3cdf1461	0.027231397
53	0x3cd10132	0.025513265
54	0xbcacb6ad	-0.0210832
55	0xbcc5c3e5	-0.024141261
56	0x3c4d7cba	0.012541944
57	0x3d30f720	0.043204427
58	0xbd36fd81	-0.044675354
59	0xbc492f94	-0.01227941
60	0x3d72f678	0.059317082
61	0x3c4a6f71	0.012355671
62	0xbbcbb5be	-0.0062167337
63	0x3ba1e44d	0.0049405457
64	0xbc259c67	-0.01010809
65	0xbc1f0076	-0.0097047
66	0x3d142889	0.03617147
67	0x3a904da1	0.0011009463
68	0xbb8157af	-0.0039472203
69	0x3a8f1746	0.001091697
70	0xbc0dd8d8	-0.008657657
71	0xbc295f59	-0.010337674
72	0xba4b8425	-0.00077635265
73	0xbb43ede1	-0.0029896426
74	0xbc2da25d	-0.010597792
75	0x3cc21c5b	0.023695162
76	0xbc358d03	-0.011080983
77	0xbc5d35ba	-0.013501579
78	0xbcd8c2f8	-0.026460156
79	0x3be8e630	0.0071075186
80	0x3ba694ed	0.0050836713
81	0xbaa0dbcd	-0.0012272537
82	0x3b6a6d10	0.0035770573
83	0x3caea347	0.021318091
84	0xbc9bc7df	-0.019016204
85	0x3c757d4a	0.0149834845
86	0xbc808ccf	-0.015692143
87	0xbbaa0752	-0.005188861
88	0xbc9a9002	-0.018867496
89	0xbd32d351	-0.04365856
90	0xbd3b8099	-0.045776937
91	0xbcb782f7	-0.022401316
92	0xbcdf92e6	-0.027291726
93	0x3cc8ec7a	0.024526823
94	0xbbb3a1f3	-0.0054819523
95	0xbd40f287	-0.047106292
96	0xbd5a0997	-0.0532318
97	0x3bf3a627	0.0074355784
98	0x3b905f0c	0.0044058617
99	0xbca4a825	-0.020099709
100	0x3983111c	0.00024999015
101	0x3bc04f14	0.005868802
102	0xbc65040e	-0.0139780175
103	0x3db072ed	0.0861567
104	0x3ce15030	0.027504057
105	0xbc567918	-0.013090394
106	0xbcc7f483	-0.024408584
107	0xbc1daa3b	-0.009623106
108	0xbd4a800a	-0.049438514
109	0x3cb37f51	0.021911295
110	0x3d33450c	0.04376702
111	0xba7b3160	-0.00095822476
112	0x3e0868d8	0.13321245
113	0x3b5f2575	0.0034049426
114	0x3b34600d	0.002752307
115	0x3c56ce54	0.013110716
116	0x3a8b7bba	0.0010641732
117	0xbc4520a4	-0.012031708
118	0x3c60ccb6	0.013720682
119	0x3ca1f4ab	0.019769987
120	0xbd4936ea	-0.049124636
121	0x3c6ac9a2	0.0143303
122	0xbcef9561	-0.029246034
123	0xbd8af1d7	-0.067844085
124	0xbceeb316	-0.02913813
125	0x3c3324d7	0.010934076
126	0xb9988a29	-0.00029094637
127	0xbb80a4ba	-0.003925887
128	0xbd20273b	-0.039099913
129	0xbcb8ca47	-0.02255739
130	0xbd01e8cb	-0.03171615
131	0xbca13e28	-0.019682959
132	0x3ccd567f	0.025065659
133	0x3ca4023f	0.020020602
134	0xbb9bbf61	-0.0047530388
135	0x3c95246d	0.018205846
136	0x3ca5d7bb	0.02024447
137	0x3c7b7094	0.015346665
138	0xbceb7f06	-0.028747093
139	0x3d0a7181	0.033799652
140	0xbc4704a8	-0.012147106
141	0x3c2b1607	0.010442263
142	0x3c994981	0.018711807
143	0xba3c8bc6	-0.0007192459
144	0xbce61d76	-0.02809022
145	0x3c5e0241	0.013550342
146	0x3c3b276f	0.011422976
147	0xbcc341b9	-0.02383505
148	0x3d4e2671	0.05032963
149	0xbc8d6100	-0.017258167
150	0xbcd3b1e8	-0.025841668
151	0xbbd513c1	-0.006502599
152	0x3afc5909	0.0019252609
153	0xbca1f3cb	-0.01976957
154	0xbc24f3fd	-0.010067937
155	0xbac33070	-0.0014891755
156	0xbc829e72	-0.015944693
157	0x3d464e35	0.048414428
158	0xbc40fd37	-0.011779121
159	0xbd3be64c	-0.045873925
160	0x3c2a24f3	0.010384786
161	0x3bb25e12	0.005443343
162	0x3ccfadc0	0.025351405
163	0xbc614320	-0.013748914
164	0xbc75891b	-0.014986302
165	0xbd200f3e	-0.039077036
166	0xbcd034be	-0.025415774
167	0xbca6ac72	-0.0203459
168	0xbd051bdf	-0.032497283
169	0xbcf1e035	-0.029525856
170	0x3d3c0cde	0.04591071
171	0xbb536ac4	-0.0032259682
172	0x3c5fe89d	0.013666299
173	0x3cb9718f	0.022637157
174	0xbba7e100	-0.0051232576
175	0xbc5e196b	-0.013555865
176	0xbc533cdd	-0.012892929
177	0xbc98e994	-0.018666066
178	0xbd0b5cbe	-0.034023993
179	0xbc619e08	-0.013770588
180	0xbc67e122	-0.014152797
181	0x3b42a322	0.0029699286
182	0x3ae0521e	0.0017114317
183	0x3bcae237	0.0061915177
184	0xbc7cbae0	-0.015425414
185	0x3cee0827	0.029056622
186	0x3d3536fb	0.044241887
187	0x3d0f2a4f	0.034952458
188	0xbb560a1d	-0.0032659837
189	0xba8ed228	-0.0010896372
190	0xbc1a9b72	-0.009436475
191	0x3cf14a36	0.029454332
192	0xbc092355	-0.00837024
193	0x3d0785ed	0.033086706
194	0x3d4569d1	0.048196618
195	0x3cd3f13f	0.025871871
196	0x3d23c7c0	0.03998542
197	0x3c096eca	0.008388231
198	0x3cd750c6	0.026283633
199	0xbc9b86c3	-0.018985158
200	0xbd131efc	-0.03591822
201	0xbcc06f7a	-0.023490656
202	0x3d10d97c	0.03536366
203	0x3d55d253	0.052202534
204	0x3cd358f3	0.02579925
205	0xbb47b0d0	-0.0030470379
206	0x3cbd60e8	0.023117498
207	0x3d081a6f	0.033228334
208	0xbaef0c37	-0.0018237893
209	0x3c8f7b39	0.017514812
210	0xbc82c688	-0.015963808
211	0x3d167029	0.036728058
212	0x3c880418	0.016603515
213	0x3ccfe87e	0.025379416
214	0x3d00e619	0.03146944
215	0xba93fc5d	-0.001129042
216	0x3b1ef9b2	0.0024257717
217	0xbc9e6554	-0.019335426
218	0x3bb515cc	0.00552628
219	0xbcb88403	-0.022523886
220	0x3cd5415f	0.026032148
221	0x3cde0755	0.027103106
222	0x3cae2a81	0.021260502
223	0xbc2f187d	-0.010686991
224	0x3d0eff2e	0.034911327
225	0xbcdde2b6	-0.027085643
226	0x39ecf352	0.00045194715
227	0xbcae7e0c	-0.021300338
228	0x3d3e5b2b	0.046473663
229	0xbb753a56	-0.0037418804
230	0x3cf297d3	0.029613411
231	0x3c1aec49	0.009455749
232	0x3c2ecfbf	0.010669648
233	0xbc3443ee	-0.011002524
234	0xbc260853	-0.010133821
235	0xbcac4d27	-0.021032883
236	0x3c85f2ac	0.016351067
237	0x3ba2b32a	0.0049652057
238	0x3d070583	0.03296424
239	0x3cb6d1c0	0.022316813
240	0xbc3b4973	-0.011431086
241	0x3b4f80ab	0.0031662385
242	0xbcd7bd87	-0.02633549
243	0x3c535031	0.012897537
244	0xbc45648f	-0.012047901
245	0xbc9ee8c0	-0.019398093
246	0xb9b96b49	-0.00035365883
247	0x3cca300a	0.02468111
248	0x3ca57347	0.02019657
249	0xbbeac898	-0.007165026
250	0x3b214e83	0.0024613447
251	0x3a8c43ca	0.0010701355
252	0x3cc88e94	0.024482049
253	0x3bf1285f	0.007359549
254	0x3c8f98bc	0.017528884
255	0xbd7b80a6	-0.061401986

bias f4 [64]
0	0x3d2b2fc5	0.041793603
1	0xbc1f0cfb	-0.009707685
2	0x3b89e6aa	0.0042084055
3	0x3c58f825	0.013242756
4	0x3c26118a	0.010136018
5	0x3a3a8bf2	0.00071161904
6	0x3c8da386	0.017289888
7	0x3c769115	0.015049239
8	0x3c4c5c94	0.012473244
9	0xbb567726	-0.0032724827
10	0x3bcfa4d7	0.006336789
11	0x3d28733c	0.04112552
12	0x3ba87109	0.005140428
13	0x3c0dd99d	0.00865784
14	0x3ab3cec1	0.0013718234
15	0x3bd2d079	0.0064335433
16	0x3bde370b	0.006781464
17	0xbba96516	-0.005169521
18	0x3c5a0799	0.0133074755
19	0xb93c385d	-0.00017950074
20	0xbc529b04	-0.012854341
21	0xbd4746c1	-0.04865146
22	0xbb12b1c5	-0.002238379
23	0x3b455e3b	0.003011598
24	0x3b7a8c0e	0.0038230452
25	0x3c85c439	0.016328918
26	0x3b95ca07	0.0045712027
27	0xbbf1c3c0	-0.0073780715
28	0x3c9cde5a	0.019148994
29	0xbc14e073	-0.009086716
30	0xbbf5c2c8	-0.0075000264
31	0x3bc92c54	0.0061393175
32	0x3b5b537f	0.0033466516
33	0x3c4262ef	0.011864408
34	0x3c691c8f	0.014228
35	0x3c18290e	0.009287132
36	0x3c09ca1e	0.008410005
37	0x3c3c40cc	0.011490058
38	0x3d06327e	0.032762997
39	0x3b6b71e6	0.0035926043
40	0x3c9beb2d	0.019033039
41	0x3b7e2922	0.0038781841
42	0x3b02632e	0.0019895541
43	0xbc547f05	-0.012969737
44	0x3b372b78	0.0027949493
45	0xbb43b7c4	-0.0029864172
46	0x3cabab8f	0.020955829
47	0xbc05153e	-0.00812274
48	0xbcd56a18	-0.026051566
49	0xbb819b69	-0.003955294
50	0x3c23d388	0.009999163
51	0xbbf0e4d8	-0.007351499
52	0x3c80c222	0.01571757
53	0xbc9b5b00	-0.01896429
54	0x3cab8538	0.020937547
55	0x3c80f275	0.015740613
56	0x3cd418e5	0.025890777
57	0xbb9b2085	-0.0047341012
58	0xb92001c5	-0.00015259448
59	0x3a91a756	0.0011112492
60	0xbc766abc	-0.015040096
61	0xbc49907c	-0.012302514
62	0xbbbd57e9	-0.005778302
63	0x3cb3feb0	0.02197203

weight f4 [32, 64, 1, 1]
0	0x3e32babe	0.17454049
1	0x3e95d703	0.29265603
2	0xbe0eea0d	-0.13956471
3	0xbd546467	-0.051853564
4	0xbe388bd9	-0.18022098
5	0x3df2bcf6	0.11852448
6	0xbebc2408	-0.3674624
7	0x3e264dd6	0.1624063
8	0xbde2a5a8	-0.11066753
9	0x3e3181c6	0.17334661
10	0xbdc5e452	-0.09662689
11	0x3d4fb6dd	0.0507115
12	0xbdbd3baf	-0.09239899
13	0xbdfc5875	-0.12321559
14	0x3eca68e8	0.39533162
15	0x3e5cfc6b	0.21580665
16	0x3f0ae247	0.5425152
17	0xba3e1ad5	-0.0007251923
18	0xbe032f20	-0.12810946
19	0xbdc4bd88	-0.09606463
20	0x3e73a6f0	0.2379415
21	0xbe3c7c9b	-0.18406908
22	0xbcd122bc	-0.025529258
23	0x3ecd3db3	0.40086135
24	0xbe3fd931	-0.18735196
25	0xbe140d87	-0.14458285
26	0xbea9c5b2	-0.33158642
27	0x3e51cab5	0.20487483
28	0x3ea01357	0.31264755
29	0x3ddc5590	0.10758507
30	0xbb374775	-0.0027966176
31	0x3c8919f0	0.016736
32	0xbd6e5d20	-0.05819428
33	0x3dcd8ff7	0.10037225
34	0xbdff19de	-0.12456106
35	0xbd46d68f	-0.048544463
36	0xbe47a9a8	-0.19498312
37	0x3e4c0aac	0.19925946
38	0x3e30ea2d	0.17276831
39	0xbe35cfeb	-0.17755096
40	0x3d9919da	0.07475634
41	0x3cdf27ef	0.027240722
42	0x3d001348	0.031268388
43	0xbe8c7e40	-0.2744007
44	0x3dca53d5	0.09879271
45	0xbe9a74dc	-0.30167282
46	0x3e394c7a	0.1809558
47	0xbdba0439	-0.09082837
48	0x3d4bb157	0.04972967
49	0x3ec5e205	0.38649002
50	0x3d0e1a7d	0.03469323
51	0x3df016e6	0.117231175
52	0x3e666d6a	0.22502676
53	0x3e8a61f0	0.27027845
54	0x3d79acd5	0.06095584
55	0xbe8c0393	-0.27346477
56	0xbe3d1d9b	-0.18468325
57	0xbdbe300f	-0.0928651
58	0x3e13bb85	0.14427002
59	0xbdcfae28	-0.101406395
60	0xbe740375	-0.23829444
61	0xbed6eec6	-0.41979045
62	0x3e3f0e0d	0.18657704
63	0xbeba0151	-0.3632913
64	0xbe7819f2	-0.24228647
65	0xbd56db77	-0.05245539
66	0x3babbcb8	0.005241003
67	0x3e83550d	0.25650826
68	0xbc8075ea	-0.015681226
69	0xbe5bfdc5	-0.21483524
70	0x3e839fd8	0.2570789
71	0x3e804b14	0.2505728
72	0x3e42301d	0.18963666
73	0x3d75ff11	0.060057703
74	0xbe131cad	-0.14366408
75	0xbd771d6a	-0.060330786
76	0xbe705fcd	-0.23474045
77	0x3e70ec7f	0.23527716
78	0x3d35943b	0.044330817
79	0xbcd5da43	-0.026105052
80	0xbe978f2b	-0.29601416
81	0xbd320078	-0.04345748
82	0xbc45458a	-0.012040505
83	0x3e2b6f75	0.16741736
84	0xbc032e48	-0.00800664
85	0x3e66ef47	0.22552215
86	0x3bf66d19	0.0075203297
87	0x3e84d042	0.25940138
88	0x3d41988c	0.04726462
89	0x3e222a2f	0.15836404
90	0x3d9e32a9	0.077245064
91	0xbe46ec74	-0.19426137
92	0x3e9129f0	0.28352308
93	0x3e914246	0.28370875
94	0xbca5cee9	-0.020240264
95	0xbe2d8378	-0.16944683
96	0xbe33930c	-0.17536563
97	0x3e838c70	0.25693083
98	0xbd48371f	-0.048880693
99	0x3d16cb04	0.036814705
100	0xbd6f934b	-0.05849008
101	0xbd413d2c	-0.04717748
102	0xbbfc6876	-0.0077028824
103	0xbe021d94	-0.12706596
104	0x3d4ac819	0.049507234
105	0x3e6b2a25	0.22965296
106	0xbd018866	-0.03162422
107	0xbe8d6802	-0.27618414
108	0xbe84fba9	-0.2597325
109	0x3ece2c41	0.40268138
110	0x3ea3e132	0.32007748
111	0xbe20cefd	-0.1570396
112	0x3b815532	0.0039469237
113	0x3e72897f	0.23685263
114	0xbe6b9478	-0.23005855
115	0xbe0c20bd	-0.13684364
116	0xbe586f26	-0.2113615
117	0x3e96a2ca	0.29421073
118	0x3d5f9815	0.054588396
119	0xbe6e2348	-0.23255646
120	0x3d9d189f	0.07670712
121	0x3c9a145b	0.018808534
122	0xbd1ab172	-0.03776688
123	0x3d92d849	0.07170159
124	0xbea81dba	-0.3283518
125	0x3e148489	0.14503683
126	0x3e81e718	0.25371623
127	0xbe89fe3e	-0.26951784
128	0xbe0c4514	-0.13698226
129	0x3d4ec79a	0.050483324
130	0xbe193fc7	-0.14965735
131	0x3e6ed3e8	0.23323023
132	0x3e931359	0.287257
133	0x3e4f1807	0.2022401
134	0x3e576afd	0.21036907
135	0x3d6b6324	0.057467595
136	0x3e5631a5	0.20917375
137	0xbe18a15f	-0.14905308
138	0xbe3dd22f	-0.1853721
139	0x3c48ab60	0.01224789
140	0x3c620e12	0.0137973
141	0x3e96ea87	0.29475805
142	0xbe312806	-0.17300424
143	0x3e366d53	0.17815141
144	0xbf18f799	-0.59752804
145	0xbe46c63b	-0.19411556
146	0x3e19203c	0.14953703
147	0x3dbf6ab0	0.09346521
148	0x3d59bf77	0.05316111
149	0x3e730ceb	0.23735397
150	0x3b63f550	0.0034783669
151	0xbe6c4417	-0.23072849
152	0xbd982466	-0.074288175
153	0xbe295d4c	-0.16539496
154	0xbc54c39d	-0.012986091
155	0xbe115210	-0.1419146
156	0x3d4b0223	0.049562585
157	0xbf33a4b4	-0.7017319
158	0x3caaca0c	0.020848297
159	0xbdbbf19c	-0.09176943
160	0x3e3810d1	0.17975165
161	0x3e6acb88	0.22929204
162	0xbca22e4d	-0.019797469
163	0x3e2c9656	0.16854224
164	0xbe809487	-0.25113317
165	0x3e7284c7	0.23683463
166	0xbd7b5a09	-0.06136516
167	0xbd16e5cd	-0.03684025
168	0x3d3e80a9	0.04650942
169	0xbe1cbfa7	-0.15307485
170	0x3d81bbe4	0.063346654
171	0x3e41161d	0.18856092
172	0xbef2fc63	-0.4745818
173	0xbd95fb5d	-0.07323334
174	0x3dc9e742	0.09858562
175	0xbdf9ec9c	-0.12203333
176	0xbe95096a	-0.29108745
177	0xbe68d04f	-0.22735713
178	0x3e835dc0	0.25657463
179	0xbdddbd09	-0.10827071
180	0x3e44f1ef	0.19232915
181	0x3e9e8f1b	0.30968556
182	0x3e12b79e	0.14327857
183	0xbe38ce2a	-0.18047395
184	0xbe5edf5f	-0.21764897
185	0xbe16b2aa	-0.14716592
186	0x3e833a32	0.25630337
187	0x3c5eee34	0.013606597
188	0xbdf5df22	-0.1200545
189	0x3da10733	0.07862701
190	0x3e599e1d	0.21251722
191	0x3e89b134	0.26893008
192	0x3b8917f9	0.004183766
193	0xbe03dc64	-0.12877041
194	0x3df0b1b9	0.11752648
195	0x3e908de5	0.28233257
196	0x3e8302af	0.25587985
197	0xbe01d65a	-0.12679425
198	0xbe1bf9d5	-0.15232022
199	0x3e0d2d8d	0.13786907
200	0xbe96dc47	-0.29464933
201	0xbe2a5dae	-0.16637298
202	0x3d99f05f	0.0751655
203	0xbdd3f3a3	-0.103492044
204	0x3e2a0157	0.16602074
205	0xbd848def	-0.06472384
206	0x3e2b2526	0.1671339
207	0x3e0fea74	0.1405428
208	0xbd361090	-0.04444939
209	0xbce43632	-0.027857874
210	0x3e7709ba	0.24124804
211	0xbe2d8b6d	-0.16947718
212	0x3aa7fbd1	0.0012816136
213	0x3dbb51b8	0.09146446
214	0x3e81a24d	0.25319138
215	0x3ec68a62	0.38777453
216	0x3e333cee	0.17503712
217	0x3e894b6c	0.26815355
218	0xbe113795	-0.14181359
219	0x3c8a8eed	0.016913855
220	0x3e29a643	0.1656733
221	0xbe763dc5	-0.24047
222	0xbe111b17	-0.1417049
223	0xbe9d81c0	-0.30763054
224	0xbd277648	-0.040884286
225	0xbd780357	-0.06055006
226	0x3e7bd85a	0.2459425
227	0xbdaa298d	-0.083087064
228	0x3e1d9b0d	0.15391178
229	0x3db2adc5	0.0872455
230	0xbed81f57	-0.4221141
231	0x3e65a40b	0.22425859
232	0xbeb31d28	-0.34983182
233	0xbe01359c	-0.12618107
234	0x3e15c876	0.14627251
235	0x3e658302	0.22413257
236	0x3e157a50	0.1459744
237	0x3e76f6c5	0.24117573
238	0x3d38ffc4	0.045165792
239	0xbe846054	-0.25854743
240	0xbeac1b6b	-0.33614668
241	0xbd8fd50a	-0.07023056
242	0xbd1f9489	-0.038960014
243	0xbe8f9bab	-0.28048453
244	0x3deea127	0.11651831
245	0xbe0922d6	-0.13392195
246	0xbe08737e	-0.13325307
247	0xbd360928	-0.044442326
248	0x3de0cf01	0.10976983
249	0x3e8c79bf	0.27436635
250	0xbb1d56df	-0.0024008078
251	0x3daf5f66	0.08563118
252	0xbdd94d79	-0.1061048
253	0x3ec8538a	0.39126235
254	0xbe0bd94e	-0.13657114
255	0x3db6ddb7	0.089290075

bias f4 [32]
0	0xb92473d7	-0.00015683412
1	0x3c05966a	0.008153537
2	0xbac80a66	-0.0015261888
3	0x3c6c9806	0.014440542
4	0x3b841db8	0.004031863
5	0x3cc84a7d	0.024449581
6	0xbc274a43	-0.0102105765
7	0xb863fbea	-5.435563e-05
8	0x3cac4713	0.021029985
9	0x3b8bf1e0	0.004270777
10	0xba8e06ab	-0.0010835727
11	0x3c22e518	0.0099423155
12	0xbb9f33d7	-0.0048584747
13	0xbb4cf644	-0.0031274715
14	0x3be4ba74	0.0069802348
15	0xbaf1e5c8	-0.0018455321
16	0xbc48bb94	-0.012251753
17	0x3c86364b	0.01638331
18	0xbae50702	-0.0017473402
19	0x3b9c32d8	0.0047668032
20	0xbc03519b	-0.008015062
21	0x3c07ab5c	0.008280601
22	0x3c79a518	0.015237115
23	0x3c48051b	0.0122082485
24	0x3c65bca4	0.014022026
25	0x3d0ab562	0.033864386
26	0xbbc71da4	-0.0060765315
27	0xbc329875	-0.010900606
28	0x3c72e31f	0.014824658
29	0xba44b0d2	-0.0007503155
30	0xbb1c4def	-0.0023850163
31	0x3ba664b3	0.0050779223

weight f4 [1, 32, 5, 5]
0	0xbd881c92	-0.06646074
1	0x3d334363	0.043765437
2	0xbd8cdd1d	-0.068781115
3	0xbd92fb0e	-0.07176791
4	0xbc9f59be	-0.019451972
5	0x3caa9347	0.02082218
6	0x3d93f2c5	0.07224039
7	0x3b83b118	0.004018914
8	0xbb8593bd	-0.0040764497
9	0x3d89023e	0.06689881
10	0xbc5232a0	-0.012829453
11	0x3ceab270	0.028649539
12	0x3d8948b6	0.06703322
13	0xbd18d1f8	-0.037309617
14	0x3daa38ed	0.08311639
15	0x3d804163	0.062624715
16	0x3d897e4c	0.06713542
17	0xbd269f75	-0.040679414
18	0xbd11da5f	-0.035608646
19	0xbd0dea2b	-0.034647148
20	0x3d1fd892	0.039024897
21	0x3da83d5e	0.0821483
22	0x3d15107f	0.036392685
23	0xbd5f8d7a	-0.054578282
24	0x3d6c50fb	0.057694416
25	0x3cf26375	0.02958844
26	0x3d89c7e6	0.06727581
27	0xbd80d5e2	-0.06290795
28	0xbd2ef102	-0.04271031
29	0xbd4c43e1	-0.049869422
30	0x3d2e95cf	0.042623337
31	0x3d6a0c1a	0.057140447
32	0xbd4ee114	-0.05050762
33	0xbdb5c560	-0.08875537
34	0x3d6ea469	0.058262262
35	0x3d1b11ff	0.03785896
36	0x3d94a4bf	0.07257985
37	0x3d8b3e79	0.06799025
38	0x3d997f9f	0.07495045
39	0xbd660947	-0.05616119
40	0x3c614d00	0.013751268
41	0x3da7914a	0.081820086
42	0x3c2f9b47	0.010718173
43	0x3da87fb6	0.08227484
44	0x3d9b5b3f	0.07585763
45	0x3d87ed01	0.06637002
46	0xbd84c347	-0.06482559
47	0xbce86a8c	-0.028371118
48	0x3d477680	0.048696995
49	0x3bf1758f	0.0073687504
50	0xbd88bc93	-0.06676593
51	0xbc7a3b01	-0.015272857
52	0xbd4faf9b	-0.05070458
53	0x3da9ab2e	0.08284603
54	0xbc1cbf24	-0.009567056
55	0xbd366747	-0.044532087
56	0xbd0b036c	-0.03393881
57	0xbc1504f7	-0.009095422
58	0x3bb52240	0.0055277646
59	0xbaca05a5	-0.0015413059
60	0x3da93b38	0.08263248
61	0x3d6682c1	0.05627704
62	0xbcb92bc0	-0.02260387
63	0x3d9fc4d6	0.07801215
64	0xbd15d299	-0.036577795
65	0xbd205164	-0.03914012
66	0x3cb95f50	0.022628456
67	0x3d6d94f6	0.05800339
68	0x3da87f2b	0.0822738
69	0xbd349b92	-0.044093676
70	0x3c8078d9	0.015682625
71	0xbd43e529	-0.047825966
72	0x3ba681ca	0.00508139
73	0x3d242e16	0.040083013
74	0xbc56425e	-0.013077347
75	0x3cfad574	0.03061936
76	0x3d9c2416	0.0762407
77	0xbd89842f	-0.06714665
78	0xbd753801	-0.059867863
79	0xbd2f4633	-0.042791557
80	0xbd814c2e	-0.06313358
81	0x3d8b5252	0.06802811
82	0xbd8cac96	-0.06868856
83	0xbd6c2655	-0.057653744
84	0xbd87e85f	-0.06636118
85	0xbac5acf1	-0.0015081448
86	0x3da1828c	0.07886228
87	0x3d95eaca	0.07320173
88	0x3da5096d	0.080584385
89	0xbcc9ca41	-0.024632575
90	0x3d3ecb43	0.046580564
91	0x3d070d85	0.032971878
92	0x3c81c46e	0.015840735
93	0x3d1fa5f7	0.038976636
94	0xbd75e0ee	-0.060028963
95	0x3da86e81	0.08224202
96	0xbc5ec993	-0.013597864
97	0x3d9868a9	0.07441837
98	0x3d534e5c	0.0515884
99	0xbbdace38	-0.006677415
100	0x3d844085	0.064576186
101	0xbd6eadbc	-0.058271155
102	0xbd862f4b	-0.06551989
103	0x3d89eb53	0.06734338
104	0x3b0e4f90	0.0021714903
105	0x3cbc4fa0	0.022987187
106	0xbc3de9eb	-0.011591415
107	0xbd88394d	-0.06651554
108	0x3c9538be	0.018215533
109	0x3c3441ed	0.011002046
110	0x3cefb512	0.029261146
111	0x3d1e2cf4	0.03861709
112	0x3da0be25	0.07848767
113	0x3d32b05f	0.04362523
114	0x3d9f3c9a	0.07775231
115	0x3d2d3914	0.042290762
116	0x3d836d68	0.06417352
117	0xbd0462d1	-0.0323208
118	0x3d132769	0.035926256
119	0xbd5cab7f	-0.05387449
120	0x3cfd5b7f	0.030927418
121	0x3da3dbce	0.08000909
122	0x3c87b9b4	0.016568042
123	0xbdaa5fb0	-0.08319032
124	0x3d21b7b5	0.039481837
125	0xbcb5d0dd	-0.02219432
126	0x3ca81384	0.020517118
127	0x3d1f8783	0.038947593
128	0xbd9a3fc5	-0.07531694
129	0xbd52ea72	-0.051493116
130	0x3c48f995	0.012266536
131	0xbd8ab879	-0.067734666
132	0x3d895244	0.06705144
133	0xbc9138a0	-0.017727196
134	0x3d208e12	0.03919799
135	0xbd8de257	-0.069279365
136	0xbd9c5d62	-0.07634999
137	0x3ca77b01	0.020444395
138	0x3d80cd2e	0.06289135
139	0xbc00199a	-0.007818604
140	0xbbc6ef1f	-0.006070986
141	0xbd83fc83	-0.06444647
142	0xbd4a85d4	-0.049444035
143	0x3d9f274e	0.07771169
144	0x3d9ca287	0.07648187
145	0x3d97b77b	0.07408043
146	0x3dc404c2	0.0957122
147	0x3d141e31	0.036161605
148	0xbd82ea01	-0.06392289
149	0x3db2a554	0.0872294
150	0x3b0b5dc4	0.0021265605
151	0x3d72d1b0	0.059282005
152	0xbd28b70e	-0.0411902
153	0x3a4a4dc8	0.0007717279
154	0xbc79f9be	-0.015257297
155	0xba50f5bf	-0.00079711893
156	0x3daf5eb0	0.08562982
157	0x3d7444c0	0.059635878
158	0xbd9ab6c5	-0.07554392
159	0xbda64855	-0.08119265
160	0xbd6f6dbb	-0.058454257
161	0x3c97c994	0.018528737
162	0xbd5967b9	-0.053077433
163	0x3da9e905	0.08296398
164	0xbda07114	-0.07834068
165	0xbd0f1fd4	-0.034942463
166	0xbd75019b	-0.059815984
167	0x3d6f8c41	0.058483366
168	0xbd1c0b85	-0.038096923
169	0x3d920ed5	0.07131735
170	0x3d617081	0.055038933
171	0xbd16e1f7	-0.03683659
172	0xbd22cca6	-0.03974595
173	0xbd4a6fbe	-0.049422972
174	0x3d7ce82e	0.06174486
175	0x3d24a0be	0.04019236
176	0x3d6a5915	0.05721386
177	0xbd68970c	-0.056784675
178	0x3ccd738b	0.02507951
179	0xbbf322ef	-0.007419936
180	0xbd220fd1	-0.039565865
181	0xbda0b1ec	-0.07846436
182	0x3d6f589b	0.05843411
183	0xbc7ad01b	-0.015308405
184	0xbd561d0f	-0.052273806
185	0x3d147ad8	0.036249965
186	0xbcf5b372	-0.029992793
187	0xbd80419c	-0.06262514
188	0x3b0fe6de	0.0021957676
189	0x3da19f49	0.07891709
190	0xbd5887de	-0.052863948
191	0x3cfe67de	0.031055387
192	0xbd817655	-0.06321398
193	0xbc8f4734	-0.017490007
194	0xbd37fb79	-0.044917557
195	0xbd7d1db1	-0.061795894
196	0xbcd9cc3e	-0.026586648
197	0xbd7a256f	-0.061070856
198	0x3d2153ad	0.03938644
199	0x3d5b1f0b	0.0534964
200	0xbbc9a112	-0.0061532343
201	0x3d593aba	0.05303452
202	0xbd6c41f3	-0.05768008
203	0xbd6596a4	-0.056051865
204	0x3d4d3085	0.0500951
205	0x3cfd7eb9	0.030944215
206	0x3db4e4c9	0.088327
207	0x3ce36f81	0.02776313
208	0x3d2d77b9	0.042350505
209	0x3d6a7b91	0.05724675
210	0xbd8f44df	-0.06995558
211	0x3dad9658	0.084759414
212	0xbd96608c	-0.073426336
213	0x3d0a7369	0.03380147
214	0xbbabdd93	-0.0052449196
215	0xbd4fbb99	-0.050716016
216	0x3c8d32aa	0.017236073
217	0x3d5ef033	0.05442829
218	0x3d7e0dc8	0.06202486
219	0x3d0a41f1	0.033754293
220	0x3c84a4be	0.016191836
221	0x3ce75b0c	0.028241657
222	0xbd0e8d97	-0.034803
223	0xbceb50a3	-0.028724974
224	0x3da42760	0.08015323
225	0xbc350058	-0.011047445
226	0x3d8880d1	0.06665195
227	0xbcfa8189	-0.030579345
228	0x3d2b1e9a	0.04177723
229	0x3d28cd86	0.041211627
230	0x3d1f8e60	0.03895414
231	0x3d979be2	0.07402779
232	0xbca0621f	-0.019578038
233	0x3d381b79	0.044948075
234	0xbc39f657	-0.011350236
235	0x3d31d27d	0.043413628
236	0x3da59aaf	0.08086144
237	0x3d2e9394	0.04262121
238	0x3d4989cf	0.04920369
239	0xbc1ed674	-0.009694684
240	0x3cf4a451	0.029863508
241	0x3cc4cee4	0.024024434
242	0x3d845456	0.06461398
243	0x3c8ac583	0.016939884
244	0xbd7a7503	-0.061146747
245	0xbd10a328	-0.035311848
246	0xbd5262c2	-0.051363714
247	0xbda6a374	-0.08136645
248	0x3b3f8faf	0.002922993
249	0x3bcbe228	0.0062220283
250	0x3d3e818d	0.046510268
251	0xbcb0d7a7	-0.021587206
252	0xbc6cbe39	-0.0144496495
253	0x3d847c2c	0.064689964
254	0x3d4fc441	0.05072427
255	0xbd86ab92	-0.06575693
