modeldata/model_53_epoch.pth (torch_old, 43109 bytes, 5 tensors)

weight f4 [64, 1, 9, 9]
-0.03499757 -0.0013944037 -0.01751144 0.017339908 -0.03844509 0.024594322 -0.037904523 0.015199519
0.018670917 -0.035552092 0.00792942 -0.008799877 0.0031682048 0.006123979 -0.010397857 0.027470304
0.011890544 0.02370548 -0.017534122 -0.004001487 0.024738329 -0.027990747 0.023903027 -0.0145457415
-0.0075170607 -0.030130146 0.013078915 -0.024620501 -0.0027832277 -0.01865498 -0.0033570013 -0.01169923
-0.014010219 0.020756833 0.022231033 0.009077423 0.0022516954 -0.011807048 0.02708127 -0.014590979
-0.029838322 0.023904372 -0.0008135614 0.0007272717 -0.008014315 -0.020690836 0.017494464 -0.004447962
-0.02129326 -0.033208795 0.019949613 -0.025565907 -0.015880777 -0.014709976 0.00022791995 -0.027605172
-0.021556748 0.029040776 -0.017328493 -0.0039007496 0.023451883 0.012406299 0.006501089 0.01352196
-0.015841128 -0.025083264 0.018261498 -0.0025492725 -0.00040259914 -0.0037895867 0.0010434613 0.0014051389
-0.03251922 -0.032288637 -0.00958124 0.024863154 -0.009411317 -0.001056903 -0.026382381 0.008537985
0.02031284 0.014126684 0.0003288985 0.005745915 -0.03965442 0.023174848 -0.029216392 -0.011668813
-0.026177973 -0.03400684 -0.00785308 0.006660948 -0.011763939 0.020489251 -0.024960002 0.009129733
-0.03291067 0.023957958 0.02770811 0.005184574 0.020347506 -0.009097865 -0.0076779868 0.0022942203
0.022223411 0.01869998 0.01716378 0.017561974 -0.03021172 0.018344123 0.025545409 -0.009038043
0.030865204 0.01052581 -0.0010469717 0.0028462105 -0.00864728 -0.016022496 0.011045673 0.024456806
-0.02151058 0.0021613592 0.0016710191 -0.036411628 -0.028513478 0.017570209 -0.013486032 -0.011748568
-0.028042676 0.020474155 -0.023478944 -0.028193735 0.021824019 -0.013787504 -0.026821028 0.00807138
0.011641561 0.026753716 0.009082837 0.0064324653 -0.029668245 -0.0072973683 -0.024155512 -0.028486451
-0.022410901 0.02552951 0.022193171 0.0024256061 0.009704652 0.006001607 -0.014914217 -0.023041625
-0.0031005533 -0.01436753 -0.013860877 -0.020028595 -0.013570746 0.016440835 0.00035924834 0.009862259
0.024265114 0.012658133 0.021102892 -0.009992695 -0.015357607 -0.028190713 -0.025276478 -0.01690592
-0.02478903 -0.029642025 0.03152134 0.010622574 0.031912338 0.018431382 0.0009836687 -0.007965053
-0.004502349 -0.008167631 -0.025440605 -0.022786727 -0.010883593 0.0006093455 -0.023617128 -0.004231041
-0.016522544 0.009350542 0.02543742 0.024195466 -0.0141978385 -0.0015624956 -0.010850396 0.016159201
0.00069346 0.030672425 0.034473572 0.029326718 0.036228083 0.0012554884 0.018293787 -0.021956535
-0.032847065 -0.005919509 0.02160195 0.035235632 0.03277233 -0.0015436086 0.01690097 0.032868408
0.0050139586 0.01736263 -0.009842305 0.013528114 -0.0071298894 0.02209227 0.028114868 -0.016716529
0.01304335 0.0021145993 -0.0033808737 -0.020899286 0.028700704 0.022103501 0.0153682465 -0.011455724
0.030717319 -0.032917522 0.024422878 -0.030497385 0.031323332 -0.004672413 0.027444689 0.0044177515
0.0063654487 -0.014197744 -0.028173918 0.0023550908 0.018007437 -0.007969347 0.031581543 0.034126107
-0.0046302085 -0.00073934643 -0.030516196 -0.0071737436 0.014124403 -0.00076926145 0.02232584 -0.011337874
-0.0016299777 -0.011464412 0.008318323 0.019206837 0.006085701 0.026266117 0.022681296 -0.021416891
00000000: 9d59 0fbd 6dc4 b6ba 2774 8fbc 6c0c 8e3c
00000010: 9978 1dbd 087a c93c c641 1bbd 6707 793c
00000020: c0f3 983c 129f 11bd 66ea 013c 5c2d 10bc
00000030: a8a1 4f3b a9ab c83b c65b 2abc 6709 e13c
00000040: 8ed0 423c ff31 c23c b8a3 8fbc e81e 83bb
00000050: 09a8 ca3c da4c e5bc 48d0 c33c 4351 6ebc
00000060: ad51 f6bb 7fd3 f6bc f248 563c efb0 c9bc
00000070: d066 36bb 54d2 98bc 2301 5cbb 21ae 3fbc
00000080: 1e8b 65bc 3c0a aa3c db1d b63c 79b9 143c
00000090: 2e91 133b 5972 41bc 8ad9 dd3c 000f 6fbc
000000a0: 7f6f f4bc 1ad3 c33c 2e45 55ba 61a6 3e3a
000000b0: 794e 03bc d47f a9bc 8d50 8f3c 36c0 91bb
000000c0: 346f aebc f205 08bd 5f6d a33c 986f d1bc
000000d0: 6718 82bc 1c02 71bc ccfd 6e39 3e24 e2bc
000000e0: c797 b0bc ece6 ed3c 7cf4 8dbc b8a3 7fbb
000000f0: 2a1e c03c ca43 4b3c 1607 d53b 368b 5d3c
00000100: 41c5 81bc 6b7b cdbc 2399 953c b211 27bb
00000110: f113 d3b9 b75a 78bb c0c4 883a a32c b83a
00000120: e032 05bd 1741 04bd a2fa 1cbc d0ad cb3c
00000130: ed31 1abc c887 8aba dd1f d8bc e8e2 0b3c
00000140: 1d67 a63c 9b73 673c 0270 ac39 3b48 bc3b
00000150: ac6c 22bd 2ed9 bd3c 3757 efbc 8d2e 3fbc
00000160: 3073 d6bc c24a 0bbd 34aa 00bc 1544 da3b
00000170: 89bd 40bc 13d9 a73c eb78 ccbc e094 153c
00000180: 57cd 06bd 7b43 c43c 1efc e23c 5ce3 a93b
00000190: d0af a63c 360f 15bc 9f97 fbbb a15a 163b
000001a0: df0d b63c b330 993c 0e9b 8c3c 21de 8f3c
000001b0: 927e f7bc 6a46 963c 9b44 d13c 4d14 14bc
000001c0: 06d9 fc3c 7274 2c3c 8a3a 89ba 7d87 3a3b
000001d0: 52ad 0dbc 9c41 83bc e9f8 343c a459 c83c
000001e0: f536 b0bc 97a5 0d3b 1906 db3a 5c24 15bd
000001f0: 1995 e9bc 66ef 8f3c 85f4 5cbc 117d 40bc
00000200: c1b9 e5bc 6ab9 a73c ea56 c0bc 8cf6 e6bc
00000210: 49c8 b23c fce4 61bc c6b7 dbbc d23d 043c
00000220: 3fbc 3e3c 9c2a db3c 2ed0 143c 6ec7 d23b
00000230: d20a f3bc c31e efbb c8e1 c5bc 6b5c e9bc
00000240: 1197 b7bc 4323 d13c 74ce b53c ebf6 1e3b
00000250: 4300 1f3c 21a9 c43b c35a 74bc cac1 bcbc
00000260: a732 4bbb ca65 6bbc bb18 63bc 0213 a4bc
00000270: d657 5ebc eeae 863c 7f59 bc39 5095 213c
00000280: a2c7 c63c 0f64 4f3c f9df ac3c 67b8 23bc
00000290: 799e 7bbc 36f0 e6bc 9e10 cfbc 497e 8abc
000002a0: 5d12 cbbc d5d3 f2bc 851c 013d 4e0a 2e3c
000002b0: 83b6 023d 69fd 963c 72ee 803a db7f 02bc
000002c0: 7188 93bb 87d1 05bc d168 d0bc 3bab babc
000002d0: 1951 32bc 7cbc 1f3a b578 c1bc 8ba4 8abb
000002e0: 495a 87bc 0433 193c 2362 d03c 9235 c63c
000002f0: 0d9e 68bc a7cc ccba dcc5 31bc 4d60 843c
00000300: 50c9 353a bd44 fb3c 2934 0d3d 963e f03c
00000310: e663 143d 338f a43a dadc 953c 31de b3bc
00000320: a58a 06bd 71f8 c1bb 93f6 b03c 3d53 103d
00000330: 473c 063d e952 caba e773 8a3c 06a1 063d
00000340: 224c a43b 133c 8e3c 9f41 21bc 06a5 5d3c
00000350: d9a1 e9bb d9fa b43c 2751 e63c 1af1 88bc
00000360: c6b3 553c 1795 0a3b a691 5dbb fb34 abbc
00000370: bd1d eb3c 6712 b53c 19cb 7b3c cab0 3bbc
00000380: e3a2 fb3c 86d4 06bd 7d12 c83c a7d5 f9bc
00000390: e54c 003d 0b1b 99bb afd3 e03c c9c2 903b
000003a0: 4195 d03b a89d 68bc fdcc e6bc de57 1a3b
000003b0: 5584 933c dd91 02bc a65b 013d d1c7 0b3d
000003c0: 01b9 97bb b3d0 41ba 1afd f9bc b911 ebbb
000003d0: 0a6a 673c 43a8 49ba aee4 b63c 7ec2 39bc
000003e0: faa4 d5ba 3bd5 3bbc 9349 083c a857 9d3c
000003f0: 8f6a c73b 0a2c d73c 20ce b93c 7a72 afbc

bias f4 [64]
-0.0069972696 -0.0029687772 0.0043820413 0.004904179 0.007346148 0.0009127746 -0.0030501029 0.013046156
-0.005450751 -0.0032724827 0.004923391 0.039992 0.007596841 -0.007291782 0.003823331 0.0027811755
0.009083785 -0.0068004862 0.0061225058 0.0015347922 -0.004653825 -0.008454243 -0.0045421356 0.003296406
0.0044130543 0.012782147 -0.0066696997 -0.0067291823 0.016701506 0.012120269 -0.009487355 -0.0010478228
-0.003728275 0.009771173 0.009312427 0.008114555 0.0025219005 0.0028227589 0.029214665 0.0037516172
0.01173473 0.0036308249 0.0012856337 -0.002689338 -0.0008904181 0.008751327 0.018511057 -0.0026285336
-0.004816364 0.0025941576 0.0048002517 0.0028180769 0.001194037 -0.0038940236 0.0062329806 0.01646061
0.033172235 0.007489687 0.0010561702 0.006490404 -0.0054206285 -0.009047699 -0.0009848009 0.007970913
00000000: 5a49 e5bb d18f 42bb 3a97 8f3b 3cb3 a03b
00000010: f5b7 f03b 4447 6f3a 3ce4 47bb 8bbf 553c
00000020: 379c b2bb 2677 56bb 6654 a13b a7ce 233d
00000030: ecee f83b e7ef eebb da90 7a3b 6244 363b
00000040: 28d4 143c 9dd6 debb 4d9f c83b 152b c93a
00000050: 1d7f 98bb aa83 0abc 32d6 94bb 8408 583b
00000060: 629b 903b 366c 513c 7f8d dabb 7980 dcbb
00000070: 99d1 883c 1894 463c da70 1bbc 1957 89ba
00000080: 1356 74bb 4517 203c 2693 183c e9f2 043c
00000090: 7846 253b 09fe 383b 9853 ef3c b1dd 753b
000000a0: 0643 403c 22f3 6d3b b582 a83a 9b3f 30bb
000000b0: f26a 69ba ba61 0f3c 80a4 973c 7a43 2cbb
000000c0: 97d2 9dbb be02 2a3b 6e4b 9d3b 7caf 383b
000000d0: 3c81 9c3a e032 7fbb 083e cc3b 67d8 863c
000000e0: 9cdf 073d 0c6c f53b 316f 8a3a 74ad d43b
000000f0: 879f b1bb cd3c 14bc 6f14 81ba 6f98 023c

weight f4 [32, 64, 1, 1]
-0.03343832 0.17058995 -0.14077018 -0.0070793745 -0.17208675 0.11816149 -0.15646689 0.16580641
-0.15335819 0.17334661 -0.09353785 0.052739285 -0.089228496 -0.18604954 0.07612177 0.21207862
0.49379402 0.006890252 -0.12142588 -0.0888601 0.2359035 -0.06689461 0.050393358 0.3231353
-0.18559298 -0.14604512 -0.14832155 0.20444365 0.31290463 -0.048446618 -0.0046924525 0.08261458
0.0084027285 0.09950101 -0.12232358 -0.049182367 -0.19229548 0.19933607 0.17969692 -0.17882
-0.124355845 0.030475443 0.030391207 -0.20269428 0.09305991 -0.07970912 0.18264018 -0.21877407
0.06561042 0.1098807 0.029814318 -0.06043555 0.22459821 0.23792352 0.059645046 -0.27470785
-0.18852097 -0.095065854 0.121510774 -0.09985357 -0.14002535 -0.35469314 0.18410033 -0.26531407
-0.07084419 -0.110779285 0.004248842 0.2670092 -0.015150881 -0.21572168 0.08271662 0.250344
0.053360887 0.060057703 -0.14413601 -0.06045349 -0.23937838 0.18492849 -0.108184665 -0.026572304
-0.30190176 -0.043866232 -0.008376064 0.17075814 -0.011853129 0.1461812 0.116910964 0.2018924
0.047276385 0.15764919 0.039888334 -0.18993473 0.28281307 0.14835519 -0.015762942 -0.10327881
-0.07724951 0.2579655 -0.0493904 0.036152467 -0.055024628 -0.049864843 -0.0074387696 -0.12378508
-0.11419446 0.2324283 -0.030212134 -0.31339934 -0.17840186 0.25893393 0.31954515 -0.12030815
0.18212295 0.18087788 -0.23411718 -0.17084621 -0.2090999 0.21325068 0.054512568 -0.23521149
0.0769209 0.012917646 -0.20436671 0.070765935 -0.23208758 0.2307108 0.25636268 -0.24425332
-0.2092597 0.097606845 -0.14704938 0.30632195 0.28866422 0.1984238 0.13245621 0.052630316
0.13565528 -0.14905308 -0.18746419 0.011948624 0.0029025439 0.19942969 -0.0771183 0.1907885
-0.4456716 -0.18959117 0.1587387 0.11318058 0.06707404 0.23042955 0.12157697 0.09492481
-0.069434986 -0.16301388 0.002119275 -0.14333107 0.055326466 -0.45669985 0.0044583175 -0.056355156
-0.06207196 0.23750035 -0.019940972 0.17777984 -0.23229928 0.23970023 -0.06118903 -0.029116746
-0.16174243 -0.14892524 0.07063371 0.18434301 -0.35789695 0.0967048 0.10536392 -0.12595427
0.04162864 -0.10177207 0.25701582 -0.027372114 0.18680085 0.1873084 0.13742378 -0.19763854
-0.2181568 -0.17817754 0.030271856 0.014050719 0.154839 -0.023425601 0.20564145 0.008431406
-0.22728805 -0.1566261 0.11712328 0.3217078 0.25113067 -0.12842086 -0.23961322 0.13538095
-0.25218222 -0.16637298 0.0719638 -0.10443821 0.16691536 -0.21088457 0.20430294 0.13718502
-0.00047623183 -0.032624107 0.2447621 -0.16895856 -0.014264421 0.07593548 0.20136674 0.34685242
0.16968754 0.25953805 -0.20985408 0.02297196 0.16162626 -0.26581314 -0.14042567 -0.09033778
-0.08706629 -0.061142195 0.24110056 -0.087097846 0.15997338 0.081797935 -0.42778063 0.2280851
-0.39863834 -0.124505445 0.1461983 0.18562213 0.1811751 0.14070326 0.040989455 -0.17065106
-0.13383509 -0.12201663 -0.044105202 -0.16760267 0.11865011 -0.043997295 -0.13376871 -0.052333407
0.108194984 0.26089922 -0.19303301 0.08122019 -0.09392079 0.13174175 -0.13147703 -0.022665964
00000000: 9ff6 08bd 22af 2e3e 0f26 10be 19fa e7bb
00000010: 8237 30be a7fe f13d db38 20be 28c9 293e
00000020: ee09 1dbe c681 313e c690 bfbd 2605 583d
00000030: 6ebd b6bd c583 3ebe bbe5 9b3d 232b 593e
00000040: 92d2 fc3e a0c7 e13b 22ae f8bd 49fc b5bd
00000050: b090 713e 0b00 89bd 4469 4e3d fd71 a53e
00000060: 160c 3ebe da8c 15be 9be1 17be ad59 513e
00000070: 0935 a03e f66f 46bd 25c3 99bb d531 a93d
00000080: 99ab 093c 2fc7 cb3d c984 fabd 7373 49bd
00000090: 1be9 44be c11e 4c3e 7802 383e 971c 37be
000000a0: 47ae febd a3a7 f93c fbf6 f83c 178f 4fbe
000000b0: 3296 be3d 893e a3bd 0706 3b3e 4f06 60be
000000c0: c25e 863d 2209 e13d 283d f43c 448b 77bd
000000d0: 13fd 653e 39a2 733e 5d4e 743d 82a6 8cbe
000000e0: a40b 41be e3b1 c2bd a4da f83d 0780 ccbd
000000f0: ce62 0fbe 579a b5be cc84 3c3e 3fd7 87be
00000100: c216 91bd 40e0 e2bd df39 8b3b 6eb5 883e
00000110: 673b 78bc 25e6 5cbe 5567 a93d 172d 803e
00000120: f290 5a3d 11ff 753d 6498 13be 149e 77bd
00000130: 9b1f 75be e55d 3d3e ec8f ddbd 29ae d9bc
00000140: de92 9abe 14ad 33bd c23b 09bc 39db 2e3e
00000150: a033 42bc 86b0 153e 046f ef3d e2bc 4e3e
00000160: e2a4 413d ca6e 213e f361 233d 407e 42be
00000170: e0cc 903e 6cea 173e 4921 81bc d783 d3bd
00000180: fe34 9ebd 0e14 843e 974d 4abd 9c14 143d
00000190: 8161 61bd 143f 4cbd ecc0 f3bb 0883 fdbd
000001a0: c9de e9bd af01 6e3e 707f f7bc e175 a0be
000001b0: faae 36be fd92 843e 6c9b a33e 1f64 f6bd
000001c0: 707e 3a3e 0d38 393e 6abc 6fbe 4ff2 2ebe
000001d0: 491e 56be 635e 5a3e 9248 5f3d 48db 70be
000001e0: b488 9d3d 89a4 533c 8245 51be bbed 903d
000001f0: 5ea8 6dbe 743f 6c3e f841 833e 8b1d 7abe
00000200: 2d48 56be 19e6 c73d 1d94 16be 3bd6 9c3e
00000210: cccb 933e 9c2f 4b3e 9aa2 073e e392 573d
00000220: 38e9 0a3e 5fa1 18be 9df6 3fbe 29c4 433c
00000230: 9b38 3e3b 4c37 4c3e 33f0 9dbd 0f5e 433e
00000240: 112f e4be 3024 42be 668c 223e 38cb e73d
00000250: 1d5e 893d b9f5 6b3e 59fd f83d f067 c23d
00000260: ee33 8ebd 1ced 26be 89e3 0a3b 61c5 12be
00000270: 019e 623d 90d4 e9be 1417 923b aad4 66bd
00000280: 2b3f 7ebd 4b33 733e 405b a3bc eb0b 363e
00000290: dddf 6dbe fa73 753e 59a1 7abd 3e86 eebc
000002a0: cf9f 25be dc7f 18be 68a8 903d 6ac4 3c3e
000002b0: 453e b7be 2b0d c63d 0ac9 d73d 28fa 00be
000002c0: cb82 2a3d e06d d0bd 9497 833e 7c3b e0bc
000002d0: b948 3f3e c6cd 3f3e d2b8 0c3e c261 4abe
000002e0: 7f64 5fbe 2c74 36be affc f73c fd34 663c
000002f0: 1d8e 1e3e 0ce7 bfbc ac93 523e e123 0a3c
00000300: 33be 68be 9862 20be 55de ef3d e2b6 a43e
00000310: 3394 803e c280 03be 2b5d 75be 4ea1 0a3e
00000320: 071e 81be ae5d 2abe c261 933d b3e3 d5bd
00000330: dceb 2a3e 20f2 57be ca34 513e 3b7a 0c3e
00000340: c1ae f9b9 dba0 05bd eaa2 7a3e 7903 2dbe
00000350: 51b5 69bc 1084 9b3d 1533 4e3e a496 b13e
00000360: 92c2 2d3e 2ce2 843e fde3 56be b12f bc3c
00000370: 5b81 253e a918 88be bfcb 0fbe 0403 b9bd
00000380: d04f b2bd 3d70 7abd 11e3 763e 5b60 b2bd
00000390: 10d0 233e ad85 a73d 1006 dbbe 248f 693e
000003a0: 531a ccbe b6fc febd 02b5 153e ba13 3e3e
000003b0: f785 393e 8414 103e 8fe4 273d 27bf 2ebe
000003c0: 110c 09be dbe3 f9bd a8a7 34bd 09a0 2bbe
000003d0: d4fe f23d 8236 34bd aafa 08be 8e5b 56bd
000003e0: 5595 dd3d 9594 853e 72aa 45be c556 a63d
000003f0: 8b59 c0bd 4fe7 063e eaa1 06be f9ad b9bc

bias f4 [32]
-0.003402418 0.00748623 0.0008650411 0.008492056 0.0032450163 0.02745932 -0.0033177778 -0.0029757982
0.0045235404 0.0031377554 0.0031112542 0.01965002 -0.0019699084 0.011710996 0.0029910845 0.0013312155
-0.008663647 -0.0010249635 0.001340856 0.00199449 -0.0019969882 0.0076767984 -0.0011691686 -0.0039555025
0.010396166 0.013768808 -0.0010700972 -0.010900606 0.0075277016 0.0010175072 -0.004672488 -0.0010681342
00000000: 1afb 5ebb 0d4f f53b edc3 623a 4422 0b3c
00000010: 57aa 543b 5ef2 e03c 136f 59bb 9c05 43bb
00000020: 353a 943b cda2 4d3b 2fe6 4b3b 14f9 a03c
00000030: 9419 01bb 7adf 3f3c 1206 443b 2e7c ae3a
00000040: f8f1 0dbc 1158 86ba a9bf af3a fdb5 023b
00000050: e7df 02bb a78d fb3b ca3e 99ba 299d 81bb
00000060: ae54 2a3c 9196 613c 8142 8cba 7598 32bc
00000070: f0aa f63b e05d 853a ac1b 99bb a300 8cba

weight f4 [1, 32, 5, 5]
-0.06657271 0.045139853 -0.06905656 -0.07153209 -0.01949138 0.020819474 0.07227082 0.0037181843
-0.0042149294 0.06527007 -0.0109302355 0.025856966 0.06652826 -0.03569793 0.08257656 0.06506794
0.06551417 -0.038288105 -0.03348871 -0.035986304 0.040248048 0.08099551 0.037816364 -0.05556701
0.055358846 0.0308715 0.06722394 -0.06283248 -0.04166129 -0.05051211 0.044274863 0.057538338
-0.04945294 -0.0871127 0.05779302 0.039501563 0.07228823 0.06747622 0.0753856 -0.05645971
0.014242443 0.081837706 0.010297372 0.0829324 0.07545444 0.06653746 -0.06439777 -0.027762718
0.049652345 0.007837291 -0.06902566 -0.013781292 -0.048637036 0.082195625 -0.0069465437 -0.044164702
-0.030205864 -0.0068508848 0.004522656 -0.00050652213 0.08328754 0.05689458 -0.02334505 0.07919629
-0.035915874 -0.03842769 0.02334015 0.05682645 0.08308452 -0.04453567 0.01810834 -0.043714236
0.006774989 0.04179405 -0.01241018 0.030415244 0.075172596 -0.066997 -0.05979996 -0.04343757
-0.06291085 0.06848959 -0.0681852 -0.057496767 -0.06615177 -0.0009554381 0.07970678 0.07268553
0.08035315 -0.024348985 0.046456154 0.03331377 0.015478845 0.03927398 -0.060090642 0.082385056
-0.013410521 0.07384921 0.051702593 -0.006302566 0.064824864 -0.058337808 -0.06482724 0.06811463
0.0018238681 0.02316472 -0.011337318 -0.0658073 0.018592333 0.010710499 0.02970426 0.03877508
0.07797864 0.04350649 0.077804394 0.04253258 0.06393815 -0.032538354 0.036374245 -0.054152835
0.030768687 0.07946881 0.016935417 -0.0826988 0.039092164 -0.021650327 0.019911377 0.038776614
-0.07478305 -0.051521096 0.011696516 -0.067825146 0.06688453 -0.018911652 0.0409646 -0.069339596
-0.07506934 0.020091487 0.06079488 -0.0064397203 -0.006656985 -0.06581683 -0.048160423 0.07807436
0.07645058 0.07452793 0.09215298 0.037029378 -0.06330311 0.08648165 0.0016360083 0.060128424
-0.040418833 -5.7093053e-05 -0.016488893 -0.0012142494 0.08480519 0.059227098 -0.07679341 -0.08260442
-0.058531273 0.01699248 -0.054211054 0.08196504 -0.07877104 -0.034162503 -0.060925305 0.058178816
-0.039577726 0.070745096 0.055327136 -0.038868714 -0.03974045 -0.051151704 0.059860453 0.04045118
0.05760807 -0.05783591 0.025068289 -0.00752794 -0.03946254 -0.07893878 0.05842117 -0.014681551
-0.05273467 0.03506621 -0.031224178 -0.062265355 0.0020169711 0.07779043 -0.053469587 0.03053261
-0.06311873 -0.017757278 -0.04528038 -0.061789997 -0.026324634 -0.06085366 0.03913855 0.0531918
0.009137652 0.048843447 -0.043210395 -0.040813483 0.035132173 0.04530043 0.08215653 0.039361287
0.04926932 0.025518402 -0.062872835 0.084326595 -0.05836881 0.047392137 -0.026806647 -0.01721199
0.005487789 0.05711345 0.0772434 0.030350622 0.038919996 0.041531656 -0.04796261 -0.02405637
0.07584781 -0.01129058 0.06653729 -0.030357879 0.04172414 0.041195665 0.03963268 0.0745412
-0.019086884 0.045285556 -0.011509722 0.04389397 0.080779456 0.042207222 0.049500506 -0.009553807
0.029520974 0.0241658 0.06471106 0.017040305 -0.06170487 -0.03542522 -0.050935842 -0.08115803
0.0027031759 0.0060366187 0.0462926 -0.019908814 -0.013818737 0.063584186 0.05093203 -0.066104256
00000000: 4657 88bd 91e4 383d 876d 8dbd 6b7f 92bd
00000010: 63ac 9fbc 9a8d aa3c b902 943d c8ac 733b
00000020: 641d 8abb 51ac 853d bb14 33bc fdd1 d33c
00000030: f83f 883d fe37 12bd e61d a93d 5742 853d
00000040: 4b2c 863d fdd3 1cbd 752b 09bd 6066 13bd
00000050: 23db 243d f9e0 a53d 55e5 1a3d 3c9a 63bd
00000060: f5bf 623d 3ae6 fc3c b4ac 893d 51ae 80bd
00000070: 07a5 2abd c9e5 4ebd 8f59 353d 52ad 6b3d
00000080: 2a8f 4abd 2568 b2bd 60b8 6c3d 64cc 213d
00000090: da0b 943d f930 8a3d c463 9a3d 4c42 67bd
000000a0: 2359 693c 879a a73d 4fb6 283c 76d8 a93d
000000b0: dc87 9a3d cb44 883d fae2 83bd a46e e3bc
000000c0: 4260 4b3d fb67 003c 535d 8dbd eeca 61bc
000000d0: a137 47bd 2e56 a83d d59f e3bb 0ce6 34bd
000000e0: 4a72 f7bc 637d e0bb ca32 943b 20c8 04ba
000000f0: a892 aa3d 4b0a 693d 1e3e bfbc aa31 a23d
00000100: 861c 13bd 5a66 1dbd d833 bf3c dac2 683d
00000110: 3828 aa3d 096b 36bd f157 943c b30d 33bd
00000120: ba00 de3b 3d30 2b3d 1154 4bbc 6429 f93c
00000130: 17f4 993d b935 89bd cef0 74bd 98eb 31bd
00000140: 67d7 80bd 4544 8c3d afa4 8bbd bb81 6bbd
00000150: 947a 87bd 5e76 7aba 4f3d a33d 27dc 943d
00000160: 3190 a43d 8677 c7bc cf48 3e3d 0574 083d
00000170: fb9a 7d3c c1dd 203d 9b21 76bd 7fb9 a83d
00000180: cdb7 5bbc 413e 973d 19c6 533d c185 cebb
00000190: e6c2 843d a0f3 6ebd 25c4 84bd af7f 8b3d
000001a0: dc0e ef3a f0c3 bd3c 29c0 39bc fac5 86bd
000001b0: f34e 983c 177b 2f3c 5956 f33c 9ed2 1e3d
000001c0: 44b3 9f3d dc33 323d e957 9f3d a536 2e3d
000001d0: 01f2 823d f046 05bd 29fd 143d 5dcf 5dbd
000001e0: 9d0e fc3c 8bc0 a23d 25bc 8a3c fd5d a9bd
000001f0: 1b1f 203d 075c b1bc 2f1d a33c 3ad4 1e3d
00000200: db27 99bd c907 53bd bea2 3f3c e9e7 8abd
00000210: c2fa 883d 9cec 9abc 7fca 273d eb01 8ebd
00000220: f4bd 99bd e796 a43c 0d04 793d 4a04 d3bb
00000230: d622 dabb f9ca 86bd dd43 45bd 73e5 9f3d
00000240: 1f92 9c3d 19a2 983d b4ba bc3d 1eac 173d
00000250: 10a5 81bd 4b1d b13d 546f d63a 3949 763d
00000260: 388e 25bd 3377 6fb8 b713 87bc 7327 9fba
00000270: 58ae ad3d 1d98 723d dd45 9dbd 822c a9bd
00000280: 7dbe 6fbd d033 8b3c 690c 5ebd 49dd a73d
00000290: b652 a1bd fbed 0bbd d08c 79bd e94c 6e3d
000002a0: 411c 22bd cee2 903d b59e 623d cd34 1fbd
000002b0: e2c6 22bd 7384 51bd 3c30 753d 23b0 253d
000002c0: 71f6 6b3d 59e5 6cbd 035c cd3c f0ac f6bb
000002d0: 79a3 21bd a8aa a1bd 094b 6f3d e38a 70bc
000002e0: 4f00 58bd 96a1 0f3d d9c9 ffbc f509 7fbd
000002f0: 292f 043b 9750 9f3d ed02 5bbd 861f fa3c
00000300: 6544 81bd b677 91bc eb77 39bd 8217 7dbd
00000310: c2a6 d7bc b041 79bd bf4f 203d a5df 593d
00000320: 17b6 153c 1110 483d 62fd 30bd 0a2c 27bd
00000330: c1e6 0f3d f28c 393d af41 a83d 4d39 213d
00000340: a0ce 493d f80b d13c 79c3 80bd 6cb3 ac3d
00000350: 2214 6fbd 421e 423d 9d99 dbbc 2900 8dbc
00000360: e9d2 b33b cbef 693d ca31 9e3d dea1 f83c
00000370: 936a 1f3d 191d 2a3d 7174 44bd dd11 c5bc
00000380: 1956 9b3d 20fc 38bc b444 883d 16b1 f8bc
00000390: efe6 2a3d c9bc 283d e155 223d 0fa9 983d
000003a0: 195c 9cbc 597d 393d 4693 3cbc 2aca 333d
000003b0: b36f a53d 7be1 2c3d 0bc1 4a3d 9287 1cbc
000003c0: f8d5 f13c 5bf7 c53c 3b87 843d 1c98 8b3c
000003d0: 3fbe 7cbd 091a 11bd 1aa2 50bd 2e36 a6bd
000003e0: c427 313b d4ce c53b 4f9d 3d3d cf17 a3bc
000003f0: fc67 62bc 6d38 823d 1b9e 503d ab61 87bd
