modeldata/model_189_epoch.pth (torch_old, 43109 bytes, 5 tensors)

weight f4 [64, 1, 9, 9]
0.010231972 0.003768643 -0.03216951 0.027081592 -0.025131205 0.0040682713 -0.043637034 0.011135385
0.016708098 -0.027114382 -0.005475986 -0.012877503 0.04659192 0.04159722 -0.021062052 0.017059773
-0.010973784 -0.010322528 -0.014566562 -0.0071572172 0.049554087 0.039783414 0.09153375 0.042670887
0.060732815 -0.017679473 0.0027643559 0.0018678713 0.00862079 -0.020239806 -0.018724823 -0.051767558
-0.019813294 0.07928111 0.028279776 0.007741434 0.027170489 -0.0044299867 -0.018785285 -0.13046017
-0.22142577 -0.1133181 -0.01133582 -0.032453664 -0.027827725 0.02351045 0.065751135 0.043234814
-0.017680565 -0.11392137 -0.014010453 0.059049856 0.035433076 0.032926016 -0.033234622 -0.02695544
0.013844158 0.050622076 -0.036814764 -0.008557271 0.06457845 0.0015282242 -0.018507281 -0.0031295975
-0.012003185 -0.016770687 0.036647752 0.0098631345 -0.0014656355 -0.0035941612 -0.013340896 -0.007155209
0.008446907 0.008773516 -0.014322822 0.018898599 -0.008329707 -0.01161445 -0.028337616 0.0021292686
0.0024704626 0.0035747746 -0.00034323984 0.030642645 -0.006644877 0.001964876 -0.01731213 0.01674301
-0.008710153 -0.06202175 -0.04819088 -0.031599097 -0.036097396 0.025338594 -0.013517851 -0.06469029
-0.046228513 0.008295704 -0.0062629636 -0.010069617 -0.009442694 0.009569382 -0.014609621 0.11093968
0.025220487 -0.02932616 -0.040609464 -0.0097271735 -0.055374265 0.018930214 0.039701436 -0.008903926
0.15879416 0.0018156155 0.0062634945 0.019340005 0.008753307 -0.0066408208 0.016379679 0.01713846
-0.053817216 0.026529104 -0.026234884 -0.07327333 -0.028889326 0.0043246862 0.006787214 -0.0019080936
-0.044976562 -0.028949857 -0.025173029 -0.017852616 0.023872692 0.021666927 -0.012934734 0.015032102
0.016410423 0.005801765 -0.037564117 0.04424007 -0.013386177 0.007345344 0.020147242 -0.0049848887
-0.028455507 0.01273157 0.00966639 -0.026603194 0.062112376 -0.026809962 -0.03443848 -0.005115697
0.0033212465 -0.017647171 -0.0047885315 0.0041669165 -0.017215528 0.049140725 -0.015406486 -0.057676733
0.0152209 0.016752688 0.025971249 -0.014159779 -0.014364201 -0.042316508 -0.025226876 -0.017198741
-0.033445958 -0.03273244 0.050735153 -0.0029361963 0.010666965 0.025135575 -0.0049057542 -0.013163319
-0.0129346335 -0.019364737 -0.035757866 -0.008926671 -0.016726213 0.00041129865 0.006960392 0.008186506
-0.017757028 0.030935196 0.046083644 0.034210976 -0.0036280975 -0.0012739935 -0.009697558 0.034615684
-0.009840342 0.031393126 0.051368747 0.025334317 0.040816292 0.007915805 0.027369881 -0.0172899
-0.03572758 -0.028249918 0.036814943 0.059110507 0.024841905 -0.0030283888 0.023177383 0.03210699
-0.0037288023 0.016259471 -0.017703986 0.04232697 0.027428826 0.026443055 0.031561054 -0.00013306094
0.00084903033 -0.026030838 0.005136925 -0.022316903 0.02405494 0.0287306 0.019924214 -0.012412437
0.033179183 -0.025261918 -0.0058303387 -0.020007852 0.051796697 -0.0025799256 0.031053022 0.009722
0.012796269 -0.009234931 -0.005837585 -0.02628435 0.015381186 0.008127034 0.032247584 0.016748698
-0.013612228 0.006084771 -0.024870094 0.008368115 -0.013882812 -0.022944218 0.0033924128 0.022943268
0.026466401 -0.009986441 -0.0046846503 -0.0021628488 0.035841573 0.0056925267 0.0053376425 -0.06940075
00000000: 00a4 273c 56fb 763b 2dc4 03bd 37da dd3c
00000010: f5df cdbc 224f 853b bfbc 32bd 3171 363c
00000020: 6cdf 883c fb1e debc e66f b3bb 2afc 52bc
00000030: 2bd7 3e3d d961 2a3d 538a acbc f0c0 8b3c
00000040: 63cb 33bc d21f 29bc 97a8 6ebc 1787 eabb
00000050: 3af9 4a3d eff3 223d 0c76 bb3d abc7 2e3d
00000060: f9c2 783d 8bd4 90bc 322a 353b 5cd3 f43a
00000070: 373e 0d3c f3cd a5bc cd64 99bc 380a 54bd
00000080: 7d4f a2bc 225e a23d fdaa e73c dbab fd3b
00000090: a594 de3c 6c29 91bb 99e3 99bc 5a97 05be
000000a0: 70bd 62be 5213 e8bd e0b9 39bc 22ee 04bd
000000b0: f8f6 e3bc fd98 c03c 88a8 863d fd16 313d
000000c0: d5d6 90bc 9b4f e9bd 198c 65bc 43de 713d
000000d0: 4622 113d 6edd 063d 0721 08bd a8d1 dcbc
000000e0: 9bd2 623c 1859 4f3d 14cb 16bd cc33 0cbc
000000f0: b541 843d b24e c83a 959c 97bc ef19 4dbb
00000100: 02a9 44bc ae62 89bc f41b 163d fc98 213c
00000110: 911a c0ba 058c 6bbb c693 5abc 3e76 eabb
00000120: e564 0a3c cbbe 0f3c 45aa 6abc 3cd1 9a3c
00000130: 5379 08bc 894a 3ebc 4a24 e8bc 338b 0b3b
00000140: 7ce7 213b c446 6a3b dff4 b3b9 4906 fb3c
00000150: 45bd d9bb 26c5 003b 2bd2 8dbc a328 893c
00000160: 08b5 0ebc 850a 7ebd cd63 45bd 0e6e 01bd
00000170: ddda 13bd e292 cf3c fa79 5dbc 587c 84bd
00000180: 1c5a 3dbd b4ea 073c 8c39 cdbb 09fb 24bc
00000190: 87b5 1abc e6c8 1c3c 315d 6fbc 5834 e33d
000001a0: 329b ce3c 6a3d f0bc 1c56 26bd b95e 1fbc
000001b0: 20d0 62bd 8913 9b3c f99d 223d c6e1 11bc
000001c0: f09a 223e f2f9 ed3a 003e cd3b ee6e 9e3c
000001d0: 086a 0f3c 3e9b d9bb ad2e 863c f565 8c3c
000001e0: 716f 5cbd 9053 d93c 8aea d6bc 5410 96bd
000001f0: 4fa9 ecbc 19b6 8d3b 4767 de3b ff18 faba
00000200: 5839 38bd 4028 edbc ab37 cebc a63f 92bc
00000210: aa90 c33c d77e b13c 35ec 53bc 3549 763c
00000220: 276f 863c bb1c be3b d5dc 19bd 1335 353d
00000230: b251 5bbc 36b1 f03b d40b a53c 4758 a3bb
00000240: 861b e9bc 1398 503c c75f 1e3c f1ee d9bc
00000250: 8c69 7e3d 91a0 dbbc 5d0f 0dbd 94a1 a7bb
00000260: 45a9 593b cd90 90bc 1de9 9cbb a18a 883b
00000270: 9407 8dbc c947 493d 7c6b 7cbc 703e 6cbd
00000280: 1561 793c ef3c 893c a8c1 d43c 6bfe 67bc
00000290: d357 6bbc 1354 2dbd 98a8 cebc 60e4 8cbc
000002a0: a1fe 08bd 7312 06bd aacf 4f3d 336d 40bb
000002b0: 7ec4 2e3c 1fe9 cd3c 73c0 a0bb f6aa 57bc
000002c0: c9eb 53bc cca2 9ebc d776 12bd 2c41 12bc
000002d0: 6905 89bc 92a3 d739 0014 e43b b220 063c
000002e0: 3077 91bc cf6b fd3c 34c2 3c3d cf20 0c3d
000002f0: 60c5 6dbb 21fc a6ba 82e2 1ebc 2dc9 0d3d
00000300: 6339 21bc 1496 003d 0968 523d ea89 cf3c
00000310: fc2e 273d 4bb1 013c cd36 e03c 8ca3 8dbc
00000320: 1557 12bd 5f6c e7bc 44cb 163d dc1d 723d
00000330: 4081 cb3c ef77 46bb 7fde bd3c 9f82 033d
00000340: ec5e 74bb 9532 853c f307 91bc 0b5f 2d3d
00000350: 6bb2 e03c 1b9f d83c 2a46 013d 4686 0bb9
00000360: 7691 5e3a a03e d5bc a653 a83b f0d1 b6bc
00000370: de0e c53c 6f5c eb3c 1b38 a33c 895d 4bbc
00000380: e5e6 073d 15f2 cebc 6d0c bfbb 82e7 a3bc
00000390: c628 543d f813 29bb e862 fe3c 0649 1f3c
000003a0: 71a7 513c 1c4e 17bc 3649 bfbb 4752 d7bc
000003b0: 5f01 7c3c 4027 053c 0b16 043d 9134 893c
000003c0: d305 5fbc c262 c73b 5ebc cbbc 6b1a 093c
000003d0: bc74 63bc 83f5 bbbc 3e53 5e3b 85f3 bb3c
000003e0: 11d0 d83c 2b9e 23bc b281 99bb 95be 0dbb
000003f0: 9dce 123d 6088 ba3b 64e7 ae3b fb21 8ebd

bias f4 [64]
0.04175608 -0.010170191 0.004310845 0.0037623204 0.010865082 0.0013164295 0.0131747965 0.01579588
0.010988222 -0.0032724827 0.0062942356 0.04169334 0.004959656 0.0035022185 -0.0012820341 0.0054218415
0.0057407636 -0.005326002 0.014105873 -0.00028436634 -0.0160132 -0.03521951 -0.0034670013 0.0037417908
0.004193181 0.01546634 0.005293822 -0.007796203 0.018875148 -0.01093618 -0.00536329 0.0034235509
-0.00014126998 0.010840971 0.013223113 0.008585646 0.010639188 0.00980608 0.033481926 0.0037238025
0.017145688 0.0044173994 0.0023043812 -0.010670089 -0.004571524 -0.006921245 0.02062531 -0.0051302784
-0.028376976 -0.010323689 0.010112306 -0.007972358 0.01458403 -0.01721726 0.021149164 0.01610641
0.024445053 -0.010450645 -0.0010607489 -7.2234485e-05 -0.015327739 -0.009533817 -0.01255499 0.020163586
00000000: 6c08 2b3d dfa0 26bc fd41 8d3b 4391 763b
00000010: 7503 323c 0b8c ac3a 1adb 573c 5d66 813c
00000020: f207 343c 2677 56bb e03f ce3b a3c6 2a3d
00000030: 9c84 a23b 7a85 653b ed09 a8ba b4a9 b13b
00000040: 041d bc3b be85 aebb 521c 673c 0117 95b9
00000050: 1d2e 83bc 5542 10bd a136 63bb d538 753b
00000060: f466 893b 8866 7d3c cc77 ad3b 4a77 ffbb
00000070: 0ea0 9a3c aa2d 33bc 8abe afbb a75d 603b
00000080: df21 14b9 549e 313c c1a5 583c cfaa 0c3c
00000090: fd4f 2e3c aea9 203c 5824 093d 0a0b 743b
000000a0: 1d75 8c3c d5bf 903b 1a05 173b 99d1 2ebc
000000b0: b9cc 95bb 9ccb e2bb 69f6 a83c e51b a8bb
000000c0: d576 e8bc b124 29bc 16ae 253c 7e9e 02bc
000000d0: dbf1 6e3c 360b 8dbc 0341 ad3c 97f1 833c
000000e0: fe40 c83c 2f39 2bbc d408 8bba 987c 97b8
000000f0: 3221 7bbc ba33 1cbc 72b3 4dbc 1b2e a53c

weight f4 [32, 64, 1, 1]
0.25843316 0.3130289 -0.14057632 -0.071121365 -0.17956848 0.11838395 -0.41782928 0.16179505
-0.057465144 0.17334661 -0.096509345 0.050030272 -0.09252641 -0.10937761 0.39860585 0.21754989
0.5356015 -0.0010366197 -0.12932834 -0.09691375 0.24118982 -0.17342173 -0.080106795 0.3994887
-0.18760186 -0.1443853 -0.3730739 0.20457655 0.31277606 0.12907197 -0.0034689615 0.014167627
-0.08272846 0.10085133 -0.12474932 -0.0479468 -0.19148338 0.19965033 0.17257476 -0.17812282
0.095005676 0.026760075 0.03152646 -0.27956337 0.07974636 -0.36092848 0.1804778 -0.012577325
-0.0009606574 0.42340314 0.03652615 0.27420917 0.2240741 0.25876844 0.061285026 -0.27384254
-0.18329944 -0.09050021 0.16062853 -0.10097898 -0.27837998 -0.46529683 0.18672566 -0.34744468
-0.259482 -0.07564975 0.005188447 0.27146322 -0.01670491 -0.21503305 0.25799656 0.25019175
0.24223162 0.060057703 -0.14367546 -0.060604528 -0.23354863 0.22886999 0.051405802 -0.025905643
-0.27831393 -0.043520253 -0.013159253 0.16650052 -0.0055560977 0.22789177 -0.04245563 0.24871777
0.047033202 0.15799 0.07895924 -0.19425108 0.28313863 0.2957263 -0.024290247 -0.17066574
-0.19791226 0.25605106 -0.049058583 0.03676137 -0.059633367 -0.046255846 -0.007828294 -0.12803575
0.074931175 0.22877482 -0.032338753 -0.26935846 -0.31617776 0.40535128 0.31981742 -0.12152246
-0.03810858 0.23907118 -0.22880073 -0.112322375 -0.21143177 0.33258775 0.054658975 -0.23192541
0.07666931 0.018308368 -0.0031533788 0.071393795 -0.31505373 0.1465069 0.25256222 -0.30667102
-0.1825369 0.042421922 -0.1507445 0.21048929 0.28074616 0.19866635 0.25476697 0.06002109
0.1226733 -0.14905308 -0.18637723 0.011213258 0.015117724 0.3453678 -0.2125013 0.174438
-0.61601305 -0.19755006 0.14612317 0.08843981 0.05019239 0.24433482 0.00922572 -0.40328214
-0.076499484 -0.16502471 -0.028458025 -0.14388913 0.04685043 -0.67743963 0.016349213 -0.10113609
0.1949639 0.22603084 -0.021491822 0.16495699 -0.25458124 0.23441961 -0.062595755 -0.03979975
0.056807023 -0.15383132 0.0620711 0.1685624 -0.50185406 -0.1369045 0.09561696 -0.1044267
-0.21294929 -0.24210821 0.25546968 -0.22285886 0.19234188 0.3326484 0.14375608 -0.17698805
-0.21851522 -0.1341652 0.23160072 0.010914012 0.008701951 0.107888356 0.21197595 0.2972702
0.099828444 -0.12807028 0.11854242 0.25417215 0.2565813 -0.12617186 -0.10608205 0.13897654
-0.3064783 -0.16637298 0.07619661 -0.10338519 0.16728905 -0.044143897 0.13742621 0.14182131
-0.042461284 -0.02670398 0.24051611 -0.16824588 0.0067370813 0.09189193 0.2471912 0.3823662
0.17613898 0.26947814 -0.078312 0.017419064 0.16626474 -0.2516529 -0.14580138 -0.33297452
-0.012241918 -0.06140481 0.24712093 -0.08197632 0.15303795 0.089344785 -0.42021015 0.22352341
-0.35604736 -0.12615637 0.14670335 0.23867625 0.13216217 0.24265951 0.045764487 -0.28076506
-0.35206288 -0.080749296 -0.03612422 -0.32846892 0.11711099 -0.1401519 -0.13315868 -0.04222568
0.110654674 0.27849814 0.012698723 0.086338 -0.09222182 0.4178975 -0.137988 0.096252695
00000000: 5a51 843e 5345 a03e 3df3 0fbe 14a8 91bd
00000010: cde0 37be 4973 f23d b8ed d5be 9aad 253e
00000020: 9260 6bbd c681 313e b1a6 c5bd 8bec 4c3d
00000030: 7d7e bdbd 5e01 e0bd 1116 cc3e 66c5 5e3e
00000040: 2e1d 093f 2fdf 87ba a66e 04be b77a c6bd
00000050: 77fa 763e 7795 31be 080f a4bd c889 cc3e
00000060: b41a 40be bdd9 13be 8b03 bfbe 847c 513e
00000070: 2f24 a03e 712b 043e 8457 63bb 561f 683c
00000080: 8a6d a9bd 248b ce3d 927c ffbd dd63 44bd
00000090: 3814 44be 2371 4c3e 70b7 303e d465 36be
000000a0: 5692 c23d f237 db3c e421 013d ee22 8fbe
000000b0: 0f52 a33d 9ecb b8be 2ccf 383e 2011 4ebc
000000c0: a0d4 7bba 4cc8 d83e 729c 153d 2565 8c3e
000000d0: ae73 653e 4c7d 843e 0206 7b3d 1735 8cbe
000000e0: d9b2 3bbe 2d58 b9bd ce7b 243e 11ce cebd
000000f0: d287 8ebe 633b eebe 0335 3f3e 45e4 b1be
00000100: d3da 84be 42ee 9abd d903 aa3b 3afd 8a3e
00000110: bcd8 88bc a031 5cbe 2018 843e 2219 803e
00000120: 910b 783e 11ff 753d a91f 13be 743c 78bd
00000130: 5f27 6fbe e55c 6a3e e48e 523d 1238 d4bc
00000140: 2a7f 8ebe 4b42 32bd e899 57bc 1d7f 2a3e
00000150: ed0f b6bb 765c 693e f4e5 2dbd dfaf 7e3e
00000160: e3a5 403d 21c8 213e 62b5 a13d c1e9 46be
00000170: 8cf7 903e 7069 973e 57fc c6bc 00c3 2ebe
00000180: 83a9 4abe 2019 833e a7f1 48bd 1793 163d
00000190: 1e42 74bd c576 3dbd 3f42 00bc ce1b 03be
000001a0: 8475 993d f243 6a3e a475 04bd 5ae9 89be
000001b0: 0de2 a1be 348a cf3e 1cbf a33e c4e0 f8bd
000001c0: be17 1cbd 13cf 743e bd4a 6abe 4609 e6bd
000001d0: 9281 58be f148 aa3e 17e2 5f3d db7d 6dbe
000001e0: cd04 9d3d 6efb 953c eba8 4ebb e936 923d
000001f0: b94e a1be e805 163e d64f 813e fc03 9dbe
00000200: f4ea 3abe 9cc2 2d3d c45c 1abe 818a 573e
00000210: f6bd 8f3e 316f 4b3e d170 823e add8 753d
00000220: 243c fb3d 5fa1 18be acd9 3ebe d0b7 373c
00000230: 55b0 773c 0cd4 b03e f199 59be e09f 323e
00000240: 08b3 1dbf 904a 4abe 50a1 153e ee1f b53d
00000250: 8996 4d3d e832 7a3e 7927 173c ff7a cebe
00000260: c3ab 9cbd 3dfc 28be ce20 e9bc ac57 13be
00000270: 3de6 3f3d af6c 2dbf c9ee 853c 7020 cfbd
00000280: 9ea4 473e a174 673e 9e0f b0bc 7cea 283e
00000290: 7958 82be b20b 703e 3432 80bd 1005 23bd
000002a0: 7bae 683d f585 1dbe 443e 7e3d 9f9b 2c3e
000002b0: 8279 00bf b130 0cbe d3d2 c33d aadd d5bd
000002c0: 610f 5abe 37eb 77be eccc 823e 1d35 64be
000002d0: 45f5 443e e450 aa3e cb34 133e 5b3c 35be
000002e0: 74c2 5fbe 9a62 09be bd28 6d3e afd0 323c
000002f0: a192 0e3c 92f4 dc3d 3910 593e cd33 983e
00000300: db72 cc3d db24 03be 5ec6 f23d da22 823e
00000310: a05e 833e 3233 01be 8c41 d9bd de4f 0e3e
00000320: b9ea 9cbe ae5d 2abe f80c 9c3d 9dbb d3bd
00000330: d24d 2b3e 3bd0 34bd 75b9 0c3e 9b39 113e
00000340: e2eb 2dbd 4ec2 dabc db49 763e a648 2cbe
00000350: bcc2 dc3b d631 bc3d b11f 7d3e 81c5 c33e
00000360: c75d 343e 0af9 893e 0b62 a0bd 6db2 8e3c
00000370: 4e41 2a3e a6d8 80be f54c 15be a37b aabe
00000380: 5392 48bc 9c83 7bbd 450d 7d3e 33e3 a7bd
00000390: fbb5 1c3e 66fa b63d c925 d7be 52e3 643e
000003a0: d74b b6be 232f 01be 6739 163e 8c67 743e
000003b0: 8555 073e bc7b 783e 8b73 3b3d 70c0 8fbe
000003c0: 9641 b4be e35f a5bd fdf6 13bd 142d a8be
000003d0: e3d7 ef3d fb83 0fbe c05a 08be d6f4 2cbd
000003e0: eb9e e23d 4f97 8e3e 4e0e 503c fad1 b03d
000003f0: cbde bcbd a9f6 d53e ba4c 0dbe 2220 c53d

bias f4 [32]
0.00030775313 0.007857959 -0.0032464084 0.014506372 0.0038120782 0.024087138 -0.013434934 0.00045779295
0.016805321 0.0036989886 -0.001700478 0.009649389 -0.0055152844 -0.005743948 0.007574666 -0.0014708748
-0.0136369895 0.01657543 -0.00013948906 0.0046776203 -0.006817447 0.011616697 0.014494574 0.027094053
0.010132532 0.030831993 -0.0056555523 -0.010900606 0.01496236 -0.0009204059 -0.0022953104 0.0036365935
00000000: ed59 a139 abbe 003c b2c1 54bb 22ac 6d3c
00000010: 0fd4 793b 6452 c53c 331e 5cbc ee03 f039
00000020: 50ab 893c bb6a 723b 93e2 deba 7918 1e3c
00000030: 8fb9 b4bb ba37 bcbb e734 f83b 5eca c0ba
00000040: ae6d 5fbc 32c9 873c cf43 12b9 b946 993b
00000050: e464 dfbb f553 3e3c a67a 6d3c 59f4 dd3c
00000060: eb02 263c 6093 fc3c 3652 b9bb 7598 32bc
00000070: b024 753c 6547 71ba eb6c 16bb ea53 6e3b

weight f4 [1, 32, 5, 5]
-0.06636147 0.043138027 -0.06874568 -0.0724341 -0.01963031 0.021283343 0.072279185 0.0039040498
-0.00434813 0.067363374 -0.013086238 0.029255029 0.066858806 -0.037521984 0.083483756 0.061703365
0.067368574 -0.04154926 -0.035987295 -0.033772714 0.0383761 0.082537286 0.035839304 -0.054479636
0.058471113 0.029007526 0.06703924 -0.06297931 -0.04283645 -0.04969279 0.041977495 0.056935128
-0.050774954 -0.08910448 0.058447808 0.037239507 0.0727825 0.068205655 0.07474125 -0.056223482
0.013469068 0.08192347 0.010941803 0.082037345 0.07594053 0.06632033 -0.0649451 -0.028763542
0.048370786 0.007212133 -0.066125005 -0.015555824 -0.05134201 0.08319118 -0.01029802 -0.04481841
-0.035114966 -0.009613741 0.0054611564 -0.0019111937 0.082772724 0.056113534 -0.021736545 0.07751811
-0.0362303 -0.03925451 0.021767614 0.05823842 0.08203958 -0.043830205 0.015181189 -0.04966042
0.0041841483 0.03930004 -0.01352314 0.030459046 0.07644655 -0.0670941 -0.05975619 -0.042629078
-0.063281246 0.06795495 -0.06865787 -0.057710934 -0.06649332 -0.0016819851 0.07870272 0.073397756
0.08059159 -0.024689026 0.046662126 0.032925654 0.015975345 0.03894024 -0.06007767 0.082225166
-0.013738868 0.07453816 0.051603936 -0.006948585 0.06446928 -0.05836605 -0.06565691 0.067200564
0.0020557332 0.02298057 -0.011612816 -0.066732824 0.018137578 0.010975786 0.029207487 0.03869656
0.07859453 0.0435646 0.077694885 0.04225072 0.06427965 -0.03233311 0.03577482 -0.053696282
0.030980904 0.08012089 0.016369028 -0.08317665 0.039753582 -0.022379762 0.020550951 0.039314456
-0.07515039 -0.051747337 0.012500923 -0.06766986 0.06710099 -0.017203208 0.03821035 -0.069267906
-0.076715685 0.020486312 0.06347642 -0.00859843 -0.005648116 -0.06394771 -0.04962421 0.07768294
0.07633909 0.07406231 0.096697144 0.035982188 -0.063797235 0.08731358 0.0023943344 0.059216652
-0.041096836 0.001412786 -0.014574375 -0.0011079558 0.08509905 0.060036186 -0.07496698 -0.08131488
-0.058621738 0.018074354 -0.05239544 0.08331156 -0.07862625 -0.03493664 -0.059869133 0.058832817
-0.03770289 0.07126135 0.055376153 -0.036486674 -0.039730437 -0.048918843 0.06203024 0.04035778
0.057136156 -0.056712672 0.02493588 -0.0074405996 -0.03949647 -0.078361794 0.05847724 -0.015337724
-0.052162863 0.036521953 -0.029629214 -0.06261006 0.0023331924 0.07900197 -0.052743062 0.031182216
-0.06321964 -0.017518701 -0.044885024 -0.061853234 -0.026609756 -0.06115097 0.039325263 0.053626455
-0.009705867 0.05298395 -0.06143542 -0.059440985 0.050299704 0.034034878 0.09287087 0.023000753
0.039330807 0.06233794 -0.06956889 0.08821364 -0.0804235 0.026867956 -0.00189551 -0.058152657
0.020921782 0.050286625 0.055258572 0.03407539 0.013958963 0.028939469 -0.03432664 -0.031013886
0.078862 -0.011042159 0.06674869 -0.030676443 0.04172389 0.041386325 0.038707044 0.0739505
-0.019717818 0.04483232 -0.011140317 0.043267637 0.08088769 0.04269843 0.04912992 -0.009561109
0.029876605 0.02394812 0.06457822 0.016904501 -0.06101105 -0.035378445 -0.051622998 -0.081429906
0.0029752753 0.006223805 0.046992846 -0.021801578 -0.014585909 0.06498338 0.050446857 -0.06525972
00000000: 86e8 87bd 80b1 303d 89ca 8cbd 5458 94bd
00000010: becf a0bc 685a ae3c 1c07 943d 16db 7f3b
00000020: c27a 8ebb cff5 893d a967 56bc 3ea8 ef3c
00000030: 45ed 883d a7b0 19bd 88f9 aa3d abbc 7c3d
00000040: 89f8 893d 8f2f 2abd 6a67 13bd 4255 0abd
00000050: 4230 1d3d 4f09 a93d 3ccc 123d 0a26 5fbd
00000060: 687f 6f3d 31a1 ed3c de4b 893d 4cfb 80bd
00000070: 4675 2fbd ab8a 4bbd 98f0 2b3d cf34 693d
00000080: 66f9 4fbd 697c b6bd f866 6f3d 7488 183d
00000090: fe0e 953d 68af 8b3d f111 993d 984a 66bd
000000a0: 5ead 5c3c 7ec7 a73d 4045 333c 3203 a83d
000000b0: b586 9b3d f4d2 873d f001 85bd 85a1 ebbc
000000c0: 7220 463d c253 ec3b 8c6c 87bd dbdd 7ebc
000000d0: 004c 52bd 2360 aa3d 07b9 28bc 8293 37bd
000000e0: b6d4 0fbd f482 1dbc 80f3 b23b 0581 faba
000000f0: bf84 a93d 4ed7 653d d710 b2bc d1c1 9e3d
00000100: 3966 14bd 56c9 20bd ff51 b23c 698b 6e3d
00000110: 5e04 a83d 4d87 33bd 86ba 783c b968 4bbd
00000120: 2e1b 893b 14f9 203d 2990 5dbc 4085 f93c
00000130: 0290 9c3d a268 89bd e8c2 74bd d49b 2ebd
00000140: 9999 81bd f72b 8b3d 7f9c 8cbd 4d62 6cbd
00000150: a62d 88bd 0e76 dcba e42e a13d 9051 963d
00000160: 340d a53d a440 cabc c920 3f3d 0ddd 063d
00000170: bade 823c cd7f 1f3d 0114 76bd ab65 a83d
00000180: fd18 61bc 76a7 983d a65e 533d f5b0 e3bb
00000190: 7808 843d 3d11 6fbd 2177 86bd 73a0 893d
000001a0: 7bb9 063b c041 bc3c ae43 3ebc 38ab 88bd
000001b0: 4295 943c c8d3 333c 8a44 ef3c 4980 1e3d
000001c0: 2bf6 a03d cb70 323d 7f1e 9f3d 170f 2d3d
000001d0: 0da5 833d b96f 04bd 9e88 123d a2f0 5bbd
000001e0: aacb fd3c 6c16 a43d 5718 863c 8558 aabd
000001f0: a7d4 223d c355 b7bc 785a a83c 3208 213d
00000200: 73e8 99bd 04f5 53bd acd0 4c3c 7f96 8abd
00000210: 3e6c 893d beed 8cbc 7582 1c3d 55dc 8dbd
00000220: 1d1d 9dbd e9d2 a73c edff 813d 6ee0 0cbc
00000230: d513 b9bb 04f7 82bd c142 4bbd 3c18 9f3d
00000240: ab57 9c3d fbad 973d 2709 c63d 0f62 133d
00000250: 20a8 82bd 76d1 b23d 44ea 1c3b 298d 723d
00000260: 2855 28bd 3b2d b93a 5cc9 6ebc d438 91ba
00000270: 6948 ae3d 81e8 753d 4a88 99bd 6a88 a6bd
00000280: 591d 70bd ab10 943c 9a9c 56bd 409f aa3d
00000290: cd06 a1bd b919 0fbd 5639 75bd aefa 703d
000002a0: 586e 1abd 78f1 913d 1bd2 623d 0d73 15bd
000002b0: 62bc 22bd 205f 48bd 6c13 7e3d 334e 253d
000002c0: 9a07 6a3d 8c4b 68bd 5546 cc3c 46d0 f3bb
000002d0: 0dc7 21bd 267c a0bd d585 6f3d 144b 7bbc
000002e0: baa8 55bd 0b98 153d f7b8 f2bc b439 80bd
000002f0: 79e8 183b c9cb a13d 1c09 58bd d971 ff3c
00000300: 4c79 81bd 6183 8fbc 5cd9 37bd d159 7dbd
00000310: b4fc d9bc 7179 7abd 8713 213d 6aa7 5b3d
00000320: 5b05 1fbc b305 593d b5a3 7bbd 6478 73bd
00000330: 1007 4e3d 2868 0b3d 1533 be3d 136c bc3c
00000340: 5719 213d 1156 7f3d 227a 8ebd 5aa9 b43d
00000350: 13b5 a4bd 301a dc3c c372 f8ba 7b31 6ebd
00000360: 2864 ab3c 59f9 4d3d d056 623d a392 0b3d
00000370: 22b4 643c 7712 ed3c 179a 0cbd d510 febc
00000380: 6682 a13d 2cea 34bc 8ab3 883d 2a4d fbbc
00000390: abe6 2a3d b584 293d 478b 1e3d 5c73 973d
000003a0: 4387 a1bc 18a2 373d e085 36bc 6839 313d
000003b0: 72a8 a53d 8de4 2e3d 743c 493d 33a6 1cbc
000003c0: c8bf f43c d92e c43c 9641 843d 4f7b 8a3c
000003d0: b9e6 79bd fde8 10bd a372 53bd b9c4 a6bd
000003e0: d6fc 423b 0ff1 cb3b 927b 403d 3999 b2bc
000003f0: bdf9 6ebc 0216 853d 5da1 4e3d e3a6 85bd
