modeldata/model_12_epoch.pth (torch_old, 43109 bytes, 5 tensors)

weight f4 [64, 1, 9, 9]
-0.035017088 -0.001016046 -0.014327704 0.019254846 -0.03667591 0.025981816 -0.036367696 0.017683452
0.022137776 -0.035547573 0.008418141 -0.0067401566 0.00559573 0.008652404 -0.009650409 0.027709719
0.013479676 0.026573338 -0.017540917 -0.0034596638 0.02646216 -0.024564432 0.02748908 -0.013490326
-0.0076559028 -0.029016715 0.015584508 -0.024653412 -0.0022104979 -0.01710344 2.6602374e-05 -0.008203413
-0.012375454 0.02112881 0.023189167 0.011081247 0.0022038287 -0.011176742 0.028829632 -0.012441766
-0.027985206 0.025387034 5.6294266e-05 0.0016363371 -0.0065122405 -0.020614631 0.017831063 -0.00376613
-0.020945676 -0.03166163 0.021928076 -0.023835443 -0.014339908 -0.012850997 0.00031604766 -0.027317243
-0.020509325 0.0298277 -0.015364328 -0.0014714077 0.025759531 0.014683657 0.009063327 0.013623969
-0.015589069 -0.023784338 0.019699158 0.0004110995 0.0026744255 -0.0009131865 0.004017899 0.004586272
-0.03243162 -0.032070804 -0.0080484245 0.026366789 -0.0060490817 0.0022094285 -0.023448944 0.011525438
0.023403054 0.016757669 0.004027401 0.008572304 -0.037893817 0.0230395 -0.031029548 -0.01153738
-0.026230203 -0.033903968 -0.0063995626 0.0075089377 -0.011813563 0.019546643 -0.028345678 0.0057325675
-0.03469514 0.022268105 0.026295431 0.008360033 0.023640504 -0.0067085484 -0.005813389 0.0013181041
0.019679263 0.01947033 0.017108103 0.018211571 -0.030212829 0.0191275 0.025519973 -0.009838255
0.027697869 0.008908139 -0.00030040616 0.00260375 -0.008353412 -0.016372569 0.012145858 0.025356427
-0.020566927 0.002534831 0.0022958491 -0.03420375 -0.02856291 0.017084599 -0.01311512 -0.011020267
-0.026948512 0.021723296 -0.022751043 -0.028698733 0.02360746 -0.014181696 -0.027015286 0.008679269
0.012374927 0.027885435 0.010345377 0.006932464 -0.030214492 -0.005486069 -0.024802849 -0.028978027
-0.02328669 0.02464525 0.02149636 0.0017940279 0.008222942 0.0059271897 -0.013047051 -0.023835318
-0.0037593136 -0.015791122 -0.015422087 -0.021516908 -0.014706193 0.014896897 0.00091593945 0.01184672
0.023773314 0.012192619 0.014478017 -0.012305358 -0.017408492 -0.029292978 -0.025707947 -0.017209783
-0.021797782 -0.030058458 0.027887894 0.008799302 0.033142537 0.01693278 0.00016897838 -0.006038752
-0.0049511613 -0.006890363 -0.022991808 -0.021543229 -0.012391485 -0.00028438604 -0.025163716 -0.0039732656
-0.012868038 0.007367888 0.02243901 0.022113724 -0.015448184 -0.004273003 -0.012460051 0.0151374675
-0.000284141 0.029016519 0.033043522 0.030807327 0.034529194 -0.0028966793 0.01636806 -0.022958145
-0.02927157 -0.0055603418 0.015381807 0.033628475 0.03437749 -0.0031637447 0.011915405 0.03442196
0.005061375 0.018629769 -0.0098640425 0.007951975 -0.0074647684 0.02406172 0.026881268 -0.022311509
0.017435761 0.0035155145 -0.0061874688 -0.021359917 0.030020384 0.024662906 0.016004767 -0.011795828
0.030795548 -0.030820642 0.027389107 -0.031494938 0.031092219 -0.0008122366 0.029314324 0.0051155468
0.007865997 -0.012528374 -0.02917621 0.005623882 0.018864162 -0.010148654 0.031777553 0.032622505
-0.00506427 1.5150931e-05 -0.030001722 0.0257323 0.017675169 0.0067236014 0.013722974 -0.02602679
0.021154055 -0.0192828 -0.007174493 -0.018721692 0.026216755 0.016148888 0.0172796 -0.032568116
00000000: 146e 0fbd d92c 85ba bfbe 6abc 57bc 9d3c
00000010: 7b39 16bd d1d7 d43c 4bf6 14bd e3dc 903c
00000020: 485a b53c 559a 11bd 3eec 093c 88dc dcbb
00000030: 635c b73b d0c2 0d3c c01c 1ebc 7eff e23c
00000040: dcd9 5c3c 54b0 d93c f8b1 8fbc 87bb 62bb
00000050: 2cc7 d83c 593b c9bc c730 e13c 8706 5dbc
00000060: 5ede fabb 76b4 edbc 2a56 7f3c f4f5 c9bc
00000070: 00de 10bb 831c 8cbc 2a28 df37 9c67 06bc
00000080: 6bc2 4abc 5316 ad3c 35f7 bd3c 1e8e 353c
00000090: 1c6e 103b a71e 37bc 1f2c ec3c 8dd8 4bbc
000000a0: 3b41 e5bc 78f8 cf3c 821d 6c38 5d7a d63a
000000b0: a264 d5bb 04e0 a8bc 7312 923c 2dd1 76bb
000000c0: 4496 abbc a0af 01bd 82a2 b33c 8c42 c3bc
000000d0: eff1 6abc fd8c 52bc 33b3 a539 69c8 dfbc
000000e0: 2c03 a8bc 3959 f43c aaba 7bbc 40dc c0ba
000000f0: a705 d33c b993 703c 597e 143c 1137 5f3c
00000100: 4b69 7fbc 5fd7 c2bc 2160 a13c d788 d739
00000110: 6a45 2f3b e962 6fba 94a8 833b 7048 963b
00000120: 05d7 04bd ad5c 03bd 8add 03bc 2aff d73c
00000130: 6037 c6bb 0fcc 103b 0018 c0bc 31d5 3c3c
00000140: c3b7 bf3c 6147 893c 4af8 833b d972 0c3c
00000150: 8c36 1bbd 55bd bc3c ae31 febc 4707 3dbc
00000160: b9e0 d6bc e3de 0abd 6cb3 d1bb 890d f63b
00000170: ad8d 41bc 4820 a03c 3235 e8bc 43d8 bb3b
00000180: 7e1c 0ebd 9a6b b63c 8469 d73c 85f8 083c
00000190: bba9 c13c 62d3 dbbb 3e7e bebb 3cc4 ac3a
000001a0: 6836 a13c 3e80 9f3c 4b26 8c3c 6f30 953c
000001b0: e580 f7bc 46b1 9c3c 430f d13c a230 21bc
000001c0: a4e6 e23c 71f3 113c d57f 9db9 ada3 2a3b
000001d0: c0dc 08bc c41f 86bc 6cff 463c 48b8 cf3c
000001e0: f97b a8bc 681f 263b f575 163b 3b19 0cbd
000001f0: c4fc e9bc 00f5 8b3c cde0 56bc 5a8e 34bc
00000200: 20c3 dcbc 0ef5 b13c 6560 babc 9b19 ebbc
00000210: 6f64 c13c 585a 68bc 294f ddbc 7e33 0e3c
00000220: 35c0 4a3c ff6f e43c a87f 293c b929 e33b
00000230: 6284 f7bc 7bc4 b3bb 582f cbbc 5463 edbc
00000240: bac3 bebc d6e4 c93c 2219 b03c 9625 eb3a
00000250: 85b9 063c df38 c23b 4cc3 55bc 4942 c3bc
00000260: d15e 76bb 625c 81bc ecac 7cbc 3a44 b0bc
00000270: 3ef2 70bc 1d12 743c a81b 703a bf18 423c
00000280: 41c0 c23c 8dc3 473c 3435 6d3c 6a9c 49bc
00000290: 419c 8ebc d4f7 efbc 7999 d2bc 88fb 8cbc
000002a0: 4391 b2bc 283d f6bc 2775 e43c f32a 103c
000002b0: 78c0 073d 9db6 8a3c ca2f 3139 b9e0 c5bb
000002c0: 5a3d a2bb 8ec8 e1bb 5159 bcbc 6d7b b0bc
000002d0: a805 4bbc a619 95b9 2324 cebc 2b32 82bb
000002e0: 77d4 52bc 536e f13b 04d2 b73c d727 b53c
000002f0: 611a 7dbc 8c04 8cbb 3e25 4cbc 2403 783c
00000300: c2f8 94b9 0db4 ed3c a558 073d a65f fc3c
00000310: 7c6e 0d3d 37d6 3dbb 4f16 863c b812 bcbc
00000320: eeca efbc 8733 b6bb fa03 7c3c 03be 093d
00000330: 69cf 0c3d d456 4fbb d538 433c 0bfe 0c3d
00000340: e4d9 a53b 759d 983c cb9c 21bc 0049 023c
00000350: 049b f4bb 161d c53c 1b36 dc3c a0c6 b6bc
00000360: 71d5 8e3c 8c64 663b 40c0 cabb fefa aebc
00000370: 4fed f53c dd09 ca3c 6e1c 833c 4a43 41bc
00000380: f246 fc3c 927b fcbc 1f5f e03c d600 01bd
00000390: 1cb5 fe3c 47ec 54ba 9824 f03c 51a0 a73b
000003a0: 62e0 003c cf43 4dbc f202 efbc 8b48 b83b
000003b0: 0489 9a3c 8a46 26bc 2e29 023d 2d9f 053d
000003c0: 2df2 a5bb c130 7e37 2cc6 f5bc 8bcc d23c
000003d0: 84cb 903c a851 dc3b 53d6 603c 2236 d5bc
000003e0: 454b ad3c f6f6 9dbc 0218 ebbb 3c5e 99bc
000003f0: 85c4 d63c ac4a 843c f38d 8d3c 2566 05bd

bias f4 [64]
-0.0032333445 -0.0038926522 0.00343951 -0.0031038625 0.011688354 0.00195492 -0.0019079486 0.0067487373
-0.00458338 -0.0032724827 0.003760234 0.04435676 0.005023854 -0.003307238 -0.0045395126 0.008366078
0.006809398 -0.004625494 0.005874429 0.001817321 0.0004486655 0.0013065174 -0.0026185105 0.024487454
0.0029333618 0.005910776 -0.0061231065 -0.0028430098 0.010713152 -0.0026508742 -0.0011787309 -0.004496958
-0.0010745971 0.0057359035 0.0051783808 0.012253466 0.0031060255 0.0013852192 0.029049069 0.0024968851
-0.002861935 0.0027952222 0.0024218566 3.8415576e-05 -0.0008254331 -0.002372062 0.010422273 -0.002772157
-0.0031315533 -0.0032242385 0.003448681 -0.0053018276 0.001961036 0.00085294445 0.01179201 0.0066080787
0.040518675 0.0055316538 -0.0024282995 0.002752555 -0.0016226554 -0.004350908 0.00256327 -0.003267624
00000000: 85e6 53bb de1b 7fbb 6769 613b 2c6a 4bbb
00000010: 8380 3f3c 1d1e 003b 2214 faba 8324 dd3b
00000020: 2e30 96bb 2677 56bb 426e 763b 6faf 353d
00000030: 249f a43b 3fbe 58bb 31c0 94bb e011 093c
00000040: 5f21 df3b 7591 97bb 487e c03b 2d33 ee3a
00000050: dd3a eb39 733f ab3a 519b 2bbb ea99 c83c
00000060: a53d 403b 2faf c13b 57a4 c8bb ca51 3abb
00000070: 3786 2f3c 4aba 2dbb a57f 9aba 385b 93bb
00000080: 7fd9 8cba 3ff4 bb3b 68af a93b c3c2 483c
00000090: 768e 4b3b 3e90 b53a 50f8 ed3c c8a2 233b
000000a0: 4d8f 3bbb 0c30 373b 03b8 1e3b 6920 2138
000000b0: e161 58ba 9974 1bbb 2ec2 2a3c 14ad 35bb
000000c0: bf3a 4dbb bf4d 53bb 4403 623b f4ba adbb
000000d0: b984 003b 2298 5f3a 4633 413c 9588 d83b
000000e0: e9f6 253d e042 b53b 1b24 1fbb 3664 343b
000000f0: 48af d4ba 1092 8ebb 89fc 273b a225 56bb

weight f4 [32, 64, 1, 1]
-0.034333006 0.16988128 -0.13508295 0.012836122 -0.15160887 0.11855282 -0.15548743 0.16350956
-0.15076132 0.17334661 -0.09082859 0.048664097 -0.08803577 -0.17073864 0.075124264 0.2116876
0.15578069 0.024379956 -0.11176757 -0.08686734 0.24334463 -0.12683836 0.047217302 0.03210196
-0.18542367 -0.1512187 -0.14802058 0.20461126 0.31306478 -0.18701392 -0.011788974 0.054647245
0.008750975 0.10246159 -0.12196615 -0.048615716 -0.19235983 0.20111242 0.17828129 -0.17599681
0.03356906 0.031203186 0.027885085 -0.12122099 0.11084212 -0.03773104 0.18197617 -0.21797808
0.06567908 0.10379886 0.027026191 -0.056121312 0.22497046 0.2568515 0.054248255 -0.27094495
-0.17211431 -0.09208836 0.11669235 -0.102882475 -0.14042346 -0.31830668 0.17904237 -0.15349121
-0.0828104 -0.10763868 2.6406871e-05 0.21972919 -0.01688735 -0.21669991 0.08701031 0.2494633
0.053702235 0.060057703 -0.14356431 -0.06427747 -0.2412256 0.17636684 -0.13908231 -0.026709339
0.033519037 -0.036950834 -0.009136013 0.17190342 0.010179048 0.13893972 0.1187057 0.15004942
0.04672759 0.1519494 0.03591352 -0.1863729 0.269054 0.073256664 -0.031987075 -0.095292814
-0.18221053 0.2365453 -0.051781062 0.025723593 -0.055531442 -0.042458687 0.0032049099 -0.12342836
-0.20491849 0.2319261 -0.032818418 -0.16924977 -0.17458275 0.17983563 0.29464915 -0.11899648
0.18328252 0.19271165 -0.22671019 -0.1580835 -0.21008119 0.18255964 0.051254902 -0.22754486
0.05581128 0.013054787 -0.17108938 0.07044015 -0.23535724 0.2337045 0.25714648 -0.19376566
-0.20341702 0.097562164 -0.14538825 0.24964605 0.28100863 0.19253927 0.13412897 0.058993887
0.13341825 -0.14905308 -0.18084276 0.018529922 -0.008992274 0.18689649 -0.061618425 0.19046704
-0.18105797 -0.18471871 0.15308805 0.118219666 0.06252337 0.22724427 0.12413269 0.22200926
-0.070792206 -0.15907845 -0.0003590579 -0.149524 0.060144458 -0.112091556 -0.018235246 -0.048228815
-0.08346502 0.23864326 -0.019571537 0.1952454 -0.22061636 0.23240362 -0.042559903 -0.018381277
0.06855096 -0.14603248 0.07345524 0.12302102 -0.1538862 0.09333209 0.11110382 -0.1296373
0.041887768 -0.098595165 0.2465355 -0.027360933 0.1799757 0.14794798 0.13624494 -0.19180575
-0.1901874 -0.17889445 0.033002168 0.017504582 0.15832031 -0.022474721 0.20560244 -0.07701493
-0.2286519 -0.158431 0.11214011 0.083375834 0.24526994 -0.13147423 -0.22537975 0.12690872
-0.24517272 -0.16637298 0.065066375 -0.10627445 0.16407734 -0.21450114 0.20137046 0.13427371
-0.0838535 -0.047024887 0.24461584 -0.1724831 -0.025720648 0.05192197 0.19579619 0.15175973
0.16395916 0.24619372 -0.21107405 0.024934856 0.14081922 -0.187529 -0.15711309 0.0088019
-0.09334089 -0.074859045 0.2387853 -0.0881107 0.16165172 0.077385135 -0.35395294 0.22748592
-0.24117151 -0.123356394 0.1434823 0.13360776 0.22333038 0.11964581 0.006791239 -0.17182979
-0.1415309 -0.12578347 -0.047758117 -0.1482614 0.11577294 -0.041146833 -0.13426208 -0.061555773
0.100469895 0.2573104 -0.21079765 0.08085634 -0.09546712 0.1317253 -0.13214634 0.11527049
00000000: c4a0 0cbd 5cf5 2d3e 2f53 0abe 994e 523c
00000010: 5b3f 1bbe d2cb f23d 1938 1fbe 0d6f 273e
00000020: 2d61 1abe c681 313e 5704 babd 0154 473d
00000030: 194c b4bd 1cd6 2ebe c0da 993d a2c4 583e
00000040: f984 1f3e 79b8 c73c 65e6 e4bd 81e7 b1bd
00000050: 562f 793e eae1 01be ee66 413d 587d 033d
00000060: b4df 3dbe 13d9 1abe b592 17be 9d85 513e
00000070: 074a a03e 9480 3fbe 8a26 41bc cad5 5f3d
00000080: 4060 0f3c 62d7 d13d 64c9 f9bd 4621 47bd
00000090: faf9 44be 6af0 4d3e 5f8f 363e 8238 34be
000000a0: b67f 093d d39d ff3c 436f e43c b642 f8bd
000000b0: 3201 e33d dd8b 1abd f657 3a3e a535 5fbe
000000c0: c182 863d 7f94 d43d 0866 dd3c 76df 65bd
000000d0: a85e 663e 0a82 833e 6b33 5e3d 4cb9 8abe
000000e0: bc3e 30be d298 bcbd 66fc ee3d 0cb4 d2bd
000000f0: 2bcb 0fbe 18f9 a2be e256 373e cd2c 1dbe
00000100: 8098 a9bd ab71 dcbd 5384 dd37 b000 613e
00000110: 5757 8abc 95e6 5dbe 7632 b23d 4f73 7f3e
00000120: e0f6 5b3d 11ff 753d 8602 13be e8a3 83bd
00000130: d803 77be 8299 343e 986b 0ebe 8bcd dabc
00000140: 424b 093d c259 17bd 37af 15bc 7307 303e
00000150: 06c6 263c 3746 0e3e f91b f33d 8ea6 193e
00000160: 6e65 3f3d a098 1b3e 0e1a 133d 8ad8 3ebe
00000170: 72c1 893e 9707 963d e104 03bd e128 c3bd
00000180: 6695 3abe ee38 723e 6118 54bd 49ba d23c
00000190: f074 63bd 29e9 2dbd 7709 523b 02c8 fcbd
000001a0: 27d6 51be 097e 6d3e 9b6c 06bd d04f 2dbe
000001b0: d2c5 32be d526 383e 41dc 963e 6db4 f3bd
000001c0: 6aae 3b3e 3456 453e b726 68be a4e0 21be
000001d0: 861f 57be eaf0 3a3e a9f0 513d 8501 69be
000001e0: 5e9a 643d bfe3 553c 0e32 2fbe ed42 903d
000001f0: 7d01 71be 3c50 6f3e b4a8 833e 816a 46be
00000200: 8d4c 50be acce c73d a8e0 14be 37a3 7f3e
00000210: 5de0 8f3e 0429 453e 1b59 093e 93a3 713d
00000220: cb9e 083e 5fa1 18be d82e 39be 10cc 973c
00000230: 5554 13bc cb61 3f3e 9a63 7cbd cb09 433e
00000240: 4367 39be e726 3dbe 1dc3 1c3e 271d f23d
00000250: 410c 803d b9b2 683e 4839 fe3d 6556 633e
00000260: 81fb 90bd 76e5 22be f03f bcb9 d21c 19be
00000270: 095a 763d 4290 e5bd 1562 95bc 948b 45bd
00000280: b5ef aabd e65e 743e 7d54 a0bc 69ee 473e
00000290: 41e9 61be 37fb 6d3e 4b53 2ebd 5594 96bc
000002a0: 7264 8c3d 8a89 15be b36f 963d 72f2 fb3d
000002b0: 5894 1dbe e524 bf3d 668a e33d a4bf 04be
000002c0: 8292 2b3d 43ec c9bd cd73 7c3e 0924 e0bc
000002d0: 8d4b 383e ad7f 173e cb83 0b3e ba68 44be
000002e0: 7cc0 42be 1b30 37be 482d 073d c565 8f3c
000002f0: b81e 223e e81c b8bc 7289 523e 01ba 9dbd
00000300: b923 6abe bc3b 22be b7a9 e53d f3c0 aa3d
00000310: 0b28 7b3e 2ea1 06be f3c9 66be 5cf4 013e
00000320: 8f0e 7bbe ae5d 2abe 8541 853d 6ba6 d9bd
00000330: e403 283e 30a6 5bbe 0f34 4e3e 0c7f 093e
00000340: 62bb abbd 2b9d 40bd 937c 7a3e 699f 30be
00000350: 1cb4 d2bc 22ac 543d cc7e 483e e766 1b3e
00000360: e9e4 273e 351a 7c3e cc23 58be 2f44 cc3c
00000370: ea32 103e 9a07 40be 41e2 20be d835 103c
00000380: 8229 bfbd b34f 99bd 2284 743e 6273 b4bd
00000390: 0788 253e 197c 9e3d 5239 b5be 12f2 683e
000003a0: aaf5 76be 47a2 fcbd 06ed 123e 79d0 083e
000003b0: b8b0 643e dd08 f53d 0b89 de3b 26f4 2fbe
000003c0: 7aed 10be 62cd 00be 049e 43bd d6d1 17be
000003d0: 5d1a ed3d 9589 28bd 007c 09be e821 7cbd
000003e0: 29c3 cd3d 30be 833e 57db 57be 0298 a53d
000003f0: 4484 c3bd ffe2 063e 5f51 07be ef12 ec3d

bias f4 [32]
0.0025186758 0.004061241 0.0041815573 0.004920943 0.0044711484 0.02766679 -0.0028364903 -0.003385249
0.003166727 0.0017094887 -0.0012866526 0.013916539 -0.0021238234 0.04272646 0.0022076636 0.0017186941
0.0032277284 -0.0012337003 0.0035002558 0.0024799665 0.00024214434 -0.000399413 -0.0011805865 -0.002060642
-0.004885719 -0.0069209957 0.0033771298 -0.010843694 0.005811729 0.004656762 -0.003648596 0.0012272
00000000: 5e10 253b 2914 853b 7205 893b dd3f a13b
00000010: b682 923b 77a5 e23c 69e4 39bb 0edb 5dbb
00000020: dd88 4f3b ec10 e03a e6a4 a8ba 3202 643c
00000030: d82f 0bbb f101 2f3d 73ae 103b ce45 e13a
00000040: 4c88 533b 1db4 a1ba 8c64 653b ef86 223b
00000050: 20e8 7d39 4e68 d1b9 e9bd 9aba d60b 07bb
00000060: 6218 a0bb 85c9 e2bb d652 5d3b c0a9 31bc
00000070: 5170 be3b c097 983b 481d 6fbb 00da a03a

weight f4 [1, 32, 5, 5]
-0.0665934 0.04688908 -0.07074315 -0.07252043 -0.018939909 0.02332605 0.07340404 0.0036249752
-0.0038860498 0.063225456 -0.010859215 0.021109814 0.0671794 -0.031163963 0.08031137 0.06287396
0.0602803 -0.03864121 -0.030364562 -0.03897852 0.03967633 0.0819757 0.03830262 -0.057099354
0.052147456 0.031397227 0.06544596 -0.06146132 -0.038325913 -0.049564358 0.04415924 0.057031035
-0.046669878 -0.084400766 0.05626839 0.03771779 0.07199146 0.067902885 0.074757434 -0.05979332
0.012141954 0.08250706 0.010241998 0.08222168 0.072314434 0.06614265 -0.06311863 -0.027889747
0.048660472 0.006884058 -0.06947222 -0.010651874 -0.046393014 0.08222389 -0.0064803115 -0.042281438
-0.02671275 -0.0053851935 0.0047320756 -0.0010285279 0.084181026 0.055629957 -0.025722977 0.07974166
-0.034036964 -0.03830481 0.021175778 0.05491051 0.08316484 -0.044730835 0.020323843 -0.041939076
0.008216458 0.04141805 -0.013217947 0.029925067 0.07476326 -0.065616116 -0.05869032 -0.043190256
-0.0627596 0.06922888 -0.067212746 -0.05724147 -0.066012815 -0.00065423164 0.08078818 0.0720939
0.07951843 -0.023979893 0.046262063 0.03358159 0.014935142 0.03945534 -0.059699688 0.08260497
-0.0135729285 0.07322701 0.052144572 -0.005707982 0.064472236 -0.059053127 -0.06197195 0.07093997
0.0023459622 0.022954637 -0.0092233885 -0.06257035 0.019755606 0.009541995 0.028886707 0.039910175
0.07653566 0.04065555 0.07529097 0.04092077 0.064034 -0.032573976 0.036848858 -0.055058997
0.031166764 0.07945062 0.01764826 -0.08158168 0.03905746 -0.023555396 0.017232863 0.040580813
-0.07256648 -0.05043881 0.011421305 -0.065217376 0.06798373 -0.02027828 0.042535335 -0.06636219
-0.069409825 0.018907929 0.055942405 -0.0070271585 -0.00693051 -0.06473108 -0.04877336 0.077421546
0.077668525 0.07337327 0.08947975 0.035938896 -0.061675977 0.08728665 0.0014974135 0.059924077
-0.040731765 -0.00039351982 -0.016034506 -0.0011760391 0.08386351 0.058848247 -0.077072725 -0.08266835
-0.05829091 0.015885262 -0.054555826 0.08178978 -0.07891127 -0.033819 -0.061502676 0.05835538
-0.040155496 0.07028458 0.05571018 -0.039214134 -0.039732367 -0.05199682 0.059013706 0.04128105
0.05543288 -0.059879158 0.024149064 -0.008197309 -0.04086348 -0.081504226 0.060131546 -0.013138727
-0.054168243 0.032282494 -0.031857334 -0.057484172 0.0049958667 0.0751901 -0.056162853 0.031237805
-0.059995905 -0.017644387 -0.047294907 -0.06182878 -0.023949113 -0.060201507 0.037084553 0.05177485
0.0071907793 0.046492677 -0.03723445 -0.034413725 0.030876812 0.04322167 0.078094855 0.047192637
0.05196271 0.013281462 -0.0638283 0.07946368 -0.0522674 0.047728743 -0.03639443 -0.017605664
0.0013360359 0.05906958 0.07864313 0.029299134 0.037940543 0.047284964 -0.050328627 -0.024205072
0.08206778 -0.01094002 0.06698691 -0.02990576 0.04227751 0.041916825 0.040302206 0.07516444
-0.018867087 0.04594392 -0.0112817455 0.04387652 0.080460735 0.040813904 0.049504608 -0.009245835
0.029488448 0.024379915 0.06494338 0.017788874 -0.06187326 -0.035283577 -0.05064059 -0.08049891
0.0031038965 0.005739991 0.04681398 -0.01925767 -0.013945626 0.062901266 0.050967786 -0.06618882
00000000: 1f62 88bd c40e 403d c9e1 90bd 9785 94bd
00000010: de27 9bbc 4616 bf3c db54 963d fe90 6d3b
00000020: 19ad 7ebb 597c 813d d9ea 31bc 7dee ac3c
00000030: 5a95 893d 914b ffbc 4a7a a43d 10c4 803d
00000040: 7ae8 763d 3f46 1ebd 1abf f8bc f1a7 1fbd
00000050: a683 223d e0e2 a73d 35e3 1c3d 03e1 69bd
00000060: 9298 553d 619a 003d 8808 863d ddbe 7bbd
00000070: a2fb 1cbd ff03 4bbd 52e0 343d 6099 693d
00000080: ea28 3fbd 4fda acbd af79 663d f87d 1a3d
00000090: 4270 933d ab10 8b3d 6d1a 993d d7e9 74bd
000000a0: 0cef 463c 76f9 a83d 0ece 273c d763 a83d
000000b0: 9719 943d cc75 873d 5744 81bd 0a79 e4bc
000000c0: 3450 473d aa93 e13b 7447 8ebd 3385 2ebc
000000d0: 9a06 3ebd 0065 a83d cb58 d4bb 4d2f 2dbd
000000e0: b2d4 dabc 4776 b0bb 870f 9b3b abcf 86ba
000000f0: 1a67 ac3d 3ddc 633d feb8 d2bc 984f a33d
00000100: 586a 0bbd 81e5 1cbd d378 ad3c d8e9 603d
00000110: 5452 aa3d ae37 37bd 307e a63c 4fc8 2bbd
00000120: 539e 063c f9a5 293d 1790 58bc 6a25 f53c
00000130: 7b1d 993d be61 86bd 4365 70bd 44e8 30bd
00000140: 1b88 80bd dfc7 8d3d d6a6 89bd 0876 6abd
00000150: ba31 87bd be80 2bba 4674 a53d f7a5 933d
00000160: 8fda a23d 7b71 c4bc 4a7d 3d3d d98c 093d
00000170: 87b2 743c ec9b 213d a987 74bd cb2c a93d
00000180: fd60 5ebc 0bf8 953d 8c95 553d 060a bbbb
00000190: 050a 843d b1e1 71bd 4dd6 7dbd fa48 913d
000001a0: b7be 193b 5d0b bc3c b21d 17bc e224 80bd
000001b0: 82d6 a13c 0756 1c3c d1a3 ec3c da78 233d
000001c0: babe 9c3d 6f86 263d 2732 9a3d 8a9c 273d
000001d0: 4224 833d 4a6c 05bd d4ee 163d 8b85 61bd
000001e0: 7151 ff3c 02b7 a23d 1593 903c 4c14 a7bd
000001f0: b7fa 1f3d 3ff7 c0bc ef2b 8d3c 1138 263d
00000200: bc9d 94bd ed98 4ebd 6d20 3b3c b090 85bd
00000210: 0e3b 8b3d a31e a6bc 8839 2e3d e6e8 87bd
00000220: bd26 8ebd cde4 9a3c dd23 653d 1444 e6bb
00000230: 5519 e3bb ba91 84bd 93c6 47bd 308f 9e3d
00000240: ad10 9f3d ba44 963d 2941 b73d aa34 133d
00000250: f39f 7cbd 58c3 b23d dc44 c43a f372 753d
00000260: 5ad6 26bd 5651 ceb9 cc5a 83bc 5325 9aba
00000270: a2c0 ab3d dc0a 713d 4ed8 9dbd 064e a9bd
00000280: 73c2 6ebd cf21 823c ee75 5fbd 6681 a73d
00000290: 3b9c a1bd cb85 0abd 3bea 7bbd 0d06 6f3d
000002a0: 177a 24bd 5df1 8f3d 5c30 643d 009f 20bd
000002b0: 68be 22bd 9efa 54bd 5bb8 713d 5116 293d
000002c0: 960d 633d d943 75bd 42d4 c53c 024e 06bc
000002d0: 7760 27bd b0eb a6bd 7f4c 763d d143 57bc
000002e0: 85df 5dbd a63a 043d d67c 02bd 8674 6bbd
000002f0: 5eb4 a33b 44fd 993d 050b 66bd 6de6 ff3c
00000300: 44be 75bd f68a 90bc 4eb8 41bd 2d40 7dbd
00000310: ee30 c4bc db95 76bd f9e5 173d dd11 543d
00000320: a1a0 eb3b 1b6f 3e3d 2783 18bd 68f5 0cbd
00000330: 5ef1 fc3c 3509 313d 32f0 9f3d 114d 413d
00000340: dad6 543d 7d9a 593c 69b8 82bd dbbd a23d
00000350: 5716 56bd 377f 433d 5312 15bd c139 90bc
00000360: ed1d af3a f2f2 713d a60f a13d bd04 f03c
00000370: 8b67 1b3d e1ad 413d 6425 4ebd b749 c6bc
00000380: 2713 a83d c53d 33bc 6f30 893d edfc f4bc
00000390: 2f2b 2d3d fab0 2b3d ed13 253d d0ef 993d
000003a0: 268f 9abc b12f 3c3d 12d7 38bc deb7 333d
000003b0: 99c8 a43d 7b2c 273d 58c5 4a3d d87b 17bc
000003c0: c291 f13c 63b8 c73c 0901 853d f9b9 913c
000003d0: d16e 7dbd 8385 10bd 826c 4fbd 9ddc a4bd
000003e0: be6a 4b3b 8916 bc3b 04c0 3f3d 43c2 9dbc
000003f0: 327c 64bc 61d2 803d 99c3 503d 018e 87bd
