modeldata/model_150_epoch.pth (torch_old, 43016 bytes, 5 tensors)

weight f4 [64, 1, 9, 9]
0	0x3d17401b	0.03692637
1	0x3a6f3e0b	0.00091263716
2	0x3ca46276	0.020066481
3	0x3b4a1822	0.0030837138
4	0xbd0c0552	-0.03418476
5	0xbd3bbd64	-0.045834914
6	0x3d250cf3	0.040295552
7	0x39d14d28	0.00039921072
8	0xbc00810e	-0.007843269
9	0xbc584cb0	-0.0132018775
10	0x3bb5896a	0.0055400627
11	0x3ba87d9c	0.005141927
12	0xbc8a73a4	-0.016900845
13	0xbc701fbd	-0.0146560045
14	0x3c7b9886	0.015356189
15	0x3cf61aab	0.030042013
16	0x3c2af171	0.010433541
17	0xbc62d0d1	-0.013843731
18	0x3c0c6bbc	0.008570608
19	0xbccf87ab	-0.025333246
20	0x3cafb126	0.021446776
21	0xbb2fc61b	-0.002682096
22	0xbd0e0541	-0.03467298
23	0xbc280a16	-0.010256311
24	0x3c318526	0.010834968
25	0x3d189bb8	0.03725788
26	0x3c2b896f	0.010469778
27	0xbce11494	-0.027475633
28	0x3d010b68	0.03150502
29	0x3d7130cb	0.058884423
30	0x3d0c6f7f	0.03428602
31	0xbcd99829	-0.026561813
32	0xbb8cb3d4	-0.004293898
33	0xbc0f9e55	-0.008765777
34	0xbd65d98c	-0.056115672
35	0x3ca488b2	0.020084713
36	0xbb641b38	-0.0034806263
37	0x3d151ef8	0.036406487
38	0x3dcfc1bf	0.10144376
39	0x3d6077c8	0.054801732
40	0xbcc0f982	-0.023556475
41	0xbce67028	-0.028129652
42	0x3bccbcd2	0.006248095
43	0xbd194b97	-0.037425604
44	0x3d0b3b05	0.033991832
45	0xbb96720f	-0.0045912336
46	0xbd5d35b4	-0.054006293
47	0xbbaeab99	-0.0053305146
48	0xbd6f73a0	-0.058459878
49	0xbdb1e3f5	-0.086860575
50	0xbbce991e	-0.006304874
51	0xbde75136	-0.11294787
52	0xbd37a3ee	-0.04483407
53	0x3c832297	0.016007705
54	0x3d187b0b	0.037226718
55	0x3c4d4143	0.012527767
56	0x3d2382ea	0.03991977
57	0xbbbe8fca	-0.005815481
58	0x3c477a02	0.012175085
59	0x3c7b1422	0.015324624
60	0xbcd470ef	-0.025932757
61	0x3b999084	0.004686417
62	0x3d6674ca	0.056263722
63	0xbccd7e3c	-0.025084607
64	0xbce0cdfb	-0.02744197
65	0xbc90cec0	-0.017676711
66	0xbc94b61f	-0.018153248
67	0x3d9d1f0c	0.07671937
68	0x3c61ca66	0.013781166
69	0xbd271796	-0.040793978
70	0xbc56c119	-0.0131075615
71	0x3ca51ad1	0.020154389
72	0x3c7d5100	0.015461206
73	0xbc81a7d1	-0.015827091
74	0xbcb3292c	-0.021870218
75	0x3c76e31b	0.015068795
76	0x3d57090b	0.05249886
77	0x3c0c77e1	0.008573503
78	0xbcb74d2e	-0.02237567
79	0x3c36eb39	0.01116448
80	0xbd29faf7	-0.041499104
81	0xbaa3eeb2	-0.001250705
82	0xbcabbf96	-0.020965379
83	0xbbf9c10c	-0.00762189
84	0x3cf189ab	0.02948459
85	0x3d7240df	0.059143897
86	0x3d1ba9ea	0.03800384
87	0x3d576184	0.052583233
88	0xbc827bb1	-0.015928121
89	0xbd0521df	-0.032503005
90	0x3ceb2365	0.0287034
91	0xbcd3bd84	-0.025847204
92	0x3cd0eb7c	0.025502913
93	0x3d234f1a	0.03987036
94	0x3cde27fe	0.02711868
95	0x3d446a05	0.04795267
96	0x3bd787e8	0.0065774806
97	0x3d3c245e	0.04593312
98	0x3d131e00	0.035917282
99	0x3cedb669	0.029017644
100	0xbc016f5c	-0.007900085
101	0x3cb89209	0.022530572
102	0xbc37ac73	-0.011210549
103	0x3cc1b284	0.023644693
104	0x3d36e0f3	0.044648122
105	0xbcba3d87	-0.022734417
106	0x3d66f20e	0.056383185
107	0xbb96ba95	-0.004599879
108	0x3ceb7093	0.028740203
109	0x3cc99caa	0.024610836
110	0x3c5a916e	0.013340337
111	0xbbe2cde5	-0.006921517
112	0xbcf11b05	-0.02943183
113	0xbaccda21	-0.0015628972
114	0xbc493989	-0.012281784
115	0x3d018fc0	0.03163123
116	0x3c2fc71e	0.010728626
117	0x3c436927	0.011926926
118	0x3c30b3d7	0.010785065
119	0x3ce6979f	0.02814847
120	0xbc29662c	-0.010339301
121	0xbd237257	-0.039903965
122	0xbdb37a5a	-0.08763571
123	0xbd26d252	-0.04072792
124	0x3c96ae39	0.018393623
125	0x3d96e1ba	0.07367273
126	0x3cbc262d	0.022967422
127	0x3d19190c	0.037377402
128	0x3d527c5c	0.05138813
129	0x3b01c4e9	0.0019801205
130	0xbd0c40e0	-0.034241557
131	0xbd819ee0	-0.06329131
132	0xbd7cf7a3	-0.061759602
133	0x3d2ec3e6	0.042667292
134	0x3d906d8d	0.07052145
135	0x3c014e42	0.007892193
136	0x3d161c31	0.03664798
137	0x3cb79f40	0.022414804
138	0x3c3f3298	0.011669777
139	0xbb40606f	-0.0029354354
140	0xbd5871c1	-0.05284286
141	0xbc1aaa94	-0.009440083
142	0x3d02e310	0.031954825
143	0x3d4a6107	0.04940894
144	0xbc09b490	-0.008404866
145	0x3cc7ee1c	0.024405532
146	0x3ce119a5	0.027478049
147	0x3d2b4e1c	0.041822538
148	0x3c8f6b62	0.017507259
149	0x3d601672	0.054708906
150	0x3d55260e	0.052038245
151	0x3d258f32	0.040419765
152	0x3d03c1fb	0.032167416
153	0xbc6da8c8	-0.014505573
154	0x3cf336ab	0.029689154
155	0xbc6170cf	-0.013759806
156	0xbb7305a8	-0.0037082229
157	0x3d2c2540	0.042027712
158	0x3cebd151	0.028786333
159	0x3c9e35d0	0.01931277
160	0x3b72115b	0.0036936614
161	0xbbdd1528	-0.006746907
162	0xba583769	-0.0008248003
163	0x3be1a9fe	0.0068867197
164	0xbd0a3473	-0.033741426
165	0x3c795414	0.0152178
166	0x3c254bf1	0.010088907
167	0xbcd3657d	-0.02580523
168	0xba2b1aad	-0.00065271073
169	0xbd2292f6	-0.039690934
170	0x3b3306db	0.0027317319
171	0xbcd2751b	-0.025690606
172	0xbb1a591b	-0.0023551646
173	0x3cc26797	0.023731036
174	0x3d33ab0e	0.043864302
175	0x3db21110	0.08694661
176	0x3d238a30	0.039926708
177	0x3dfd9fd6	0.12384002
178	0x3cd7101e	0.026252802
179	0x3d4ffaba	0.05077622
180	0x3c49e998	0.0123237595
181	0x3d91d671	0.071209796
182	0x3c3b114b	0.011417697
183	0xbde124b1	-0.109933265
184	0xbe38341e	-0.17988631
185	0xbe8b196f	-0.27167842
186	0xbe656024	-0.22399956
187	0xbe04954f	-0.12947582
188	0x3d3b1d4b	0.045682233
189	0xbd0456bb	-0.032309275
190	0xbcb1c9de	-0.021702703
191	0xbd2b72e9	-0.041857634
192	0x3c835060	0.016029537
193	0x3dd9b4c5	0.10630182
194	0x3df717a2	0.120650545
195	0x3da9eda5	0.0829728
196	0xbb8fb4b7	-0.0043855566
197	0xbd1eef8d	-0.038802672
198	0x3b50d715	0.003186648
199	0xbc642a71	-0.013926134
200	0x3c4af99c	0.012388613
201	0xbae4d66e	-0.0017458925
202	0xbe033621	-0.12813617
203	0xbdbfd992	-0.0936767
204	0xba34c953	-0.0006896455
205	0x3cca1698	0.024668977
206	0xbc725681	-0.014791132
207	0x39f32443	0.0004637559
208	0xbc6c988b	-0.014440666
209	0x3ce0990f	0.027416734
210	0x3d063451	0.032764737
211	0xbcdd4aae	-0.02701315
212	0xbcf21a06	-0.029553425
213	0xbcf8f50e	-0.030390289
214	0x3cf99788	0.030467764
215	0xbcf5f02f	-0.030021755
216	0x3cda044d	0.026613379
217	0x3c87324d	0.016503477
218	0xbcb6473f	-0.02225077
219	0x3ccb0d4d	0.024786616
220	0x3dc9b66e	0.09849249
221	0x3d81a37a	0.06330009
222	0xbccd0cb5	-0.025030473
223	0x3ceeba71	0.029141637
224	0xbb308dad	-0.0026939914
225	0x3a48c590	0.00076588336
226	0xbc5056c0	-0.012715995
227	0xbd076fc0	-0.033065557
228	0xbc7b6eac	-0.01534621
229	0x3d34fc6a	0.044186033
230	0x3d7e50f0	0.062088907
231	0x3d0f2be2	0.03495396
232	0xbc4cf51d	-0.012509611
233	0xba89b6de	-0.0010506769
234	0x3be6cf11	0.007043727
235	0x3cac73fd	0.021051401
236	0xbb901648	-0.0043971874
237	0xbbd4084f	-0.006470717
238	0xbc07522b	-0.008259336
239	0xbbf91fbc	-0.00760266
240	0xbd29a3b6	-0.041415893
241	0xbc476370	-0.012169704
242	0x3c087c5d	0.008330432
243	0xbc18d356	-0.00932773
244	0x3b77c1cb	0.0037804719
245	0xbd2cb801	-0.042167667
246	0xbcf586af	-0.029971449
247	0x3d694dcc	0.05695896
248	0xbcc43851	-0.023952635
249	0xbca87d01	-0.020567419
250	0x3d4b0827	0.04956832
251	0x3c39dca3	0.011344108
252	0x3d08fd11	0.033444468
253	0xbbc83844	-0.006110223
254	0xbd8771fb	-0.06613537
255	0x3b2c9b52	0.0026337695

bias f4 [64]
0	0xb9b7de84	-0.00035070267
1	0x3d15d1c6	0.03657701
2	0xb9682196	-0.00022137756
3	0x3cb30f5a	0.021857906
4	0x3b950375	0.0045475313
5	0x3ca4a01a	0.020095874
6	0xbc9342d8	-0.01797621
7	0x3a0c4f19	0.00053523626
8	0x3a365de0	0.00069567375
9	0x3c456faf	0.012050553
10	0x3bd31c4b	0.006442582
11	0xbbb94133	-0.0056535243
12	0x3ad956be	0.0016581637
13	0x3c865ae3	0.01640076
14	0x3d0a13d1	0.033710305
15	0x3b175fcc	0.002309787
16	0x3c5cd021	0.013477356
17	0x3c4a0ceb	0.012332181
18	0x3b856b64	0.00407164
19	0xba5a6680	-0.0008331314
20	0x3bbc6c06	0.005750182
21	0x3b6b7cf8	0.0035932641
22	0xbba10fb6	-0.004915203
23	0x3b20773b	0.002448513
24	0x3b30cf93	0.0026979193
25	0x3c310ecd	0.010806751
26	0x3c69ac09	0.014262208
27	0x3bea19af	0.007144175
28	0x3d1048c8	0.03522566
29	0x3c8ff9f6	0.017575245
30	0x3b72c42d	0.00370432
31	0x3cafaf63	0.021445936
32	0xbad9d2d2	-0.0016618615
33	0x3c162bf1	0.00916575
34	0x3b1b1c26	0.00236679
35	0xbb3582a0	-0.0027696267
36	0x3c7bb827	0.01536373
37	0xbb480618	-0.003052121
38	0x3b017945	0.001975612
39	0xbc038548	-0.008027382
40	0x3c34ce5c	0.011035528
41	0x3c69f6eb	0.014280061
42	0xbcd03250	-0.025414616
43	0x3bbb4eb2	0.0057161683
44	0x3c047682	0.008084895
45	0x3bc8ef61	0.006132052
46	0x3ca20e05	0.019782076
47	0xbbf1be70	-0.0073774382
48	0x3b76c2cf	0.0037652736
49	0xbbf5a05c	-0.007495923
50	0x3c927210	0.017876655
51	0x3c97b506	0.018518936
52	0xbada6134	-0.0016661049
53	0x3cc010a7	0.02344544
54	0x3b7eba3d	0.003886833
55	0x3c33451a	0.010941768
56	0x3c017229	0.007900753
57	0x3c153fde	0.009109465
58	0x3ca53b4f	0.020169882
59	0x3c288e73	0.010287869
60	0xbae88e8f	-0.0017742681
61	0x3b89975d	0.004198952
62	0xbbf1992f	-0.0073729972
63	0x3bd9f22d	0.006651184

weight f4 [32, 64, 1, 1]
0	0x3d7a27a9	0.06107298
1	0xbe67de75	-0.22643454
2	0xbe0ddeb2	-0.13854483
3	0x3dcf375d	0.101179816
4	0xbdd85231	-0.10562552
5	0x3dabde83	0.0839205
6	0xbe7ff9a7	-0.24997579
7	0x3d7f808f	0.062378462
8	0xbd297437	-0.041370597
9	0x3e157e4f	0.14598964
10	0xbdee4436	-0.11634104
11	0xbe981762	-0.2970534
12	0x3e3203b7	0.1738423
13	0x3e45e599	0.19325866
14	0x3e4deff0	0.2011106
15	0xbe645f14	-0.22301894
16	0xbe3ec92a	-0.18631425
17	0x3d141e93	0.03616197
18	0xbe1e0907	-0.15433131
19	0x3e0bb497	0.13643108
20	0xbdc3feba	-0.095700696
21	0xbe635f98	-0.22204435
22	0x3e389358	0.18024957
23	0xbe2ccf36	-0.1687592
24	0x3e260fc8	0.16216958
25	0x3d1411c5	0.03614976
26	0x3d95e957	0.07319897
27	0xbd92df33	-0.07171478
28	0xbd045307	-0.032305744
29	0xbe6ebedb	-0.23314993
30	0x3e3d5a5e	0.18491504
31	0x3e71e420	0.23622179
32	0x3e62cac2	0.22147658
33	0xbe313d66	-0.17308578
34	0x3de036c8	0.10947949
35	0x3ea76beb	0.32699522
36	0xbcc1d8e2	-0.023662988
37	0x3e43ff10	0.19140267
38	0xbdc52f21	-0.0962813
39	0x3d348bea	0.044078745
40	0xbe32b08d	-0.17450161
41	0xbdbfa85b	-0.09358283
42	0x3e802fae	0.25036377
43	0xbe8899ed	-0.26679936
44	0x3e451532	0.19246367
45	0x3c2968e8	0.010339953
46	0x3d930733	0.071791075
47	0x3c1b3216	0.009472391
48	0x3e17528e	0.14777586
49	0xbdf2b5e1	-0.11851097
50	0x3dd3e240	0.10345888
51	0xbec0d094	-0.37659132
52	0xbe584695	-0.21120675
53	0xbe9aa5e3	-0.30204687
54	0x3e30498a	0.17215553
55	0x3ce27552	0.027643833
56	0xbe69c674	-0.2282961
57	0xbd7c91ad	-0.061662365
58	0x3e639567	0.22224961
59	0xbca352f0	-0.019937009
60	0xbd72acb9	-0.059246752
61	0x3dc74b0b	0.0973111
62	0xbeeb18c1	-0.45917323
63	0x3da07aa6	0.07835893
64	0xbd1db325	-0.038500924
65	0x3e8e3299	0.27772978
66	0xbe855d07	-0.26047537
67	0x3d2b2b6d	0.04178946
68	0x3e62e31e	0.22156951
69	0x3d90b16b	0.0706509
70	0xbf591896	-0.8480314
71	0xbe33ba0b	-0.17551439
72	0xbd3f888d	-0.046761084
73	0xbe114967	-0.14188157
74	0x3d2e35b3	0.04253168
75	0xbdc36202	-0.09540178
76	0x3c27805e	0.010223476
77	0xbe176bea	-0.1478726
78	0x3be4c0c9	0.0069809896
79	0xbe4e77c0	-0.20162868
80	0xbe56eaaa	-0.20987955
81	0x3e4fff2b	0.20312183
82	0xbd9fc75f	-0.07801699
83	0x3e1e4ac0	0.15458202
84	0xbe0eb5fb	-0.13936608
85	0x3d8dea8e	0.069295034
86	0xbd802813	-0.062576436
87	0xbe55240c	-0.20814532
88	0x3d46d1b7	0.048539843
89	0x3f502f65	0.8132232
90	0x3e0eae27	0.13933621
91	0xbe378980	-0.17923546
92	0x3c6706ae	0.014100714
93	0xbd4df53f	-0.050282713
94	0x3d40a16b	0.04702894
95	0x3e2b629d	0.16736837
96	0xbe43b472	-0.19111803
97	0xbe1ddd03	-0.1541634
98	0xbe863383	-0.26211175
99	0x3e82d364	0.25551903
100	0xbe536604	-0.20644385
101	0xbe2eded4	-0.1707719
102	0x3df8ccae	0.121484146
103	0x3d7365cd	0.059423257
104	0xbdbc189a	-0.0918438
105	0x3bbb4bf7	0.005715843
106	0x3dec055d	0.115244605
107	0xbe6df505	-0.23237999
108	0x3e443c19	0.1916355
109	0x3bd252d6	0.006418566
110	0x3d8fc9d1	0.07020915
111	0xbe88c146	-0.26709956
112	0xbe1b15a3	-0.15144973
113	0x3e01f98d	0.12692852
114	0x3e486a57	0.19571815
115	0x3edd202f	0.43188617
116	0x3e897ca5	0.2685291
117	0xbdc88435	-0.097908415
118	0x3ca150e8	0.0196919
119	0x3c534f16	0.0128972735
120	0x3e28995e	0.16464755
121	0xbde3f0bd	-0.111299016
122	0xbe6bd753	-0.23031358
123	0x3e80b80d	0.2514042
124	0xbde5ba8a	-0.1121722
125	0xbc654922	-0.013994487
126	0x3e5b33a7	0.21406423
127	0xbe12319a	-0.14276734
128	0xbec756d1	-0.38933423
129	0x3e9d13ca	0.3067916
130	0x3e5b5258	0.2141813
131	0x3e8c772c	0.2743467
132	0xbddc78e3	-0.10765245
133	0xbdcb4d84	-0.09926894
134	0x3ef1fb2b	0.47261938
135	0xbe523a43	-0.20530038
136	0xbf1c9397	-0.61162704
137	0x3e9d316f	0.30701777
138	0x3e3f3614	0.18672973
139	0x3dee5aa2	0.116383806
140	0x3e244cc1	0.16044904
141	0xbd52b436	-0.051441394
142	0x3e56b91c	0.20969051
143	0xbd9453fc	-0.07242581
144	0x3d40d50b	0.047078174
145	0x3eac83cb	0.336943
146	0xbe29be54	-0.1657651
147	0x3de23ea2	0.110471025
148	0xbf05179d	-0.51989156
149	0xbe1abbd1	-0.15110709
150	0xbcf45cb8	-0.029829368
151	0xbd9e7d8d	-0.07738791
152	0xbe58f5ec	-0.21187562
153	0x3c15b422	0.009137185
154	0xbea3c3ad	-0.31985226
155	0xbe355012	-0.17706326
156	0x3e919d44	0.28440297
157	0x3ee7cbd9	0.4527271
158	0xbe6b3927	-0.2297102
159	0xbd9aceba	-0.07558961
160	0x3f45cab3	0.7726242
161	0x3bbba31d	0.0057262317
162	0xbd2370a7	-0.039902356
163	0xbf004c1c	-0.50116134
164	0xbe632212	-0.22180966
165	0xbdd11e42	-0.10210849
166	0x3dd668a1	0.10469175
167	0xbe25f521	-0.1620679
168	0xbd828d93	-0.063746594
169	0x3f85f3ac	1.0464988
170	0xbf108e3c	-0.5646703
171	0xbe76f55b	-0.24117033
172	0xbd94c108	-0.0726338
173	0x3e8cf6aa	0.2753194
174	0x3f1ea1e7	0.61965793
175	0x3f163c76	0.58686006
176	0xbe99ce30	-0.3004012
177	0xbda1786e	-0.07884298
178	0xbd92ecb0	-0.07174051
179	0xbf498020	-0.7871113
180	0x3e3c4df3	0.1838911
181	0xbe7dd6c4	-0.24788958
182	0xbc88e579	-0.016710984
183	0xbe091238	-0.13385856
184	0x3e959626	0.29216117
185	0x3e748992	0.23880604
186	0x3dbb4b6c	0.09145245
187	0x3ea73cd1	0.32663587
188	0x3e1783b4	0.14796335
189	0xbcc91348	-0.024545327
190	0xbe99361c	-0.29924095
191	0xbe9684fd	-0.29398337
192	0x3ea1c5f2	0.31596333
193	0xbdb6c06e	-0.08923422
194	0xbe59164d	-0.21199913
195	0x3ea41efa	0.32054883
196	0x3de40b91	0.111350186
197	0xbe3f9bbd	-0.18711753
198	0xbde689c7	-0.11256748
199	0xbe89fe08	-0.26951623
200	0x3ccf6a93	0.025319373
201	0xbe096d45	-0.1342059
202	0x3e185959	0.14877833
203	0x3debea6c	0.11519322
204	0xbe1b6417	-0.151749
205	0x3e6fdf7b	0.23425095
206	0xbe4df083	-0.20111279
207	0x3e181f55	0.14855702
208	0x3aa82670	0.0012828838
209	0xbc218dbc	-0.009860452
210	0xbe461e7d	-0.19347568
211	0x3e505930	0.20346522
212	0xbe92191f	-0.2853479
213	0x3ea9f40c	0.33194005
214	0xbf26690a	-0.65004027
215	0x3da92aa4	0.08260086
216	0x3e3b0e15	0.1826709
217	0x3e9be5aa	0.30448657
218	0x3eb9d5c1	0.36295894
219	0x3e720fd5	0.23638852
220	0x39d4e0fe	0.00040603423
221	0x3e72141a	0.2364048
222	0xbd65a067	-0.056061175
223	0x3ee04e75	0.43809858
224	0x3e088d89	0.13335241
225	0xbe557a27	-0.20847379
226	0xbeb721cb	-0.3576797
227	0x3e02cd1a	0.12773553
228	0x3e6c1df1	0.23058297
229	0xbdb3475a	-0.087538436
230	0xbe3a5b1c	-0.18198818
231	0x3e2b6aa1	0.16739894
232	0x3dbe7cea	0.09301169
233	0xbed8e10e	-0.42359203
234	0x3dc4bb7e	0.09606074
235	0x3e585319	0.21125449
236	0x3e96bbd7	0.29440185
237	0x3bae6ce5	0.00532304
238	0xbeadcdb7	-0.3394601
239	0xbf1ebd81	-0.6200791
240	0x3df4906e	0.1194161
241	0xbe81a9a7	-0.25324747
242	0xbd90ebd6	-0.07076232
243	0x3e3a2328	0.18177474
244	0x3db1edfd	0.08687971
245	0x3d081951	0.03322727
246	0xbe4531e1	-0.19257309
247	0x3d5d098a	0.053964175
248	0xbec38e68	-0.38194585
249	0xbea68ed9	-0.3253086
250	0xbe1d0b37	-0.1533631
251	0x3e7e5e5a	0.2484068
252	0xbe8a6da6	-0.2703678
253	0xbe7887ef	-0.24270605
254	0xbf15e85a	-0.58557665
255	0x3dcfb0c4	0.10141137

bias f4 [32]
0	0xbc9272c5	-0.017876992
1	0xbc90f1c2	-0.017693404
2	0x3cf20822	0.029544894
3	0xbd1ee1b5	-0.03878947
4	0x3ada3047	0.0016646468
5	0x3c116c2b	0.008875887
6	0xbb17222a	-0.0023061135
7	0x3a1dad9b	0.0006014944
8	0xbd143e8f	-0.036192473
9	0xbbc9757f	-0.00614804
10	0xbc1f1419	-0.0097093815
11	0x3b9c2ebf	0.0047663148
12	0xbbe43f60	-0.0069655627
13	0x3c2bec46	0.010493344
14	0x3bb6c21c	0.005577339
15	0xbaf7d8d7	-0.0018909228
16	0x3c0a4890	0.008440152
17	0x3c2c93ea	0.010533312
18	0x3be3c805	0.0069513344
19	0x3b772d83	0.0037716336
20	0xbc6b0272	-0.014343845
21	0x3c4dbcf1	0.012557254
22	0x3cc988f6	0.02460144
23	0x3b263500	0.002536118
24	0x3aa2c9db	0.0012419777
25	0xba5fd7a0	-0.00085389055
26	0xbbecd189	-0.007227127
27	0xba70fd32	-0.00091930025
28	0xba9d6840	-0.0012009218
29	0x3c386e4b	0.011256765
30	0x3b8801ef	0.004150621
31	0xbbe3133f	-0.0069297845

weight f4 [1, 32, 5, 5]
0	0xbd794215	-0.060854036
1	0x3d93d09d	0.07217524
2	0xbdb56d27	-0.0885871
3	0xbda63317	-0.08115213
4	0xbcabb6c8	-0.02096118
5	0xbc532eb2	-0.012889551
6	0xbc1e4132	-0.009659098
7	0x3d0799a6	0.033105515
8	0xbc40b2a5	-0.011761342
9	0x3dc31b3e	0.095266804
10	0x3dab1029	0.08352692
11	0x3d507ddc	0.05090128
12	0x3cca0fd6	0.024665754
13	0x3a88e261	0.0010443443
14	0xbd8a7731	-0.06761015
15	0xbcff3251	-0.031151922
16	0x3d37b50a	0.044850387
17	0xbcd816ca	-0.026378054
18	0x3ce9016d	0.028443063
19	0x3d478b96	0.048717104
20	0x3d757866	0.059929274
21	0x39cc333d	0.00038948088
22	0xbd89b6a1	-0.06724287
23	0xbdacb353	-0.08432641
24	0xbd809a10	-0.06279385
25	0x3d4592f3	0.048235845
26	0xbd80681a	-0.06269856
27	0x3d1b61ff	0.037935253
28	0x3dc82530	0.09772718
29	0x3d4abf1c	0.049498662
30	0xbced23da	-0.02894776
31	0xbcaff9d7	-0.021481438
32	0xbcfd8724	-0.03094823
33	0x3d3fd42c	0.046833202
34	0x3c079512	0.008275287
35	0xbdb81f9b	-0.08990403
36	0xbda70798	-0.08155745
37	0x3de8e1d8	0.11371201
38	0xbda82e7c	-0.08211991
39	0xbd6775d6	-0.05650886
40	0xbd4818aa	-0.048851646
41	0x3d40933f	0.047015425
42	0xbdaa186f	-0.083054416
43	0xbd5f3a77	-0.054499116
44	0xbb527921	-0.0032115655
45	0x3d0406fa	0.032233216
46	0xbcbcfb61	-0.023069086
47	0xbcc40b6b	-0.023931226
48	0x3db8c8ed	0.090226986
49	0x3d63d53e	0.055623285
50	0xbba4ebfb	-0.005033014
51	0x3d9984ee	0.074960575
52	0x3d8d81de	0.06909536
53	0x3c02a44b	0.007973741
54	0x3c88a271	0.01667902
55	0x3c5ae860	0.013361067
56	0xbd77c8cf	-0.06049424
57	0xbe10bc31	-0.1413429
58	0xbd617d70	-0.055051267
59	0xbd80bfa1	-0.0628655
60	0xbca13978	-0.019680724
61	0xbd3b95da	-0.045797206
62	0x3e4d988a	0.2007772
63	0x3dbe1fdf	0.09283423
64	0xbcb676a6	-0.022273373
65	0x3c3a4ad6	0.011370381
66	0xbd6eb053	-0.058273625
67	0x3d80db51	0.06291831
68	0x3d6e930b	0.0582457
69	0xbd9807cc	-0.07423362
70	0x3cb65eb4	0.022261955
71	0xbc9fafef	-0.019493071
72	0xbdf6afd1	-0.12045253
73	0x3acac0cc	0.0015468835
74	0xbca1851a	-0.019716788
75	0xbc909ed5	-0.017653862
76	0xbd2dfdd2	-0.04247839
77	0x3c06698a	0.008203873
78	0x3ce2013a	0.027588475
79	0xbc9946c9	-0.01871051
80	0x3c23ae57	0.009990296
81	0xbd63b9ca	-0.055597104
82	0x3d231178	0.03981158
83	0x3d10cd5a	0.03535209
84	0xbcb51d09	-0.022108572
85	0xbdb9e66b	-0.09077152
86	0x3db01fca	0.08599813
87	0x3e309c5c	0.17247146
88	0x3d578a9c	0.052622423
89	0xbdc2078b	-0.09474095
90	0x3d6399d7	0.055566635
91	0xbd9c6794	-0.076369435
92	0x3d49c950	0.049264252
93	0xbd3a6cde	-0.04551398
94	0xbc14233d	-0.009041605
95	0xbd11840f	-0.03552633
96	0x3b599ffe	0.0033206935
97	0x3d0c2db7	0.034223285
98	0x3cf1f9be	0.029538032
99	0xbd3c70d8	-0.046006054
100	0xbc3a6018	-0.01137545
101	0xbd46e1f1	-0.04855532
102	0x3c02e8be	0.00799006
103	0x3d392aa3	0.045206677
104	0xbcd3369a	-0.025782872
105	0xbc98619d	-0.018601233
106	0x3d09c614	0.033636168
107	0xbd31ee93	-0.043440413
108	0xbda5e478	-0.081002176
109	0x3d0462b6	0.0323207
110	0x3ba5e639	0.005062845
111	0x3c9b7805	0.018978128
112	0x3ccba1b4	0.02485738
113	0x3c83cdd6	0.016089361
114	0x3c137e18	0.009002231
115	0xbd242697	-0.040075865
116	0x3c811e24	0.015761442
117	0x3d629708	0.055319816
118	0x3d21fc30	0.039547145
119	0xbd94bc49	-0.07262475
120	0xbd4e6d1f	-0.050397035
121	0x3d069f00	0.032866478
122	0x3d3f063b	0.0466368
123	0xbd8a82b4	-0.06763211
124	0xbce1a09c	-0.027542405
125	0x3d822975	0.063555636
126	0x3d248c7a	0.04017303
127	0x3cf6cb74	0.03012631
128	0xbd8d4846	-0.06898551
129	0x3d4ec0bf	0.050476786
130	0xbd25f369	-0.040515337
131	0x3d456aae	0.04819744
132	0x3d3b32f2	0.045702882
133	0x3c90cb38	0.017675027
134	0x3b90866e	0.0044105565
135	0x3d1a7ee1	0.037718657
136	0x3d3e835e	0.046512
137	0xbc78eb3d	-0.015192804
138	0x3d5ab792	0.053397723
139	0xbd20170f	-0.03908449
140	0xbda6d73d	-0.08146522
141	0x3cfa0ad4	0.030522741
142	0xbcaa649a	-0.020799924
143	0xbd3814d5	-0.044941742
144	0x3da23f0e	0.07922183
145	0x3d591629	0.05299965
146	0x3cf6ed44	0.030142434
147	0xbcca080b	-0.024662038
148	0xbd539bc0	-0.051662207
149	0xbd4b9e38	-0.049711436
150	0xbd6702a5	-0.056399006
151	0x3c70371b	0.014661576
152	0xbd002317	-0.031283464
153	0x3cc5469c	0.02408152
154	0xbd005ea4	-0.031340256
155	0xbdb55ecf	-0.08855974
156	0x3d128119	0.03576765
157	0xbb0deba5	-0.0021655348
158	0xbdc8cfcd	-0.0980526
159	0x3bf49731	0.0074643125
160	0x3d19cd95	0.037549574
161	0x3df58f8a	0.119902685
162	0x3d70e93a	0.058816172
163	0xbcb69737	-0.022288902
164	0x3d11ced9	0.035597656
165	0xbd459aad	-0.048243213
166	0x3d29a0b0	0.04141301
167	0xbd4253e3	-0.04744328
168	0xbd5844d9	-0.052800033
169	0xbc7e75f4	-0.015531052
170	0xbd6dac3c	-0.058025584
171	0x3d8e31db	0.06943103
172	0xbcc0a7ed	-0.023517573
173	0xbcab77b9	-0.020931112
174	0x3d0ae79b	0.033912282
175	0x3d8d7f99	0.06909103
176	0x3d3b8f6a	0.045791067
177	0xbd48a5e5	-0.048986334
178	0xbcc9da91	-0.024640353
179	0xbc433074	-0.011913408
180	0x3da19ee2	0.078916326
181	0xbc429f84	-0.011878852
182	0xbd99e10c	-0.075136274
183	0x3c5e7a32	0.013578938
184	0x3b3b93dd	0.002862207
185	0xbba1e2af	-0.004940353
186	0x3d86ab6a	0.065756634
187	0xbd9454d7	-0.072427444
188	0x3d1e0ba2	0.038585313
189	0x3d8fd115	0.07022301
190	0xbd4fac0f	-0.050701197
191	0x3da5643d	0.080757596
192	0x3d42924d	0.047502805
193	0x3d001347	0.031268384
194	0x3d9dc486	0.077034995
195	0xbd135cb7	-0.03597709
196	0x3d9bd585	0.07609085
197	0x3dacc67f	0.084362976
198	0xbc1e2ace	-0.00965376
199	0xbd7fb6cf	-0.0624302
200	0x3d60f3a8	0.05491987
201	0x3d5311e1	0.051530723
202	0xba821b49	-0.0009926345
203	0x3c260d17	0.010134957
204	0x3b86ad77	0.004110034
205	0x3cee1e0d	0.029067064
206	0x3da6ccf1	0.08144558
207	0x3d2cade5	0.042158026
208	0x3d85630f	0.065130346
209	0xbd55a06f	-0.052154955
210	0xbda79b11	-0.081838734
211	0xbc53d3b0	-0.012928888
212	0xbd72e1e3	-0.059297454
213	0x3d9f29e4	0.07771662
214	0x3d661d3e	0.05618023
215	0xbd9f43dc	-0.07776615
216	0x3c4ec5b4	0.012620378
217	0xbd8421c0	-0.0645175
218	0xbc29ed8b	-0.010371576
219	0x3d93c52a	0.072153404
220	0xbd7c8d48	-0.061658174
221	0xbb687476	-0.0035469807
222	0xbd5c172b	-0.053733032
223	0x3c560aa5	0.013064061
224	0xbd8a1e48	-0.06744057
225	0xbdad307a	-0.08456512
226	0x3da446f7	0.08021348
227	0xbd3775ca	-0.044790067
228	0xbccb48d9	-0.02481501
229	0x3dabd998	0.08391112
230	0x3d3e1f01	0.046416286
231	0xbd1de8fb	-0.038552266
232	0xbc79ee4f	-0.015254571
233	0xbcfc3372	-0.03078625
234	0xbd9fe158	-0.07806653
235	0xbd558016	-0.052124105
236	0x3c1bff0f	0.00952126
237	0xbc69dce3	-0.014273855
238	0xbd7df61d	-0.06200229
239	0xbd8f62dc	-0.07001278
240	0x3c0efd20	0.008727342
241	0x3d0be620	0.03415501
242	0xbd8a307d	-0.0674753
243	0x3cba2454	0.0227224
244	0x3d72bd0b	0.059262317
245	0xbd98f99d	-0.07469485
246	0x3d6b88c8	0.05750349
247	0xbc951941	-0.018200519
248	0x3caf4226	0.021393847
249	0x3d96d5c0	0.07364988
250	0xbd3b9b11	-0.04580218
251	0x3c8363ca	0.016038794
252	0x3d331e3b	0.043730002
253	0x3da7aa73	0.081868075
254	0xbc559ad8	-0.013037406
255	0x3c45198b	0.012030016
