modeldata/model_141_epoch.pth (torch_old, 43016 bytes, 5 tensors)

weight f4 [64, 1, 9, 9]
00000000: 9824 1f3d 032a ed3a 3a1b a33c 0056 8e3a
00000010: 1365 0cbd 2141 32bd 6423 223d 88a7 3fbb
00000020: b757 e4bb bb2d 66bc 9b09 ad3b c1a6 ad3b
00000030: 5527 84bc 4ae6 2dbc 3daf 9d3c 7f6d e93c
00000040: e7e4 183c 5a6d 51bc 9224 013c d1c5 d4bc
00000050: 705a a03c 10e8 7ebb 0af6 05bd 5a2d 18bc
00000060: c8a4 c83b 8ef1 0e3d c505 ee3b 3cef dfbc
00000070: 6c65 013d 45a4 643d dd69 fb3c da41 d7bc
00000080: 6c23 90bb f400 0ebc 5188 55bd 57e6 b03c
00000090: 5bfb 68bb 3780 153d ef8a c83d e59d 503d
000000a0: a5a0 c7bc 32b6 f7bc 5657 f23b 11c9 0cbd
000000b0: d2da 0f3d 5b78 7dbb 0724 55bd 45f6 57bb
000000c0: 8a52 5bbd abb5 aabd ce81 f0bb 273a dfbd
000000d0: dfb3 31bd 2cab 813c 94fb 153d fad3 3c3c
000000e0: 24b2 233d ea41 84bb b6d9 133c b8b3 333c
000000f0: 2c20 cbbc 803f 583b 3873 693d 4484 cbbc
00000100: bc1f dfbc 3efb 86bc 4290 8bbc 53e0 943d
00000110: 2d2b 403c 6d88 1ebd 1205 66bc 5d02 bf3c
00000120: 17ba 583c 34aa 84bc 28a9 9ebc 6312 943c
00000130: 7e23 533d 860d 243c e140 bcbc b2a1 d43b
00000140: fcdd 25bd 70ff c9ba 6d64 abbc 2f5c f6bb
00000150: f363 f23c 8e12 733d eff5 1c3d e4e3 573d
00000160: 9e68 81bc c325 05bd 7f1d ea3c 1520 d4bc
00000170: 498a d03c 5fca 223d 7bcc dd3c 9619 453d
00000180: 109c d73b b63a 3c3d ee6e 133d db2a ee3c
00000190: 2dd6 02bc 343c b83c ba6a 38bc 2ac9 c13c
000001a0: 501c 373d 05c3 babc faf4 663d f5ff 95bb
000001b0: a4a4 ee3c c039 c93c c949 593c e8af e2bb
000001c0: e33e f0bc 0efe dbba b3ff 4cbc c7e2 013d
000001d0: 9b74 313c 5054 463c 789b 303c 3d00 e63c
000001e0: b654 29bc 22d3 22bd 8293 b3bd d0f5 27bd
000001f0: 62c0 963c 392b 973d 6418 bc3c 4429 193d
00000200: 682f 523d f8b0 f53a c658 0cbd 69b1 81bd
00000210: d4c2 7dbd 63ae 2e3d 54a3 903d 4920 fd3b
00000220: c51d 163d bb7d b63c c144 3b3c 8f1c 4bbb
00000230: 3725 59bd f051 1ebc f178 023d 8e85 4a3d
00000240: 8a6d 0ebc 7b58 c73c 0aa4 e03c 9218 2b3d
00000250: af0d 903c c6f7 5f3d d7cc 543d 6771 253d
00000260: aa1c 043d d331 6ebc 7c36 f23c 5a29 64bc
00000270: 2c42 76bb 7629 2d3d af73 ed3c ed6c 9e3c
00000280: ad2b 683b 7e6a e0bb dad8 3fbb 2f08 8f3b
00000290: 01a9 09bd 84e2 8f3c 89d4 5d3c 7879 c6bc
000002a0: bc2a 80bb 1c04 21bd e08a 5d3b b4ae 99bc
000002b0: e538 d639 6323 d43c 254c 333d 1e30 a93d
000002c0: 4771 143d 5da9 f13d 7db3 d53c 8323 5a3d
000002d0: 555d 633c 81f2 883d f5c4 0c3c 7f2f debd
000002e0: 12f2 32be fa20 86be 9efa 60be e381 04be
000002f0: 55d8 1c3d c109 fcbc 2ea8 a1bc f210 20bd
00000300: 52b3 8f3c e754 d53d 4b28 e83d 30a1 a73d
00000310: 6ee8 4ebb a014 20bd 710f f13a 9bcd 80bc
00000320: f7e1 053c b95f 13bb 8a62 f8bd c0bd b9bd
00000330: 9c1f 593b b254 c03c 4e7c 78bc 7b50 c73a
00000340: a726 50bc b53b d53c 7e42 f03c 38e4 ebbc
00000350: 3ca0 01bd 0214 e7bc f923 f63c cab0 fbbc
00000360: 280b db3c 90ff 8c3c 5c8e b2bc 6270 bd3c
00000370: 82b1 c13d 173d 7a3d 33ae c2bc a95e ee3c
00000380: 1379 9fbb f818 2d3b 22af 44bc e107 04bd
00000390: 3ad2 62bc dbf5 373d e8c3 803d f9e0 173d
000003a0: a664 29bc 7e00 75ba 3b5c 143c 9559 a33c
000003b0: 6bc3 dbbb 6537 f7bb 4458 f1bb ab75 edbb
000003c0: 9d3a 27bd 017b 40bc 53d4 de3b 7500 2bbc
000003d0: a6a4 a03b 40cd 2abd 9b98 e7bc 3856 683d
000003e0: 7f3f cfbc c55c abbc efc3 4d3d 33ce 6c3c
000003f0: 079a fd3c d5d9 cabb 4a5d 86bd ff5b 823b
0.038853258 0.0018094186 0.019910444 0.001085937 -0.03427608 -0.043519143 0.039584532 -0.0029244144
-0.0069684642 -0.014048989 0.005280686 0.0052994196 -0.016132036 -0.010613987 0.0192486 0.028494595
0.009331918 -0.012782419 0.007882254 -0.025973232 0.019574374 -0.0038895644 -0.032705344 -0.009288156
0.006123159 0.034898333 0.0072638714 -0.027335756 0.031590864 0.055820722 0.030690128 -0.026276518
-0.004398754 -0.008667219 -0.052131955 0.02159421 -0.003555021 0.03649923 0.097921245 0.05093183
-0.024368593 -0.030238245 0.007395665 -0.03437144 0.035120793 -0.0038676474 -0.05203631 -0.0032953185
-0.053545512 -0.08335432 -0.0073396927 -0.108997636 -0.04338443 0.015828691 0.036616877 0.0115251485
0.03996481 -0.004036178 0.009024074 0.010968141 -0.024795614 0.0032996833 0.056994647 -0.024843343
-0.027236812 -0.016477223 -0.01703656 0.07269349 0.011729044 -0.038704325 -0.014039295 0.023316557
0.013227961 -0.01619444 -0.01936777 0.018075174 0.05154752 0.01001299 -0.022980155 0.006489002
-0.040494904 -0.0015411209 -0.02092191 -0.0075183134 0.029588675 0.059343867 0.038320478 0.052707568
-0.015796956 -0.032506716 0.028578518 -0.025894204 0.025456565 0.039743777 0.027075043 0.048120104
0.0065798834 0.04595443 0.035994463 0.02907317 -0.007985634 0.022489645 -0.011255914 0.023655493
0.044704735 -0.02279807 0.05638597 -0.0045776316 0.029131241 0.02456367 0.013262221 -0.0069179423
-0.029326862 -0.0016784088 -0.012512135 0.031710412 0.010831024 0.012105063 0.010779254 0.028076285
-0.010335138 -0.039752133 -0.08768369 -0.04100591 0.018402282 0.07381291 0.02296085 0.03739287
0.05131474 0.0018744757 -0.03426435 -0.063326664 -0.06195338 0.042646777 0.07062402 0.007724796
0.036649484 0.02227675 0.011429966 -0.0030992364 -0.053014006 -0.00966309 0.03185362 0.049443774
-0.008693108 0.024334183 0.02742197 0.04177148 0.01758465 0.054679655 0.051953163 0.040391352
0.0322539 -0.014538246 0.029566996 -0.013925875 -0.0037576063 0.04227587 0.028985826 0.01933905
0.0035426423 -0.0068486324 -0.002927354 0.004364989 -0.03360844 0.017564066 0.013539442 -0.024227843
-0.0039113443 -0.03931056 0.00338047 -0.018760063 0.0004085965 0.02589578 0.04377379 0.08261131
0.036240842 0.117998816 0.026086563 0.053256523 0.013877233 0.06686879 0.00859188 -0.10848903
-0.17475155 -0.26197034 -0.21970603 -0.12940173 0.038292248 -0.03076637 -0.019733515 -0.03907866
0.017541561 0.104165845 0.1133581 0.08185041 -0.0031571644 -0.03908217 0.0018391443 -0.01572304
0.00817155 -0.0022487475 -0.1212817 -0.09069395 0.0033130413 0.023477886 -0.015166355 0.001520648
-0.012704528 0.026029447 0.029328581 -0.028795347 -0.031646952 -0.028207783 0.03004645 -0.030723948
0.026738718 0.017211705 -0.021796398 0.023124877 0.09457685 0.061093416 -0.023764705 0.029097872
-0.004866728 0.0026412588 -0.012004646 -0.032234076 -0.013844067 0.0449122 0.06287366 0.037079785
-0.010338938 -0.00093460816 0.009055193 0.019940177 -0.0067066452 -0.0075444453 -0.0073652584 -0.007246693
-0.040827382 -0.011748076 0.0068002134 -0.010437121 0.00490244 -0.041699648 -0.02827101 0.05672285
-0.025298832 -0.02091826 0.050235685 0.014453459 0.030957235 -0.0061905184 -0.06560762 0.003978252

bias f4 [64]
00000000: 2307 63bb 7fbe 153d bdfb 27ba 9600 b93c
00000010: 9eaa 933b 5dd7 a33c 5c6c 95bc c2c4 55b9
00000020: 7d57 233a 136f 463c 7236 d23b 5a88 d7bb
00000030: 1def c83a 90a4 863c 6724 0a3d ec66 163b
00000040: 9bcc 513c 3550 303c 2d1f 843b 2f75 4539
00000050: 7d0b b53b ab78 823b 4bbe 94bb 78c8 143b
00000060: b6f9 2d3b e883 283c 0d70 693c 8d7e e73b
00000070: ae34 0e3d 2aa5 983c bc01 6b3b 2aeb 953c
00000080: bcec 1cba 1cc7 123c c975 233b c444 27bb
00000090: 74a0 7d3c bd7b 46bb 0a87 073b a8e3 d6bb
000000a0: f05e 323c 84fe 713c 1aac ccbc 5159 b83b
000000b0: 3313 e93b c765 cd3b 6a50 a73c ae56 fbbb
000000c0: 7724 813b 49b7 b6bb efb1 913c 31b2 8d3c
000000d0: 19d6 d0ba 6cb1 bc3c f329 7e3b 9fd3 323c
000000e0: 7234 fd3b 803f 133c ccc7 a23c 5066 213c
000000f0: cad8 0bba c459 863b 65db f7bb 7614 a23b
-0.0034641705 0.036558624 -0.00064080564 0.022583287 0.004506423 0.020000154 -0.018240146 -0.00020386561
0.00062309933 0.012111443 0.006415182 -0.0065775337 0.001533005 0.016435891 0.033726122 0.002294953
0.012805129 0.01076131 0.0040320368 0.00018831038 0.005525051 0.00398167 -0.0045392863 0.0022702496
0.0026546544 0.010285355 0.014247906 0.0070646466 0.034718208 0.018633444 0.0035859188 0.018300612
-0.0005986204 0.008958604 0.0024942032 -0.0025523165 0.01548015 -0.0030286156 0.0020679855 -0.0065579005
0.010886893 0.014770154 -0.024984408 0.0056258817 0.0071128844 0.0062682363 0.020424087 -0.007670245
0.0039411145 -0.0055760485 0.01778504 0.017296882 -0.0015932947 0.02303382 0.0038782328 0.010914712
0.0077271992 0.008987308 0.019870661 0.009851053 -0.0005334733 0.0041000564 -0.0075639957 0.004946287

weight f4 [32, 64, 1, 1]
00000000: f84d 2b3d 274a 68be 4496 1bbe b149 e53d
00000010: d0b3 ddbd 1505 ac3d c033 79be d73d 823d
00000020: 67ed 26bd cea8 0d3e 51dc efbd 1a42 95be
00000030: 6344 313e 4b01 433e af86 4f3e d77a 63be
00000040: 4cca 3dbe 72d1 0a3d e823 1ebe 9677 0b3e
00000050: 1808 86bd 0407 66be f5be 393e be0d 2abe
00000060: 9b21 253e b546 233d 27a3 8d3d 872b 9abd
00000070: d05d 06bd e074 6ebe 8034 3c3e 8d01 6b3e
00000080: 24fa 573e e069 31be 5fad e03d d8d5 9e3e
00000090: 0a53 c5bc 3882 433e 9da1 c2bd ce61 dc3c
000000a0: e166 31be a648 8abd d48d 813e f354 88be
000000b0: aafa 423e 2833 8d3c 46fa 923d 9982 a83c
000000c0: 4412 173e f6f5 e4bd 396d d53d 0b24 b4be
000000d0: 70af 57be 199a 9abe dc89 2f3e 4f4c c63c
000000e0: f6c7 68be 5a7a 7abd 8691 613e c505 afbc
000000f0: 7f12 6fbd 9bca c43d 6de1 e6be 071c a13d
00000100: a1d4 2ebd 0b8b 8f3e 0470 61be 62b7 233d
00000110: ee43 5f3e ff5b 903d 57a9 54bf a788 30be
00000120: a875 24bd 8d65 1cbe e5b2 203d 9771 bbbd
00000130: c285 263c d932 1bbe 011f bf3b 080d 4fbe
00000140: d54a 56be 5490 4d3e e6d2 9fbd ba86 1b3e
00000150: 8985 17be 78ab 893d 9d02 80bd 9914 59be
00000160: 9c2b 413d 6f34 4c3f 6410 113e 2276 34be
00000170: dc41 803c e4c6 64bd 33e3 3b3d e80b 2e3e
00000180: f4f1 2bbe 6f43 1cbe 25a3 84be 7a9a 863e
00000190: 44cf 4fbe d1bd 2ebe 87ea f73d ce9e 9a3c
000001a0: f459 bdbd 869f 083c a1f0 ed3d b1fe 6cbe
000001b0: ef62 413e 34ef 1c3b 5a54 433d c605 84be
000001c0: 3786 15be e64f 083e 95a2 483e 4286 c83e
000001d0: c34a 873e 548d ccbd 746b a53c 9804 2a3c
000001e0: ba3d 243e 464b dabd eea5 68be f136 7d3e
000001f0: 3133 e5bd bcdf 63bc 568c 4e3e e5a6 0fbe
00000200: 42c1 b9be d960 9d3e 8fbf 6d3e b2c4 873e
00000210: 2931 dbbd 1ddb c7bd eedc ee3e 3958 51be
00000220: eac4 1cbf 9e1b a03e cd7d 403e 2285 fa3d
00000230: e196 243e d190 5ebd 4bc5 563e 9abc 8bbd
00000240: 039d 3c3d 43ef a93e ad64 2abe e4d1 e33d
00000250: f6b5 03bf fe06 1fbe d6bb ddbc aae2 9ebd
00000260: a9db 55be 2869 943c 1877 a2be dc67 37be
00000270: ded2 903e 12d2 dc3e 9d66 6fbe 7d95 99bd
00000280: e4ac 393f 3db2 8d3b 61ef 27bd b1a3 f2be
00000290: 8e41 60be 5aff cabd 28eb dc3d 64e7 17be
000002a0: 2152 89bd 8999 833f 1396 0bbf 6be8 73be
000002b0: 8a50 8abd 354f 8c3e c420 133f 3707 173f
000002c0: 164c 9bbe 3b5a cebd 0f53 91bd b7bf 37bf
000002d0: 097e 3b3e 0aa6 80be 9bb1 75bc 2eb6 0cbe
000002e0: b203 913e fcd4 723e 18b8 bb3d e1c4 a43e
000002f0: 74f9 0e3e bc74 ffbc b9db 92be e453 94be
00000300: 5855 9c3e 866c bcbd c79a 4cbe 763d a13e
00000310: 4673 e93d 9f39 3ebe 19db cebd 743c 8abe
00000320: 7901 c63c 20b0 14be 15ef 163e 261e f93d
00000330: 7a68 1abe f1c4 6e3e 7fdb 53be 4fbc 0c3e
00000340: 48ce 213b f340 8bbc 0061 42be a917 463e
00000350: b06f 8cbe d231 a73e 025a 27bf 110f 933d
00000360: 933f 3f3e 48fe 9f3e 2271 b73e 31ce 763e
00000370: 8fdd a2ba ba71 6c3e 5529 75bd 7c1f da3e
00000380: d226 eb3d bd04 56be 07a2 b3be ede9 e33d
00000390: 5fb0 6c3e f346 adbd 2d3f 3abe 8d1d 2e3e
000003a0: cd51 b93d 0043 d2be 78c2 cf3d cea9 523e
000003b0: 34e4 943e 9d66 4e3c 77b9 9fbe ad88 17bf
000003c0: b0ff fc3d 31b5 80be 643b 92bd 24f4 323e
000003d0: e648 b43d 1b07 093d 5a99 44be 61e1 533d
000003e0: 3de2 c5be ec4f a4be ad26 1cbe 782a 7f3e
000003f0: 606b 87be cc9f 6ebe 2922 11bf 1362 c63d
0.041822404 -0.22684537 -0.1519404 0.11195696 -0.10825312 0.08399407 -0.24336147 0.06359451
-0.04075375 0.13833925 -0.11711944 -0.29151994 0.17311244 0.19043462 0.20266221 -0.22214828
-0.18534201 0.03389115 -0.15443385 0.13619837 -0.065445125 -0.22463614 0.1813925 -0.16606805
0.161261 0.039862353 0.069158845 -0.075278334 -0.03280431 -0.23286772 0.18379402 0.2294981
0.21091515 -0.17325544 0.10970568 0.31022525 -0.024087448 0.19092643 -0.095034815 0.026902106
-0.17324401 -0.06752138 0.2530352 -0.2662731 0.19040933 0.017236307 0.07176642 0.020570086
0.14753062 -0.11179726 0.10421223 -0.3518375 -0.21063018 -0.30195692 0.17142433 0.024206309
-0.22732529 -0.06115184 0.22028169 -0.021365056 -0.05836725 0.096089564 -0.4509386 0.07866674
-0.042683247 0.2803577 -0.22015387 0.03996981 0.21803257 0.07048797 -0.8307089 -0.17239629
-0.04015127 -0.15273114 0.039233107 -0.09152525 0.010163726 -0.15156116 0.0058325534 -0.20219815
-0.20926984 0.20074588 -0.078038976 0.15188113 -0.14797033 0.06722158 -0.062504984 -0.21199264
0.04716073 0.7976751 0.14166409 -0.17623189 0.015656404 -0.05585374 0.04587097 0.1699673
-0.16791517 -0.15260099 -0.2590572 0.2628973 -0.2029391 -0.17064597 0.121052794 0.018874552
-0.09245673 0.008338815 0.11618162 -0.23144032 0.18885396 0.0023946287 0.047687866 -0.25785655
-0.1460198 0.13311729 0.1959327 0.3916493 0.26424226 -0.09987894 0.02019284 0.010377072
0.16039172 -0.106588885 -0.22719547 0.2472799 -0.111914046 -0.013908323 0.20170721 -0.14028509
-0.36280257 0.3073795 0.23217605 0.26517254 -0.10702736 -0.097585894 0.4665293 -0.2044381
-0.61237967 0.3127107 0.18797989 0.12232424 0.1607318 -0.054337326 0.20973699 -0.06823082
0.046048176 0.33190355 -0.16639967 0.11124018 -0.51449525 -0.15530011 -0.027067106 -0.077580765
-0.20884575 0.018116549 -0.31731486 -0.17910713 0.2828588 0.4312902 -0.23378988 -0.07499216
0.72529435 0.004324226 -0.040999774 -0.47390512 -0.21900007 -0.09911986 0.1078704 -0.14834362
-0.06705118 1.028123 -0.5452587 -0.23819129 -0.06753643 0.2740418 0.5747187 0.58995384
-0.30331486 -0.10075804 -0.0709592 -0.7177691 0.18309797 -0.25126678 -0.014995958 -0.13741371
0.28323132 0.2371406 0.091659725 0.32181457 0.13962346 -0.031183593 -0.2868326 -0.28970253
0.30533862 -0.09200387 -0.19980918 0.31492203 0.1139894 -0.18576668 -0.10100383 -0.26999247
0.024170624 -0.14520311 0.1473964 0.121639535 -0.15078917 0.23317315 -0.206892 0.13743709
0.0024689604 -0.016998744 -0.18982315 0.19344963 -0.2742896 0.32655197 -0.65371716 0.07180608
0.18676595 0.3124869 0.358285 0.24102093 -0.0012425649 0.23090258 -0.05985387 0.42602146
0.11482014 -0.20900245 -0.35084555 0.11128602 0.23114155 -0.08460798 -0.18188162 0.1700346
0.090488054 -0.41066742 0.10144514 0.20572588 0.29080355 0.012597707 -0.31196186 -0.59192926
0.12353456 -0.25138238 -0.07140234 0.17475945 0.08802967 0.033454042 -0.19199124 0.05172861
-0.3864917 -0.32092226 -0.15249129 0.24918544 -0.26449108 -0.23303145 -0.5669275 0.09686675

bias f4 [32]
00000000: 6e38 84bc 6f68 89bc b8a4 f23c 0489 12bd
00000010: 754c d93a 0629 073c 44d0 5cbb e970 113a
00000020: e317 14bd 4486 cabb 441b 1cbc 9688 a13b
00000030: f302 dabb d8d9 173c fe59 b53b d7d8 f7ba
00000040: bbc1 0d3c 23fd 293c 831f d33b 188a 7a3b
00000050: 0047 87bc 23b6 413c 313c d03c 46c8 113b
00000060: 2cdb 853a 2602 92ba 2c2f e2bb 3193 67ba
00000070: 4068 9dba 3bfe 313c 4c4b 8d3b 13f5 b9bb
-0.016140189 -0.01677343 0.02961956 -0.0357752 0.0016578572 0.008249527 -0.0033693472 0.0005548136
-0.036155593 -0.0061805565 -0.009527985 0.0049296124 -0.0066531836 0.009268247 0.0055344095 -0.0018909228
0.008652146 0.010375294 0.0064429655 0.0038229283 -0.016513348 0.01182321 0.025419326 0.0022244616
0.0010212413 -0.0011139556 -0.006902596 -0.0008833884 -0.0012009218 0.010863836 0.0043119546 -0.005674967

weight f4 [1, 32, 5, 5]
00000000: a52b 76bd 9ba5 943d 9aa6 b2bd f746 a4bd
00000010: f764 b4bc 722f 4ebc 820b 21bc 6086 0c3d
00000020: 9110 25bc 1f61 c13d bb9f a83d 856a 4c3d
00000030: 1476 c23c 535f 943a fe5b 8cbd f445 02bd
00000040: bd65 393d db2c d9bc 69e0 eb3c 637f 493d
00000050: ff55 793d c036 cb3a 4ba6 89bd 4a14 acbd
00000060: 841a 80bd 8508 4b3d 9670 7bbd 41da 1d3d
00000070: 071e c63d caad 4a3d ed68 fabc a366 b9bc
00000080: eb55 04bd 4bf0 3e3d cec2 0b3c e678 b8bd
00000090: 9550 a6bd 3788 e23d b7fb a4bd 6b2e 65bd
000000a0: a6ad 4ebd 92af 4b3d 63b9 a9bd 1b2d 5cbd
000000b0: a583 65bb 8492 053d 8a2b c3bc aa47 b5bc
000000c0: c661 b73d df5d 623d 9f6c 16bb 981c 993d
000000d0: ea7b 893d 4853 ef3b b10d 9b3c 16e9 4c3c
000000e0: 6e9d 7cbd 383f 10be 27c7 53bd 5973 84bd
000000f0: c47c a4bc ca30 30bd fad8 493e f67f ba3d
00000100: 7c0a aabc 1073 383c fcd1 68bd 4b3b 793d
00000110: d2d8 703d eead 9bbd 4ae4 bf3c 0f16 aabc
00000120: 101e f8bd 252a a03b 48fd bfbc 093d 92bc
00000130: 0582 2dbd 866a 163c 5afe ee3c 0006 99bc
00000140: 734d 363c b8f9 5fbd fa89 203d 3e48 133d
00000150: 51bd b7bc 6347 b5bd 8424 b23d 5d5f 2e3e
00000160: 4925 5e3d f6dd bdbd 0a91 653d 4aab a4bd
00000170: 3f34 5a3d 036d 19bd 4954 05bc 4051 04bd
00000180: 471e 503a bb4b 123d 4ad0 f93c d9ff 41bd
00000190: 2579 3abc f9df 46bd 504d 023c 3131 393d
000001a0: 240b d3bc c5c8 98bc 10b9 093d 31e7 31bd
000001b0: b1d8 a5bd 5554 043d 8aa5 a53b 4c5f 9b3c
000001c0: 4a41 cb3c 82df 833c 053e 133c b401 24bd
000001d0: 411d 813c 7958 623d 2303 223d dcc4 94bd
000001e0: 6749 4ebd 04b1 063d 7edf 3e3d d87b 8abd
000001f0: eaa8 e1bc 2828 823d 6d92 243d caf1 f63c
00000200: 3038 8dbd bcbc 4e3d ff07 26bd ab5f 453d
00000210: 6b28 3b3d bce7 903c 262b 903b 5d92 1a3d
00000220: 6694 3e3d 8706 79bc 29c2 5a3d a915 20bd
00000230: bad0 a6bd c32b fa3c 623c aabc a104 38bd
00000240: b639 a23d 241a 593d f1c8 f63c c10a cabc
00000250: bc85 53bd 64b8 4bbd 831d 5abd c53a 893c
00000260: ac2c fbbc d528 c73c 067b fcbc d524 b0bd
00000270: d25a 0d3d f23b 39bb 7292 c8bd b7f3 dd3b
00000280: 7d69 193d 85a4 f03d 55f3 6f3d 27f3 a9bc
00000290: ca8d 113d 0c6a 4cbd cde3 253d 66f7 3dbd
000002a0: e045 55bd 914d 83bc bb16 71bd a494 8c3d
000002b0: 181a c5bc eaf6 a9bc 798e 0e3d 2c8b 8d3d
000002c0: 2f6b 3b3d 71ea 48bd f094 c9bc 6f65 42bc
000002d0: 8b95 a13d 644b 43bc e1d9 99bd f506 5f3c
000002e0: b2cd 3c3b 4ecc a2bb 2388 863d 9a4c 94bd
000002f0: 381d 1e3d d3be 8f3d a68a 4fbd db58 a53d
00000300: 7075 423d 164c 003d f0cb 9d3d f236 13bd
00000310: ffe6 9b3d a6b3 ac3d 5918 1ebc 5eb4 7fbd
00000320: bcf2 603d 11fd 523d a2af 80ba 57d5 263c
00000330: 1c80 863b 27bf ed3c f0c1 a63d 3ac3 2c3d
00000340: 1865 853d 49d9 55bd caa2 a7bd d642 54bc
00000350: 9cf7 72bd e404 9f3d 7de4 653d 2456 9fbd
00000360: 345a 4e3c d31f 84bd 415b 2abc ddab 933d
00000370: cebc 7cbd 627e 6bbb 8c10 5cbd fe73 563c
00000380: d13f 8abd 442d adbd a95a a43d 6961 37bd
00000390: 3f2e cbbc 1fa5 ab3d a5f0 3d3d c146 1ebd
000003a0: 3977 7abc 6849 fcbc a52c a0bd 4fbd 55bd
000003b0: e566 1b3c a25e 6abc a716 7ebd 6a97 8fbd
000003c0: 58a0 0e3c defb 0b3d c60a 8abd 640b ba3c
000003d0: 1d58 723d 050c 99bd cc61 6b3d 1b1d 95bc
000003e0: 30d8 ae3c 63bb 963d 7c00 3dbd ebfc 8b3c
000003f0: 4106 2f3d ceb4 a63d 884a 60bc 14f1 393c
-0.060100216 0.07258149 -0.08723183 -0.08021348 -0.0220208 -0.012584554 -0.009829404 0.034307837
-0.0100747505 0.094423525 0.08233591 0.049906272 0.023737945 0.0011319913 -0.068534836 -0.031804994
0.04526304 -0.026510647 0.02879353 0.04919375 0.060873028 0.0015503988 -0.06721171 -0.08402307
-0.062550575 0.04956867 -0.061386667 0.03853822 0.09673696 0.049482144 -0.03056761 -0.022631949
-0.0323085 0.04661588 0.008530332 -0.090074345 -0.081208386 0.11061137 -0.08055823 -0.05595247
-0.050458573 0.049727984 -0.08287313 -0.053753953 -0.0035021093 0.03261043 -0.023824472 -0.022128899
0.08954196 0.055265304 -0.0022952927 0.07476157 0.06713088 0.007303629 0.018927427 0.012506744
-0.061673574 -0.14086616 -0.0517036 -0.06467313 -0.020079024 -0.04301528 0.19711676 0.09106438
-0.020756952 0.011257902 -0.05684088 0.06084756 0.058800526 -0.07601534 0.023424286 -0.020762471
-0.12115109 0.0048878365 -0.023436204 -0.01785137 -0.042360324 0.009180671 0.029174019 -0.018679619
0.011126864 -0.05468151 0.039194085 0.035957567 -0.02242914 -0.088515066 0.08698371 0.17028566
0.054234777 -0.09270851 0.056046523 -0.08040483 0.053272482 -0.037457477 -0.008137771 -0.03230405
0.0007939082 0.035716753 0.030494828 -0.047363136 -0.011381422 -0.04855344 0.007953003 0.04521293
-0.025762148 -0.018650422 0.033623755 -0.043433372 -0.08097971 0.032306988 0.005055134 0.01896634
0.024811406 0.016097788 0.008986955 -0.040040687 0.01576102 0.055260155 0.039553773 -0.072641104
-0.05036297 0.03288366 0.046599858 -0.067619026 -0.027546365 0.063553154 0.040178705 0.03014459
-0.068954825 0.05047296 -0.04053497 0.04818694 0.045692842 0.017688625 0.004399675 0.03773724
0.046528243 -0.01519931 0.05340782 -0.039083157 -0.0814528 0.030538445 -0.020780746 -0.04492629
0.07921164 0.053003445 0.030125113 -0.024663331 -0.05164121 -0.049736395 -0.0532508 0.016751656
-0.03066095 0.024311462 -0.03082038 -0.08600775 0.03451044 -0.002826449 -0.09793557 0.006773438
0.037454117 0.117501296 0.05858167 -0.020745827 0.03553561 -0.04990582 0.04050045 -0.046378516
-0.05206859 -0.016028197 -0.058859568 0.068642884 -0.024060294 -0.02074762 0.03480384 0.069113106
0.045756515 -0.049051706 -0.024607152 -0.011865004 0.07889851 -0.01191983 -0.0751226 0.0136124985
0.0028809127 -0.0049682027 0.06568935 -0.07241173 0.038602084 0.07018819 -0.050669335 0.080735885
0.04747528 0.03132256 0.077049136 -0.03594107 0.076124184 0.08432703 -0.00964936 -0.06242787
0.05491899 0.051510874 -0.0009817968 0.0101827 0.0041046273 0.029021813 0.081424594 0.04217837
0.06513423 -0.052209172 -0.081853464 -0.012955388 -0.05931817 0.07764605 0.056126107 -0.07780102
0.012594748 -0.064513825 -0.010397733 0.07210515 -0.061703496 -0.0035933484 -0.053726718 0.013089178
-0.06750453 -0.08455899 0.080251046 -0.044770632 -0.024802325 0.08381104 0.046372075 -0.038641695
-0.015287214 -0.030796722 -0.07821015 -0.052182492 0.009484981 -0.014304789 -0.06203332 -0.07011302
0.008705221 0.034175746 -0.06740336 0.02271051 0.059166063 -0.07472996 0.057466313 -0.018202355
0.02134332 0.0735996 -0.04614304 0.017088374 0.042730574 0.081399545 -0.013689645 0.011348981
