modeldata/model_175_epoch.pth (torch_old, 43016 bytes, 5 tensors)

weight f4 [64, 1, 9, 9]
00000000: 9ee6 fb3c a9a2 15bb bfbd ab3c e7ad 203c
00000010: 3e34 01bd d6cc 53bd 5aee 203d 9327 ea3b
00000020: 8210 56bc e240 24bc 02c9 e63b daa2 ae3b
00000030: 252f 9cbc 8201 c7bc 4ff2 d23b f1a3 093d
00000040: 709c 6f3c 44ab 6fbc 2cfc 0c3c f1d8 d3bc
00000050: 6dbc bb3c 8e4d 8cbb c6bd 2fbd b3f9 4bbc
00000060: b652 ac3c 973f 2d3d a617 913c 6ff6 e8bc
00000070: 8357 f33c ad95 823d cb1a 223d 5b50 f1bc
00000080: d4af 0cbb 057b 05bc c2f1 85bd e590 853c
00000090: a466 70bb fbd1 0f3d 0da8 de3d a2c1 803d
000000a0: 8c33 b2bc fc3f aebc 2ad4 4f3b f9dc 35bd
000000b0: 2db8 f83c 2246 95bb bc6c 66bd b8a8 14bc
000000c0: 940a 90bd 6104 c1bd 827c 6bba 566e f5bd
000000d0: 5004 34bd 1e54 9f3c 8ace 183d 5c37 7b3c
000000e0: 397a 203d 8e5f 3abc fd60 a13c 1289 d13c
000000f0: dc20 ffbc 9cd4 df3b 5595 553d 02b7 d7bc
00000100: 411d d9bc 533b a8bc eb3a a4bc 3e19 b53d
00000110: 6932 9b3c d596 41bd 6351 32bc 7a54 4c3c
00000120: b5b3 a73c 9741 5cbc 96e3 f3bc 7774 e13b
00000130: 84c9 633d b427 753b c09e b0bc 3e03 c13c
00000140: 608e 28bd bc65 c7b9 7ec1 acbc 8078 01bc
00000150: 94ff ef3c 6c46 703d 462f 193d 019a 573d
00000160: 1218 84bc 588d 04bd 9185 ee3c 4f97 d2bc
00000170: 568b d23c 5040 253d fcb7 df3c 8620 433d
00000180: fb0f df3b bc58 3c3d 08b9 123d e299 ed3c
00000190: b551 fbbb bdbc b93c 56f1 33bc 8dc1 c13c
000001a0: ed61 363d 7b84 b7bc 4b46 673d ad20 96bb
000001b0: ee79 e43c 596b ca3c 7387 5d3c e2af dfbb
000001c0: 2786 f2bc d93d 9aba ad11 3cbc ecf2 003d
000001d0: 44b2 2d3c d98b 3b3c 5d1a 2f3c 8842 e73c
000001e0: da72 29bc 07f8 24bd 1505 b3bd e61f 23bd
000001f0: e629 963c 922a 963d 2a6a bc3c 418a 183d
00000200: 80e8 523d 3fdf 113b 1d51 0cbd e662 81bd
00000210: 5c52 7abd 9e9f 2e3d 07e8 8f3d d8de 093c
00000220: 4015 163d 77e8 ba3c 5ab0 493c 3601 29bb
00000230: ebaf 56bd 9cf0 0fbc 9682 033d 2aca 493d
00000240: 3d76 f9bb 393e c93c 938e e23c 78f9 2b3d
00000250: 5f48 8d3c 920b 603d 6b07 563d 79f8 243d
00000260: cb61 023d ee4e 6fbc 184d f33c fac6 5dbc
00000270: 3488 72bb 4a20 293d 5dc8 e63c 3f48 9d3c
00000280: a3b3 7d3b 8aa1 dbbb a283 133c e4f6 903c
00000290: 02cc 15bd 381f e53b 4e55 793a 0fd0 eebc
000002a0: 887c f93b 5d7f 12bd 345c b8ba ced5 22bd
000002b0: 6a3d c6bb 544a 8a3c 4e73 2d3d c54f c03d
000002c0: 0ee8 2f3d a069 0a3e b6d9 fc3c 95ac 2e3d
000002d0: 8c35 303c b177 ac3d 642b 943c 076d e7bd
000002e0: 23bc 4abe fada 99be dfd5 73be eb1d 00be
000002f0: e70a 763d b288 0ebd e7af d4bc d8f4 47bd
00000300: 4850 523c 6ba2 eb3d 0880 103e 7af5 b43d
00000310: 1652 aebb a08f 1dbd 1fe0 cc3b 56bd 1ebc
00000320: 31cd b73c 8a98 b7b9 fb62 12be bb3d ccbd
00000330: 0faf 5dbc 39a5 cd3c 22f7 3ebc 89af 80ba
00000340: 6bfe 94bc 96ad f73c 5f57 243d abcc b3bc
00000350: d502 babc 8d85 14bd 86ef f43c ef1f d9bc
00000360: 8e0f d53c 7c97 603c dccc d0bc b2de cc3c
00000370: 88dd d53d 5dce 883d f2ea e9bc e846 e73c
00000380: ca8e 553b 3008 15bb 7437 5ebc 5620 0cbd
00000390: 5469 a2bc a088 283d 35fd 6e3d c3ee f83c
000003a0: dc9e 93bc 7d14 a9ba f9c1 0c3a 00c3 b03c
000003b0: d851 4c3a b733 82bb 5a29 1fbc c22f 0ebc
000003c0: 38ee 28bd 3917 51bc 38a8 4b3c 06d0 c9bb
000003d0: 92bf 933a a079 26bd 866a 01bd cfc1 6e3d
000003e0: f5cc adbc 29ed b0bc aed3 403d 1f09 443b
000003f0: 2dd1 1e3d 3645 bbbb c0ef 86bd 99f0 6cba
0.030749615 -0.0022832549 0.020964501 0.009807087 -0.031543963 -0.05170902 0.03928981 0.007145831
-0.013065459 -0.010025235 0.007043005 0.005329472 -0.019065449 -0.024292711 0.006437577 0.033603612
0.0146247 -0.014628235 0.008605044 -0.025860282 0.022916997 -0.004281706 -0.04290559 -0.01244967
0.021035533 0.042296972 0.017711472 -0.028437821 0.029704815 0.06376205 0.039576333 -0.029457262
-0.0021467106 -0.008147006 -0.06540252 0.016304443 -0.0036682272 0.035112362 0.10871897 0.062869325
-0.021753095 -0.021270745 0.0031712153 -0.04440019 0.03036126 -0.0045554796 -0.05625604 -0.009073429
-0.070332676 -0.09424663 -0.00089830917 -0.119839355 -0.043949425 0.01944929 0.037306346 0.015333023
0.03917906 -0.011375321 0.019699568 0.025578056 -0.031143598 0.006830765 0.052144367 -0.026332382
-0.026503207 -0.0205361 -0.020047626 0.08842705 0.018944936 -0.047262985 -0.010883662 0.012471313
0.020471433 -0.013443372 -0.029771607 0.006880339 0.055612102 0.0037407698 -0.021560073 0.023561116
-0.041151404 -0.00038032036 -0.021088358 -0.007902265 0.029296674 0.05866091 0.0373986 0.052637104
-0.016124759 -0.03236136 0.029116424 -0.025706915 0.025701206 0.040344536 0.02730941 0.04763844
0.006807325 0.04598306 0.03582099 0.029004041 -0.0076696523 0.022673005 -0.010982832 0.023651863
0.044526983 -0.022402039 0.05646352 -0.004581532 0.027890172 0.02470939 0.013521063 -0.006826387
-0.029604984 -0.00117677 -0.011478824 0.03148167 0.010601584 0.0114469165 0.010687438 0.028229967
-0.010342324 -0.0402756 -0.08741204 -0.039825343 0.018330526 0.073323384 0.022999842 0.037241224
0.05149126 0.002225831 -0.034257043 -0.063176915 -0.0611137 0.04263269 0.070266776 0.0084149465
0.03664136 0.022815926 0.012310112 -0.0025788075 -0.052413862 -0.008785393 0.03210696 0.049265064
-0.007612972 0.024565803 0.027655875 0.04198596 0.017246423 0.054698534 0.052253168 0.040276024
0.031831544 -0.014606221 0.029699847 -0.013536209 -0.0037007453 0.04129056 0.028171713 0.019199489
0.0038711808 -0.0067026066 0.009003552 0.017695852 -0.03657151 0.006992247 0.00095113076 -0.029151944
0.0076137222 -0.035765994 -0.0014065565 -0.03975468 -0.0060498016 0.016881146 0.04234629 0.09390215
0.042945914 0.13516855 0.030865531 0.042645056 0.010754954 0.08421267 0.018087097 -0.11300092
-0.19798331 -0.30049878 -0.23812054 -0.12511413 0.06006899 -0.03479833 -0.025962783 -0.048817486
0.012836523 0.11505588 0.1411134 0.088358834 -0.005319844 -0.03846705 0.0062523033 -0.009688696
0.02243671 -0.0003501813 -0.1429557 -0.09972712 -0.013530507 0.025103198 -0.011655601 -0.0009817939
-0.018187722 0.03023414 0.040122386 -0.02194818 -0.022706429 -0.036260176 0.02989937 -0.026504485
0.026008394 0.013707992 -0.02548831 0.025008533 0.10442644 0.06679986 -0.028554413 0.028232053
0.003258633 -0.0022740476 -0.013563026 -0.034210525 -0.019825615 0.04114592 0.058346946 0.030387288
-0.018020086 -0.0012899783 0.00053694804 0.021577358 0.0007794178 -0.00397345 -0.009714449 -0.008678379
-0.041242808 -0.012761884 0.012430243 -0.0061588315 0.0011272302 -0.040643334 -0.03159573 0.0582903
-0.021215895 -0.021597462 0.047076873 0.0029912663 0.038773704 -0.0057150377 -0.065886974 -0.00090385374

bias f4 [64]
00000000: 9f31 353b 9239 163d 47a3 733a c1fa a03c
00000010: 2bbc 953b 6c9e a63c faa1 90bc 98c8 303b
00000020: 09e7 413a e666 253c 42c5 d13b cab5 5abb
00000030: 2420 023b f7e8 873c 63f5 093d f39d f53a
00000040: 3121 7a3c 6aa0 733c d17d 833b 1530 3cbb
00000050: 0a50 e43b f4b7 223b 13dc 89bb 27d6 3a3b
00000060: 668a 353b 2a50 303c 6fb6 673c 9c6c f23b
00000070: 6399 153d dc41 5c3c bac4 823b c3ad d43c
00000080: a4f1 a6bb 45b0 1e3c 10a5 083b 5bf7 26bb
00000090: ac7c 7a3c 282e 48bb 2c1a f43a b2c8 1ebc
000000a0: 98c5 333c c24f 4a3c f4db c7bc d1ac c03b
000000b0: 3291 293c 49bb b13b ac0b a73c b2f1 debb
000000c0: 09ad 453b 4c3b 3ebc 8c41 923c dae2 b43c
000000d0: c626 04bb d7aa c33c 97b7 763b cb3a 3b3c
000000e0: 76a6 093c 476b 0d3c 7161 ac3c 1095 243c
000000f0: ca43 cebb b56a 933b 502c dfbb e479 3e3c
0.0027647985 0.036675997 0.00092940446 0.019650819 0.0045695505 0.020339213 -0.017655361 0.0026975032
0.00073967926 0.010095334 0.006401689 -0.0033372515 0.0019855583 0.016590578 0.033681285 0.0018739089
0.0152667025 0.014869789 0.004012801 -0.0028715183 0.006967549 0.0024828883 -0.004207143 0.0028508992
0.00277009 0.0107613 0.014142617 0.007398201 0.036523234 0.0134434365 0.003990737 0.025961762
-0.005094724 0.009685581 0.0020850338 -0.0025477025 0.015288513 -0.003054509 0.0018623522 -0.009691404
0.010972403 0.012348117 -0.024396874 0.0058799763 0.010349559 0.0054239375 0.020391308 -0.0068037147
0.0030162951 -0.011610817 0.01785352 0.022080828 -0.0020164712 0.023885174 0.003764605 0.011427592
0.008401504 0.008631534 0.021042557 0.010045305 -0.006294702 0.0044988045 -0.0068107024 0.011625741

weight f4 [32, 64, 1, 1]
00000000: 617c e33d 9469 66be 934c c0bd 9f69 853d
00000010: 6159 c9bd 7273 ae3d fa69 9bbe 631a 803d
00000020: effd 2bbd 0209 243e 0076 eabd 4687 a0be
00000030: 9195 333e 7686 4d3e ec64 473e 1b78 69be
00000040: 4dc2 43be f4af 353d 779c 1cbe 2878 153e
00000050: 7cb3 24be 7b7b 5bbe 0759 303e 7b25 37be
00000060: 6cb6 273e bd56 033d 166a b53d 6808 6ebd
00000070: 7131 fabc 9bf0 76be 569c 3e3e 78d8 7e3e
00000080: 6880 863e 6419 32be 0b17 e03d 262b b93e
00000090: eedf bdbc a50d 443e d82f d2bd 61e8 ab3d
000000a0: cafc 36be 8334 1bbe fc96 773e 632b 8abe
000000b0: 6141 4d3e 8899 49bc 89e1 8a3d eeb8 a7bc
000000c0: fb28 1c3e f2e0 0abe 6871 cf3d 751f d2be
000000d0: dc19 5bbe 63f1 9abe 1c73 313e 723c 213d
000000e0: bb54 6dbe e45e 86bd 1b65 693e ec8b 6bbc
000000f0: d480 6abd cdd1 d53d e847 efbe 4e34 9f3d
00000100: 9072 dbbc f331 893e 0782 b2be 031c 4d3d
00000110: ddc6 6d3e 4b13 923d 66d6 5bbf 6e09 3cbe
00000120: c565 64bd bd76 03be 17c9 533d b6a8 d4bd
00000130: ccbc 163c d14e 0fbe 7697 143c 8ffa 4bbe
00000140: 8a0c 5cbe ef6b 573e beef 9abd d336 313e
00000150: 5916 00be c211 8f3d 1049 7fbd 92c8 44be
00000160: 12fa 523d bcfc 593f 55d2 023e cc4d 42be
00000170: 8117 153c 12a1 26bd 78d0 583d 7374 1c3e
00000180: 2d9d 83be 374f 20be b13a 89be 7101 783e
00000190: 54be 58be f66f 29be 0f21 023e 0ab1 073e
000001a0: 1a88 b6bd d12f b53b 80ea fb3d 0987 67be
000001b0: 5208 503e 929e 853c a6d2 f03d 7e9a 92be
000001c0: df4a 2bbe 4d02 d83d 20cc 473e 7df8 023f
000001d0: 6e97 903e 57fc bbbd 3816 b43c 491e be3c
000001e0: 68e7 393e 9842 03be f258 77be f262 883e
000001f0: f4e0 efbd 77b0 44bc b26e 753e dd97 1cbe
00000200: 75ef dfbe 5ca2 9c3e 81ee 303e 36f7 953e
00000210: 72cd dbbd 9584 d2bd 4b3f f23e 7b03 53be
00000220: 26a0 1bbf 52e0 8d3e 6110 3d3e 7364 d13d
00000230: 8c3c 233e 3525 35bd acc6 553e fb02 b1bd
00000240: 741a 403d 3909 b53e ca33 28be f72d d53d
00000250: cf0a 08bf 57e5 0fbe 8c17 18bd d22b a4bd
00000260: 633c 61be f4e9 293c 1d98 a3be 2245 2ebe
00000270: 2470 933e 9a94 023f b42c 60be 4611 a7bd
00000280: ed18 5a3f 374e 043c 6f48 20bd bce0 0ebf
00000290: 82cb 69be 272b dfbd cbb8 c53d 8a78 49be
000002a0: 9133 63bd 0682 893f fc60 18bf e0a8 7cbe
000002b0: 9938 a4bd 5420 8d3e 2117 3b3f 19f0 0f3f
000002c0: be6a 94be 2c11 81bd 4a24 98bd fe52 7ebf
000002d0: 44aa 3e3e c792 76be 8f6b a0bc d897 01be
000002e0: 2988 9e3e b8ac 753e 4c2a bf3d 1dc0 ab3e
000002f0: 8250 323e d6d9 19bc db9d a7be 9b52 9cbe
00000300: 210f 983e 80c6 a9bd 6ee7 64be fa2c aa3e
00000310: 35e4 e83d 5bcb 45be 0ac5 fbbd b448 86be
00000320: 2b06 d13c 288b bcbd fcec 1d3e 4dd3 d43d
00000330: 87af 1ebe 2e62 703e f1a5 39be 01bc 3d3e
00000340: 0ebb 58bb 2d22 3b3c 2747 4dbe 5a1b 553e
00000350: 7b01 97be 8164 af3e ac2c 20bf 9af2 e53d
00000360: b3a9 353e db2b 8a3e 9814 c43e 0b11 6c3e
00000370: 91ab b23b b1a7 723e 5c8e 28bd c073 f23e
00000380: c81f 1c3e cc90 52be 17c7 babe 0a08 433e
00000390: 6fde 683e 0b4d c2bd 5185 37be 3c29 063e
000003a0: 6ce0 d93d c55d e9be 8a52 b73d be39 663e
000003b0: 776e 9a3e bca0 d9bb 69be d6be 96f1 2bbf
000003c0: 4291 de3d fa23 8abe 20d9 88bd 36f7 453e
000003d0: 3659 a63d 2a7e 003d c682 41be 6d97 793d
000003e0: eb76 b8be 60fc aabe 451f 15be 9635 853e
000003f0: a89a 97be ccbb 8dbe 8b42 2dbf 6812 eb3d
0.11107708 -0.22501212 -0.093896054 0.06514286 -0.09831501 0.08518113 -0.3035429 0.06255033
-0.041990217 0.16019061 -0.11448288 -0.31353205 0.17537524 0.20070824 0.19472092 -0.22799723
-0.19117089 0.044357255 -0.15294062 0.14596617 -0.16084093 -0.21433823 0.17221461 -0.17885391
0.16378182 0.032065142 0.08858125 -0.058113486 -0.030541154 -0.24115221 0.18614325 0.24887264
0.2626984 -0.17392498 0.10941895 0.36165732 -0.023178067 0.1914583 -0.10263032 0.08393932
-0.17869869 -0.1515675 0.2417869 -0.26986226 0.20044471 -0.012304671 0.06781299 -0.020473924
0.15250008 -0.13562372 0.101290524 -0.41039625 -0.21396583 -0.30262288 0.17329067 0.039364286
-0.23176853 -0.06561068 0.22792475 -0.014376622 -0.057251766 0.10440407 -0.46734548 0.07773648
-0.026788026 0.2679592 -0.34864828 0.050075542 0.23220392 0.07132586 -0.8587402 -0.18362972
-0.055761117 -0.12838264 0.051705446 -0.103837416 0.009200286 -0.1399491 0.009069314 -0.199198
-0.21489158 0.21037267 -0.075652584 0.1730607 -0.12508525 0.06985809 -0.062325537 -0.19217137
0.051508017 0.8515127 0.12775548 -0.1897499 0.009099842 -0.040680952 0.052933186 0.15278797
-0.25705853 -0.15655218 -0.2680259 0.242193 -0.21166354 -0.16546616 0.12707923 0.13251129
-0.08912678 0.005529382 0.12300587 -0.22610106 0.20315674 0.016310964 0.11758928 -0.28633493
-0.1672778 0.10547314 0.19511461 0.51160413 0.28240532 -0.091789894 0.021983251 0.0232078
0.1815468 -0.12818372 -0.24155024 0.2663799 -0.11712828 -0.012004963 0.23968008 -0.15292306
-0.4373738 0.3059262 0.17278482 0.2929017 -0.10732545 -0.10279194 0.47313914 -0.20606796
-0.6079124 0.27710205 0.1846328 0.10224237 0.15941066 -0.044224937 0.20876569 -0.086431466
0.046900228 0.353586 -0.16426006 0.10409158 -0.5314149 -0.1405233 -0.03713183 -0.080161706
-0.21995692 0.01037072 -0.3195199 -0.1701856 0.28796494 0.51008 -0.21892053 -0.081575915
0.85194284 0.0080752885 -0.039131578 -0.5581167 -0.22831538 -0.108969025 0.09654387 -0.19674888
-0.0554691 1.0742805 -0.59522986 -0.24673796 -0.08018608 0.27563727 0.73082167 0.56225735
-0.28987688 -0.063021034 -0.074287966 -0.99345386 0.18619639 -0.24079429 -0.019582538 -0.1265558
0.30963257 0.23991668 0.09334239 0.33545008 0.17413524 -0.009390315 -0.32737622 -0.30531773
0.29699042 -0.08289814 -0.22353908 0.3323744 0.11371652 -0.19315855 -0.122934416 -0.26227343
0.025515636 -0.092062294 0.15422434 0.10391865 -0.15496646 0.23474953 -0.18129708 0.18528749
-0.0033070478 0.011421722 -0.20046674 0.20811215 -0.29493317 0.34256366 -0.62568164 0.11227913
0.17740516 0.26986584 0.38296962 0.23053376 0.005452581 0.23696782 -0.04115139 0.47353935
0.15246499 -0.20563048 -0.36480018 0.19046035 0.22741102 -0.09487351 -0.1792195 0.13101667
0.10638508 -0.45579353 0.0895129 0.22482964 0.30162403 -0.0066414755 -0.41942146 -0.67165506
0.108675495 -0.26980573 -0.06682038 0.19332585 0.081224844 0.03137032 -0.18897542 0.060935427
-0.36028227 -0.33395672 -0.1456271 0.26017445 -0.2961018 -0.2768234 -0.6767966 0.1147812

bias f4 [32]
00000000: 372f a8bc dfda b2bc 0ba0 ef3c 9abb 36bd
00000010: e89c b93a 038c 283c f0bf 82ba 0873 0f3a
00000020: e1a8 0fbd 99a3 bebb d951 28bc b9b2 903b
00000030: 6284 f2bb 7dad 4f3c b223 b63b d7d8 f7ba
00000040: d6a0 f63b 9e16 383c 1010 063c 40ae 6f3b
00000050: b3ee 1cbc 6e54 703c 52e8 c33c 1bb2 673b
00000060: 16dd e83a 3863 e038 93fa 01bc 0a19 88ba
00000070: 4068 9dba 6e0f 823c 6a0c 703b 2420 18bc
-0.020530326 -0.021832881 0.02925112 -0.044612505 0.0014161142 0.010287288 -0.0009975415 0.0005472158
-0.035073165 -0.005817842 -0.01027342 0.0044158367 -0.007401035 0.01267564 0.0055584544 -0.0018909228
0.0075264974 0.011235861 0.008182541 0.0036572367 -0.009578395 0.014668567 0.02391449 0.0035353962
0.0017766084 0.00010699633 -0.007933277 -0.0010383439 -0.0012009218 0.015876498 0.0036628493 -0.009285007

weight f4 [1, 32, 5, 5]
00000000: be43 80bd db4a 913d 00c8 c0bd fc96 abbd
00000010: 7de1 9bbc 1d8f 5dbc 9069 10bc 3969 ea3c
00000020: f3c1 7fbc ddc7 c63d 9e37 b23d fd93 613d
00000030: ca58 e03c ce6c 133b 4edc 83bd 8866 f6bc
00000040: 0553 333d e25e d8bc cb8f e23c 5a40 403d
00000050: 7764 693d d45e 58bb 5084 8bbd 2e97 afbd
00000060: 0184 83bd 6deb 333d a16d 8cbd 3fcc 123d
00000070: e7e9 cd3d 25ed 473d a2ed d3bc dd61 9bbc
00000080: 055b debc dbdf 443d 3d18 053c 7cf8 aebd
00000090: b249 a4bd 5cea f83d 67b4 afbd 2db3 6dbd
000000a0: b539 33bd b919 193d f943 acbd 0c3e 66bd
000000b0: 5af1 25bb ad57 fe3c 3e34 b1bc fe32 e6bc
000000c0: 7adf bc3d 9f37 683d e28d 3fbc 3a04 9b3d
000000d0: 3a46 953d 1cbf 093c 1918 633c 98bf 5c3c
000000e0: 85ca 68bd 5a03 12be 010f 82bd d5bf 6abd
000000f0: 5acd 98bc 0cc5 54bd 84c2 543e 060e c53d
00000100: 5252 d3bc 4233 423c e941 7abd 3751 863d
00000110: bc02 643d 3add 90bd 874c 9b3c fb66 81bc
00000120: 8424 f4bd dd22 d7bb 9bea 55bc c0b0 8cbc
00000130: db84 31bd 6085 993b 023c c63c 9d27 94bc
00000140: c79d ce3b f501 75bd 0f28 223d e3a3 0f3d
00000150: 7fc2 a3bc 86fd c4bd 26a3 ab3d 8bd5 333e
00000160: 9002 433d 82b5 cabd 5073 6c3d 5304 84bd
00000170: 0c22 0e3d 3227 8abd 191c 02bc 76e1 3dbd
00000180: d26d f83b 36a2 013d 3208 033d 989d 0fbd
00000190: eede 39bc fdf8 46bd de93 043c ff15 393d
000001a0: 52a4 d3bc f24f 97bc 73d4 093d 8a06 32bd
000001b0: 2f02 a6bd cf66 043d 8535 a73b ebc5 9b3c
000001c0: 4eae cc3c 2e9b 833c b2d8 133c b07d 24bd
000001d0: c80a 813c 912d 633d 52d3 213d 58ae 94bd
000001e0: 7fb2 4ebd b067 063d 2e56 3f3d 2a9c 8abd
000001f0: f5a6 e1bc ee2c 823d 1884 243d ca6e f63c
00000200: ff73 8dbd 49cf 4e3d 3fb8 25bd b987 453d
00000210: b046 3b3d c964 903c d792 913b 614f 1a3d
00000220: 7857 3e3d a6d8 78bc 1a86 5a3d 5c21 20bd
00000230: 90ee a6bd 18b4 f93c 3dc5 aabc ef47 38bd
00000240: 9044 a23d e409 593d 3e4b f73c 3dee c9bc
00000250: dad0 53bd 725c 4bbd a1d0 81bd b9f7 1b3c
00000260: ed1f 05bd 4fb2 ba3c 2456 08bd 7848 c2bd
00000270: 1a29 1f3d bc27 afb9 13d1 c9bd d599 133c
00000280: 3d11 1b3d 5066 013e 6eed 723d 4e81 d7bc
00000290: 1170 123d 8ec9 35bd c828 343d cd2c 4dbd
000002a0: 7930 5fbd 6405 6abc cbb8 66bd 8dba 923d
000002b0: b2b1 b4bc ef51 b2bc 9825 013d 8c6f 8d3d
000002c0: e6cc 3b3d cfe8 47bd 1d88 cabc 70f9 44bc
000002d0: a1a9 a13d 706b 41bc 3aed 99bd ad12 5d3c
000002e0: 5865 373b 4e37 a0bb 4efe 863d ee66 94bd
000002f0: 4ade 1d3d 99f5 8f3d c7f9 4fbd bf75 a53d
00000300: c3cf 423d 8ece fe3c 86a8 9d3d 40b6 13bd
00000310: 54a6 9b3d 0eef ac3d a70d 1fbc 05d0 7fbd
00000320: 77f3 603d bd4d 533d 7945 87ba 4953 243c
00000330: b31d 873b aa2b ef3c 11f0 a63d 0c5e 2c3d
00000340: 6353 853d eb15 55bd 4c84 a7bd b577 52bc
00000350: 5dc9 72bd 4c75 9f3d 7bb1 663d 7b1f 9fbd
00000360: d1fe 4f3c e520 84bd 04c5 28bc e004 943d
00000370: e928 7cbd db5d 60bb 301a 5cbd 6630 553c
00000380: a9c6 89bd 9244 adbd ef02 a43d 53cd 37bd
00000390: 2207 ccbc 8964 ac3d 19a9 3e3d cb08 1dbd
000003a0: a789 78bc f91c fcbc 6f0c 9fbd bfd2 54bd
000003b0: 8943 1d3c 66df 68bc 5fad 7dbd 4fdd 8ebd
000003c0: 179f 0f3c 088b 0b3d 3bac 8abd f02a ba3c
000003d0: 569d 733d 4ed3 98bd 34c2 6b3d 718a 95bc
000003e0: edd8 af3c d50d 973d c511 36bd 461f 663c
000003f0: 56ad 3d3d 5c57 a83d 9660 36bc 0e03 703c
-0.06262921 0.07094356 -0.09413147 -0.08378407 -0.01902842 -0.01352289 -0.008814231 0.028614627
-0.015610206 0.0970609 0.087020144 0.055072773 0.027386088 0.0022495273 -0.06438504 -0.030078188
0.043780345 -0.026412431 0.027656456 0.04693637 0.056980576 -0.0033015506 -0.06812346 -0.08573757
-0.06421662 0.04392569 -0.068568476 0.035839316 0.10054379 0.048810143 -0.025870148 -0.018967563
-0.02714301 0.048065048 0.008123455 -0.085434884 -0.08021869 0.121540755 -0.08579331 -0.058032203
-0.043756206 0.037378047 -0.08411402 -0.056211516 -0.0025320859 0.031047666 -0.021631356 -0.028100487
0.09222312 0.05669367 -0.011691542 0.075691655 0.07288785 0.00840738 0.013860726 0.013473414
-0.056833763 -0.14259091 -0.06350518 -0.05731185 -0.018652607 -0.05194573 0.20777327 0.096218154
-0.02579609 0.011853041 -0.061098013 0.06558459 0.05566667 -0.070734456 0.01895739 -0.015796175
-0.11921027 -0.0065654353 -0.013056423 -0.017174125 -0.04333959 0.004685089 0.024198536 -0.018085295
0.0063054296 -0.05981632 0.039588984 0.035068404 -0.019990204 -0.09618668 0.083807275 0.17561929
0.047609866 -0.09897901 0.057727158 -0.06446137 0.03470044 -0.06745757 -0.007941269 -0.046357594
0.007581451 0.031648837 0.031990238 -0.035062402 -0.0113446545 -0.048577297 0.008091895 0.045186993
-0.02583519 -0.018470738 0.033649873 -0.043463267 -0.08105885 0.03232461 0.0051028156 0.019015273
0.024985459 0.016065206 0.009023832 -0.040158927 0.015752211 0.055463377 0.03950817 -0.07259816
-0.050463196 0.032813728 0.046713047 -0.06768067 -0.027545432 0.06356226 0.040165037 0.030082125
-0.0690689 0.05049065 -0.040458914 0.04822514 0.04572171 0.017626183 0.0044425535 0.037673358
0.046470135 -0.015188372 0.053350545 -0.039094314 -0.08150971 0.030481383 -0.020846004 -0.044990476
0.079232335 0.052987948 0.030187245 -0.024649734 -0.05171285 -0.04964871 -0.06338621 0.009519511
-0.03250115 0.022790102 -0.033285275 -0.094864786 0.038857557 -0.00033408205 -0.09854331 0.009008844
0.037858237 0.12636685 0.05930846 -0.026306774 0.035751406 -0.04438167 0.043984205 -0.050091553
-0.054489587 -0.014283512 -0.056328576 0.07164488 -0.022057388 -0.021767585 0.031529993 0.069060415
0.045849703 -0.048806008 -0.024723107 -0.012022361 0.07893682 -0.0118054 -0.075159505 0.013493222
0.002798399 -0.0048894053 0.065914735 -0.07246195 0.03854207 0.07029266 -0.050775316 0.08079099
0.04756142 0.031104352 0.07698159 -0.03606248 0.07600084 0.084440336 -0.009707845 -0.062454242
0.054919686 0.05158781 -0.0010320387 0.010029622 0.0041234135 0.029195625 0.08151258 0.042081878
0.065100454 -0.052022856 -0.081795305 -0.012845923 -0.059274066 0.077860445 0.056321602 -0.07769676
0.01269503 -0.06451587 -0.010300878 0.07227492 -0.061562452 -0.003423563 -0.05373591 0.013012027
-0.067273445 -0.084603444 0.08008372 -0.044873547 -0.024905745 0.08417613 0.046547983 -0.038338464
-0.015169538 -0.030775534 -0.077660434 -0.051958796 0.009598621 -0.014213419 -0.061932918 -0.06975805
0.008765957 0.034068137 -0.067711316 0.022725552 0.05947622 -0.07462178 0.057558253 -0.01825449
0.021465743 0.07375685 -0.04445054 0.014045542 0.046307884 0.082197875 -0.011131426 0.014649166
