modeldata/model_6_epoch.pth (torch_old, 43016 bytes, 5 tensors)

weight f4 [64, 1, 9, 9]
000000 50 c0 34 3c 80 10 7e 3b 0d 94 d2 3c c8 e4 3c 3b
       0.011032179 0.003876716 0.025705362 0.0028822888
000010 73 66 95 ba fe bb fe bc 4a 55 91 3c 25 00 f3 bb
       -0.001139833 -0.031095501 0.017740864 -0.0074157887
000020 01 38 06 bc 66 be e0 bc fc f8 7f 3c 59 38 b2 3b
       -0.008192063 -0.027434539 0.015623327 0.005438846
000030 8a 43 9a bc 3b 6d 86 3c 56 d8 b0 3c da 9d c8 bc
       -0.018831033 0.016409507 0.021587532 -0.024489332
000040 4f 43 82 ba 6c 8d a9 bc c5 01 80 3c fe af 40 bc
       -0.0009938272 -0.020697318 0.015625844 -0.01176071
000050 cd 9e d3 3b 36 d8 aa bc 30 bd 92 bc 31 8c 0c 3b
       0.0064581395 -0.02085505 -0.017912477 0.0021445865
000060 12 be 01 bd e8 77 ef 3c df 03 da bc d1 70 f8 bc
       -0.031675406 0.02923198 -0.026613174 -0.030327233
000070 68 35 87 3c ed c6 de bb 20 7b d6 bc b7 f9 9c bc
       0.016504958 -0.006798616 -0.026181757 -0.019162042
000080 1a 8f 3d 3c 25 55 b5 bb 92 e0 00 bd ea 0b e9 bb
       0.011569763 -0.0055338317 -0.031464167 -0.007112016
000090 06 fb 62 bc cf 67 c7 3b 4f 10 9f 3c 81 a1 14 3a
       -0.013853794 0.006085373 0.019416956 0.0005669818
0000a0 9e 30 6f 3c 66 a9 a1 bb e4 9c bc 3c 73 b8 ce bc
       0.014598994 -0.004933524 0.02302403 -0.025234437
0000b0 85 02 44 b9 a2 b0 b0 3c e1 e7 9b bc a7 ef 05 3c
       -0.00018692955 0.0215686 -0.019031467 0.008174813
0000c0 01 01 2b bc 90 15 c2 bc 67 3a a6 3c b1 78 ac bc
       -0.010437251 -0.023691922 0.02029152 -0.021053644
0000d0 91 00 af bc 86 1f ea bc 7f 46 10 3c af 4b 66 3b
       -0.021362575 -0.028579485 0.00880587 0.0035140326
0000e0 9f ae 00 3d 90 b1 d1 bb 91 3b e7 bc 12 7f 04 bd
       0.03141653 -0.006399341 -0.028226646 -0.032347746
0000f0 0b 94 37 3b 9f 37 b4 bc 0c 9c cf 3b e9 46 e3 bc
       0.0028011824 -0.021999178 0.006335741 -0.027743774
000100 8a f1 43 bc bb c1 e2 bb 1f 59 bb bc a5 36 4b 3c
       -0.011959443 -0.006920067 -0.022869645 0.012403165
000110 71 1e b9 bc ed dd d7 bc 99 47 e8 bc 32 15 f9 3c
       -0.022597523 -0.02635094 -0.028354453 0.030405615
000120 50 d7 b6 bb 1a 2d 54 bc 51 ba ab bc f9 66 13 3c
       -0.0055798665 -0.012950206 -0.020962866 0.008996719
000130 6c ca 0f 3c 0a e5 30 3b dc e0 02 bd fe e7 eb bb
       0.0087762885 0.0026991987 -0.031952724 -0.0071992865
000140 96 b0 84 3c 41 e4 b9 3b 50 a8 0d bc 1c bd 5b bc
       0.016197484 0.005672962 -0.008646086 -0.013411786
000150 d2 38 ac 3c 0f 7c 21 3d bb cd a1 3c ae 73 18 3d
       0.021023188 0.039424952 0.01975142 0.037219696
000160 13 9e b1 bb c9 b8 2e bc 56 36 fd 3c 47 1d 83 bc
       -0.0054204552 -0.010664173 0.030909698 -0.016005171
000170 46 22 d4 3c 1a 83 08 3d 5f 5c 0e 3c d8 bd 06 3d
       0.02589525 0.033328153 0.008689015 0.032895893
000180 8a d1 82 3a 7d b1 53 3d 5f ed 41 3d 21 30 09 3d
       0.000998066 0.051682938 0.047345515 0.033493165
000190 03 37 8c 3b ea 0f 08 3d 3a c0 0c bc 51 4c c0 3b
       0.004279019 0.0332183 -0.008590752 0.0058684726
0001a0 67 e0 d2 3c 1e 17 ae bc 89 ea 76 3d e2 2d 2d 3a
       0.025741769 -0.021251258 0.060282264 0.00066062633
0001b0 89 55 da 3c 77 81 9c 3c 25 31 31 3c 6d 28 07 38
       0.026652114 0.019104702 0.01081494 3.2224158e-05
0001c0 ca 58 ba bc fa 5a 80 bc 41 1d d4 bc f1 af a2 3c
       -0.022747416 -0.015668381 -0.025892856 0.019859286
0001d0 d9 9a 7d 3c d8 ff 1a 3a ae 41 00 bb 9f d7 bd 3a
       0.015478813 0.00059127575 -0.0019570398 0.0014483816
0001e0 a7 f0 a6 bc 92 a7 c5 bc 47 4e 99 bd 61 7e 3a bd
       -0.020378424 -0.024127755 -0.07485633 -0.04553068
0001f0 cb b7 55 bc a4 67 71 3d ba 36 50 3c 74 2a 21 3d
       -0.013044308 0.05893673 0.01270836 0.039347127
000200 84 d2 2e 3d 5b d2 18 bc cf fc 0a bd f7 47 5e bd
       0.042681232 -0.009327496 -0.033932503 -0.05426785
000210 76 15 74 bd d1 de d8 3c ee 28 94 3d 0f f4 02 bb
       -0.05959078 0.026473435 0.07234369 -0.0019981896
000220 74 bd 1d 3d 1f 22 66 3c 66 a9 c3 ba 1d d9 3a bc
       0.038510755 0.014046221 -0.0014927804 -0.011404303
000230 b6 d5 81 bd db b5 d4 bc 90 ca be 3c a9 a7 82 3d
       -0.0633959 -0.025965622 0.023289949 0.06379635
000240 fd 36 88 bb c9 03 10 3d f4 b0 f9 3c b7 c3 0f 3d
       -0.0041569457 0.03515986 0.030479886 0.035098758
000250 55 0a 81 3b bb ca ed 3c b4 0f 12 3d c7 7a 45 3d
       0.0039379993 0.029027333 0.035659507 0.048212793
000260 ac 33 75 3d 4a 6b f9 bb cb df 0e 3d f3 00 5f bc
       0.05986373 -0.007611667 0.034881394 -0.013611066
000270 78 48 a0 3a a0 e9 47 3d ae 30 c6 3c 81 7c b5 3c
       0.0012228629 0.048806787 0.024193134 0.022154095
000280 71 b1 85 3c aa b7 4c 3c 7b 26 97 bc db ea 19 ba
       0.016319962 0.012494961 -0.018450966 -0.0005871483
000290 3c 52 e5 bc d5 08 17 bb 55 4e 41 3c 9d d7 de 3c
       -0.027993314 -0.0023046036 0.011798461 0.027202422
0002a0 ef 2b 79 bb 6b 7d ef 3a 2a fc e1 3c 21 0b 95 bb
       -0.0038020571 0.001827163 0.027586062 -0.004548446
0002b0 cf 8a 97 bc 18 ea 97 b9 f1 48 b7 bc b9 36 91 bc
       -0.018498806 -0.00028975378 -0.022373648 -0.01772629
0002c0 d9 22 ae bc d5 3a e4 3c 80 ba 76 bc e4 58 20 3c
       -0.021256851 0.027860085 -0.0150591135 0.009786818
0002d0 70 98 e7 bc ca b4 8f 3b 4c 4e 5d 3c aa 1f 80 bc
       -0.02827093 0.0043855654 0.013507437 -0.015640099
0002e0 07 72 3a bc 14 04 05 3c 37 da e4 bc 60 4e 60 bc
       -0.011379725 0.008118648 -0.027936084 -0.013690561
0002f0 46 23 86 bc fd e0 75 3c 02 94 21 3c b4 94 7d 3c
       -0.016374242 0.015007255 0.009861948 0.015477348
000300 7e 16 c1 bc c9 ba 0e 3d 3b 72 32 bc 30 ba a3 3c
       -0.023570295 0.0348461 -0.0108914925 0.019986242
000310 7a f5 29 ba 81 31 89 bc b3 ce 8e bb a1 a8 70 bc
       -0.0006483417 -0.016747238 -0.0043581366 -0.014688642
000320 82 04 a0 bc f0 e2 9f bb 6c cd 5a 3a d7 e4 d3 3a
       -0.0195334 -0.004879348 0.000834665 0.0016166222
000330 8b 85 be 3c 47 10 7b bc e6 64 f8 3b e7 85 9d 3b
       0.023257038 -0.015323705 0.0075803874 0.004807222
000340 0b 0e 88 3c cf 44 b3 3c 4b 96 b6 bc 33 1f fd bc
       0.016608259 0.021883396 -0.022288462 -0.030898666
000350 0e 7a 65 bc 37 03 08 bc 82 71 12 3c 21 08 99 bc
       -0.014006151 -0.008301548 0.008938195 -0.018680634
000360 ac bc 91 38 ec 46 c7 3c 7b d0 54 3b 26 29 a8 bb
       6.949282e-05 0.02432581 0.0032472897 -0.0051318584
000370 0a 0e e8 3c 15 ca 14 3c 04 0a bd bc 29 98 6f 3c
       0.028327007 0.009081383 -0.023076065 0.01462368
000380 5b 4c 90 bc 69 2e 1d bc 6d 62 44 bc 06 7b 62 ba
       -0.017614534 -0.009593585 -0.011986357 -0.0008639548
000390 11 20 64 bc 06 5d 72 bb 9c 30 8d ba 32 d0 c9 3c
       -0.013923661 -0.0036981716 -0.0010771933 0.024635408
0003a0 51 98 ad bc 14 0f 4c bc 23 ec d1 3c 94 4f d8 3c
       -0.021190794 -0.012454767 0.025625294 0.026405133
0003b0 07 62 e5 3c be a5 7b 3c 67 6e 5a 3c 91 bd 97 bb
       0.028000845 0.01535934 0.013331986 -0.0046307524
0003c0 0c 9a 41 bc 3c 4e 56 3c 1b 19 d9 3c aa 68 49 3c
       -0.011816513 0.013080176 0.026501229 0.01229302
0003d0 ee 53 7c bb 70 82 3b bc e8 ed 67 39 92 9d f8 3c
       -0.0038502174 -0.011444673 0.00022118504 0.030348573
0003e0 29 50 c7 3c 75 87 6a bc ea 7d 19 3d 6d 80 b1 39
       0.024330216 -0.014314522 0.037473597 0.00033855755
0003f0 64 b8 ea 3c 8d 75 fd 3c 84 97 d5 ba d0 5e 82 3c
       0.028652377 0.030939842 -0.0016295766 0.01591435

bias f4 [64]
000000 0e 17 5f bb b2 cb d9 3c a2 24 78 39 6e be d5 3b
       -0.0034040841 0.026586387 0.0002366477 0.006522945
000010 79 8d 8e 3b 15 7d ce 3c 3f 2a 5b bb e4 13 0c 3b
       0.004350361 0.025206128 -0.0033441929 0.002137416
000020 96 23 0d 3c d3 f4 ea ba 58 db b0 3b ba 48 83 3c
       0.008614441 -0.0017925747 0.0053972416 0.01602589
000030 c0 80 70 3b b5 c9 93 3c ab 3d e6 3c 06 f8 10 3b
       0.0036697835 0.018040517 0.028105577 0.002212049
000040 00 e9 57 3b fb 12 9d 3b 33 9e a2 3b 81 19 3a bb
       0.0032945275 0.0047935224 0.0049627065 -0.002839655
000050 48 15 4f bb 3e 6a 1a 3a 9c 1e ea b9 74 92 66 3b
       -0.0031598378 0.0005890465 -0.00044654764 0.0035182508
000060 48 d6 13 3b 11 55 09 bb 46 47 cf 3c 68 12 82 3b
       0.0022558141 -0.0020955245 0.02530254 0.0039694794
000070 22 5e 6f 3c e1 ea be 39 0e d0 f0 3a 86 d3 e2 ba
       0.014609845 0.00036414622 0.0018372552 -0.001730547
000080 6f d9 5d bb e2 bb e6 3b c7 c3 0d ba a4 9a 6b bb
       -0.0033851524 0.0070414403 -0.0005407896 -0.0035950327
000090 2e 99 8f 3c 3c 6b 2f bb dd 0c 84 3b 1d 30 2d bb
       0.017529096 -0.0026766798 0.0040298537 -0.0026426383
0000a0 68 45 80 3b d2 14 c0 ba f0 71 0c 3c 5d fb 85 3b
       0.003914524 -0.0014654642 0.008572087 0.0040888027
0000b0 c1 f9 f2 3c 83 e2 65 bb d9 25 3d bb 77 bb 52 bb
       0.029660108 -0.0035077638 -0.002886167 -0.0032155195
0000c0 19 e0 b0 3b 75 2f 74 3b 1d 6a 1c 3c f6 2e 92 bb
       0.0053978083 0.0037259732 0.009546784 -0.0044611646
0000d0 98 af b0 3b 0f a9 47 3c 90 36 95 3b 42 56 44 3b
       0.005392026 0.012186303 0.0045536235 0.002995864
0000e0 fc 94 b3 39 cc b5 41 3b 7c 62 38 3b 68 0f e7 3a
       0.00034252543 0.0029557822 0.0028134873 0.0017628493
0000f0 3a 31 34 39 81 e7 ae 3b bd ff 36 bb d6 2b 59 3b
       0.00017184476 0.005337656 -0.0027923428 0.00331377

weight f4 [32, 64, 1, 1]
000000 bb 78 37 3d 29 3f 6a be 27 20 97 bd 0e 48 17 3e
       0.044792872 -0.22875656 -0.073791794 0.1477358
000010 0d de 3b be bf 45 a7 3d 6b 93 7e bd 53 97 b7 3d
       -0.18346424 0.081676 -0.062152307 0.0896441
000020 bf fd ec bb 0d de 00 3d 56 ec 04 be 7f 6e 37 be
       -0.0072323973 0.031461764 -0.1298078 -0.17913245
000030 68 a1 38 3e b7 5c 36 3e 53 5a 3b 3e a6 97 75 be
       0.18030322 0.17808805 0.18296175 -0.2398363
000040 11 f0 49 be a7 dc 87 3b bf 6b 12 be 81 26 72 3d
       -0.19720484 0.004146177 -0.14298914 0.05911875
000050 8d 56 ce 3d 6d 49 7f be 29 76 03 3e ad f1 dd bd
       0.10075102 -0.24930353 0.12838043 -0.108371116
000060 1c 89 10 3e 60 d3 4a 3d 3d 53 15 3d 0b e6 84 bd
       0.14114803 0.04951799 0.036456335 -0.0648919
000070 36 0a 1f bd f9 fc 3a 3c 48 6b 31 3e 56 10 10 3e
       -0.038828097 0.011412852 0.17326081 0.14068732
000080 e5 28 bf 3d 60 58 28 be 10 ac c2 3d 78 bb 74 3e
       0.09333972 -0.16439962 0.095054746 0.23899639
000090 f5 8c 07 ba 75 04 3a 3e e6 a0 d7 bd 7e bb e3 3d
       -0.00051708455 0.18165763 -0.10528736 0.11119746
0000a0 41 e5 26 be d7 10 76 3e 5a 86 82 3e a3 e3 86 be
       -0.16298391 0.24029861 0.25493127 -0.26345548
0000b0 f8 f3 ed 3c 17 d2 2a 3c ba 3c 09 3e 6b 3d 69 3d
       0.029046997 0.010426066 0.13402072 0.05694334
0000c0 e9 c5 4e 3e 11 e7 41 bd b4 c6 02 3e 0d 01 c8 bd
       0.20192684 -0.047339503 0.12771112 -0.097658254
0000d0 1c 82 43 be a9 8a 82 be a3 39 0e 3e 43 6d b6 3c
       -0.19092602 -0.25496414 0.13889174 0.022268897
0000e0 c3 e6 63 be 51 d3 9f bd 3a 6c 59 3e bd ea 66 bd
       -0.22255997 -0.07803977 0.21232691 -0.056376208
0000f0 e7 e6 e5 bc e0 35 ce 3d 4d 7f 05 be d9 cd 49 3d
       -0.028064204 0.100688696 -0.13036843 0.049268577
000100 7d 50 eb bb 1f 83 01 3e f5 74 e3 3d 33 d0 de 3b
       -0.007181226 0.12647675 0.11106292 0.0067997216
000110 a0 83 3e 3e b5 78 dc 3c 78 7d e9 bd 81 9a 17 be
       0.18604898 0.026913026 -0.114008844 -0.14805032
000120 a9 4a 03 3d 8c cc 4b be 8a 33 52 3d e1 da 4b bd
       0.032053623 -0.19902247 0.051318683 -0.049769286
000130 31 0e 94 bb 40 32 6a be 91 33 2c ba 1c a3 2b be
       -0.0045182933 -0.22870731 -0.0006568963 -0.1676144
000140 30 73 79 be 8a dd 38 3e 41 2b b5 bd c3 fc 6c 3e
       -0.24360347 0.1805326 -0.08846141 0.23143296
000150 5b 81 64 be cd 0d a2 3d ab df 75 bd f0 68 79 be
       -0.2231497 0.079127885 -0.06002776 -0.24356437
000160 3f 5a b3 3d c1 be d3 3d fe ad ae 3d 76 5c f0 bd
       0.087574475 0.10339118 0.0852928 -0.117363855
000170 a2 ca 52 bd 00 f9 07 be c3 50 12 3d b3 30 51 3e
       -0.051462777 -0.1327858 0.03572155 0.20428734
000180 f9 e4 d3 3d 6a ad 1b be d5 ae 70 be ca 32 20 3e
       0.103464074 -0.15202871 -0.23504193 0.15644374
000190 7f ad 0e be f5 fa 2e be 85 68 0b 3e c6 1e db bd
       -0.13933371 -0.1708792 0.1361409 -0.10699229
0001a0 d1 b8 f2 bd be b9 02 3e b2 1b a8 3d 40 13 42 be
       -0.11851657 0.12766168 0.082084075 -0.18952656
0001b0 a7 36 00 3e aa 14 cf bc 20 fb 62 bd be 79 eb bc
       0.12520848 -0.025278408 -0.055415273 -0.028744575
0001c0 a6 e0 03 be a0 b7 3d 3e 05 7d 5c 3e 63 85 2f 3e
       -0.12878665 0.18527079 0.21532066 0.17140727
0001d0 16 38 5d 3e 91 e9 df bd a6 ee f2 bb 0a 8d cd 3c
       0.21603426 -0.10933221 -0.007413703 0.025091667
0001e0 41 fd d0 3d db fe 19 be ac eb 36 be e3 f2 44 3e
       0.10204554 -0.15038626 -0.17863339 0.19233279
0001f0 f0 cd cf bc 5d c2 31 bd 03 b6 a7 3d c7 cd ea bd
       -0.025366753 -0.04339825 0.08189013 -0.1146503
000200 07 cc 5c be f7 ee 77 3e 49 4b 94 bd 82 c8 2a 3d
       -0.21562205 0.24212252 -0.07240922 0.041695125
000210 4b 05 f7 bd 5c de c9 bd 5b 31 e1 bd f4 9d 98 bd
       -0.120615564 -0.09856865 -0.10995742 -0.07452002
000220 e2 73 4f bd e1 23 05 3e dc c5 67 3e 37 5b 05 3e
       -0.050647624 0.13001968 0.22634071 0.13023077
000230 81 65 08 3e 46 0d 66 be a4 18 7f 3d 99 a1 f5 3c
       0.1331997 -0.22466001 0.06227936 0.029984282
000240 b2 77 52 bd e4 79 09 3e 3f 1a 73 bc 40 b1 9c bd
       -0.05138368 0.13425404 -0.0148378005 -0.07650995
000250 2a 35 1e be 3b 28 79 be 62 9c 15 bd 93 2d 0f be
       -0.15449968 -0.24331753 -0.03652609 -0.13982229
000260 c3 30 10 be 2f 74 58 3e 4d 65 30 3d 77 e5 1d be
       -0.14081101 0.2113807 0.043065358 -0.15419565
000270 65 ca 3b 3e 41 2e 62 be 86 41 65 be c7 47 57 be
       0.18338926 -0.22087957 -0.22388276 -0.21023475
000280 19 95 78 3d 72 2a a4 bd 81 e9 f4 bd 20 4f e8 bd
       0.060689066 -0.08015908 -0.119586 -0.11343217
000290 66 04 c9 bd 59 0c 0f be f6 38 91 3d 7b b8 6c be
       -0.09815292 -0.13969554 0.070909426 -0.23117249
0002a0 85 dc e3 bd d6 b6 0f 3e 90 bb cd bd 60 22 37 be
       -0.11126045 0.1403459 -0.1004554 -0.17884207
0002b0 ce 7f 32 3e 7b 68 0c be b9 23 25 3e c0 5d 58 3a
       0.17431566 -0.13711731 0.16126908 0.0008253716
0002c0 c2 28 03 be 4d 58 dd 3c e5 70 a0 bb 53 79 60 be
       -0.12808517 0.027019644 -0.0048962706 -0.21921282
0002d0 43 ba 4d 3e 38 b4 3f be e5 c9 83 bd c7 5a 8f bd
       0.20090584 -0.18721092 -0.06434993 -0.06999736
0002e0 a6 f4 2c 3d 2a 24 91 bd 2e fe e6 3c b6 2c 50 3e
       0.042225502 -0.07086976 0.028197374 0.20329556
0002f0 00 81 a2 3d 41 9e d8 bd b0 89 8d 3d b7 7d 4e be
       0.07934761 -0.105770595 0.069110274 -0.20165144
000300 04 21 6b 3e ad 24 9a bd 07 8d 70 3e bb bb c0 3d
       0.22961813 -0.075265266 0.23491298 0.09410807
000310 56 96 40 3e ca b2 67 be e2 05 0a 3e 25 e0 74 be
       0.18807349 -0.22626796 0.13478807 -0.2391363
000320 c8 25 71 bd c1 ea 00 3e a9 f2 a3 3d ef 36 4a 3e
       -0.05887392 0.12589552 0.08005268 0.19747518
000330 9b a6 3f be 8d 36 64 3e ce 2f 7f be 8a 61 a5 3d
       -0.18715899 0.22286434 -0.2492058 0.08075245
000340 9e ce 04 3d c5 18 a8 bd 3f 6e 5e be 91 46 b1 3d
       0.032423608 -0.082078494 -0.21721743 0.086560376
000350 42 c5 50 be 37 dd 3d 3e ec a5 a1 bd 87 9b 5f bd
       -0.20387748 0.18541418 -0.07892975 -0.05459168
000360 a8 e8 2c 3e 70 05 37 3d cf 76 f0 3d ca 72 ee 3d
       0.16885626 0.04468292 0.11741411 0.11642988
000370 a4 55 47 bd 33 da c0 3d 39 34 d2 bd 37 4b 2a 3e
       -0.048665658 0.09416618 -0.10263867 0.16630255
000380 94 a1 0a 3d f8 2c 7b be d8 66 21 bd 0d 71 1c bd
       0.0338455 -0.24528873 -0.03940472 -0.03819375
000390 46 df 90 3d 1d 21 20 be 4a f8 6e be 6c 65 0e 3d
       0.07073836 -0.15637632 -0.23336902 0.034764692
0003a0 53 e2 30 3e 9e 1c 80 bd 2c d4 21 3e 4c 92 c3 3d
       0.17273836 -0.06255458 0.15803593 0.09549388
0003b0 00 61 90 3b 8e 51 77 3d 81 03 93 bd 72 27 b7 3c
       0.0044060946 0.06038051 -0.07178403 0.022357676
0003c0 02 0f 0a 3e 6a 77 1c be 37 38 18 be 3b 47 62 3e
       0.13482288 -0.15279928 -0.14865194 0.22097485
0003d0 c5 9b 92 3d cb 6d 38 bd b5 90 2f be f6 e1 df bd
       0.07158617 -0.04502658 -0.17145045 -0.109317705
0003e0 d2 20 61 be 04 fb 7c be 67 e3 d7 bd 4c 6e 6f 3e
       -0.21985176 -0.2470513 -0.105414204 0.23381919
0003f0 6b 41 ca bd e1 48 2d be d1 44 49 be 2f 15 3b 3b
       -0.09875759 -0.16922332 -0.19655158 0.0028546562

bias f4 [32]
000000 d1 6c d4 ba 0d 58 84 bb 4a 25 10 ba 1e ba e5 3a
       -0.0016206746 -0.004038817 -0.00054987206 0.0017526781
000010 89 36 20 3a c5 b7 82 3b 25 e0 bc 3b 38 50 55 3b
       0.0006111642 0.003989192 0.005764025 0.0032549035
000020 8e 89 cb bc 02 e4 87 bb 1b 17 94 bc 42 16 34 3c
       -0.024845865 -0.0041470537 -0.018077424 0.010991635
000030 f4 09 bd 3b 33 73 1e 3c 77 9f 89 3b d7 d8 f7 ba
       0.005769009 0.00967102 0.004199918 -0.0018909228
000040 a3 5f ce 3b d4 df 2b 3b 2a 02 9d 3b 5c 01 96 3b
       0.006298022 0.0026225941 0.0047915177 0.004577799
000050 04 b3 a5 bc 7a 8f 7b bb 56 16 80 bb 68 e1 5b 3b
       -0.020226963 -0.003838508 -0.0039089127 0.00335511
000060 46 99 45 3b 03 39 76 3b 86 ec 3e bb 7c f3 b7 ba
       0.0030151173 0.0037570603 -0.0029132678 -0.0014034356
000070 40 68 9d ba 28 bf eb ba 2f 6b 72 3b 01 f8 32 bb
       -0.0012009218 -0.0017986046 0.0036990156 -0.0027308466

weight f4 [1, 32, 5, 5]
000000 c4 9a 96 bd ef ea 8e 3d 3d 7e 92 bd b6 9b 95 bd
       -0.07353738 0.06978404 -0.07152984 -0.0730509
000010 a3 0d 6c bd ae aa 99 bc d2 33 f9 bc 83 c3 53 3d
       -0.057630192 -0.018758144 -0.030420218 0.051700126
000020 d0 df 9b 3c 43 5a 9a 3d b9 70 af 3d 0a d1 9e 3c
       0.01902762 0.07536747 0.08566422 0.019386787
000030 f2 3a 4d 3c 06 59 7d 3c 59 4d 9f bd 73 00 1b bd
       0.012526261 0.015463119 -0.07778425 -0.037842225
000040 0f a9 3f 3d 5a 34 d3 bc 4a 10 1a 3d ad 71 21 3d
       0.046792086 -0.0257818 0.03761319 0.03941505
000050 a5 dc 35 3d 7f dc 94 3b 3c 7b 85 bd e2 55 a2 bd
       0.044399876 0.0045428867 -0.06517646 -0.07926537
000060 83 15 85 bd 89 d3 ca 3c 06 be 98 bd 35 3c 14 3d
       -0.06498244 0.024759071 -0.07458119 0.03619023
000070 45 d0 a5 3d 36 46 28 3d 1f 5b 98 bd d8 22 19 bd
       0.08096365 0.041082583 -0.07439255 -0.037386745
000080 94 d9 30 bd 9d 12 27 3d 06 1f 3a bb 38 a8 89 bd
       -0.04317625 0.040789235 -0.002839984 -0.06721538
000090 a4 bc 95 bd 76 1a 88 3d d3 e7 60 bd b0 fe 3e bd
       -0.07311371 0.06645672 -0.054908585 -0.046629608
0000a0 95 7e ac bd c1 c8 8c 3d 3d 52 ab bd 83 b6 52 bd
       -0.08422581 0.06874228 -0.08365295 -0.051443588
0000b0 16 0f 47 bc c9 20 99 3b 90 a6 6d bd 34 2c f6 bb
       -0.012149593 0.0046730977 -0.058020175 -0.0075125936
0000c0 e4 7a a2 3d 96 c8 5c 3d e0 15 1b 3c c1 5a a3 3d
       0.07933596 0.05390223 0.009465665 0.07976294
0000d0 9c de 3e 3d 30 9e 1d bd cf 61 a2 bc ac 38 cc 3c
       0.046599016 -0.038480937 -0.01982203 0.024929367
0000e0 0b bf b0 3c 36 30 48 bd 97 f7 67 3d 62 81 1f bd
       0.021575471 -0.048874103 0.056632604 -0.03894175
0000f0 22 ff 1b bd 43 9d 33 bb 8e 78 90 3d a3 30 37 3c
       -0.03808511 -0.0027406968 0.07054244 0.0111810295
000100 35 34 71 3d 55 16 07 bd 47 33 e0 bb 57 f9 69 bc
       0.05888768 -0.03298028 -0.0068420502 -0.014280639
000110 87 b6 88 3c 4c 71 bb bc 8b 69 d4 bc cc 95 dd bc
       0.016688598 -0.022881173 -0.025929233 -0.027048968
000120 f3 c2 8f bd 17 66 99 3d 75 02 7c bd dd aa 8d bd
       -0.070196055 0.07490175 -0.06152578 -0.06917355
000130 c4 30 a3 bd 2c d8 ad bc 44 2a 29 3c 39 33 22 bd
       -0.07968286 -0.021221243 0.010325018 -0.03959963
000140 1d d7 31 3d 06 88 21 bc 36 65 15 3d a3 05 16 3d
       0.04341804 -0.009859091 0.036473475 0.03662647
000150 0d 6a 4d bc 65 af 1e bd 5f be a0 3d 3a 62 9d 3d
       -0.0125374915 -0.038741488 0.078488104 0.07684751
000160 c1 60 c2 3c 96 86 cf bc 10 e8 39 3d b5 9d 42 bd
       0.023727776 -0.02533273 0.045387328 -0.047513682
000170 d1 00 2f 3d cb c2 ed 3c 42 18 0a 3d a3 52 92 bd
       0.042725388 0.029023549 0.03371454 -0.07144668
000180 b7 e8 01 ba 3c b9 8b 3d 83 c0 1e b8 31 88 a4 bd
       -0.00049556367 0.0682244 -3.7849426e-05 -0.08033789
000190 4f b8 3b bc 0c 71 48 bd d2 c5 e1 3b 34 92 36 3d
       -0.011457517 -0.048935935 0.006890037 0.044573024
0001a0 b6 92 d5 bc c0 2c a9 bc 5d f4 06 3d ba 9c 31 bd
       -0.026070934 -0.020651221 0.032947887 -0.043362357
0001b0 c3 7d a5 bd 44 88 fd 3c 60 21 8d 3b eb a6 94 3c
       -0.08080628 0.030948766 0.004306957 0.018145999
0001c0 e4 f9 b7 3c 18 dd 82 3c a7 87 fb 3b 15 13 22 bd
       0.022458024 0.015974566 0.007676083 -0.03956898
0001d0 7c 98 84 3c a5 5c 5d 3d 4e 48 24 3d bb 8e 95 bd
       0.016185991 0.05404343 0.040108018 -0.07302614
0001e0 86 07 47 bd 54 9f 08 3d c4 34 39 3d 33 80 8b bd
       -0.04859116 0.033355072 0.045216337 -0.068115614
0001f0 92 62 e8 bc 1d 8a 81 3d 31 9f 24 3d ff f7 f4 3c
       -0.028367314 0.06325171 0.04019088 0.02990341
000200 cf ef 8c bd 14 5f 4f 3d 2d ff 26 bd 63 29 43 3d
       -0.06881677 0.050627783 -0.0407707 0.04764689
000210 08 f8 35 3d 92 52 90 3c a1 43 93 3b aa 13 1d 3d
       0.044425994 0.017617498 0.004494146 0.03834883
000220 b1 33 3e 3d a2 2b 88 bc 81 94 5b 3d 1f 0d 1f bd
       0.046436016 -0.016622368 0.05360842 -0.038830873
000230 3d 44 a7 bd df b5 f9 3c 58 95 a6 bc 8e 99 35 bd
       -0.08167312 0.03048223 -0.020334885 -0.044335894
000240 3d 9e a1 3d 87 f1 56 3d fb 1a ef 3c c9 92 c7 bc
       0.0789151 0.052476432 0.02918767 -0.024361985
000250 0c f4 4f bd 12 78 4c bd 67 e4 f6 bc 8b 8a c3 3c
       -0.05076985 -0.049919195 -0.030138208 0.023869773
000260 ed c3 ba bc f6 56 0e 3d 82 ca 3f bd df 94 93 bd
       -0.022798503 0.0347509 -0.046823986 -0.07206129
000270 78 3e 0f bb 53 5a a4 bc 50 b7 93 bd e1 7b 3a bc
       -0.0021857303 -0.020062601 -0.072126985 -0.011382074
000280 35 88 18 3d df 1b 93 3d 1e f9 0a 3d ea 08 3d 3c
       0.037239272 0.0718305 0.033928983 0.01153777
000290 89 cb d4 3c 6c 4c aa bd 6f 11 17 3d 53 ae f2 bc
       0.02597596 -0.083153576 0.03688186 -0.02962414
0002a0 dd 64 fd bc 13 98 c6 bc cf 5e 89 bd 08 dd a6 3d
       -0.030931884 -0.024242437 -0.067075364 0.08147627
0002b0 8e 2f ae bc 55 ed d9 bc 77 9f 2f 3d 75 b1 8e 3d
       -0.02126291 -0.026602427 0.042876687 0.06967441
0002c0 c0 95 3a 3d 75 42 4b bd c5 ba c5 bc fc f7 2f bc
       0.04555297 -0.049623925 -0.02413691 -0.010740276
0002d0 2c e8 9e 3d 74 13 4c bc bf 6d 97 bd c7 aa 65 3c
       0.07759127 -0.01245581 -0.07393979 0.014017767
0002e0 d0 4c 29 3b 6b d7 d7 bb 2d 19 85 3d fd 09 92 bd
       0.0025833137 -0.006586959 0.064989425 -0.07130811
0002f0 59 06 22 3d 0e 60 8d 3d ad 29 4e bd db 32 a5 3d
       0.039556835 0.069030866 -0.050332714 0.080663405
000300 9c 14 3e 3d d2 29 03 3d 66 29 9e 3d e4 04 10 bd
       0.046406373 0.032022305 0.0772274 -0.035160914
000310 6a d9 9d 3d af 71 aa 3d 7c 87 24 bc 04 ab 7f bd
       0.07707484 0.08322465 -0.010042068 -0.062418953
000320 40 87 5e 3d fb cb 4c 3d 9b 1f 29 bb af fd 17 3c
       0.054328203 0.04999922 -0.0025806192 0.0092767915
000330 35 5d 81 3b 5d c9 ea 3c db dc a3 3d 74 29 26 3d
       0.0039478787 0.02866047 0.08001109 0.040566877
000340 7b 90 84 3d 11 dd 54 bd 79 dd a5 bd 72 f2 63 bc
       0.0647287 -0.051968638 -0.08098883 -0.013912784
000350 55 84 7a bd 53 87 9a 3d 6d 7e 63 3d 93 78 a1 bd
       -0.061161358 0.07545342 0.05554049 -0.07884326
000360 a1 d8 3c 3c d3 e5 81 bd 16 28 2e bc e9 2b 90 3d
       0.011526258 -0.063426636 -0.010629674 0.07039625
000370 97 74 82 bd a7 ae bf bb a5 f2 55 bd 9f e2 6e 3c
       -0.06369894 -0.0058496776 -0.052233357 0.014580398
000380 9c da 8b bd 3b 76 ac bd c4 dd a2 3d b3 94 39 bd
       -0.06828806 -0.08420988 0.07952455 -0.045307826
000390 2d e1 c8 bc d4 95 a9 3d 91 01 3e 3d 98 9a 26 bd
       -0.024521435 0.082805306 0.046388213 -0.040674776
0003a0 75 9d 7c bc 56 52 f7 bc df f7 a1 bd 5c d4 58 bd
       -0.0154184 -0.030190628 -0.07908606 -0.052936897
0003b0 cb ae 0d 3c 1f f1 6c bc 1c c5 7f bd 72 af 93 bd
       0.008647631 -0.014461785 -0.062443838 -0.07211198
0003c0 eb 70 f8 3b 82 25 09 3d 93 d8 87 bd e7 8c b4 3c
       0.0075818202 0.033483036 -0.06633105 0.022039844
0003d0 77 f0 6c 3d 76 53 9b bd b0 63 65 3d 1d 5f 9b bc
       0.057846513 -0.07584278 0.056003273 -0.018966252
0003e0 3d c5 a5 3c 8b 8c 95 3d 2c b8 a0 bd c9 ed b5 bb
       0.020235652 0.07302197 -0.07847628 -0.005552028
0003f0 72 d6 01 3d 5e db 6f 3d 85 19 86 bd 9b 0b f7 3c
       0.03169865 0.058558814 -0.06547836 0.030156901
