modeldata/model_16_epoch.pth (torch_old, 43016 bytes, 5 tensors)

weight f4 [64, 1, 9, 9]
00000000: 7f79 2b3c f2be 593b e4a5 ce3c 2fcf 233b
00000010: e986 bdba 0d6c ffbc 0bc7 903c dafa f4bb
00000020: bfac 0abc 195e e4bc 700e 793c 7d8c a63b
00000030: cd8a 9cbc 928e 843c 1531 b03c 061b c9bc
00000040: bc5f 8cba 7223 acbc 4a52 7a3c 3916 46bc
00000050: 2099 ca3b a299 acbc 7853 94bc 5505 053b
00000060: 0c18 02bd f5af ee3c 5859 ddbc 5e0a fbbc
00000070: a894 843c bafd e7bb cd6f d8bc 55f6 9ebc
00000080: 67be 3a3c a7f4 b9bb 4768 01bd 2b76 f5bb
00000090: 09dc 68bc ae32 ba3b c8f4 9b3c 5fa2 6039
000000a0: be27 693c 33a2 a9bb 72ca ba3c de45 d0bc
000000b0: af3a f8b9 4f78 ae3c 89ea 9dbc d0f3 023c
000000c0: f1e7 2cbc a1d9 c2bc 1ebc a53c 3b89 acbc
000000d0: 78e8 adbc 861f eabc e3da 0c3c cc8a 5a3b
000000e0: 5930 003d 00c8 d3bb be97 e7bc 7f99 04bd
000000f0: 12ac 373b fd0b b3bc 0c9c cf3b 9825 e4bc
00000100: 40f7 45bc 5f68 e7bb 42a6 bcbc af92 483c
00000110: 711e b9bc eddd d7bc 9947 e8bc 3215 f93c
00000120: a77d bbbb d4b1 56bc 5f16 adbc a855 103c
00000130: 8893 0c3c 0ae5 303b dce0 02bd fee7 ebbb
00000140: 96b0 843c bd18 743b 936a 5abc 0732 eebb
00000150: e56f f03c 6446 5b3d d6e1 0b3d d737 393d
00000160: 4a3e 62bc 2b90 ebbc 2ed3 063d ebaa a6bc
00000170: 81eb dd3c 29f6 1a3d 8ede ad3c 8698 333d
00000180: fcaf 4d3a bb14 363d c3c9 133d d6de 143d
00000190: 2499 c8ba 4719 ec3c 048b 08bc 8a53 933c
000001a0: 8b74 173d fb7e d1bc 047c 693d 1ff8 8dbb
000001b0: c06a 063d 4ccd 9f3c a17a 363c 6519 9abb
000001c0: 9f87 e1bc 37ea 66bc 2adb d5bc ca15 df3c
000001d0: 70a4 653c 26d9 a93b 2733 253b fdf2 803c
000001e0: 0bb7 87bc db7e 0bbd 671b b1bd e4e6 50bd
000001f0: cd44 d93b 3b72 8f3d c5f3 853c 60f2 203d
00000200: 5c14 563d 4d2d c2ba 9e63 13bd 065f 7dbd
00000210: b8b9 83bd cd3e 263d d446 973d 894c 343a
00000220: cb52 143d afe8 9d3c ad99 9e3b 6912 1bbc
00000230: fe15 7dbd 9e38 a1bc a626 033d cf71 693d
00000240: bfaa babb 7b8b fc3c dc49 033d d94e 2d3d
00000250: 67c0 6e3c aed0 323d f4ba 343d aa57 383d
00000260: b443 333d 2918 1bbc 9b7a 013d b8fd 4fbc
00000270: 3c5c 843b 5fea 553d 2876 fa3c 242c a13c
00000280: c3b0 ce3b 27dd 1ebb df16 a1bc f12a cfba
00000290: 0815 edbc 9a19 5dbb 46b4 1d3c 03e7 c83c
000002a0: 4e82 d7bb ed87 0d38 717a d23c 7beb babb
000002b0: 87d4 9ebc 0f0e 95ba c6d7 bebc 7b5c a0bc
000002c0: 925a c1bc c8bb ce3c d7f0 86bc d9ad 063c
000002d0: 208d f9bc edaa d43a 1cdc 343c 0825 92bc
000002e0: 5eed 65bc da07 ae3b 387c 0bbd 0969 84bc
000002f0: c0fd 9cbc 1d97 3a3c cc05 353c d019 a13c
00000300: 2ee0 9bbc d3e3 0a3d 5c81 29bc c5d1 603c
00000310: a19e d6bb e415 b8bc 101e 06bc 3e08 74bc
00000320: 6893 96bc 0943 91bb cb64 cbbb ad26 e43a
00000330: dfad b43c 35d3 87bc 0214 eb3b 08ac 4e3a
00000340: 70f1 783c 1873 b03c d7b5 b5bc dadc 0ebd
00000350: f0d8 2cbc 7afc d5bb 1c42 243c e404 8dbc
00000360: 80a9 62bb 6613 bc3c eea8 1a3b 0567 a7bb
00000370: e846 d43c 4c75 693c 417c a5bc 9eb4 853c
00000380: 18d0 81bc 57c5 54bc b746 52bc 4435 c3ba
00000390: 3cc0 66bc 5c07 c7bb 58a7 843b de37 e03c
000003a0: 4511 9fbc 2573 2ebc ce27 b03c d417 ce3c
000003b0: 57ec dd3c 42ea 6c3c 1fa8 203c b3bc 6fba
000003c0: 347e 26bc 0541 6c3c c984 e53c a9f1 1f3c
000003d0: 51dc cbbb 93ef 39bc 793e 2b3b 3ffb 0d3d
000003e0: 47ea ad3c 3df6 bbbc b310 173d 610e fa3a
000003f0: 9eac c53c d124 e53c 30ac fab7 79e7 9e3c
0.010465979 0.0033225385 0.025225587 0.0024995317 -0.0014459762 -0.031179452 0.017673036 -0.007476193
-0.008464037 -0.0278769 0.015201196 0.0050826655 -0.019109154 0.016181264 0.02150778 -0.024549019
-0.0010709683 -0.021012995 0.015278408 -0.012090259 0.0061828047 -0.021069352 -0.018106207 0.0020297368
-0.031761214 0.029136637 -0.027020141 -0.030644592 0.016184166 -0.007079807 -0.026420498 -0.01940457
0.0113979345 -0.005674917 -0.031593587 -0.0074908934 -0.014212617 0.005682311 0.01903762 0.00021422793
0.014230667 -0.0051768064 0.022801612 -0.02542394 -0.0004734597 0.021297602 -0.019276874 0.0079927
-0.010553346 -0.023785414 0.020231303 -0.02106153 -0.021229014 -0.028579485 0.008597109 0.003334689
0.031296108 -0.006463051 -0.028270599 -0.032372948 0.0028026146 -0.021856302 0.006335741 -0.027849957
-0.012082875 -0.0070620026 -0.023028497 0.012242003 -0.022597523 -0.02635094 -0.028354453 0.030405615
-0.005721766 -0.013103921 -0.021128831 0.008809485 0.008580096 0.0026991987 -0.031952724 -0.0071992865
0.016197484 0.003724619 -0.013331073 -0.0072691473 0.02935023 0.053533927 0.03415092 0.04521927
-0.013808796 -0.028755268 0.03291624 -0.020345172 0.027089836 0.037832413 0.021224286 0.04384663
0.0007846353 0.044453364 0.036081087 0.036345325 -0.0015304429 0.028820647 -0.008333925 0.01798417
0.03697638 -0.025573244 0.057003036 -0.004332557 0.03281665 0.019507073 0.011137635 -0.0047027343
-0.02753049 -0.014093927 -0.026105482 0.02723207 0.014016256 0.005183357 0.002520749 0.015740866
-0.016566774 -0.034056526 -0.08647805 -0.051001444 0.006630516 0.070042096 0.01635159 0.039293647
0.05226551 -0.0014814526 -0.035983674 -0.0618582 -0.064319074 0.040587235 0.07386556 0.00068778597
0.03621177 0.019275991 0.004840097 -0.009464839 -0.06178855 -0.019680317 0.03201928 0.056993302
-0.005696624 0.030828228 0.03205286 0.042311523 0.0145722395 0.043656044 0.044123605 0.045005478
0.04376574 -0.009466209 0.031611066 -0.012694769 0.0040393155 0.052225467 0.03057392 0.019674368
0.0063076927 -0.0024240704 -0.019664226 -0.0015805644 -0.028940693 -0.0033737184 0.0096255 0.024524217
-0.006576813 3.374361e-05 0.02569315 -0.005704341 -0.01938845 -0.0011371988 -0.023296248 -0.019575348
-0.023602758 0.025236025 -0.016472263 0.008220159 -0.030462801 0.0016225256 0.011038806 -0.017839924
-0.0140336435 0.0053109946 -0.03405401 -0.016163366 -0.019163966 0.011388567 0.011048745 0.019665629
-0.019027796 0.033908676 -0.010345783 0.013721888 -0.0065496718 -0.022471376 -0.008185878 -0.014894543
-0.018380836 -0.00443304 -0.006207084 0.0017406546 0.022055564 -0.016580204 0.007174016 0.0007883911
0.015194282 0.021539256 -0.022181435 -0.03487859 -0.010549769 -0.0065303417 0.010025527 -0.017214246
-0.0034585893 0.022958469 0.0023599225 -0.0051087164 0.025912717 0.014249157 -0.02020085 0.016321477
-0.015846297 -0.012986503 -0.012834243 -0.0014893194 -0.014083918 -0.0060738754 0.0040482692 0.02737039
-0.019417414 -0.01064757 0.021503355 0.025157847 0.027090235 0.014460148 0.009805708 -0.0009145245
-0.010161925 0.014419799 0.028017418 0.009762206 -0.006221332 -0.011348623 0.0026129766 0.034663435
0.021229876 -0.022944564 0.03688116 0.0019077772 0.024130162 0.027971657 -2.9882503e-05 0.019397484

bias f4 [64]
00000000: 075e 84bb 680d 023d 3c11 7bbb 06ce dc3b
00000010: 01a0 7d3b 3bb3 923c a9b1 17bb ec4e 1b3b
00000020: 573e cab9 dd6e 2e3b fffe a13b d3dc d33b
00000030: ae18 823b 7748 a03c d897 003d 38dc fb3a
00000040: 0f7a af3b 97c5 953b b04c 9b3b 9942 40bb
00000050: 362c 55bb 47a3 ec3a dd20 0e3c c3f6 493b
00000060: e4d9 203b 1791 ebba 7756 c63c a466 6c3b
00000070: 2548 9b3c 0e6c 4739 4f63 153b 9f47 50ba
00000080: d62b 5fbb 6afe fa3b f1e4 a43a 7219 67bb
00000090: f4c8 953c 1364 76bb e233 6c3b e5a9 31bb
000000a0: 0496 4d3b 0804 16bb e225 f93b 3a7a 803b
000000b0: 2fcc 5d3c e7b8 5abb 1a2c 3bbb befe a0bb
000000c0: eba8 dd3a fbc7 593b d0e1 7a3c 68ad a0bb
000000d0: 0f4c a43b b9dc 5a3c 1924 683b bfd4 cf3a
000000e0: 761f e13a 1565 f93a b53a 843b 8b98 8f3a
000000f0: 298e ee39 5ed4 ab3b f7eb 2ebb 9495 293b
-0.0040395292 0.031751066 -0.0038309833 0.006738427 0.0038700106 0.01790773 -0.0023146665 0.0023698164
-0.0003857489 0.0026616373 0.004943728 0.0064655333 0.003970227 0.019565804 0.03139481 0.001921541
0.0053551267 0.0045706737 0.0047393665 -0.002933657 -0.0032527572 0.0018054032 0.008674827 0.0030817247
0.0024543935 -0.0017972317 0.024211152 0.003607192 0.0189553 0.00019018372 0.0022794788 -0.00079452427
-0.0034053228 0.007659723 0.0012580437 -0.003526297 0.018284298 -0.003759627 0.0036041667 -0.0027109322
0.0031369934 -0.0022890586 0.007603393 0.0039208205 0.013537451 -0.003337437 -0.0028560222 -0.00491318
0.0016911303 0.003323077 0.015312627 -0.004903484 0.0050139497 0.013358288 0.0035421907 0.001585625
0.0017175514 0.0019027317 0.0040353187 0.0010955496 0.00045500815 0.005243822 -0.002669094 0.002587651

weight f4 [32, 64, 1, 1]
00000000: b0a8 373d d057 65be 7b4a 2abe 691b 143e
00000010: 55fd 3dbe 2cd8 ba3d 6da9 febc 5bb6 b13d
00000020: f092 aabc e5bd ee3c 95fc 09be fe95 72be
00000030: 7767 383e b000 433e 19b9 3a3e 27d4 77be
00000040: 4f94 49be 610a 6d3b db3f 12be 436e 753d
00000050: c65e d03d 967b 7fbe 39ab 703e ee2d 23be
00000060: 70df 0b3e 9a00 4b3d 64f6 853d acc2 8ebd
00000070: 1e28 29bd 03eb b6bb e2a9 2d3e d413 103e
00000080: 3d42 bf3d 18c1 47be 040b c13d bc98 743e
00000090: 3b73 39bb f6ba 2c3e 4e3c debd 68e1 e33d
000000a0: f7b0 27be db8d 713e 6bcf 813e d87b 8dbe
000000b0: c468 fe3d cd2d 2c3c 5333 0a3e 6988 673d
000000c0: d156 6a3e a958 bcbd c0ab ca3d 4825 c8bd
000000d0: 6ba9 43be 9340 8cbe 336d 083e ca17 b13c
000000e0: 4714 63be b796 aabd 3cd1 533e d05c 62bd
000000f0: 070c a1bd a6c0 ce3d 42e1 07be 9903 4d3d
00000100: 124b ecbb a0bb 613e 7c27 f33d e169 9d3b
00000110: 79ab 3f3e c423 173d 65be 00be aff5 17be
00000120: 20a5 de3c d057 4cbe 3fe0 553d 2d2a d43c
00000130: 7208 92bb fd70 65be 8326 9b3c 18a6 2bbe
00000140: 14e9 79be 92e4 393e f695 b5bd c0fc 6c3e
00000150: 4b81 64be f5c6 a23d d36b 5abd 109f 7dbe
00000160: 5c87 b53d 6a88 d33d aec4 ae3d feb8 e9bd
00000170: 2180 16bd 5221 08be 6e43 123d b85b 513e
00000180: 9018 d43d 7110 1dbe 8d78 70be 4636 203e
00000190: a24e 0bbe dec8 fabd ebca 0b3e 301d dbbd
000001a0: 28f9 f2bd 8ac4 033e e732 aa3d 1661 41be
000001b0: 29a2 c33d 2600 cfbc ff37 63bd 41a7 ecbc
000001c0: 7e31 0fbe 5853 3b3e c06e 613e 4e85 2f3e
000001d0: 1531 5d3e af1c dfbd d19f e2bb deea ce3c
000001e0: 7a06 d23d 9f65 1abe 8241 36be ced1 443e
000001f0: 4b4a c3bc 312b 34bd b5e2 a63d 75a4 eabd
00000200: bbc5 5cbe fa63 7c3e ec0f 90bd 8f5a 5c3d
00000210: 9676 d6bd acd9 b9bd 0cbb 05be 1e40 a5bd
00000220: 2e2f 34be e4b6 fd3d f9a9 663e 0044 c13d
00000230: c4d9 093e 9d15 3cbe 8881 b43d 4a4b be3c
00000240: 370c 0fbd 5b76 2c3e 8045 0abd f993 9dbd
00000250: 4bb7 31be a5a8 5bbe 0574 13be 465e 1cbe
00000260: a9da 17be f876 583e 6210 453d cdc8 22be
00000270: 0ac0 573e 2d7a 61be afa8 71be 623f 50be
00000280: e061 6b3d 98b7 8ebd cff6 fbbd 5d5c eebd
00000290: 7af4 d7bd 8251 f1bd b5cb 963d 1105 6ebe
000002a0: b021 dbbd e623 d43d 4b4a c5bd 32db 2fbe
000002b0: b341 443e 8c5a c2bd 4c74 e73d 0cf9 643a
000002c0: ec9a e2bd 0b7a 46bc a672 4abc fc46 5dbe
000002d0: 10ea 463e 5767 4abe 891a 6bbd 2466 93bd
000002e0: b6cd 0d3d 0792 64bb dc8d 093d b207 4e3e
000002f0: 4085 083e 9b9a c9bd d416 263d cee5 4dbe
00000300: 0421 6b3e ad24 9abd 078d 703e bbbb c03d
00000310: 5696 403e cab2 67be e205 0a3e 25e0 74be
00000320: c825 71bd c1ea 003e a9f2 a33d ef36 4a3e
00000330: 9ba6 3fbe 8d36 643e ce2f 7fbe 8a61 a53d
00000340: 9ece 043d c518 a8bd 3f6e 5ebe 9146 b13d
00000350: 42c5 50be 37dd 3d3e eca5 a1bd 879b 5fbd
00000360: a8e8 2c3e 7005 373d cf76 f03d ca72 ee3d
00000370: a455 47bd 33da c03d 3934 d2bd 374b 2a3e
00000380: 94a1 0a3d f82c 7bbe d866 21bd 0d71 1cbd
00000390: 46df 903d 1d21 20be 4af8 6ebe 6c65 0e3d
000003a0: 53e2 303e 9e1c 80bd 2cd4 213e 4c92 c33d
000003b0: 0061 903b 8e51 773d 8103 93bd 7227 b73c
000003c0: 020f 0a3e 6a77 1cbe 3738 18be 3b47 623e
000003d0: c59b 923d cb6d 38bd b590 2fbe f6e1 dfbd
000003e0: d220 61be 04fb 7cbe 67e3 d7bd 4c6e 6f3e
000003f0: 6b41 cabd e148 2dbe d144 49be 2f15 3b3b
0.044838607 -0.22396779 -0.16629975 0.14463581 -0.1855367 0.09123263 -0.031086648 0.0867736
-0.020822018 0.029143283 -0.13475259 -0.2369003 0.18008219 0.19043231 0.18234672 -0.24202023
-0.19685481 0.0036169516 -0.14282171 0.059919607 0.101743266 -0.24949488 0.23502816 -0.1593549
0.13659453 0.04956112 0.06541136 -0.069707245 -0.041298024 -0.005582215 0.16959336 0.14070064
0.09338806 -0.19507253 0.09425929 0.23886389 -0.0028297442 0.16868195 -0.10851346 0.11126977
-0.163761 0.2358927 0.2535356 -0.27633548 0.12422326 0.010508967 0.13496141 0.056526575
0.2288468 -0.09196598 0.0989604 -0.09772736 -0.19107597 -0.27393016 0.13322906 0.021617789
-0.22175704 -0.08329528 0.20685285 -0.055264294 -0.07863622 0.100953385 -0.13269523 0.05005226
-0.0072110975 0.2204423 0.118727654 0.0048038815 0.18717755 0.036899343 -0.1257263 -0.14839815
0.027178347 -0.19955373 0.05221581 0.025899017 -0.004456573 -0.22406383 0.018939262 -0.16762578
-0.24405318 0.18153599 -0.088664934 0.23143291 -0.22314946 0.07948104 -0.053325485 -0.24767709
0.088637084 0.10328753 0.085336074 -0.114122376 -0.036743287 -0.1329396 0.035708837 0.20445144
0.103562474 -0.15338303 -0.23483486 0.15645704 -0.13604215 -0.122453436 0.13651626 -0.106989264
-0.11863929 0.12867942 0.0831049 -0.18884692 0.09552414 -0.025268625 -0.055473324 -0.028888347
-0.13983724 0.18293512 0.22014904 0.17140695 0.21600755 -0.10894143 -0.0069160243 0.025258478
0.102551416 -0.15077828 -0.17798427 0.19220659 -0.023839137 -0.043986503 0.0814871 -0.11457149
-0.21559803 0.24647513 -0.07034287 0.0537973 -0.10471837 -0.09074721 -0.13059634 -0.0806887
-0.17596123 0.12388399 0.22525777 0.09436798 0.13461977 -0.1836762 0.088137686 0.02322926
-0.03492376 0.16842024 -0.033757687 -0.07694239 -0.17355077 -0.21451052 -0.14399727 -0.15270337
-0.14829506 0.21139133 0.048111327 -0.15896912 0.21069351 -0.22019263 -0.23599504 -0.20336679
0.057466388 -0.069686115 -0.123029344 -0.11638711 -0.10544677 -0.117831245 0.07363073 -0.2324412
-0.10699785 0.103584096 -0.09633311 -0.1717346 0.19165687 -0.09489927 0.11301479 0.00087346206
-0.11064705 -0.012114058 -0.012356436 -0.2160911 0.19425225 -0.19765984 -0.057398353 -0.07197216
0.03462001 -0.0034877078 0.033582553 0.20120123 0.13332081 -0.09843942 0.040549114 -0.20107195
0.22961813 -0.075265266 0.23491298 0.09410807 0.18807349 -0.22626796 0.13478807 -0.2391363
-0.05887392 0.12589552 0.08005268 0.19747518 -0.18715899 0.22286434 -0.2492058 0.08075245
0.032423608 -0.082078494 -0.21721743 0.086560376 -0.20387748 0.18541418 -0.07892975 -0.05459168
0.16885626 0.04468292 0.11741411 0.11642988 -0.048665658 0.09416618 -0.10263867 0.16630255
0.0338455 -0.24528873 -0.03940472 -0.03819375 0.07073836 -0.15637632 -0.23336902 0.034764692
0.17273836 -0.06255458 0.15803593 0.09549388 0.0044060946 0.06038051 -0.07178403 0.022357676
0.13482288 -0.15279928 -0.14865194 0.22097485 0.07158617 -0.04502658 -0.17145045 -0.109317705
-0.21985176 -0.2470513 -0.105414204 0.23381919 -0.09875759 -0.16922332 -0.19655158 0.0028546562

bias f4 [32]
00000000: 4ada 09bb 93bd 55bb 09d3 f73b 1eba e53a
00000010: a0ea 94b9 6623 713b 24ab 473b e737 4c3b
00000020: 8b68 f0bc 65e0 86bb cc3f 913c 4fcc 123c
00000030: 4ce9 b23b cc60 0f3c 5cdf 913b d7d8 f7ba
00000040: 68df be3b c1eb 8c3b a265 ad3b 455d 7c3b
00000050: 318d c0bc 546a 64bb 7281 3c3c f799 e73b
00000060: 5662 293b f59f 823b 4447 52bb 5df3 06bb
00000070: 4068 9dba 4c75 ebba 1871 643b 2b43 1fbb
-0.0021034651 -0.0032614216 0.007562999 0.0017526781 -0.0002840357 0.003679478 0.0030466998 0.003116125
-0.029346725 -0.0041161054 0.017730616 0.008959844 0.00545994 0.0087511055 0.0044516753 -0.0018909228
0.005824972 0.004300565 0.0052916566 0.0038507741 -0.023504825 -0.0034853416 0.011505472 0.0070679146
0.0025845966 0.0039863535 -0.0032085935 -0.0020591833 -0.0012009218 -0.0017964034 0.0034857448 -0.002430151

weight f4 [1, 32, 5, 5]
00000000: 14ab 96bd 637b 913d 6285 92bd 102f 93bd
00000010: 436e 65bd 1f9c 98bc 50ef e7bc 48e9 553d
00000020: 00a9 a83c 16fa 9d3d e757 b13d b46e b93c
00000030: 7768 5d3c 4292 873c 80f5 9cbd 4537 1bbd
00000040: 1ef1 443d 053f d7bc 23f9 193d b4e4 243d
00000050: d2ed 343d 4c6c a83b 586a 86bd 7567 a0bd
00000060: ec8d 81bd 41ad cd3c 1d64 98bd 9acf 143d
00000070: 7f1a a63d 30cd 283d 378e 97bd f005 18bd
00000080: bfa8 30bd 3931 273d 2db5 36bb 5816 8abd
00000090: 54d3 95bd 96d9 873d 219c 62bd 8274 40bd
000000a0: e0ca acbd 6062 8c3d 96ef abbd c30d 54bd
000000b0: defe 48bc 668a 9a3b 7fe0 6dbd c92d fcbb
000000c0: 1079 a23d 6f72 5d3d 866b 043c 07d8 9f3d
000000d0: 36af 363d 3e1d 29bd 9de7 a8bc cf56 b23c
000000e0: 1ba3 a03c dd68 4abd 9662 583d 75b2 2ebd
000000f0: 159a 28bd 3187 95bb 63c2 943d ca7c 333c
00000100: 9c16 653d 0dd4 0abd f603 0bbc a6c3 69bc
00000110: cfcf 863c db28 c8bc e9c5 cfbc d64b e3bc
00000120: 8726 94bd 79ea 933d 2681 81bd ddaa 8dbd
00000130: c430 a3bd 2cd8 adbc 442a 293c 3933 22bd
00000140: 1dd7 313d 0688 21bc 3665 153d a305 163d
00000150: 0d6a 4dbc 65af 1ebd 5fbe a03d 3a62 9d3d
00000160: c160 c23c 9686 cfbc 10e8 393d b59d 42bd
00000170: d100 2f3d cbc2 ed3c 4218 0a3d a352 92bd
00000180: b7e8 01ba 3cb9 8b3d 83c0 1eb8 3188 a4bd
00000190: 51bc 36bc 107f 46bd 113a f23b 7e22 383d
000001a0: 751e d0bc a88b a6bc 525e 073d f0fb 30bd
000001b0: f57e a5bd 744e 013d 9cba 923b 0985 983c
000001c0: 9b63 c13c 7ab5 853c 9d82 093c 4b5b 23bd
000001d0: 70f7 823c a194 5e3d df96 233d 31c4 94bd
000001e0: 8241 4abd a8b8 073d c558 3a3d 7539 8bbd
000001f0: c670 e3bc e692 813d 3c12 253d 2a32 f73c
00000200: 27be 8cbd 4266 4f3d 91d9 26bd 09e0 433d
00000210: 3742 373d 1053 903c 489b 913b bb2b 1d3d
00000220: 47f4 3e3d 58fd 84bc 5f43 5b3d 9e4c 1fbd
00000230: be3b a7bd 3691 f93c 51f9 a6bc 84b0 36bd
00000240: bd67 a13d bb62 573d 383f ef3c 20f5 c7bc
00000250: e080 50bd f34c 4cbd d304 f8bc 033b cf3c
00000260: 11a8 b8bc 669e 093d ea5b 41bd 83a3 93bd
00000270: 0bb8 beb9 e3bc 9dbc 9c7f 99bd 3385 61bc
00000280: 0c7a 193d 44c3 953d c5d8 113d 79a4 2b3c
00000290: 2517 cf3c f9fd aabd 9b54 163d 8e9f f2bc
000002a0: 02f5 01bd af71 cbbc 1b12 88bd 583e a83d
000002b0: 405b a7bc 7d4f d8bc da11 303d 3ee5 8e3d
000002c0: 7fa4 3a3d 3987 4bbd 32bd c5bc 0816 2ebc
000002d0: ed35 9f3d 588e 4cbc 6abe 97bd 98c2 643c
000002e0: ed2e 323b 923f d2bb 9f09 853d 6d50 92bd
000002f0: f56c 213d a9a2 8d3d 399e 4dbd 8d41 a53d
00000300: 534e 3e3d bf1e 033d 117b 9e3d a5b2 0fbd
00000310: e2dd 9d3d fd89 aa3d 1c3a 25bc 8570 7fbd
00000320: 5ca4 5e3d a6fd 4d3d 3b2e 0bbb 4375 1e3c
00000330: 81cf 813b faa0 ea3c ca7b a43d c4bd 273d
00000340: cef3 843d c58e 55bd c9f6 a5bd 21ad 5dbc
00000350: b41e 78bd e576 9b3d 6788 633d 9ca6 a1bd
00000360: 1537 3d3c 34ec 81bd ffe2 2cbc a7d6 8f3d
00000370: af3c 82bd 86fb bdbb 61c8 56bd 81b7 6e3c
00000380: dd15 8cbd 4238 acbd 9500 a33d c8ab 39bd
00000390: b847 c9bc cb94 a93d ee71 3e3d 3990 26bd
000003a0: b109 7ebc d3a1 f7bc dfed a1bd 49cd 58bd
000003b0: c752 0b3c 017b 6fbc 6de8 7fbd 8a90 93bd
000003c0: ff41 fa3b c3db 083d 82f9 87bd aac6 b43c
000003d0: 6f64 6d3d 5a4d 9bbd c63e 653d 360f 9bbc
000003e0: ab0c a63c 1ec7 953d 84eb a3bd e867 003b
000003f0: 10f8 d83c 945f 773d fb56 44bd 5563 933c
-0.07356849 0.07103612 -0.07154347 -0.07186711 -0.056013357 -0.018629132 -0.028312355 0.052224427
0.020588398 0.07713716 0.08659344 0.022635795 0.013513676 0.016549233 -0.07664013 -0.037894506
0.04808151 -0.026275167 0.03759111 0.04025717 0.044172116 0.005139863 -0.06563252 -0.07832233
-0.063258976 0.025107028 -0.0744097 0.036330797 0.081105225 0.041211307 -0.07400172 -0.037115037
-0.04312968 0.040818427 -0.0027878985 -0.06742543 -0.07315698 0.06633298 -0.055324677 -0.04698611
-0.08437133 0.06854701 -0.08395307 -0.051770937 -0.012267796 0.0047162054 -0.058075424 -0.0076958877
0.07933247 0.05406421 0.008082276 0.07804876 0.044600688 -0.041287653 -0.020618254 0.02176991
0.019609025 -0.04941641 0.052828394 -0.04265066 -0.04116257 -0.004563235 0.07263639 0.010955045
0.055929765 -0.033893634 -0.008484831 -0.014267838 0.016456513 -0.024433544 -0.025362926 -0.027746122
-0.07233911 0.072224565 -0.06323461 -0.06917355 -0.07968286 -0.021221243 0.010325018 -0.03959963
0.04341804 -0.009859091 0.036473475 0.03662647 -0.0125374915 -0.038741488 0.078488104 0.07684751
0.023727776 -0.02533273 0.045387328 -0.047513682 0.042725388 0.029023549 0.03371454 -0.07144668
-0.00049556367 0.0682244 -3.7849426e-05 -0.08033789 -0.011153297 -0.04846102 0.007392176 0.04495477
-0.025405148 -0.020330265 0.033048935 -0.043209016 -0.08080856 0.03156896 0.004477812 0.018618124
0.023607066 0.016321886 0.008392957 -0.039881986 0.015987128 0.054340962 0.039938804 -0.07263983
-0.04937888 0.033135086 0.045494813 -0.067980684 -0.027763736 0.06326847 0.040300593 0.030175287
-0.06872206 0.05063463 -0.04073483 0.04782108 0.04474088 0.017617732 0.00444356 0.038371783
0.04661968 -0.016234085 0.053531047 -0.038891427 -0.08165692 0.03046475 -0.020382555 -0.044601932
0.07881115 0.05258439 0.02920495 -0.024408877 -0.050904155 -0.049878072 -0.030275738 0.025296694
-0.022541078 0.033598326 -0.047206797 -0.07208922 -0.00036376747 -0.019255107 -0.07495043 -0.013764667
0.03746991 0.073126346 0.03560712 0.010476225 0.02527959 -0.08349223 0.03670178 -0.029617097
-0.0317278 -0.024834482 -0.06644078 0.08215016 -0.020429254 -0.02640509 0.042985775 0.06977318
0.045567032 -0.049689505 -0.024138067 -0.01062537 0.077739574 -0.012485109 -0.074093655 0.01396241
0.0027188614 -0.0064162696 0.06495976 -0.07144246 0.03941055 0.069157906 -0.05019972 0.080691434
0.046461415 0.032011744 0.07738317 -0.035082478 0.077083364 0.083271004 -0.010084655 -0.062363166
0.054355964 0.050290726 -0.0021237272 0.009671512 0.003961504 0.028641213 0.080314234 0.04095246
0.064918146 -0.05213811 -0.08103711 -0.013530047 -0.060576156 0.07591037 0.055550005 -0.07893106
0.011548777 -0.0634388 -0.010552167 0.070233636 -0.06359231 -0.005797806 -0.05243719 0.014570118
-0.068401076 -0.08409168 0.079590954 -0.04532984 -0.024570331 0.08280333 0.04649537 -0.040664885
-0.01550524 -0.030228531 -0.079066984 -0.05293015 0.008503622 -0.014616729 -0.062477518 -0.07205303
0.007637262 0.033412706 -0.06639387 0.022067387 0.05795711 -0.07583113 0.05596807 -0.018928152
0.020269712 0.07313369 -0.080039054 0.0019593183 0.026485473 0.060393885 -0.047934514 0.017991701
