modeldata/model_38_epoch.pth (torch_old, 43109 bytes, 5 tensors)

weight f4 [64, 1, 9, 9]
000000 19 5a 0f bd b0 6d b5 ba e0 46 86 bc 37 0c 90 3c
       -0.034998033 -0.0013841894 -0.016391218 0.01758395
000010 76 b9 1e bd 7c 47 c6 3c 68 ee 1b bd 87 5f 7d 3c
       -0.038751088 0.024204008 -0.03806916 0.01546467
000020 1b 12 9e 3c ab 9e 11 bd 15 9d 02 3c b7 c6 fe bb
       0.019295743 -0.03555171 0.007972022 -0.0077751535
000030 2b 31 79 3b d3 df c8 3b b4 7b 36 bc 63 4b da 3c
       0.003802369 0.0061301976 -0.011137892 0.026647275
000040 1b 48 3f 3c 6e a3 c4 3c 1a a9 8f bc 3c 7c 80 bb
       0.011674906 0.02400371 -0.017536689 -0.00392106
000050 e7 8c d2 3c 9f 7e db bc ee c2 c8 3c 66 9a 76 bc
       0.025701953 -0.026793776 0.024507012 -0.01505146
000060 3a 54 0a bc fc ef f9 bc 89 94 59 3c 9f c2 c9 bc
       -0.008442933 -0.030509941 0.013280042 -0.024628935
000070 1d 62 2f bb dc 28 91 bc 4c 52 12 bb 95 a4 36 bc
       -0.002676136 -0.017719679 -0.0022326885 -0.011147638
000080 ad 62 6a bc 28 6e a3 3c 0e 4a b1 3c 29 19 12 3c
       -0.014305753 0.019949988 0.021641757 0.008917131
000090 d8 75 12 3b 71 4f 3f bc 49 e7 e5 3c 04 ba 64 bc
       0.0022348072 -0.011676655 0.028064387 -0.013960365
0000a0 41 74 f4 bc ba 30 c2 3c ea 95 ab ba dd 94 1b 39
       -0.02984059 0.023704875 -0.0013090943 0.00014837408
0000b0 78 8f 09 bc 5e 35 a9 bc 58 b6 8f 3c 65 a7 88 bb
       -0.008396022 -0.02065533 0.017543003 -0.0041703456
0000c0 5a d1 b0 bc 0a 5c 07 bd 21 1e a6 3c 80 b0 d0 bc
       -0.021584202 -0.03304676 0.020278038 -0.025474787
0000d0 57 86 83 bc 8c c4 73 bc 3c 55 8b 39 20 ce e1 bc
       -0.01605527 -0.014878403 0.0002657565 -0.027564108
0000e0 cb bc ad bc d8 69 ec 3c 94 1c 8b bc 9b 7f 5a bb
       -0.021208188 0.028859064 -0.0169814 -0.003334022
0000f0 22 4f c3 3c e9 73 4e 3c 43 20 da 3b 94 41 5e 3c
       0.023841444 0.012600877 0.006656678 0.01356544
000100 b5 65 81 bc 5c 0e ca bc f9 7b 96 3c 1f 34 f5 ba
       -0.015795568 -0.02466505 0.018369662 -0.001870755
000110 37 b0 bc 39 07 17 51 bb a8 dd ca 3a 79 a4 f1 3a
       0.00035989445 -0.0031904595 0.0015477436 0.0018435857
000120 77 09 05 bd f6 13 04 bd 4c 57 14 bc c5 2a cd 3c
       -0.03247973 -0.0322456 -0.009054016 0.025044808
000130 1c e9 0d bc 32 0d a9 b9 5b 9c d3 bc 46 db 13 3c
       -0.008661535 -0.00032244023 -0.025831392 0.009024447
000140 fe bd a9 3c 58 8f 80 3c 1d 53 3e 3b d1 c9 fe 3b
       0.020720478 0.015693352 0.0029041239 0.0077755232
000150 9e 33 1c bd ff 32 c2 3c 28 8c f4 bc 3e cf 30 bc
       -0.038135163 0.023705957 -0.029851988 -0.010791598
000160 d8 2a cf bc c9 33 07 bd 92 72 d9 bb 7d 7d f2 3b
       -0.025288984 -0.03300837 -0.0066359723 0.0074002133
000170 2b 87 3e bc ec e1 a4 3c 07 49 db bc d0 5a f1 3b
       -0.011628906 0.02012726 -0.02676822 0.007365562
000180 e9 7a 08 bd 00 0a c3 3c 36 c7 e3 3c 96 95 05 3c
       -0.03332034 0.02380848 0.027804952 0.00815334
000190 44 6a c0 3c 6e 29 d6 bb 46 54 b4 bb 19 fd 28 3b
       0.023488171 -0.0065357005 -0.0055032102 0.0025785624
0001a0 0c d4 ac 3c 5b 3a a3 3c 20 46 94 3c 0b 81 9c 3c
       0.021097206 0.019925287 0.018099844 0.019104501
0001b0 c0 da ed bc 1d 77 a4 3c 5b 85 da 3c 8c c1 0b bc
       -0.029034972 0.020076329 0.026674917 -0.008530032
0001c0 2a c1 f3 3c 25 95 21 3c 3c 23 8d b6 a9 b3 61 3b
       0.029755194 0.009862219 -4.2062293e-06 0.0034439361
0001d0 9c dd f6 bb e1 78 7a bc ad 2e 50 3c 57 ce d3 3c
       -0.007533742 -0.015287609 0.012706441 0.025855226
0001e0 62 0b a6 bc c9 30 40 3b 4a 03 14 3b 5e c2 0d bd
       -0.0202691 0.0029325953 0.0022584968 -0.03460919
0001f0 23 44 e5 bc 1c 2b 93 3c 2c d5 58 bc b8 b3 3d bc
       -0.027986592 0.017964892 -0.013234418 -0.011578493
000200 04 34 e1 bc 32 50 ad 3c 80 bb bd bc 77 f7 eb bc
       -0.027490623 0.021156404 -0.023160696 -0.028804524
000210 37 b8 ba 3c 21 85 66 bc 08 ce dc bc ad 2c 0a 3c
       0.022792919 -0.014069826 -0.026953712 0.008433503
000220 db 4b 40 3c b5 f9 df 3c 2f 6f 21 3c 8e d5 d9 3b
       0.011736835 0.02734075 0.009853168 0.006647772
000230 e2 0e f8 bc d1 f2 cd bb 0e 24 c9 bc 41 e1 eb bc
       -0.030280534 -0.0062850495 -0.024553325 -0.028793933
000240 91 df be bc b0 e5 c6 3c 91 bc ae 3c 9e 6f e4 3a
       -0.023299964 0.024279445 0.02133015 0.0017428284
000250 fe 65 0a 3c f2 ae b5 3b e8 82 62 bc 83 6f c0 bc
       0.008447168 0.0055445367 -0.013825156 -0.023490673
000260 ee 26 65 bb ec 63 7a bc bc 1a 79 bc 4c a9 ac bc
       -0.003496583 -0.015282612 -0.015204128 -0.02107682
000270 87 98 69 bc c0 5c 7e 3c df 53 fc 39 16 11 36 3c
       -0.014257557 0.015525043 0.00048127674 0.011112472
000280 62 27 c5 3c 8d b3 4b 3c 96 ad 92 3c f3 50 31 bc
       0.02406663 0.012432945 0.017905038 -0.010822522
000290 ca a0 82 bc 53 f3 e5 bc a5 e8 cf bc ce 4d 8b bc
       -0.01594581 -0.028070128 -0.025379488 -0.017004874
0002a0 c1 84 bb bc 5f b0 f5 bc 64 f1 e9 3c 73 ae 1d 3c
       -0.02289045 -0.029991327 0.028557487 0.0096241115
0002b0 f2 18 06 3d 3e 93 8f 3c 16 8c a8 3a d7 63 c9 bb
       0.032738633 0.017526265 0.0012859132 -0.006145935
0002c0 15 61 8e bb ac 53 e0 bb 2c 84 c1 bc f8 39 b9 bc
       -0.004345069 -0.006845912 -0.023622595 -0.02261065
0002d0 4a ba 43 bc bc 42 d8 37 f1 9d cc bc 18 c2 70 bb
       -0.01194627 2.5780282e-05 -0.024977656 -0.0036736783
0002e0 2f 5c 67 bc 36 1b fc 3b 67 28 bf 3c 7a ea ba 3c
       -0.014121099 0.0076936735 0.023334695 0.022816885
0002f0 57 8c 7a bc a5 f4 74 bb 7c 43 42 bc dc d9 78 3c
       -0.015292249 -0.0037377265 -0.01185691 0.0151886605
000300 3c 96 1c 3a 92 fb f6 3c d6 f6 07 3d c6 9a f5 3c
       0.00059733144 0.030149255 0.033194385 0.029981028
000310 8c 83 10 3d 39 72 8c ba 6a 31 88 3c 8e a6 b8 bc
       0.035281703 -0.0010715193 0.016625125 -0.022540357
000320 1d cc fc bc 39 7f a0 bb 17 7d 99 3c e2 93 0c 3d
       -0.030859048 -0.0048979786 0.018736405 0.03432072
000330 25 66 0a 3d a5 28 26 bb 32 19 67 3c a6 2b 08 3d
       0.03378882 -0.0025353816 0.014105128 0.03324475
000340 e4 74 a6 3b 26 a4 91 3c 29 ad 1a bc 58 69 33 3c
       0.0050798524 0.017778467 -0.009440699 0.010950409
000350 4f cc ee bb 33 c5 bc 3c c7 9d dd 3c e8 92 a3 bc
       -0.007287539 0.02304325 0.027052773 -0.019967511
000360 53 e9 7a 3c 11 0b 57 3b 0f 15 a8 bb 84 c5 ab bc
       0.015314418 0.0032812993 -0.0051294635 -0.020968206
000370 23 3e f7 3c e8 da c2 3c 98 59 7b 3c 18 dd 42 bc
       0.030180996 0.023786023 0.015341185 -0.011893533
000380 3e 90 fd 3c a4 cb 04 bd e3 91 d9 3c 04 c3 fd bc
       0.03095257 -0.03242077 0.026558822 -0.03097678
000390 67 e2 fc 3c 1b c6 0f bb 9a 5c eb 3c 43 7b 95 3b
       0.030869676 -0.0021938148 0.02873068 0.004561813
0003a0 50 09 e3 3b 1e e4 59 bc da 6c fa bc d7 2f 87 3b
       0.0069286004 -0.013299016 -0.030569483 0.004125576
0003b0 3d 3d 98 3c 43 f1 1d bc 19 bf 01 3d 54 9a 09 3d
       0.018583888 -0.009640041 0.031676386 0.033594444
0003c0 fa bb a4 bb b2 0f 6a ba d0 eb fa bc aa 69 97 3b
       -0.0050272914 -0.00089287304 -0.030630022 0.0046207504
0003d0 1a 3e 84 3c 02 f1 db 3a 88 00 95 3c a6 95 87 bc
       0.016142894 0.00167802 0.01818873 -0.01655085
0003e0 3a f3 dc 3b d7 89 1f bc 9b 12 0d bc 56 3b 30 3a
       0.006742862 -0.009737453 -0.008610393 0.0006722709
0003f0 f4 31 48 3c e5 06 ab 3c 1b 73 96 3c 43 b9 ca bc
       0.012218941 0.020877311 0.018365433 -0.024746543

bias f4 [64]
000000 1d 54 d5 bb 68 3c 40 bb 81 64 90 3b 02 67 b4 3b
       -0.006510271 -0.002933288 0.0044065122 0.0055054436
000010 87 b3 00 3c 56 bd a6 3a dc 99 50 bb b4 01 32 3c
       0.007855303 0.0012721221 -0.0031829989 0.010864664
000020 59 5b a2 bb 26 77 56 bb f1 3b a7 3b 2d 58 24 3d
       -0.004954737 -0.0032724827 0.005103581 0.040123153
000030 e8 ba c2 3b 28 2d b0 bb a1 4f 89 bb d2 1b 83 3b
       0.005942691 -0.005376477 -0.0041904007 0.004001119
000040 04 65 18 3c 69 6e c8 bb 4c 35 b0 3b 69 7a f0 3a
       0.009301428 -0.0061166775 0.005377447 0.0018347028
000050 dd b8 bb ba 60 b4 1d bb 20 64 33 bb bc 7a 7a 3a
       -0.0014322061 -0.002406381 -0.0027372912 0.0009555032
000060 f4 19 7e 3b c4 75 38 3c 23 90 df bb ac c9 f4 bb
       0.0038772793 0.011258546 -0.0068226024 -0.00747033
000070 ee 42 78 3c 5b d8 52 3c 70 24 09 bc 68 ff 84 bb
       0.015152676 0.012868966 -0.008370504 -0.004058767
000080 ec ba 70 bb 5e 75 06 3c 49 e9 ff 3b 8e 99 0b 3c
       -0.0036732508 0.008206693 0.007809792 0.008520497
000090 1b de 20 3b 46 18 2b 3b d0 c1 f0 3c ae a9 55 3b
       0.0024546448 0.0026106997 0.029389292 0.0032602358
0000a0 f9 4d 82 3c e8 5a 6a 3b 4e a8 99 3a 55 18 d4 3b
       0.01590632 0.003575975 0.0011723132 0.006472627
0000b0 ed 69 6d bb 42 d3 8f 3a b0 b5 96 3c 18 54 35 bb
       -0.0036226467 0.0010972994 0.018397182 -0.0027668532
0000c0 64 1b 82 bb 8b 8c 3d bb ce ef 45 3b b6 48 0a bb
       -0.0039705504 -0.0028922881 0.003020275 -0.0021100468
0000d0 94 59 a2 3a 4b b6 37 ba 8f 3a e4 3b aa 82 86 3c
       0.0012386316 -0.000700806 0.0069649885 0.016419727
0000e0 93 d2 11 3d 4d 54 dd 3b e0 00 8a ba 8c 49 b3 3b
       0.03560121 0.006754434 -0.0010528825 0.005471414
0000f0 26 94 8b bb 80 e6 00 bc 06 4f 2b 3a 87 96 7d 39
       -0.004259604 -0.0078674555 0.0006534908 0.00024184036

weight f4 [32, 64, 1, 1]
000000 20 6a 0b bd 6d 4f 2e 3e fd 4b 11 be 86 1c 06 bb
       -0.034036756 0.17022486 -0.14189143 -0.0020463779
000010 e3 b6 2c be 10 2b f0 3d 63 a3 20 be b6 fc 2a 3e
       -0.16866641 0.117269635 -0.15687327 0.16697964
000020 68 10 1c be c6 81 31 3e 52 08 bf bd 3c ed 56 3d
       -0.15240633 0.17334661 -0.09327759 0.052472338
000030 59 ee b3 bd 46 e8 32 be 7a eb 99 3d 82 36 58 3e
       -0.087856956 -0.17471418 0.07515617 0.21114543
000040 ee b3 f7 3e 70 79 1a 3c f2 b5 f4 bd a8 35 b5 bd
       0.48379463 0.009428367 -0.11948766 -0.08848125
000050 03 5a 72 3e 94 e5 a9 bd 15 2d 48 3d c7 4b 88 3e
       0.23667149 -0.08295742 0.04887112 0.26620314
000060 82 81 3e be 62 7a 17 be 94 bb 17 be 9f 09 51 3e
       -0.18604091 -0.14792779 -0.14817649 0.20413826
000070 e1 14 a0 3e af 9b c2 bd 3d f3 0e bc 20 84 63 3d
       0.3126593 -0.095023505 -0.008724985 0.055545926
000080 7a 18 12 3c 4f 83 ca 3d ee 49 fa bd 86 84 4e bd
       0.0089169685 0.098883264 -0.12221132 -0.050419353
000090 7c 9c 46 be 68 4e 4c 3e 00 ea 3a 3e 43 b7 37 be
       -0.19395632 0.19951785 0.18253326 -0.17941003
0000a0 7c f7 34 be 05 27 fb 3c be c4 ef 3c 02 e7 4c be
       -0.17672533 0.030658254 0.029268619 -0.20009997
0000b0 2d 99 b0 3d 2a 06 45 bd 45 28 3b 3e 9e 97 5f be
       0.08622966 -0.04810158 0.1827708 -0.21835181
0000c0 61 c5 85 3d 40 fe d3 3d eb 12 e8 3c 8a c0 68 bd
       0.06531788 0.10351229 0.028329333 -0.056824245
0000d0 e7 3a 65 3e 24 72 80 3e f5 d0 70 3d de 9b 8c be
       0.2238575 0.25087082 0.058793027 -0.27462667
0000e0 05 0d 42 be 3c 06 bf bd 11 87 f2 3d b5 9d cd bd
       -0.18950279 -0.09327361 0.11842168 -0.10039846
0000f0 96 b2 0f be 05 40 bc be ca 66 3b 3e aa 50 4b be
       -0.14032969 -0.36767593 0.1830093 -0.1985499
000100 17 54 86 bd 09 19 e1 bd 38 31 58 3b 81 53 87 3e
       -0.065590076 -0.10991103 0.003298832 0.26430896
000110 35 3b 7f bc 4d f1 5c be 62 98 b5 3d 75 96 7f 3e
       -0.015578081 -0.21576424 0.08866955 0.24959739
000120 87 91 5b 3d 11 ff 75 3d 10 6d 13 be bd 27 78 bd
       0.053605583 0.060057703 -0.14397073 -0.060584772
000130 70 42 76 be d1 c4 36 3e 3b a2 0d be 68 11 d8 bc
       -0.24048781 0.17848517 -0.13831417 -0.026375487
000140 cf c9 89 be f7 74 30 bd b9 52 fb bb f1 1b 2f 3e
       -0.2691178 -0.043080296 -0.0076697734 0.17100503
000150 08 22 1b bc 9d 87 0e 3e 50 fa f2 3d 73 21 49 3e
       -0.009468563 0.1391892 0.118641496 0.19641666
000160 9a be 41 3d b5 56 20 3e a6 03 1b 3d 24 e1 3f be
       0.047300912 0.15658076 0.037845276 -0.18738228
000170 c0 32 90 3e 2e 35 eb 3d b9 fd a8 bc ad d6 c2 bd
       0.2816372 0.114847526 -0.020628797 -0.095136024
000180 a2 2a cf bd ff 9b 83 3e f2 d6 4b bd 7e 0f 13 3d
       -0.101155534 0.25704953 -0.049765535 0.035903446
000190 89 82 60 bd e5 c0 49 bd f4 98 db bb de 95 fa bd
       -0.054811988 -0.049256224 -0.006701583 -0.12235616
0001a0 e1 46 2b be 50 6d 6e 3e 08 80 fb bc b7 1b 86 be
       -0.16726257 0.23283887 -0.030700698 -0.2619302
0001b0 15 f6 46 be 81 79 51 3e df a1 a2 3e c6 4c f6 bd
       -0.1942981 0.20456506 0.31764123 -0.12026362
0001c0 34 4f 3c 3e ff c8 3c 3e 7e ee 6e be c6 54 23 be
       0.18389589 0.18436049 -0.23333165 -0.15950307
0001d0 8c 6b 55 be ae a2 4a 3e b7 93 61 3d 78 b3 6f be
       -0.20841807 0.1978862 0.055072512 -0.23408306
0001e0 e9 48 9b 3d f4 6a 4a 3c 94 f7 3b be 72 2b 90 3d
       0.07582266 0.012354601 -0.18356162 0.070395365
0001f0 73 01 69 be b3 90 6c 3e 2d 94 83 3e ea 44 63 be
       -0.22754459 0.23102073 0.25698987 -0.22194257
000200 9f 3a 54 be 7a 9b c7 3d 6f cc 15 be 18 1e 89 3e
       -0.20725487 0.09746452 -0.14628766 0.26780772
000210 39 c5 92 3e 50 d1 48 3e 4c 47 0b 3e a1 3f 52 3d
       0.28666094 0.19611096 0.13601416 0.051330213
000220 05 f2 09 3e 5f a1 18 be d0 d9 3e be d8 87 2c 3c
       0.1347123 -0.14905308 -0.18637776 0.010530435
000230 16 dc 1c bb 1c 7a 42 3e 6e 2c 7d bd 20 15 44 3e
       -0.0023934892 0.18991894 -0.06180995 0.19148684
000240 ad 6d d0 be 9a 6c 40 be fa e2 21 3e b2 87 ee 3d
       -0.40708676 -0.18791428 0.15809241 0.116469756
000250 63 59 91 3d 76 52 6c 3e bb 1d ff 3d 95 fe 24 3e
       0.07097127 0.23078331 0.124568425 0.1611274
000260 85 74 8d bd 4c 1e 25 be bc d1 92 3a 05 4c 16 be
       -0.0690699 -0.16124839 0.0011201422 -0.14677437
000270 10 50 68 3d d7 c7 b5 be 37 0f e4 bb 3f cd 45 bd
       0.05671698 -0.35504028 -0.0069598216 -0.04829144
000280 64 27 8f bd 1d 33 75 3e d0 a5 a2 bc 60 9e 3c 3e
       -0.06989935 0.2394528 -0.019854456 0.1841979
000290 ac 25 64 be 36 36 72 3e 73 dd 78 bd 60 f1 cd bc
       -0.22279996 0.23653492 -0.060758065 -0.02513951
0002a0 c4 7f 42 be ea 61 17 be 64 65 94 3d 89 40 3a 3e
       -0.18994051 -0.14783445 0.07245901 0.1818868
0002b0 d2 41 8d be 2b 79 c0 3d 9f 6f e0 3d 47 ff 02 be
       -0.2758928 0.09398111 0.1095879 -0.12792693
0002c0 25 c2 2a 3d a5 08 c8 bd c8 61 80 3e 4e c5 e5 bc
       0.041689057 -0.09767274 0.250746 -0.028048184
0002d0 cc c0 3b 3e 9a 2f 2e 3e 0c 89 0b 3e 81 ae 50 be
       0.18335265 0.17010346 0.13626498 -0.20379068
0002e0 2c c1 5e be 3e d1 37 be ee 6f 04 3d 6b f2 7b 3c
       -0.21753377 -0.17950913 0.032333307 0.015377621
0002f0 f8 19 21 3e 17 ff bd bc 66 4d 52 3e e2 08 0f bd
       0.15732563 -0.023192925 0.20537338 -0.03492058
000300 ad 73 68 be 80 e4 21 be 26 8d ec 3d 6f 71 8c 3e
       -0.22700377 -0.15809822 0.115503594 0.27430293
000310 0e bd 7f 3e 51 df 04 be 42 4e 6f be 47 0d 08 3e
       0.24974462 -0.12975813 -0.23369697 0.13286315
000320 ce 2b 80 be ae 5d 2a be d0 48 91 3d 07 27 d7 bd
       -0.2503342 -0.16637298 0.07093966 -0.10505491
000330 f0 02 2a 3e 77 52 5b be 94 4b 4e 3e b9 0e 0b 3e
       0.16602683 -0.21418177 0.20146018 0.13579835
000340 d7 c0 18 3b af 3a 0d bd 1d 6f 7b 3e 6a 25 2f be
       0.00233083 -0.034479793 0.24554105 -0.17104116
000350 f2 e7 9a bc 9d e7 67 3d 56 e1 48 3e ae 1d 8e 3e
       -0.018909428 0.056617368 0.19617209 0.2775702
000360 3d c9 2a 3e db 6f 82 3e be 72 57 be 88 68 c7 3c
       0.16678329 0.25475964 -0.21039864 0.024341837
000370 5f f1 21 3e ac 8b 79 be da 10 17 be 24 12 0a 3c
       0.15814732 -0.24369687 -0.14752522 0.008427177
000380 09 9e ba bd 3b d3 80 bd b4 c1 75 3e 29 a4 b2 bd
       -0.09112174 -0.06290289 0.23999673 -0.08722717
000390 b9 f6 25 3e f5 29 a0 3d ab 9e d9 be 72 6d 6a 3e
       0.16207398 0.07820503 -0.42503867 0.22893313
0003a0 95 61 e8 be a3 12 fe bd fd d0 14 3e 36 97 48 3e
       -0.4538695 -0.124058984 0.14532848 0.19588932
0003b0 24 d8 38 3e 7e 1d fd 3d d4 65 1a 3d ee a5 2f be
       0.18051201 0.12359141 0.037694767 -0.17153141
0003c0 82 f1 0e be 4d 58 fd bd 76 92 3f bd e5 71 1d be
       -0.13959315 -0.12370358 -0.046770535 -0.15375479
0003d0 0a fd f2 3d e2 40 3c bd af a0 08 be 10 6b 64 bd
       0.118646696 -0.045960315 -0.13342546 -0.055766165
0003e0 b2 9d d9 3d e2 16 85 3e a7 f5 53 be 50 38 a5 3d
       0.10625781 0.2599402 -0.20699178 0.080673814
0003f0 10 1e c1 bd e7 fb 06 3e 8d 95 06 be 88 17 2b 3c
       -0.09429562 0.1318203 -0.13142987 0.010442622

bias f4 [32]
000000 77 b2 30 bb b4 46 e9 3b dc cf 10 3b 7a 48 e0 3b
       -0.0026961842 0.007119024 0.002209655 0.0068445774
000010 fd 15 91 3b b0 28 d8 3c 63 21 5a bb ec 9d 43 bb
       0.00442767 0.026386589 -0.003328406 -0.0029848767
000020 cb 6e 87 3b 57 e2 26 3b 13 76 c6 3a df bd 6e 3c
       0.0041330806 0.00254645 0.001514139 0.014571636
000030 ad fa 9e ba 75 41 86 3c bc 11 26 3b 4d 0a b6 3a
       -0.001212915 0.016388634 0.002534016 0.0013888568
000040 1c 13 71 bb 87 31 91 ba 4b 7f 2b 3b d7 ea f5 3a
       -0.0036785072 -0.0011077382 0.0026168402 0.0018762004
000050 99 b1 89 ba 92 56 0b 3b 78 83 9a ba 88 ec 70 bb
       -0.0010505199 0.0021261317 -0.0011788448 -0.0036762077
000060 88 ff 1a 3c 76 bd 88 3b 8a e3 4f 3a 75 98 32 bc
       0.009460337 0.004172976 0.00079303293 -0.010900606
000070 8b 29 e4 3b 8c 10 33 3b 43 d9 8d bb 0e f5 d2 b9
       0.00696296 0.0027323095 -0.004328878 -0.000402369

weight f4 [1, 32, 5, 5]
000000 44 fb 88 bd 47 c6 3a 3d 5e 1e 8e bd 6b e8 92 bd
       -0.0668855 0.04559925 -0.06939386 -0.071732365
000010 39 c9 9c bc 24 1c af 3c f4 01 95 3d e9 c3 5b 3b
       -0.01913892 0.021375723 0.07275763 0.003353352
000020 3c 05 8b bb 08 0a 85 3d 70 eb 29 bc a4 5a cc 3c
       -0.0042425673 0.06496054 -0.010371074 0.024945565
000030 fa 67 87 3d 98 cc 0d bd 22 83 a8 3d 39 94 85 3d
       0.06611629 -0.034618944 0.082281366 0.06522412
000040 90 e7 84 3d a5 88 1d bd 01 b0 05 bd 86 23 15 bd
       0.064894795 -0.038460393 -0.032638554 -0.03641083
000050 93 d9 24 3d a8 06 a7 3d 12 3f 1b 3d ae 68 65 bd
       0.040246557 0.081555665 0.037901945 -0.056008033
000060 c1 60 60 3d a8 bd fd 3c e9 eb 88 3d 99 53 80 bd
       0.05477977 0.030974224 0.06685621 -0.06265945
000070 62 ff 27 bd c2 b3 4e bd 74 f1 35 3d ce 3c 6b 3d
       -0.041015036 -0.0504644 0.04441972 0.057431035
000080 3b 54 48 bd 05 e6 b0 bd df bc 6b 3d fc f3 21 3d
       -0.048908453 -0.08637623 0.05755317 0.039539322
000090 9e 3c 94 3d 56 52 8a 3d 1a 87 9a 3d 38 41 69 bd
       0.07238124 0.067539856 0.075453 -0.056946963
0000a0 93 d9 66 3c 19 2a a8 3d 57 4f 27 3c 82 bf a9 3d
       0.01408996 0.082111545 0.010211787 0.0828848
0000b0 a5 93 99 3d 9b 1c 88 3d 48 46 83 bd 0b 32 e4 bc
       0.07498864 0.06646081 -0.064098895 -0.027855894
0000c0 0c fd 4a 3d 8a 9b 00 3c a0 3b 8e bd f0 9e 53 bc
       0.04955773 0.007849583 -0.06944966 -0.012916312
0000d0 69 38 43 bd 7b 60 a8 3d 9e b4 d7 bb bb 9e 32 bd
       -0.04766122 0.08221527 -0.0065828105 -0.04360841
0000e0 d4 b2 ec bc 5f a0 ca bb 35 37 90 3b bd 7e 47 ba
       -0.028893866 -0.0061836685 0.0044011124 -0.0007610133
0000f0 0a 02 ac 3d 96 3e 69 3d 5b 0e c4 bc c5 15 a3 3d
       0.083988264 0.056944452 -0.023932626 0.079631366
000100 12 7b 0f bd da 7e 1c bd 3f e2 bb 3c b1 f4 65 3d
       -0.03502948 -0.038206913 0.022935031 0.05614156
000110 77 e9 aa 3d 69 94 35 bd 82 37 9b 3c b8 79 2f bd
       0.08345311 -0.044330988 0.018947367 -0.04284069
000120 de 40 ec 3b d9 78 2b 3d 7c 7b 4e bc 9f 70 f7 3c
       0.007209881 0.041863296 -0.012602683 0.03020507
000130 57 69 99 3d 7a 36 88 bd 0d 41 73 bd 34 40 32 bd
       0.07490795 -0.066510156 -0.05938821 -0.04351826
000140 2b c1 80 bd dd c8 8c 3d c5 d8 8a bd dc 06 6b bd
       -0.06286844 0.06874249 -0.06779627 -0.05737959
000150 f9 8d 87 bd 00 e2 58 ba 1c 3b a4 3d c4 9a 94 3d
       -0.06618876 -0.0008273423 0.08019087 0.07256082
000160 c2 0d a4 3d 75 23 c6 bc d1 12 3e 3d 30 15 09 3d
       0.080104366 -0.02418683 0.046404663 0.03346747
000170 76 3a 7b 3c c0 3f 21 3d 22 97 75 bd 76 d3 a8 3d
       0.015333762 0.039367437 -0.059958585 0.08243458
000180 2c f6 5c bc cb c2 96 3d c4 1e 54 3d 3e df c9 bb
       -0.013486426 0.073613726 0.051787153 -0.0061606457
000190 e0 8b 84 3d 19 de 6f bd 59 2f 84 bd 9f 63 8c 3d
       0.064719915 -0.05856142 -0.06454343 0.06854939
0001a0 f3 0e df 3a 79 0e be 3c f8 df 35 bc 94 f8 85 bd
       0.0017018005 0.02320026 -0.011100762 -0.06541553
0001b0 bb a1 99 3c 6a 95 2b 3c 89 74 f4 3c 1c 0a 20 3d
       0.018753877 0.010472635 0.029840725 0.03907214
0001c0 96 62 9f 3d 30 06 31 3d cb f4 9e 3d 05 71 2e 3d
       0.07782476 0.04321879 0.07761534 0.042588253
0001d0 59 f5 82 3d 35 b2 05 bd 8e 77 15 3d ed f8 5d bd
       0.063944526 -0.032640655 0.03649097 -0.054192472
0001e0 55 a6 fc 3c 90 82 a2 3d 60 65 8b 3c 9d d6 a8 bd
       0.030841032 0.07935059 0.017016113 -0.08244059
0001f0 f6 3d 20 3d 48 fa b2 bc 03 c7 9e 3c 29 1c 20 3d
       0.03912159 -0.021847859 0.019382006 0.039089356
000200 85 6f 97 bd c9 e2 52 bd 75 65 3d 3c ab 6c 8a bd
       -0.073943175 -0.05148581 0.011559834 -0.06759008
000210 bc 0f 89 3d 3a 6f 9c bc 8c 0f 29 3d de f7 8d bd
       0.06692454 -0.019096006 0.041274592 -0.069320425
000220 06 f6 97 bd 7e 3f a5 3c f2 5e 75 3d d3 a7 cd bb
       -0.07419972 0.020171877 0.059905 -0.0062761097
000230 44 ea df bb ea c9 86 bd b6 04 44 bd 15 90 9f 3d
       -0.0068333466 -0.06581481 -0.047856055 0.07791153
000240 ee fa 9c 3d fa 4d 98 3d 4a c9 ba 3d 8c de 17 3d
       0.076650485 0.07436748 0.09120424 0.03707747
000250 db 15 81 bd 45 1b b1 3d 25 f8 d8 3a 70 55 76 3d
       -0.06302997 0.086477794 0.0016553445 0.060140073
000260 cd d7 25 bd ed ac 45 b9 a3 ab 84 bc 28 15 9f ba
       -0.040489007 -0.00018851804 -0.016195124 -0.0012137042
000270 1b 8c ac 3d c5 9f 71 3d b4 a3 9d bd d4 43 a9 bd
       0.084251605 0.05899026 -0.076972395 -0.0826489
000280 26 26 6f bd 23 95 85 3c 0b 24 5f bd fa 8a a7 3d
       -0.05838599 0.016306465 -0.054477733 0.081808046
000290 98 81 a1 bd 3e fb 0a bd 3d 30 7b bd 0b a8 6e 3d
       -0.07886046 -0.03393101 -0.0613253 0.058265727
0002a0 50 60 23 bd ab 67 90 3d c8 bf 63 3d 8d 64 20 bd
       -0.039886773 0.07051023 0.05560282 -0.039158393
0002b0 78 af 22 bd 93 6b 53 bd f3 0c 73 3d 87 d3 26 3d
       -0.03971812 -0.051616263 0.05933852 0.040729072
0002c0 cc c6 6b 3d 09 43 6f bd 02 bd cb 3c ec fa ef bb
       0.057562634 -0.05841354 0.0248704 -0.0073236134
0002d0 f3 19 22 bd 56 66 a2 bd d1 92 6f 3d 03 08 6d bc
       -0.03957553 -0.07929675 0.058489624 -0.014467242
0002e0 4d c2 57 bd 2b 5e 0d 3d 01 4f 01 bd 4d f1 7c bd
       -0.052675534 0.034513634 -0.031569485 -0.06175356
0002f0 7a d1 16 3b 25 94 9e 3d 7d be 5c bd 54 5c f9 3c
       0.0023013041 0.077431 -0.0538926 0.030439533
000300 90 b8 80 bd 2c af 92 bc 97 78 3a bd f5 e5 7c bd
       -0.062852025 -0.017905794 -0.04552516 -0.06174274
000310 40 9a d4 bc e6 cb 78 bd 9e 19 1f 3d e9 bc 59 3d
       -0.025952458 -0.060741328 0.03884279 0.053158674
000320 ef 59 06 3c c3 a1 40 3d ba c9 21 bd f2 66 15 bd
       0.008200153 0.047029268 -0.039499022 -0.03647513
000330 83 12 05 3d 6f b5 33 3d d6 a8 a3 3d 65 ef 34 3d
       0.032488357 0.0438742 0.07991187 0.044173617
000340 7b 2e 50 3d 0b e4 96 3c 7d 8e 80 bd fd d9 a9 3d
       0.050825577 0.018419286 -0.062771775 0.08293531
000350 21 f6 5f bd 97 ee 44 3d 64 8c 04 bd d1 ff 8a bc
       -0.054678086 0.0480791 -0.03236045 -0.016967686
000360 d4 8a 80 3b 3d 18 6a 3d 0d b1 a0 3d e5 bd f8 3c
       0.0039227996 0.05715202 0.0784627 0.030363986
000370 7f 2a 1b 3d 17 bb 3a 3d 9c 79 4d bd 95 5c c4 bc
       0.037882324 0.04558858 -0.050164804 -0.023969928
000380 5a a1 a2 3d 96 33 38 bc 2b 87 88 3d 35 07 f7 bc
       0.079409316 -0.011242768 0.06666406 -0.030154804
000390 fb 72 2b 3d cf 60 29 3d 3f 7c 23 3d f6 2f 99 3d
       0.0418577 0.04135209 0.039913412 0.07479851
0003a0 70 44 9b bc 9f 4e 3a 3d 44 a5 3c bc 2f 9b 34 3d
       -0.018953532 0.045485135 -0.011514012 0.044093307
0003b0 b6 77 a5 3d 4a 14 2b 3d 6b 0a 4b 3d 39 05 1a bc
       0.08079474 0.041767396 0.049570482 -0.009400659
0003c0 70 ee f1 3c 5d b4 c6 3c 41 8e 84 3d ac c0 8d 3c
       0.029532641 0.024255926 0.06472445 0.017303787
0003d0 0a 1c 7d bd b7 2d 11 bd 41 21 50 bd f5 cb a5 bd
       -0.06179432 -0.035443988 -0.050812963 -0.08095542
0003e0 f4 12 38 3b 06 37 c0 3b 4b b4 3e 3d 60 b4 9f bc
       0.0028087469 0.0058659343 0.04655866 -0.01949519
0003f0 a1 73 63 bc 0e af 81 3d e0 fc 50 3d fe 75 87 bd
       -0.013882549 0.06332217 0.05102241 -0.06614302
