modeldata/model_132_epoch.pth (torch_old, 43016 bytes, 5 tensors)

weight f4 [64, 1, 9, 9]
0	0x3d26f234	0.040758327
1	0x3b5ed184	0.0033999393
2	0x3ca7c040	0.020477414
3	0x3856738c	5.1129187e-05
4	0xbd075450	-0.03303939
5	0xbd24bebb	-0.040220957
6	0x3d1de543	0.03854872
7	0xbbdcdd69	-0.0067402613
8	0xbbcec25d	-0.006309791
9	0xbc68c51d	-0.014207152
10	0x3bca6f28	0.0061778016
11	0x3bcad8a2	0.0061903754
12	0xbc7467af	-0.014917298
13	0xbbc0f1b0	-0.0058881864
14	0x3cc394ae	0.023874607
15	0x3cd983c7	0.026552094
16	0x3c00b8fb	0.007856603
17	0xbc39de37	-0.011344484
18	0x3be3ed6a	0.006955792
19	0xbcd97f1e	-0.026549872
20	0x3c8e8489	0.017397182
21	0xbbbafa66	-0.0057061194
22	0xbcfe37bb	-0.031032434
23	0xbc02785d	-0.007963267
24	0x3a91c13a	0.0011120208
25	0x3d02f317	0.03197011
26	0x3b845461	0.004038379
27	0xbce122d3	-0.027482426
28	0x3d00fb18	0.03148946
29	0x3d560361	0.052249316
30	0x3cda1c71	0.02662489
31	0xbcd544c0	-0.02603376
32	0xbb75d60c	-0.0037511615
33	0xbc06be02	-0.008224012
34	0xbd463222	-0.048387654
35	0x3cbcf8c5	0.023067841
36	0xbb6c4faa	-0.0036058226
37	0x3d15f974	0.03661485
38	0x3dc0f3bb	0.09421488
39	0x3d41610c	0.04721169
40	0xbcc923f4	-0.024553277
41	0xbd0079b7	-0.031366076
42	0x3c13fe98	0.009032868
43	0xbcffc4be	-0.031221744
44	0x3d155007	0.036453273
45	0xbb414426	-0.0029490083
46	0xbd4aa4c4	-0.04947354
47	0xba97127f	-0.0011525898
48	0xbd4688dc	-0.048470363
49	0xbda2cd67	-0.07949334
50	0xbbf1e37d	-0.007381855
51	0xbdd65b2d	-0.10466609
52	0xbd2b035d	-0.041751254
53	0x3c837e2e	0.016051378
54	0x3d110965	0.03540935
55	0x3c2eecd1	0.010676579
56	0x3d23166b	0.0398163
57	0xbb2131d6	-0.0024596355
58	0x3bbb55b0	0.005717002
59	0x3bde1947	0.0067779156
60	0xbcc80b70	-0.024419516
61	0x3a7e3112	0.0009696643
62	0x3d6a12d0	0.057146847
63	0xbccae32e	-0.02476653
64	0xbcd80a05	-0.026371965
65	0xbc77a84c	-0.015115809
66	0xbc7ef5e2	-0.015561553
67	0x3d8d4821	0.06898523
68	0x3c21992e	0.009863181
69	0xbd1a2512	-0.03763301
70	0xbc81e66e	-0.015856948
71	0x3cd8e78e	0.026477601
72	0x3c3113bd	0.010807929
73	0xbc809aa6	-0.015698742
74	0xbc8a3765	-0.016872117
75	0x3cad7df7	0.021178229
76	0x3d4f4209	0.050600085
77	0x3c3eb393	0.0116394935
78	0xbcc632a5	-0.024194071
79	0x3b10adc1	0.0022076222
80	0xbd19a7b0	-0.037513435
81	0xbaf1062f	-0.0018388684
82	0xbcab2698	-0.020892426
83	0xbbf328fc	-0.007420657
84	0x3cf33e4c	0.029692791
85	0x3d73daba	0.059534766
86	0x3d1e4e07	0.03864863
87	0x3d588926	0.05286517
88	0xbc806ab6	-0.015675884
89	0xbd052c6c	-0.032513067
90	0x3ce90a86	0.0284474
91	0xbcd4953d	-0.025950069
92	0x3cd0393e	0.02541792
93	0x3d224892	0.03961999
94	0x3cdd7239	0.027032005
95	0x3d45d3c7	0.04829767
96	0x3bd8973b	0.006609825
97	0x3d3c5343	0.045977842
98	0x3d13c580	0.036077023
99	0x3ceebeee	0.029143777
100	0xbc04504c	-0.008075785
101	0x3cb7edf3	0.02245233
102	0xbc392d75	-0.011302342
103	0x3cc1c3eb	0.023652991
104	0x3d373f16	0.044737898
105	0xbcbb2e0f	-0.02284911
106	0x3d66f989	0.05639032
107	0xbb958195	-0.0045625665
108	0x3cf26177	0.02958749
109	0x3cc8f733	0.024531936
110	0x3c5843a2	0.013199719
111	0xbbe1ac7f	-0.006887018
112	0xbcef4111	-0.02920583
113	0xbaed554e	-0.0018107088
114	0xbc506b46	-0.0127208885
115	0x3d0257ba	0.031821944
116	0x3c33c64d	0.010972572
117	0x3c496f2e	0.012294574
118	0x3c30520c	0.010761749
119	0x3ce55746	0.027995717
120	0xbc291f6c	-0.010322433
121	0xbd2229ce	-0.03959065
122	0xbdb3afe0	-0.0877378
123	0xbd29067e	-0.041265957
124	0x3c96f5a1	0.018427672
125	0x3d9783b7	0.073981695
126	0x3cbc126e	0.022958007
127	0x3d193140	0.037400484
128	0x3d51da52	0.051233597
129	0x3ae7058d	0.0017625556
130	0xbd0c846f	-0.034305986
131	0xbd81cbe8	-0.0633772
132	0xbd7e7c1e	-0.062130086
133	0x3d2e98db	0.042626243
134	0x3d90da9f	0.07072949
135	0x3bf81bb7	0.0075716632
136	0x3d162880	0.036659718
137	0x3cb57f91	0.022155555
138	0x3c37528d	0.011189115
139	0xbb574f97	-0.0032853836
140	0xbd59f899	-0.053215597
141	0xbc21d0bf	-0.009876429
142	0x3d02155a	0.031758644
143	0x3d4ab613	0.049490046
144	0xbc135a9a	-0.008993769
145	0x3cc6bd7d	0.024260277
146	0x3ce06124	0.02739007
147	0x3d2aeadd	0.04172789
148	0x3c90a018	0.017654464
149	0x3d5fb5c7	0.054616716
150	0x3d546cc2	0.051861532
151	0x3d253f36	0.040343486
152	0x3d047543	0.032338392
153	0xbc6f51ef	-0.014606937
154	0x3cf0d1f8	0.029396996
155	0xbc6709f6	-0.014101496
156	0xbb78b8d2	-0.0037951958
157	0x3d2e3e67	0.04253998
158	0x3cef057a	0.029177416
159	0x3c9ea4eb	0.019365748
160	0x3b5c67a3	0.0033631108
161	0xbbe4932a	-0.006975551
162	0xbbb7f557	-0.0056139636
163	0x3ac98a86	0.0015376366
164	0xbd0b9f85	-0.034087677
165	0x3c9f8268	0.019471362
166	0x3c8875d6	0.016657751
167	0xbcbdceff	-0.023169992
168	0xbbf3fb9f	-0.007445767
169	0xbd1d8821	-0.0384599
170	0x3b503caf	0.0031774451
171	0xbc57bdee	-0.013167841
172	0x3b0635a4	0.002047875
173	0x3ce0cf71	0.027442666
174	0x3d3291d9	0.043596122
175	0x3d9f7a25	0.07786969
176	0x3cfe4e60	0.031043231
177	0x3de39108	0.11111647
178	0x3cd3f962	0.02587575
179	0x3d5f8bb3	0.054576587
180	0x3c5b9bcd	0.013403845
181	0x3d78c432	0.06073398
182	0x3ba93050	0.00516323
183	0xbdda72bc	-0.10666415
184	0xbe2e3024	-0.17010552
185	0xbe808b97	-0.251065
186	0xbe5b37d5	-0.21408017
187	0xbe02a707	-0.12759028
188	0x3cf9c4a9	0.030489283
189	0xbced0705	-0.028934011
190	0xbc9334a9	-0.017969446
191	0xbd1432c1	-0.036181215
192	0x3c98f7c3	0.01867283
193	0x3dcf7a6d	0.10130773
194	0x3dd6441a	0.10462208
195	0x3da5674e	0.080763444
196	0xbaa2d981	-0.001242444
197	0xbd220271	-0.03955311
198	0x3704c3ff	7.913447e-06
199	0xbc93e9de	-0.018055853
200	0x3b83822f	0.004013322
201	0xbb214df7	-0.002461312
202	0xbde76dd9	-0.11300249
203	0xbdb0f807	-0.086410575
204	0x3bf12402	0.007359029
205	0x3cb6e7e8	0.022327378
206	0xbc803127	-0.015648438
207	0x3b11247d	0.0022146993
208	0xbc38c9fe	-0.011278627
209	0x3ccb20aa	0.024795849
210	0x3ccfde6e	0.025374617
211	0xbcfb3e41	-0.030669333
212	0xbd08a13d	-0.033356894
213	0xbcd544a7	-0.026033713
214	0x3cf3e396	0.029771607
215	0xbd00dcb3	-0.031460475
216	0x3cd97929	0.026547031
217	0x3c90f0c1	0.017692925
218	0xbcabdcf7	-0.020979388
219	0x3caa4445	0.020784507
220	0x3db784e9	0.089608975
221	0x3d6eb909	0.058281932
222	0xbcb9900d	-0.022651697
223	0x3cf0a84b	0.029377123
224	0xbbe56072	-0.0070000226
225	0x3b8f0e14	0.004365692
226	0xbc3cf044	-0.011531893
227	0xbcfd90b1	-0.030952783
228	0xbc4efd2c	-0.012633603
229	0x3d38e3e5	0.045139212
230	0x3d80b39c	0.06284258
231	0x3d1ed7a9	0.03877989
232	0xbc04b093	-0.008098739
233	0xbaa50239	-0.0012589163
234	0x3c33b28e	0.010967864
235	0x3c96f63a	0.018427957
236	0xbc0ce67c	-0.008599874
237	0xbc0a1d1a	-0.00842979
238	0xbbbd4eb1	-0.005777203
239	0xbbe01a1f	-0.0068390514
240	0xbd24b884	-0.04021503
241	0xbc33dcf5	-0.010977973
242	0x3ba0741d	0.0048966543
243	0xbc3bd6fa	-0.011464829
244	0x3bb88b14	0.005631814
245	0xbd29878c	-0.041389033
246	0xbcd7de70	-0.026351184
247	0x3d67ab4c	0.056559846
248	0xbcd774cd	-0.026300812
249	0xbcae3e96	-0.021270078
250	0x3d4fcfaf	0.050735172
251	0x3c8deabf	0.01732385
252	0x3ce601d0	0.028077036
253	0xbbd7ecff	-0.0065895314
254	0xbd85a8e1	-0.06526352
255	0x3ba7031f	0.0050968076

bias f4 [64]
0	0xbbea2d6d	-0.0071465285
1	0x3d15a94d	0.03653841
2	0xba8a3ce9	-0.0010546717
3	0x3cba7cac	0.022764526
4	0x3b920fb0	0.0044574365
5	0x3ca31bf3	0.019910788
6	0xbc979fe4	-0.018508859
7	0xba518709	-0.0007992839
8	0x3a0ab799	0.00052916404
9	0x3c379eca	0.011207292
10	0x3bd13845	0.0063848817
11	0xbbf5c810	-0.007500656
12	0x3ab8a9c8	0.0014088685
13	0x3c873ec6	0.016509425
14	0x3d0a1593	0.03371198
15	0x3b15f238	0.002287997
16	0x3c44f2cc	0.012020778
17	0x3c15b3dc	0.00913712
18	0x3b82afd2	0.0039882446
19	0x3af306ae	0.0018541419
20	0x3ba84364	0.0051349867
21	0x3b8d846f	0.004318766
22	0xbb72fafd	-0.003707587
23	0x3b05d6e8	0.0020422284
24	0x3b2d475a	0.0026440234
25	0x3c18b65b	0.009320821
26	0x3c697065	0.014247988
27	0x3be3b1f5	0.0069487044
28	0x3d0bcce4	0.034130946
29	0x3c9dd49c	0.01926642
30	0x3b640efe	0.0034798975
31	0x3c7ad952	0.015310602
32	0x3902b98f	0.00012466892
33	0x3c0f9eac	0.008765858
34	0x3b2a201c	0.002595908
35	0xbb1f8990	-0.0024343468
36	0x3c7fb432	0.015606927
37	0xbb4223db	-0.0029623422
38	0x3b1282ad	0.002235572
39	0xbba33409	-0.0049805683
40	0x3c2e3d60	0.01063475
41	0x3c7a154e	0.0152638685
42	0xbcc6079c	-0.02417355
43	0x3bb584bd	0.0055395053
44	0x3bc14c49	0.0058989865
45	0x3bd1f38d	0.0064072073
46	0x3ca86416	0.020555537
47	0xbc01dba1	-0.007925899
48	0x3b86e573	0.004116708
49	0xbb731d2d	-0.0037096248
50	0x3c90f6c2	0.017695788
51	0x3c7a4b01	0.015276671
52	0xbabcca92	-0.0014403632
53	0x3cb85d10	0.022505313
54	0x3b7d1379	0.0038616343
55	0x3c2f0ed9	0.010684692
56	0x3bfb180c	0.0076627787
57	0x3c0f943b	0.008763368
58	0x3c9fdb49	0.019513743
59	0x3c14f899	0.009092473
60	0x3a6dee3c	0.0009076332
61	0x3b8dbe83	0.0043256893
62	0xbc010bd6	-0.007876357
63	0x3b4678b9	0.0030284359

weight f4 [32, 64, 1, 1]
0	0x3ca48028	0.02008064
1	0xbe689084	-0.22711378
2	0xbe26d231	-0.16291119
3	0x3df8d243	0.12149479
4	0xbde3a97e	-0.111163124
5	0x3dac6c9d	0.08419154
6	0xbe77225e	-0.24134204
7	0x3d8589ee	0.065204486
8	0xbd23c3c8	-0.039981633
9	0x3e04f9d3	0.12985925
10	0xbdf1f86c	-0.11814961
11	0xbe9260e4	-0.28589547
12	0x3e30807e	0.17236516
13	0x3e403a77	0.18772303
14	0x3e50e76b	0.20400779
15	0xbe634aa6	-0.22196445
16	0xbe3d2a31	-0.18473126
17	0x3d037396	0.032092653
18	0xbe1e184e	-0.15438959
19	0x3e0c5ed5	0.1370805
20	0xbd174c2a	-0.03693787
21	0xbe68562d	-0.22689123
22	0x3e39f65a	0.18160382
23	0xbe27c1f8	-0.16382587
24	0x3e2404a3	0.16017394
25	0x3d2f2afe	0.04276561
26	0x3d86530a	0.06558807
27	0xbda0320e	-0.07822047
28	0xbd090199	-0.03344879
29	0xbe6fc013	-0.23413114
30	0x3e3a9d0f	0.18223976
31	0x3e6285e4	0.22121388
32	0x3e47d9e0	0.19516706
33	0xbe31dbce	-0.17369005
34	0x3de0a087	0.10968118
35	0x3e957559	0.29191092
36	0xbcc96a7a	-0.024586905
37	0x3e42d949	0.190282
38	0xbdc0b243	-0.09409001
39	0x3c1e5ed5	0.009666164
40	0xbe303b8a	-0.17210212
41	0xbd1b029c	-0.037844285
42	0x3e82b523	0.2552882
43	0xbe884a6b	-0.26619276
44	0x3e40ffbf	0.1884756
45	0x3cbf7091	0.023369106
46	0x3d9408f4	0.0722827
47	0x3cfb4511	0.030672582
48	0x3e175b47	0.14780913
49	0xbdd75d5e	-0.10515855
50	0x3dd6ca6e	0.10487829
51	0xbea2ea7a	-0.31819516
52	0xbe571910	-0.21005654
53	0xbe9aab2e	-0.30208725
54	0x3e2e4d02	0.17021564
55	0x3caaaccb	0.020834347
56	0xbe67a29b	-0.22620623
57	0xbd7af89f	-0.06127226
58	0x3e5f90be	0.21832559
59	0xbcb9f01b	-0.022697499
60	0xbd6b08d5	-0.05738147
61	0x3dc2a6f6	0.095045015
62	0xbee024ce	-0.4377808
63	0x3da14e62	0.078762785
64	0xbd3639e7	-0.044488814
65	0x3e90da62	0.28291613
66	0xbe2e1245	-0.16999157
67	0x3d14e84e	0.036354356
68	0x3e5b56fa	0.21419898
69	0x3d90f8f8	0.07078737
70	0xbf4d5181	-0.8020249
71	0xbe2cf23f	-0.16889285
72	0xbd04666b	-0.032324236
73	0xbe284911	-0.16434123
74	0x3d15dbcc	0.036586568
75	0xbdb20271	-0.08691872
76	0x3c243576	0.010022512
77	0xbe1ec900	-0.15506363
78	0x3b911625	0.0044276887
79	0xbe4e1a34	-0.20127183
80	0xbe5672ac	-0.20942181
81	0x3e4a4f67	0.19756852
82	0xbd9f95d3	-0.077922486
83	0x3e1bc6eb	0.152126
84	0xbe236fdb	-0.15960638
85	0x3d860432	0.06543769
86	0xbd7e89fa	-0.062143303
87	0xbe5c2fcf	-0.21502613
88	0x3d3ccbe6	0.04609289
89	0x3f4851f2	0.7825004
90	0x3e114e0e	0.14189932
91	0xbe31e2ad	-0.17371626
92	0x3c8eea62	0.017445747
93	0xbd808928	-0.062761605
94	0x3d399668	0.045309454
95	0x3e315411	0.17317225
96	0xbe122045	-0.14270122
97	0xbe1a287f	-0.1505451
98	0xbe82d0bb	-0.25549874
99	0x3e87f2c2	0.26552397
100	0xbe4b7a66	-0.1987091
101	0xbe2e364d	-0.17012902
102	0x3df938c0	0.12169027
103	0xbcdf084a	-0.027225632
104	0xbdbf265d	-0.09333489
105	0x3c965637	0.018351657
106	0x3ded126a	0.11575778
107	0xbe6a67d2	-0.22891167
108	0x3e3e2ea1	0.18572475
109	0xb9a14960	-0.00030762982
110	0x3cdb0e17	0.026740117
111	0xbe7686cd	-0.2407486
112	0xbe106eca	-0.14104763
113	0x3e0d67df	0.13809155
114	0x3e48f113	0.19623213
115	0x3eb1795d	0.34662905
116	0x3e858f87	0.26086065
117	0xbdcf4410	-0.10120404
118	0x3ca85750	0.020549446
119	0x3c1d59ac	0.009603899
120	0x3e203e56	0.1564878
121	0xbdd09cdf	-0.10186171
122	0xbe654e41	-0.22393133
123	0x3e791873	0.24325733
124	0xbde5dd43	-0.11223843
125	0xbc65b4d2	-0.014020162
126	0x3e44e92a	0.1922957
127	0xbe0ccb3b	-0.13749401
128	0xbea9c3ac	-0.33157098
129	0x3e9dc86f	0.3081698
130	0x3e81e17f	0.25367352
131	0x3e81ebee	0.25375313
132	0xbdd86bd3	-0.10567441
133	0xbdc34d75	-0.09536258
134	0x3ee9884d	0.45611802
135	0xbe4f7169	-0.20258106
136	0xbf1c8540	-0.61140823
137	0x3ea0ede5	0.314315
138	0x3e4207d8	0.18948305
139	0x3e034c44	0.12822062
140	0x3e24ca53	0.16092806
141	0xbd6b3592	-0.057424136
142	0x3e56ca4e	0.2097561
143	0xbd830555	-0.063975014
144	0x3d387b2a	0.045039333
145	0x3ea78496	0.32718343
146	0xbe2aa0cf	-0.16662906
147	0x3de8ff44	0.11376813
148	0xbf025fd9	-0.509275
149	0xbe22c83c	-0.15896696
150	0xbccfa8fd	-0.025349135
151	0xbda05a4f	-0.07829725
152	0xbe531e5f	-0.20617054
153	0x3d060977	0.03272387
154	0xbe9fecd8	-0.31235385
155	0xbe39116b	-0.1807305
156	0x3e8ff7ed	0.2811884
157	0x3ecfa3c8	0.40554643
158	0xbe74268f	-0.23842834
159	0xbd9a1748	-0.07523972
160	0x3f2b7c95	0.6698697
161	0x3b3b7705	0.0028604877
162	0xbd2cce6b	-0.042189043
163	0xbee2ca65	-0.4429504
164	0xbe5c9bd5	-0.2154382
165	0xbdc46281	-0.09589101
166	0x3de35805	0.11100773
167	0xbe097465	-0.13423307
168	0xbd9080af	-0.070557944
169	0x3f806bc9	1.0032893
170	0xbf056384	-0.52104974
171	0xbe6fbfe2	-0.23413041
172	0xbd74ce77	-0.059767213
173	0x3e8b628c	0.27223623
174	0x3f069c55	0.52582294
175	0x3f164586	0.58699834
176	0xbe9c65f3	-0.3054653
177	0xbe0499d6	-0.12949309
178	0xbd8f6735	-0.07002107
179	0xbf266d8f	-0.65010923
180	0x3e3ac7d7	0.18240295
181	0xbe826e0d	-0.25474587
182	0xbc58601b	-0.013206507
183	0xbe100535	-0.14064486
184	0x3e8beba8	0.2732823
185	0x3e709585	0.23494537
186	0x3dbdae22	0.09261729
187	0x3ea1f6fe	0.31633753
188	0x3e087435	0.1332558
189	0xbd1bfc2c	-0.038082287
190	0xbe8c038a	-0.2734645
191	0xbe91dd36	-0.28489083
192	0x3e94fb6d	0.29098073
193	0xbdc64c71	-0.09682549
194	0xbe38527f	-0.1800022
195	0x3e9d4c63	0.3072234
196	0x3df3248f	0.118722074
197	0xbe3e307c	-0.18573183
198	0xbda76eb4	-0.08175412
199	0xbe89f4d6	-0.26944607
200	0x3cbd9806	0.02314378
201	0xbe18f509	-0.14937223
202	0x3e1456e6	0.14486274
203	0x3e04422d	0.12915869
204	0xbe1a46d1	-0.15066077
205	0x3e6be99a	0.2303833
206	0xbe5a9e6b	-0.21349494
207	0x3e034994	0.12821037
208	0x3b187840	0.0023265034
209	0xbcc26c2e	-0.023733225
210	0xbe3e69bb	-0.1859502
211	0x3e33b83e	0.17550752
212	0xbe8438af	-0.25824496
213	0x3ea3114f	0.31849143
214	0xbf2596f9	-0.6468349
215	0x3d6f021e	0.05835163
216	0x3e433499	0.19063033
217	0x3ea2b58f	0.31779143
218	0x3eb56e6d	0.3543581
219	0x3e7b0d2f	0.24516748
220	0xbb6abed3	-0.0035819307
221	0x3e64e2cb	0.2235214
222	0xbd7ea8b6	-0.062172614
223	0x3ed38405	0.4131166
224	0x3dbed7c9	0.093185015
225	0xbe567fda	-0.20947209
226	0xbeaf4859	-0.34234884
227	0x3dd2861f	0.10279488
228	0x3e6d5407	0.23176585
229	0xbda76db7	-0.08175223
230	0xbe3a558d	-0.18196698
231	0x3e2f991b	0.17148249
232	0x3db5ae58	0.08871144
233	0xbeca2c78	-0.39487052
234	0x3ddf5c47	0.109062724
235	0x3e4c80c3	0.19970994
236	0x3e92cd7e	0.28672403
237	0x3cb3ecd0	0.021963507
238	0xbe905cc7	-0.28195783
239	0xbf0ed42d	-0.55792505
240	0x3e01d440	0.12678623
241	0xbe807f36	-0.25097054
242	0xbd94ba67	-0.07262116
243	0x3e280262	0.16407159
244	0x3db5390f	0.08848774
245	0x3d0963cb	0.033542436
246	0xbe428239	-0.18994989
247	0x3d4b5932	0.04964561
248	0xbec7b0ed	-0.3900217
249	0xbea1466a	-0.31499034
250	0xbe197053	-0.14984255
251	0x3e80cdf8	0.25157142
252	0xbe851017	-0.25988838
253	0xbe67a77e	-0.22622487
254	0xbf0d87bf	-0.5528526
255	0x3dbd691f	0.09248566

bias f4 [32]
0	0xbc6e113f	-0.014530479
1	0xbc793cde	-0.015212266
2	0x3cf5c5e2	0.030001584
3	0xbd073ba7	-0.033015873
4	0x3ac75ab2	0.0015209524
5	0x3bf74f72	0.0075473124
6	0xbb8f1492	-0.004366466
7	0x3a0da3ad	0.0005403113
8	0xbd137fcf	-0.03601056
9	0xbbc75216	-0.0060827835
10	0xbc12eceb	-0.008967618
11	0x3ba5646c	0.0050473716
12	0xbbcb42bc	-0.0062030237
13	0x3bfffae6	0.007811892
14	0x3bb2d2da	0.0054572644
15	0xbaf7d8d7	-0.0018909228
16	0x3c10e684	0.008844022
17	0x3c294887	0.010332233
18	0x3bbdff03	0.005798222
19	0x3b814994	0.003945539
20	0xbc977799	-0.018489646
21	0x3c3afc4a	0.011412689
22	0x3cd96a42	0.026539925
23	0x3af7abf3	0.0018895849
24	0x3a51d8fe	0.00080050516
25	0xbaa407f0	-0.0012514573
26	0xbbd6b1fa	-0.006551978
27	0xba628e85	-0.0008642453
28	0xba9d6840	-0.0012009218
29	0x3c3f5913	0.011678952
30	0x3b93bb7c	0.004508434
31	0xbb6aa685	-0.003580482

weight f4 [1, 32, 5, 5]
0	0xbd72daaf	-0.059290584
1	0x3d9591c5	0.07303194
2	0xbdb040cd	-0.0860611
3	0xbda29512	-0.07938589
4	0xbcbea05c	-0.023269825
5	0xbc494b75	-0.012286057
6	0xbc242f94	-0.010021109
7	0x3d113215	0.035448153
8	0xbc081591	-0.008305923
9	0x3dbf7f3c	0.0935044
10	0x3da6477a	0.08119102
11	0x3d4885d5	0.048955757
12	0x3cbb2856	0.022846382
13	0x3aaf22d7	0.0013361824
14	0xbd8e142f	-0.069374435
15	0xbd057a96	-0.03258761
16	0x3d3aeca0	0.04563582
17	0xbcda85f3	-0.0266752
18	0x3ced8533	0.028994178
19	0x3d4aca36	0.04950925
20	0x3d7c9fbc	0.061675772
21	0x3b2a6a72	0.0026003388
22	0xbd899a84	-0.06718925
23	0xbdaba009	-0.08380134
24	0xbd7f5411	-0.06233603
25	0x3d4e2fff	0.05033874
26	0xbd791b61	-0.060817126
27	0x3d1f923f	0.03895783
28	0x3dc398d2	0.095506325
29	0x3d4a491f	0.04938614
30	0xbd06ee6a	-0.032942213
31	0xbcc5207c	-0.024063341
32	0xbd09fcfd	-0.033688534
33	0x3d3dcf81	0.04634047
34	0x3c0fb368	0.008770801
35	0xbdb79c9e	-0.08965419
36	0xbda580e6	-0.08081226
37	0x3ddb94b9	0.10721726
38	0xbda1d19e	-0.079013094
39	0xbd625b71	-0.055262987
40	0xbd576bbd	-0.05259298
41	0x3d53a068	0.051666647
42	0xbda99c98	-0.08281821
43	0xbd593124	-0.05302538
44	0xbb79029a	-0.0037995935
45	0x3d04d85b	0.032432895
46	0xbccde18a	-0.02513196
47	0xbca577b5	-0.020198682
48	0x3db5cfeb	0.08877548
49	0x3d6127fd	0.054969776
50	0x3a2dead3	0.0006634418
51	0x3d98496a	0.074358776
52	0x3d84c823	0.064834855
53	0x3bca4cf5	0.006173725
54	0x3cb19fad	0.021682585
55	0x3c39f6ca	0.011350343
56	0xbd7fba32	-0.06243343
57	0xbe0f4140	-0.13989735
58	0xbd44fbb6	-0.048091613
59	0xbd882d09	-0.06649215
60	0xbca5e2e1	-0.020249786
61	0xbd225d6f	-0.039639886
62	0x3e458b58	0.19291437
63	0x3db639cf	0.08897745
64	0xbc9aefd8	-0.018913195
65	0x3c3b675f	0.01143822
66	0xbd611201	-0.05494881
67	0x3d6e2fc7	0.058151033
68	0x3d720784	0.0590892
69	0xbd9f05ad	-0.077647544
70	0x3cc9e23a	0.024644006
71	0xbcb37fc5	-0.021911511
72	0xbdf9ad10	-0.12191212
73	0x3c0d33a6	0.008618271
74	0xbce15d73	-0.02751038
75	0xbc938724	-0.018008776
76	0xbd2d5477	-0.04231688
77	0x3c240988	0.010012038
78	0x3cfd3b7b	0.030912152
79	0xbc97af58	-0.018516228
80	0x3c462348	0.012093373
81	0xbd5d9f2b	-0.054106873
82	0x3d1d08ca	0.03833846
83	0x3d16656f	0.03671783
84	0xbcb8d57e	-0.022562739
85	0xbdb03db2	-0.086055174
86	0x3db418d2	0.087937966
87	0x3e2b8051	0.16748168
88	0x3d63d5e4	0.055623904
89	0xbdb8d55c	-0.0902507
90	0x3d6b7810	0.057487547
91	0xbdacd867	-0.08439713
92	0x3d65a727	0.056067612
93	0xbcf304b7	-0.029665334
94	0xbbcc1a39	-0.006228712
95	0xbcf245a7	-0.029574228
96	0xbb22df6a	-0.0024852403
97	0x3d184d76	0.037183248
98	0x3d01e459	0.03171191
99	0xbd44a869	-0.04801217
100	0xbc3a8712	-0.011384742
101	0xbd46dee3	-0.048552405
102	0x3c01abb7	0.007914475
103	0x3d3937eb	0.045219343
104	0xbcd2db9b	-0.025739482
105	0xbc99357c	-0.018702261
106	0x3d09a957	0.03360876
107	0xbd31de9c	-0.043425187
108	0xbda5cae4	-0.08095339
109	0x3d0440ee	0.032288484
110	0x3ba568ed	0.0050479085
111	0x3c9b4525	0.01895387
112	0x3ccae0bc	0.024765365
113	0x3c83f6a3	0.016108816
114	0x3c12efd1	0.0089683095
115	0xbd23de6d	-0.040007044
116	0x3c8117e7	0.015758468
117	0x3d6213d0	0.055194676
118	0x3d220907	0.03955939
119	0xbd94cf1d	-0.07266066
120	0xbd4e2050	-0.050323784
121	0x3d06c560	0.032903075
122	0x3d3eb413	0.04655845
123	0xbd8a7413	-0.06760421
124	0xbce1b43a	-0.027551759
125	0x3d822673	0.0635499
126	0x3d2499e2	0.040185817
127	0x3cf71e3a	0.03016578
128	0xbd8d27d6	-0.06892364
129	0x3d4eb76d	0.050467897
130	0xbd261d53	-0.04055531
131	0x3d455552	0.04817707
132	0x3d3b1db7	0.045682635
133	0x3c910357	0.017701788
134	0x3b8fc016	0.004386912
135	0x3d1aa823	0.037758004
136	0x3d3ea629	0.04654518
137	0xbc7927ae	-0.015207214
138	0x3d5acced	0.05341809
139	0xbd2012ec	-0.039080545
140	0xbda6ca7f	-0.08144092
141	0x3cfa4f15	0.030555287
142	0xbcaa0ceb	-0.020758113
143	0xbd37f267	-0.044908907
144	0x3da23439	0.07920117
145	0x3d591d34	0.053006366
146	0x3cf6a25c	0.030106716
147	0xbcca08ca	-0.024662394
148	0xbd536c68	-0.051617056
149	0xbd4bd2b3	-0.049761485
150	0xbd4d3042	-0.05009485
151	0x3c9a3d77	0.018828137
152	0xbcf565f1	-0.029955836
153	0x3cc780a1	0.024353327
154	0xbcf91ca8	-0.030409172
155	0xbdaabdd2	-0.083369866
156	0x3d07d9c8	0.033166677
157	0xbb615f4f	-0.0034389084
158	0xbdc87413	-0.097877644
159	0x3bc35219	0.0059607145
160	0x3d187fca	0.037231244
161	0x3deb4e48	0.1148954
162	0x3d6ea7ed	0.058265615
163	0xbc9d0d42	-0.01917136
164	0x3d11233e	0.035434
165	0xbd54d585	-0.05196144
166	0x3d21fd0b	0.03954796
167	0xbd3955e1	-0.045247916
168	0xbd51fc36	-0.051265918
169	0xbc8740ff	-0.016510485
170	0xbd74a8b1	-0.05973119
171	0x3d8b2ec9	0.06796033
172	0xbcc923f5	-0.024553278
173	0xbca8fa46	-0.020627152
174	0x3d127ea1	0.035765294
175	0x3d8d998e	0.06914054
176	0x3d3b3e80	0.0457139
177	0xbd493485	-0.049122352
178	0xbcc947aa	-0.024570305
179	0xbc417588	-0.011807807
180	0x3da189f8	0.078876436
181	0xbc441a3d	-0.011969146
182	0xbd99d30f	-0.07510959
183	0x3c5fa7e1	0.013650865
184	0x3b3e1d80	0.0029009283
185	0xbba40a5a	-0.005006117
186	0x3d866130	0.06561506
187	0xbd9443c4	-0.07239488
188	0x3d1e3309	0.03862289
189	0x3d8fa9ec	0.07014832
190	0xbd4f6965	-0.05063762
191	0x3da54ae7	0.08070927
192	0x3d42523a	0.0474417
193	0x3d0087fb	0.03137968
194	0x3d9dd335	0.077063
195	0xbd130fc2	-0.0359037
196	0x3d9bf937	0.07615893
197	0x3dac9d7b	0.084284745
198	0xbc1e11b9	-0.00964778
199	0xbd7fb672	-0.062429853
200	0x3d60ec26	0.05491271
201	0x3d52e655	0.051489193
202	0xba7e5079	-0.00097013224
203	0x3c27b761	0.010236592
204	0x3b865856	0.004099886
205	0x3ced5aa6	0.028973889
206	0x3da6b751	0.081404336
207	0x3d2cd9f4	0.042200044
208	0x3d85670d	0.06513796
209	0xbd56157b	-0.05226658
210	0xbda7a929	-0.081865616
211	0xbc54ad12	-0.012980716
212	0xbd731348	-0.05934456
213	0x3d9edb99	0.07756729
214	0x3d65ac3a	0.05607245
215	0xbd9f6a06	-0.07783894
216	0x3c4df018	0.01256945
217	0xbd841b86	-0.06450562
218	0xbc2ac27c	-0.010422345
219	0x3d93947f	0.07206058
220	0xbd7cf47c	-0.061756596
221	0xbb6ec1c5	-0.0036431414
222	0xbd5c066a	-0.053717054
223	0x3c56eeeb	0.013118486
224	0xbd8a6021	-0.067566164
225	0xbdad2ce3	-0.08455827
226	0x3da46a1a	0.0802805
227	0xbd3753ca	-0.04475764
228	0xbccb32db	-0.024804523
229	0x3dab7240	0.08371401
230	0x3d3dc876	0.046333753
231	0xbd1ea96e	-0.0387358
232	0xbc7af1a5	-0.015316402
233	0xbcfc6d79	-0.03081392
234	0xbda079a8	-0.07835704
235	0xbd55f5f9	-0.05223653
236	0x3c1abcff	0.009444474
237	0xbc6af8f9	-0.014341586
238	0xbd7e3e19	-0.06207094
239	0xbd8fd07d	-0.07022188
240	0x3c0e3ed5	0.0086819725
241	0x3d0c0e6b	0.034193438
242	0xbd89e872	-0.067337885
243	0x3cb9d939	0.022686588
244	0x3d71e522	0.05905641
245	0xbd991d1c	-0.07476255
246	0x3d6b3a9e	0.05742895
247	0xbc952d3f	-0.018210052
248	0x3cae4adf	0.021275936
249	0x3d969e77	0.073544435
250	0xbd3dab10	-0.046305716
251	0x3c9606d8	0.01831381
252	0x3d2aa6db	0.041663032
253	0x3da55881	0.080735214
254	0xbc6c6041	-0.014427246
255	0x3c30f5ca	0.010800788
