modeldata/model_41_epoch.pth (torch_old, 43109 bytes, 5 tensors)

weight f4 [64, 1, 9, 9]
00000000: 385a 0fbd c6dc b5ba 95ae 87bc bd29 8f3c
00000010: c7eb 1ebd 0316 c63c c21c 1cbd a993 7b3c
00000020: 91ab 9c3c 019f 11bd 3081 023c 87f3 01bc
00000030: 9fe9 6d3b a488 c53b e641 36bc 7192 da3c
00000040: 0c57 3e3c 517d c33c 11a9 8fbc 02d5 80bb
00000050: 7d5d d13c 2178 ddbc 0d5a c73c 6fb2 76bc
00000060: 2664 09bc 1f2c fabc 9698 573c f9c0 c9bc
00000070: 7048 30bb 5a4c 92bc 09b1 20bb 7c17 39bc
00000080: afb0 6abc 0cde a33c c35b b13c d305 113c
00000090: a194 123b bb96 3fbc c5b5 e43c 5617 67bc
000000a0: 47fb f4bc a400 c23c eb4c a9ba 26d7 2639
000000b0: 4723 0abc 1040 a9bc e0a4 8f3c 0d8b 89bb
000000c0: 94be b0bc 888a 07bd 12a8 a53c c4eb d0bc
000000d0: c29c 83bc 5744 74bc 7085 8839 afdc e1bc
000000e0: 0a08 aebc 3e47 ec3c 4cc5 8bbc 6f0a 61bb
000000f0: 40aa c23c 0b54 4d3c f276 d73b d328 5e3c
00000100: 2d74 81bc 0f6c cabc c2ed 953c 26c9 03bb
00000110: d3b3 6539 d2df 58bb 6c37 bb3a 5417 e13a
00000120: d10e 05bd 481a 04bd 1244 15bc e686 cc3c
00000130: d170 10bc aaca f3b9 d98f d4bc a4ec 113c
00000140: 55c2 a83c c604 803c d0f0 2f3b 1137 f93b
00000150: 4287 1cbd 9530 c33c 7248 f2bc 92f2 2fbc
00000160: ab7b cebc 1ac6 06bd ecc9 d8bb 236c f33b
00000170: 2d2f 3dbc 0631 a63c 1fe4 d7bc 6a89 ff3b
00000180: 17ad 07bd b391 c43c c358 e53c 67ea 003c
00000190: 0c9f bd3c 0d31 dfbb 89bd bbbb 02f0 2c3b
000001a0: bace ae3c dd4e a23c 55f7 933c 46d9 9b3c
000001b0: 4f4a eebc 7229 a33c 06d2 d93c c3bc 0bbc
000001c0: 42b4 f53c b038 243c 04b1 f0b8 1429 603b
000001d0: 2e83 f8bb 13a2 7abc fc56 4d3c 8693 d23c
000001e0: ce1f a7bc 90f5 3b3b 1e0e 113b 7bc8 0ebd
000001f0: 6e95 e5bc 9970 933c 767a 5abc fcef 3fbc
00000200: 31b2 e2bc e3e0 ab3c 259a bebc 317b ebbc
00000210: 1bf4 b83c 74db 66bc 8534 ddbc 71cd 073c
00000220: f2b7 3d3c b330 de3c 55e6 1d3c 66ec d53b
00000230: 8979 f7bc 99c7 d4bb dc13 c9bc 9807 ecbc
00000240: 94d4 bebc 8bec c63c 6e5c ae3c 7f2a de3a
00000250: a441 0b3c 209d b63b 92ea 65bc af3f c0bc
00000260: 114f 65bb 72e4 78bc c894 77bc 473f acbc
00000270: 9855 69bc fb85 7f3c fb82 fb39 2575 323c
00000280: 1f13 c53c c94d 4b3c 1ae1 963c 6c5b 2ebc
00000290: 973e 81bc 7487 e5bc 66b5 cfbc 1dbd 8abc
000002a0: 2fc5 bdbc 71fd f5bc a272 ec3c 29fe 203c
000002b0: a1b3 053d 0bbe 903c 65af ab3a d985 d0bb
000002c0: 928a 8cbb 6535 e4bb bee6 c3bc 7941 babc
000002d0: ef72 41bc df41 c738 e18c cbbc 8e68 76bb
000002e0: 95b2 6dbc 7012 013c 055b c13c e637 bc3c
000002f0: cf9b 78bc 0ec0 61bb a3fb 3fbc 782e 7a3c
00000300: e4b8 293a 05d6 f73c 16a8 083d 77f6 f43c
00000310: e331 113d d044 33ba 0b9a 893c a337 b8bc
00000320: 57ce ffbc 2466 a4bb a427 9d3c a4ff 0c3d
00000330: c3c0 093d 4aaf 1abb 2a19 6f3c eb95 073d
00000340: d2b0 a53b 1593 903c cbbf 1bbc f440 3a3c
00000350: 4086 eebb 8241 bb3c efc7 de3c 090e 9fbc
00000360: 1934 743c 10e2 4b3b dc7e a0bb bcac abbc
00000370: dacc f53c e2e1 c03c f380 7a3c 600a 42bc
00000380: 7391 fd3c ab54 05bd 7b6a d73c b5f5 fcbc
00000390: c74d fd3c b448 25bb 6a6c ea3c de6e 943b
000003a0: fc90 df3b 6d94 5bbc 064f f9bc a08d 783b
000003b0: 5d3e 973c 53d0 1abc 9290 013d 3514 0a3d
000003c0: 7025 a4bb 03b1 7bba ca1a fbbc 05dc ea3a
000003d0: 1f13 813c a695 c939 5aed 993c e793 81bc
000003e0: 6dce 8a3b 5ec4 2abc 4587 a6bb 94b1 8d3b
000003f0: 86e9 3b3c c7cc b93c 2406 9e3c 27a5 bbbc
-0.03499815 -0.0013875 -0.01656274 0.017475957 -0.038799074 0.024180418 -0.038113363 0.015355029
0.019124778 -0.03555203 0.007965371 -0.007931597 0.003630258 0.0060282517 -0.01112411 0.026681157
0.011617433 0.023863466 -0.017536672 -0.0039316425 0.025557274 -0.027034821 0.024334932 -0.01505719
-0.008385694 -0.030538617 0.013158938 -0.02462815 -0.0026898645 -0.017858673 -0.0024519584 -0.011297103
-0.014324351 0.020003341 0.0216502 0.008851486 0.0022366422 -0.011693652 0.027918706 -0.014104685
-0.029904975 0.023681946 -0.00129166 0.00015911143 -0.008431262 -0.02066043 0.017534673 -0.0041974843
-0.02157525 -0.033091098 0.020221744 -0.025503047 -0.016065959 -0.014908872 0.0002603936 -0.02757105
-0.021244068 0.028842565 -0.017061852 -0.0034338494 0.023762822 0.012532244 0.0065754587 0.013559538
-0.015802467 -0.02470973 0.018301848 -0.0020108907 0.00021906132 -0.0033092392 0.0014283485 0.001717309
-0.032484833 -0.032251626 -0.0091104675 0.024966668 -0.00881596 -0.00046499568 -0.025947498 0.008906517
0.020600477 0.015627276 0.0026846416 0.0076054414 -0.03821493 0.023826877 -0.02957556 -0.010738986
-0.025205454 -0.032903768 -0.006615868 0.0074286624 -0.011546892 0.020287048 -0.026353894 0.0077983635
-0.033124056 0.023995256 0.027996426 0.007868386 0.023147129 -0.006811267 -0.0057293815 0.0026388173
0.02133881 0.019812996 0.018062273 0.019024502 -0.029088167 0.019917224 0.026589405 -0.008528891
0.02999318 0.010023281 -0.000114770635 0.0034204172 -0.007583997 -0.015297431 0.012532946 0.02570511
-0.020400908 0.0028680302 0.0022133659 -0.03485916 -0.028025355 0.017998027 -0.013334861 -0.011714932
-0.027672859 0.020981258 -0.023266861 -0.028745266 0.022577336 -0.014090408 -0.027002582 0.008288727
0.0115795005 0.027122831 0.009637435 0.006528425 -0.03020932 -0.0064935205 -0.024545603 -0.028812215
-0.023294725 0.024282714 0.021284308 0.0016949921 0.008499537 0.00557293 -0.014032977 -0.023467867
-0.0034989754 -0.015191184 -0.015111156 -0.021026267 -0.014241599 0.015595908 0.0004797204 0.010892187
0.02405697 0.012408682 0.018417884 -0.010641914 -0.015776915 -0.02801869 -0.025355052 -0.01693588
-0.023165314 -0.030028077 0.028863255 0.0098262215 0.03264201 0.017668745 0.0013098536 -0.006363612
-0.00428898 -0.006964373 -0.023913737 -0.022736298 -0.011807187 9.501329e-05 -0.02484745 -0.003759894
-0.014507909 0.007877931 0.023602972 0.022975873 -0.015173866 -0.003444675 -0.01171771 0.015269868
0.0006474389 0.03025342 0.033363424 0.02990268 0.035447966 -0.0006838562 0.016797086 -0.022487467
-0.03122632 -0.005017059 0.019183941 0.034423485 0.033631098 -0.0023603016 0.014593402 0.033101957
0.005056479 0.01764826 -0.009506176 0.011368025 -0.0072791874 0.022858385 0.027194945 -0.019415872
0.014904999 0.0031110086 -0.0048979353 -0.02095639 0.030004907 0.02354521 0.015289533 -0.011843294
0.030953145 -0.03255145 0.026295891 -0.030878881 0.030920876 -0.0025220336 0.028616149 0.004529818
0.0068227034 -0.013402087 -0.03043319 0.0037926212 0.018462354 -0.009449082 0.031632014 0.033710677
-0.0050093457 -0.0009601267 -0.030652422 0.0017918354 0.015756188 0.00038449204 0.018789936 -0.015817596
0.0042360337 -0.010422794 -0.0050820434 0.0043241475 0.011469251 0.022680653 0.019290037 -0.0229059

bias f4 [64]
00000000: 9d1a dbbb 3fe3 40bb 32e4 933b 4efd ab3b
00000010: 0fa5 fa3b 5751 9d3a 6df5 54bb 59dc 393c
00000020: 10da a3bb 2677 56bb 533c a63b 2918 243d
00000030: bd35 d23b 5085 b7bb da23 85bb 0d5e 663b
00000040: a3ec 163c 07f2 d0bb c230 b13b 32cb eb3a
00000050: 82e1 fbba 1493 4ebb d475 3fbb 750d d03a
00000060: d69c 823b 5954 3f3c 09a5 dfbb a125 fabb
00000070: f14f 7f3c 4ec9 5a3c 0422 0ebc b9a1 64bb
00000080: df6f 73bb efef 0a3c 75b0 063c d1ac 093c
00000090: 902c 203b 1fa7 323b 2529 f03c c246 5d3b
000000a0: 0d21 7e3c fcc1 6c3b fa01 933a bb7b 923b
000000b0: 85a2 82bb ca5c 173b 9738 973c 6eea 34bb
000000c0: 95d7 89bb bb43 1cbb 9f2c 5e3b 2b22 6cba
000000d0: 947f a03a d446 73ba 6997 d83b a48d 873c
000000e0: d1fb 0f3d 85c9 e03b e253 1fba 8638 be3b
000000f0: f8af 94bb c877 06bc 5df8 cd39 091b cc3a
-0.006686522 -0.0029432324 0.004513287 0.005248702 0.007649071 0.001200239 -0.0032494918 0.011344039
-0.0050003603 -0.0032724827 0.005073109 0.040062103 0.0064150975 -0.005600609 -0.0040631117 0.0035151273
0.009211692 -0.006376508 0.0054074237 0.0017989634 -0.0019216987 -0.003152077 -0.0029214518 0.0015873151
0.0039859815 0.011677825 -0.0068250936 -0.0076338802 0.015583024 0.013353659 -0.008675102 -0.0034886433
-0.0037145538 0.008480056 0.008220782 0.008403019 0.0024440624 0.0027260256 0.029316494 0.0033764099
0.01551081 0.0036126366 0.0011215799 0.004470316 -0.003986659 0.0023096078 0.018459601 -0.0027605551
-0.0042066076 -0.0023844081 0.0033901108 -0.0009007777 0.0012245052 -0.00092802686 0.0066098464 0.016547032
0.03515226 0.0068599605 -0.0006077868 0.005805078 -0.0045375787 -0.008207269 0.00039285692 0.0015572022

weight f4 [32, 64, 1, 1]
00000000: 1615 0bbd b75b 2e3e 5e42 11be dba9 b0bb
00000010: 4490 2dbe 1565 f03d 7fb2 20be aca0 2a3e
00000020: 0a46 1cbe c681 313e 8b2c bfbd e916 573d
00000030: 50ab b4bd f555 34be bbec 993d ea5b 583e
00000040: c31a fa3e f29c 113c 64e4 f5bd f947 b5bd
00000050: 25f1 713e 2f2b 9fbd 392e 493d a480 903e
00000060: e374 3ebe 86fd 16be a2c1 17be e213 513e
00000070: 0a14 a03e ad23 a9bd 5d12 f6bb 5446 693d
00000080: 50b8 113c 82b1 ca3d 9a6b fabd fa83 4dbd
00000090: d518 46be b728 4c3e 1540 3a3e eca9 37be
000000a0: f1d4 2ebe 5092 fa3c 8b0e f23c 7fff 4ebe
000000b0: 8f19 b03d 6a19 57bd a80d 3b3e c2a3 5fbe
000000c0: 3b90 853d 60fc d33d d9c6 ea3c 3242 69bd
000000d0: 7140 653e ff91 7e3e 4ed6 713d c1ac 8cbe
000000e0: e5ee 41be f0ea bfbd 5b94 f33d 6b43 cdbd
000000f0: 829e 0fbe 39f3 b7be 7d91 3b3e e80a 58be
00000100: ba21 87bd bd14 e1bd 9777 6b3b 0536 883e
00000110: 2579 7dbc a2e6 5cbe 2053 b43d e3c8 7f3e
00000120: 926c 5b3d 11ff 753d d86e 13be 5cfe 77bd
00000130: 1a07 76be c4d7 363e e773 0dbe 044c d8bc
00000140: 9f6a 8ebe 8862 31bd 77b2 ffbb e516 2f3e
00000150: 1af7 25bc 2410 0f3e 96d2 f23d f7dc 483e
00000160: eebb 413d c3b0 203e 7b2b 1c3d 9a5b 40be
00000170: f561 903e 083f ff3d 9889 9dbc 7951 c4bd
00000180: 4716 c1bd 2cbd 833e 1174 4bbd 2b96 133d
00000190: 3084 60bd 2ca0 4abd 22b6 e1bb f02b fbbd
000001a0: 3ec5 1fbe 1c60 6e3e cd03 fabc bfeb 8fbe
000001b0: dfb6 43be fd0d 583e f1e6 a23e 159d f6bd
000001c0: 96fa 3b3e 08b7 3b3e 1a23 6fbe 2631 24be
000001d0: c88f 55be b309 4d3e 5741 613d 7107 70be
000001e0: 461e 9c3d 95f1 4b3c eba0 3dbe 024d 903d
000001f0: 22fc 68be c674 6c3e 3584 833e 2e7d 65be
00000200: ee75 54be 3bca c73d 30d4 15be a9f8 8b3e
00000210: b125 933e 6d96 493e 52fc 0a3e 6d81 523d
00000220: 572b 0a3e 5fa1 18be dfe4 3ebe de63 333c
00000230: 9a42 89ba 4bd6 433e 6968 7dbd 0921 443e
00000240: 2772 d6be 87c9 40be 8e34 223e 2e67 ed3d
00000250: ef0c 903d 2ec4 6b3e 8fa4 fe3d 589f 1a3e
00000260: ca5e 8dbd 3a76 25be eb4b a83a 9ebf 15be
00000270: 0776 673d d415 c1be 9a8a 97bb 3b38 49bd
00000280: 714c 8cbd aad1 743e cdef a1bc b74a 3b3e
00000290: 96ac 65be 36fc 723e 41b3 79bd 467f d5bc
000002a0: 9c0d 3fbe 2d8f 17be 4ad4 933d 6dbc 3d3e
000002b0: d99e 97be 4313 c13d 5f78 de3d 83ae 02be
000002c0: 01a5 2a3d d4c8 c6bd 3040 813e c57a e8bc
000002d0: 0da2 3c3e 64ab 303e 32de 0b3e ad1c 4fbe
000002e0: 31d2 5ebe a186 37be a84b 033d 32cb 773c
000002f0: 15d7 203e 3633 bfbc 2c56 523e 7bfd c5bc
00000300: 5274 68be 52aa 21be 777a ed3d a7e1 923e
00000310: f704 803e f893 04be b511 70be a7b7 083e
00000320: c170 80be ae5d 2abe 25e7 913d a8b4 d6bd
00000330: 9650 2a3e e521 5bbe 8052 4e3e fc61 0b3e
00000340: b60f 403b 8062 0bbd 5c45 7b3e 77c3 2ebe
00000350: fa4e 92bc 0797 6e3d 0c5d 493e 5517 973e
00000360: a15b 2b3e 3704 833e 275d 57be e284 c53c
00000370: e3ee 223e fe78 7fbe 6334 15be 20a7 fdb9
00000380: 168d b9bd 2b0d 80bd 72ef 753e f18c b2bd
00000390: bd8e 253e d2d3 a13d df22 dabe e552 6a3e
000003a0: acda e2be 1353 febd c309 153e 4498 443e
000003b0: ec21 383e 4c11 003e 0113 1e3d ac8c 2fbe
000003c0: 9351 0ebe 63cb fcbd 4231 3cbd 1f48 1fbe
000003d0: 8e2a f33d 560a 3cbd a496 08be aa85 60bd
000003e0: 18c4 da3d b330 853e 4bcd 52be e258 a53d
000003f0: e8e7 c0bd 1ff4 063e 226b 06be 8c42 02bb
-0.033955656 0.17027174 -0.14185473 -0.005391342 -0.16949564 0.1173803 -0.15693091 0.16662854
-0.15261093 0.17334661 -0.09334668 0.052512083 -0.08821738 -0.17610915 0.07515856 0.21128812
0.48848543 0.008887516 -0.12006453 -0.08851618 0.23627146 -0.077719085 0.049116347 0.28223145
-0.18599276 -0.14745149 -0.14819959 0.20417741 0.3126529 -0.08258758 -0.0075095133 0.056951836
0.008894041 0.09897138 -0.122275546 -0.05017469 -0.1934541 0.19937406 0.18188508 -0.17935914
-0.17073418 0.030587345 0.02954795 -0.20214652 0.08598625 -0.05251447 0.18266928 -0.21839812
0.065216504 0.10350871 0.028659271 -0.056947894 0.22387864 0.2486038 0.059042268 -0.2747555
-0.18938787 -0.09370983 0.11893531 -0.100226246 -0.1402531 -0.35927752 0.18317218 -0.2109791
-0.0659823 -0.10990284 0.0035929435 0.26603714 -0.015470778 -0.21572354 0.08804917 0.24978976
0.053570338 0.060057703 -0.14397752 -0.06054531 -0.24026147 0.17855746 -0.13813744 -0.026403435
-0.2781572 -0.043306857 -0.007803257 0.17098577 -0.010129714 0.13971001 0.11856572 0.19615541
0.047298364 0.15692429 0.038127404 -0.18784943 0.28199735 0.12463194 -0.019230649 -0.09585852
-0.09428077 0.25730264 -0.049671236 0.036031883 -0.054813564 -0.049469158 -0.006888167 -0.1226424
-0.15602586 0.2327885 -0.03051939 -0.28109547 -0.19112729 0.21099086 0.3181682 -0.1204168
0.1835731 0.1833154 -0.23353234 -0.16034374 -0.2085563 0.20023231 0.054993954 -0.23440339
0.07622962 0.012447734 -0.18518417 0.07045938 -0.22752431 0.2309142 0.25686803 -0.22411034
-0.20748112 0.09755369 -0.14631724 0.2733815 0.28739694 0.19686289 0.13572815 0.05139296
0.13493095 -0.14905308 -0.18641995 0.010949103 -0.0010472119 0.19124715 -0.06186715 0.19153227
-0.41883966 -0.18826877 0.1584036 0.115919456 0.07033717 0.23024055 0.12433731 0.15099847
-0.06902845 -0.16158381 0.0012840008 -0.14623877 0.056509044 -0.37711966 -0.004624677 -0.04912589
-0.068505175 0.23908105 -0.019767666 0.1829022 -0.22429118 0.23729023 -0.060961965 -0.026061665
-0.18657535 -0.14800711 0.07218225 0.1852891 -0.2961338 0.09427502 0.10862803 -0.12761883
0.041661266 -0.09706274 0.25244284 -0.028378854 0.18421192 0.1725288 0.1365898 -0.20225783
-0.21759869 -0.1792245 0.032054573 0.015124129 0.15707047 -0.023339849 0.20540684 -0.02416872
-0.22700623 -0.15787628 0.11595624 0.28687784 0.25003788 -0.1294707 -0.23444255 0.13351308
-0.25086024 -0.16637298 0.071241654 -0.10483676 0.16632304 -0.21399648 0.20148659 0.13611597
0.002930624 -0.034029484 0.24538177 -0.17066751 -0.017859925 0.0582495 0.19664401 0.29509988
0.16734172 0.25589153 -0.21031629 0.024111215 0.1591144 -0.24948499 -0.14570765 -0.00048380438
-0.09060113 -0.062525116 0.24017122 -0.08718289 0.16167732 0.0790173 -0.4260473 0.22883184
-0.44307458 -0.12418189 0.14554505 0.1919871 0.1798169 0.12506598 0.038592342 -0.17143506
-0.13898306 -0.123434804 -0.045945413 -0.15554856 0.11873351 -0.045908295 -0.13338715 -0.054814972
0.10681933 0.26013717 -0.20586126 0.08073594 -0.094192326 0.13179062 -0.13126805 -0.001987609

bias f4 [32]
00000000: e70a 4abb 9880 ed3b 0f11 033b c7b3 ea3b
00000010: 6d5e 873b 4473 d83c c75e 55bb 6b9f 42bb
00000020: 674a 893b f8b5 303b 1837 f63a b2e1 7a3c
00000030: 1811 a4ba 8bec 7b3c 3953 2a3b 6b9c b23a
00000040: d16b a1bb a69b 90ba 6648 1f3b bb0d f33a
00000050: 2e48 a8ba d9c7 3a3b 615a 9aba a4e2 73bb
00000060: 9b87 243c 58d0 ea3b ac11 e939 7598 32bc
00000070: e5c6 e93b 321c 1d3b 9f95 90bb 8234 2eba
-0.0030829252 0.0072479956 0.0019999181 0.0071625444 0.0041311295 0.02642215 -0.0032557712 -0.0029697071
0.0041897777 0.002696393 0.001878473 0.015312599 -0.0012517301 0.01537622 0.0025989546 0.0013626938
-0.004926183 -0.0011032715 0.0024304627 0.0018543521 -0.0012838894 0.0028500466 -0.0011776203 -0.0037213946
0.0100420965 0.00716595 0.0004445439 -0.010900606 0.007134306 0.0023973105 -0.0044123675 -0.00066453975

weight f4 [1, 32, 5, 5]
00000000: c6d8 88bd 034d 3a3d 89df 8dbd 50c7 92bd
00000010: 58d0 9dbc 3cec ad3c fdce 943d fa4a 623b
00000020: 9ff3 8abb 9c34 853d 4916 2cbc d96a ce3c
00000030: 5c96 873d 12f5 0ebd 9fbd a83d 617f 853d
00000040: b24b 853d e748 1dbd a5ac 06bd e190 14bd
00000050: 01c9 243d 3cbb a63d f821 1b3d 8d14 65bd
00000060: 6fe9 603d 9a89 fd3c cb1d 893d d66d 80bd
00000070: 8eb5 28bd 5dcc 4ebd e9d9 353d 6d5d 6b3d
00000080: b4ed 48bd 7148 b1bd 0304 6c3d 16fe 213d
00000090: 712e 943d bf44 8a3d 3984 9a3d 50a4 68bd
000000a0: 8c9f 673c 3103 a83d 4380 273c b4ca a93d
000000b0: 3edd 993d bb24 883d b470 83bd 1c0c e4bc
000000c0: a523 4b3d d1cf 003c 500d 8ebd 52b1 57bc
000000d0: 672a 44bd 655f a83d 4b95 dabb e13e 33bd
000000e0: dc5c efbc 014e cfbb 166a 903b 24fe 38ba
000000f0: 9caa ab3d 4442 693d 6ca6 c2bc bcf4 a23d
00000100: a540 10bd dabb 1cbd b2d9 bc3c 58a5 663d
00000110: f6c8 aa3d 53bd 35bd 2177 993c 7b4a 30bd
00000120: dd92 e83b a077 2b3d 7ad3 4dbc 0fdf f73c
00000130: 6984 993d cf79 88bd 2fae 73bd b139 32bd
00000140: 95c5 80bd 05a8 8c3d 260a 8bbd df21 6bbd
00000150: c989 87bd 77dc 60ba 29ff a33d 03ad 943d
00000160: e732 a43d d365 c6bc e31e 3e3d d7f3 083d
00000170: 3ae5 7b3c 4627 213d d3c1 75bd 32c8 a83d
00000180: 7cc6 5cbc f4dc 963d 1efc 533d f075 cbbb
00000190: 369b 843d f8a6 6fbd ed5a 84bd bc29 8c3d
000001a0: 2a37 e23a 1a03 be3c 72f1 36bc e430 86bd
000001b0: 0354 993c 08ba 2c3c e43c f43c 08b6 1f3d
000001c0: 4474 9f3d 435b 313d 3b19 9f3d 706e 2e3d
000001d0: 86f3 823d b39d 05bd 8f5e 153d efe1 5dbd
000001e0: 8879 fc3c 848e a23d 192c 8b3c f3f5 a8bd
000001f0: 993f 203d ac82 b2bc 2fd7 9f3c 96bc 1f3d
00000200: e3dc 97bd 06f1 52bd f5bc 3d3c 2f92 8abd
00000210: 2005 893d a114 9cbc 9bce 283d c10b 8ebd
00000220: dc68 98bd 141d a53c 7f38 763d 757f cebb
00000230: 5d92 debb 8bcc 86bd 353c 44bd 109f 9f3d
00000240: 32d8 9c3d fa5f 983d 782c bb3d bdc7 173d
00000250: b743 81bd 200e b13d 165e d93a f45c 763d
00000260: 6bbe 25bd e5f3 27b9 472b 85bc a95f 9fba
00000270: b3ba ac3d b7c5 713d c796 9dbd c346 a9bd
00000280: 573f 6fbd f172 863c b8fd 5ebd 9197 a73d
00000290: b77c a1bd e115 0bbd e6f2 7abd 449d 6e3d
000002a0: e021 23bd a77b 903d c98f 633d c34d 20bd
000002b0: 39b1 22bd 7b18 53bd c059 733d cd84 263d
000002c0: c7e7 6b3d e0ad 6ebd c42a cc3c dcbc f1bb
000002d0: 70ef 21bd a22e a2bd d96f 6f3d 68f8 6dbc
000002e0: 6bcf 57bd 9afd 0d3d d9f2 00bd 1495 7dbd
000002f0: b31b 113b d1c1 9e3d e046 5cbd a480 f93c
00000300: 8ee1 80bd 4253 92bc d530 3abd 69f8 7cbd
00000310: e175 d5bc fde6 78bd f974 1f3d 96c6 593d
00000320: 8ee9 083c ec4c 413d 788b 24bd 77be 17bd
00000330: d7a6 063d 4d7d 343d 5f62 a43d 7693 313d
00000340: 4966 4f3d e803 a03c 7387 80bd 39af aa3d
00000350: 31b9 62bd 8fad 443d d72a 01bd f362 8bbc
00000360: 2b1a 8d3b d488 693d c04d a03d e499 f83c
00000370: 88a5 1b3d ffd3 383d fb82 4cbd 9ac6 c4bc
00000380: 5202 a13d b46b 38bc 1775 883d 5568 f7bc
00000390: 4849 2b3d 1728 293d ed3a 233d ed10 993d
000003a0: e479 9bbc c719 3a3d 49bb 3cbc 0875 343d
000003b0: 2e76 a53d 688e 2b3d 4809 4b3d 9c75 1abc
000003c0: 36e1 f13c 3a84 c63c 6c8a 843d 8f3e 8d3c
000003d0: 8d04 7dbd 512c 11bd c038 50bd aae4 a5bd
000003e0: b448 363b 2fac c13b d274 3e3d 385b a0bc
000003f0: 6911 63bc ded0 813d 3be8 503d 4170 87bd
-0.06681971 0.0454836 -0.069274016 -0.07166922 -0.019264385 0.02123081 0.072660424 0.0034529553
-0.0042404677 0.06504175 -0.01050336 0.025197433 0.06620476 -0.034901686 0.08239292 0.06518436
0.06508578 -0.038399603 -0.03287949 -0.03627098 0.040230755 0.08141181 0.037874192 -0.055927802
0.05491012 0.030949403 0.06695136 -0.062709495 -0.04118877 -0.050487865 0.04439727 0.057462145
-0.049054816 -0.08656395 0.057621013 0.039548956 0.072354205 0.067513935 0.07544751 -0.056797326
0.01413716 0.08203734 0.010223451 0.08290616 0.07512902 0.06647631 -0.06417981 -0.027837805
0.04959454 0.007862047 -0.06936133 -0.013164835 -0.047892 0.0822132 -0.006670629 -0.043761138
-0.029219083 -0.0063264375 0.0044071777 -0.0007056913 0.083821505 0.05694796 -0.023760997 0.07956836
-0.0352179 -0.038265087 0.023053024 0.056310028 0.083391115 -0.044370007 0.018733563 -0.04303978
0.0070975856 0.04186213 -0.012562627 0.03025773 0.07495958 -0.06663858 -0.059492286 -0.04351205
-0.06287686 0.06867985 -0.06789045 -0.05740535 -0.06618077 -0.00085777737 0.08007652 0.07259562
0.08017521 -0.024218475 0.046416175 0.03343567 0.015374476 0.039344095 -0.0599993 0.08241309
-0.013475057 0.07366362 0.05175411 -0.0062091276 0.06474917 -0.058508843 -0.06462655 0.06843898
0.0017258872 0.023194838 -0.0111659635 -0.06552294 0.018716818 0.0105424 0.029814191 0.038991958
0.07785848 0.043299925 0.07768484 0.04258579 0.06394105 -0.032621097 0.03646713 -0.054170545
0.03081967 0.07937339 0.0169888 -0.08250036 0.03912315 -0.021790825 0.019511787 0.03899821
-0.07415178 -0.05149939 0.011580695 -0.067661636 0.06690431 -0.019052805 0.04121266 -0.06935836
-0.07441875 0.020155467 0.060112473 -0.006301815 -0.00679235 -0.06581982 -0.04790898 0.07794011
0.076584235 0.07440181 0.09139341 0.03705572 -0.06311744 0.08645272 0.0016583826 0.06014724
-0.0404648 -0.00016017219 -0.016255988 -0.0012159246 0.084340475 0.059026446 -0.07694774 -0.0826545
-0.058410015 0.01641223 -0.054441184 0.08183206 -0.078851156 -0.033956412 -0.061266802 0.05825545
-0.039827228 0.07054835 0.055557046 -0.03913666 -0.039719794 -0.05153702 0.059411764 0.040653992
0.057594087 -0.05827129 0.024922736 -0.00737725 -0.039534986 -0.07919051 0.058456276 -0.014524557
-0.052688044 0.03466568 -0.031481598 -0.06190975 0.0022141754 0.07751811 -0.05377853 0.030456848
-0.06293021 -0.017861966 -0.045456726 -0.06176034 -0.026057186 -0.060767163 0.038929913 0.053167902
0.008356465 0.0471925 -0.04017207 -0.037046876 0.032873955 0.04406481 0.08026575 0.04335352
0.050634656 0.019533113 -0.06275835 0.08334202 -0.055352394 0.04801708 -0.031534996 -0.017014956
0.004306098 0.057015255 0.0782733 0.030346818 0.03799966 0.04512405 -0.0499296 -0.024020482
0.07861771 -0.011256147 0.06662958 -0.030201117 0.041817933 0.041298 0.039851118 0.074739315
-0.01897902 0.04543474 -0.011519262 0.044056922 0.080791816 0.041883856 0.0495694 -0.009427454
0.029526334 0.024232972 0.064717144 0.017241744 -0.061771918 -0.035442654 -0.05083537 -0.08100255
0.002781433 0.0059104185 0.046498127 -0.019574746 -0.013859131 0.063386664 0.051002722 -0.066132076
