modeldata/model_185_epoch.pth (torch_old, 43109 bytes, 5 tensors)

weight f4 [64, 1, 9, 9]
0.009687896 0.0038482773 -0.03251295 0.027720815 -0.024442667 0.004615128 -0.043204024 0.011359157
0.017976113 -0.026997462 -0.0045615654 -0.012370051 0.047001846 0.041583065 -0.020648375 0.01781044
-0.010872074 -0.009060594 -0.013793474 -0.006372361 0.04940887 0.0385929 0.08957033 0.04114652
0.059737176 -0.018260755 0.0032568916 0.0018543634 0.008363941 -0.020531889 -0.018861393 -0.051321037
-0.019222204 0.07897259 0.028007468 0.0076070535 0.02712084 -0.0050062025 -0.018630557 -0.12919195
-0.21790461 -0.10977209 -0.010371235 -0.03189504 -0.027634101 0.023097357 0.06478495 0.04232148
-0.01864976 -0.11368428 -0.0135651445 0.057744306 0.035011504 0.03267651 -0.0324144 -0.026625443
0.014230302 0.050413277 -0.03726449 -0.008692227 0.06422315 0.0023020743 -0.017702827 -0.0026370997
-0.011685018 -0.015920548 0.036789395 0.0092824595 -0.0015642651 -0.003135842 -0.01303926 -0.0075641605
0.007834354 0.0080516655 -0.014008046 0.019281171 -0.008485168 -0.011690161 -0.027982261 0.0028978442
0.0028961587 0.0030694085 0.00023299496 0.029919267 -0.007654083 0.003185961 -0.016988378 0.013579152
-0.010357204 -0.060308136 -0.048114836 -0.030835219 -0.0356266 0.024971347 -0.012590021 -0.062889986
-0.0473593 0.007977021 -0.004861914 -0.010710234 -0.008703078 0.009094011 -0.014682942 0.10921147
0.026386417 -0.027643304 -0.038739465 -0.009079747 -0.054808203 0.018983379 0.03996917 -0.008153685
0.15690842 0.0024130559 0.0060396343 0.018939732 0.00849059 -0.0068193586 0.016092401 0.017302305
-0.05353587 0.025372084 -0.026339019 -0.07293958 -0.029007263 0.0050349603 0.0064007086 -0.002124523
-0.04439159 -0.028495347 -0.025985813 -0.01803746 0.0235017 0.021280292 -0.012241009 0.0153595945
0.016602378 0.006648242 -0.036920663 0.043334216 -0.013190023 0.0075975247 0.020164758 -0.004450055
-0.02838787 0.012521041 0.009757274 -0.026437256 0.061311107 -0.025990196 -0.033508345 -0.0049737073
0.0032678333 -0.01775212 -0.005531203 0.0036557084 -0.017117076 0.04924027 -0.014681487 -0.05641168
0.015275774 0.01612596 0.025757303 -0.014281963 -0.0145391915 -0.042115945 -0.02533359 -0.017561594
-0.033331927 -0.03242264 0.050257824 -0.0029931117 0.010979675 0.024985753 -0.004888695 -0.013187668
-0.012913273 -0.019226985 -0.03550104 -0.009293786 -0.01662663 0.000704467 0.0065763025 0.008031078
-0.017479485 0.030860491 0.04599581 0.034279842 -0.0035853798 -0.0013313704 -0.009661807 0.034172304
-0.009731134 0.03161322 0.051114768 0.025396114 0.04073664 0.008014381 0.027190322 -0.017508049
-0.035831157 -0.027881343 0.03671797 0.058449306 0.024910847 -0.0030621053 0.023245059 0.032153822
-0.0036323841 0.01630826 -0.017577572 0.041880336 0.026466535 0.026412845 0.03163989 -7.1483686e-05
0.0009541425 -0.025481084 0.0051798923 -0.022273632 0.024345517 0.02869327 0.02020324 -0.012108572
0.03349921 -0.025509235 -0.005351794 -0.02013032 0.051324226 -0.0026314463 0.0309914 0.009791685
0.012665517 -0.009352052 -0.0061263074 -0.025795013 0.015495738 0.007875565 0.03238379 0.017303146
-0.013323243 0.0058983257 -0.02489424 0.008994489 -0.013966623 -0.022573207 0.0031015833 0.023339087
0.026334886 -0.009285486 -0.0035830252 -0.0014850193 0.03498527 0.0058801435 0.0069598947 -0.06835532
00000000: fbb9 1e3c 6133 7c3b 4d2c 05bd c316 e33c
00000010: fd3b c8bc 803a 973b b4f6 30bd c21b 3a3c
00000020: a442 933c c829 ddbc 2f79 95bb c1ab 4abc
00000030: 0285 403d 0153 2a3d c826 a9bc 33e7 913c
00000040: c920 32bc e372 14bc 06fe 61bc 3dcf d0bb
00000050: f560 4a3d 9713 1e3d a670 b73d 4189 283d
00000060: f8ae 743d 9497 95bc 9371 553b 1c0e f33a
00000070: e908 093c 7e32 a8bc 3583 9abc 0236 52bd
00000080: e277 9dbc 62bc a13d eb6f e53c 9744 f93b
00000090: 862c de3c 120b a4bb 1c9f 98bc e54a 04be
000000a0: 6322 5fbe 31d0 e0bd 1dec 29bc 60a4 02bd
000000b0: e960 e2bc ab36 bd3c f9ad 843d 4a59 2d3d
000000c0: 62c7 98bc 4ed3 e8bd 5740 5ebc 4b85 6c3d
000000d0: 3968 0f3d ced7 053d f6c4 04bd 9a1d dabc
000000e0: 3626 693c 277e 4e3d a6a2 18bd d869 0ebc
000000f0: 6d87 833d 66de 163b 8505 91bc 31d3 2cbb
00000100: 8572 3fbc cf6b 82bc 7ab0 163d 7515 183c
00000110: 0708 cdba b382 4dbb 9fa2 55bc c7dc f7bb
00000120: aa5b 003c 22eb 033c 0182 65bc 8cf3 9d3c
00000130: 6005 0bbc 1788 3fbc 0e3b e5bc c2e9 3d3b
00000140: 7bcd 3d3b 2128 493b 1c50 7439 4019 f53c
00000150: 1acf fabb 8ecb 503b 362b 8bbc 177b 5e3c
00000160: 43b1 29bc aa05 77bd 1014 45bd 249a fcbc
00000170: 33ed 11bd b690 cc3c 6046 4ebc 77cc 80bd
00000180: d3fb 41bd 0db2 023c b150 9fbb fa79 2fbc
00000190: 5b97 0ebc 0cff 143c b990 70bc 43aa df3d
000001a0: 5428 d83c 3674 e2bc 46ad 1ebd 38c3 14bc
000001b0: 917e 60bd 0883 9b3c b6b6 233d 0997 05bc
000001c0: 9aac 203e 5c24 1e3b 20e8 c53b 7f27 9b3c
000001d0: 1e1c 0b3c ed74 dfbb 36d4 833c 90bd 8d3c
000001e0: 6e48 5bbd 1ed9 cf3c edc4 d7bc 5961 95bd
000001f0: a4a0 edbc 4ffc a43b 09bd d13b 953b 0bbb
00000200: f5d3 35bd 136f e9bc 33e0 d4bc 4cc3 93bc
00000210: a386 c03c 0254 ae3c 838e 48bc cfa6 7b3c
00000220: b601 883c 7fd9 d93b 1f3a 17bd 387f 313d
00000230: f71a 58bc a8f4 f83b 9030 a53c c4d1 91bb
00000240: ae8d e8bc 0d25 4d3c f9dc 1f3c f292 d8bc
00000250: 5b21 7b3d 64e9 d4bc 0c40 09bd 7bfa a2bb
00000260: 2529 563b e56c 91bc 183f b5bb 9c94 6f3b
00000270: 1c39 8cbc 2ab0 493d 9f8a 70bc ef0f 67bd
00000280: 3d47 7a3c 971a 843c fb00 d33c e5fe 69bc
00000290: ca35 6ebc c581 2cbd 6488 cfbc 55dd 8fbc
000002a0: 0f87 08bd 9acd 04bd 26db 4d3d 1528 44bb
000002b0: 18e4 333c ecae cc3c 5931 a0bb 1711 58bc
000002c0: 3192 53bc e981 9dbc 8a69 11bd f744 18bc
000002d0: 9234 88bc fbab 383a 067e d73b c894 033c
000002e0: 2331 8fbc 24cf fc3c 1a66 3c3d 0569 0c3d
000002f0: b1f8 6abb 6181 aeba 8e4c 1ebc 42f8 0b3d
00000300: 566f 1fbc dd7c 013d b85d 513d 830b d03c
00000310: 77db 263d c04e 033c 3dbe de3c 0a6d 8fbc
00000320: b1c3 12bd 6a67 e4bc 9565 163d 8a68 6f3d
00000330: d511 cc3c 9aad 48bb 6c6c be3c bab3 033d
00000340: 4b0d 6ebb e698 853c d7fe 8fbc b78a 2b3d
00000350: 59d0 d83c c05f d83c d498 013d 83e9 95b8
00000360: 6b1f 7a3a b5bd d0bc 16bc a93b 3177 b6bc
00000370: 4070 c73c 260e eb3c 4481 a53c 0863 46bc
00000380: 7836 093d bef8 d0bc 1a5e afbb 57e8 a4bc
00000390: 5a39 523d 5874 2cbb ade1 fd3c 4e6d 203c
000003a0: 0783 4f3c 5939 19bc 31bf c8bb 1050 d3bc
000003b0: d6e1 7d3c 8408 013c dda4 043d 54bf 8d3c
000003c0: bb49 5abc be46 c13b 01ef cbbc 9f5d 133c
000003d0: 43d4 64bc 72eb b8bc ef43 4b3b 9d31 bf3c
000003e0: 42bc d73c 2722 18bc 30d1 6abb fba4 c2ba
000003f0: b74c 0f3d 38ae c03b d40f e43b e0fd 8bbd

bias f4 [64]
0.042524315 -0.009776899 0.0042606806 0.0047042198 0.0108741475 0.001234434 0.013392818 0.015748449
0.010811886 -0.0032724827 0.0063096434 0.04163722 0.004880966 0.0038522347 -0.0010582104 0.005667024
0.0058233216 -0.005221762 0.014045761 -0.00023450129 -0.01589048 -0.03634298 -0.0035027638 0.0035203123
0.0041876854 0.015563011 0.0050264383 -0.007734214 0.018897153 -0.010501185 -0.005483694 0.0038858508
3.534289e-05 0.010948726 0.013328015 0.008627489 0.010541836 0.009950387 0.03339479 0.0037250998
0.017061794 0.004372591 0.0023004967 -0.01098766 -0.0042573875 -0.00675122 0.020630592 -0.00516037
-0.028131058 -0.009996537 0.010116449 -0.007987438 0.014796819 -0.017169839 0.021119136 0.016059939
0.024555376 -0.010169923 -0.0012905721 -1.9405888e-05 -0.0154814795 -0.009486719 -0.011816098 0.020196877
00000000: fa2d 2e3d 492f 20bc 2e9d 8b3b db25 9a3b
00000010: 7b29 323c bbcc a13a 8d6d 5b3c e402 813c
00000020: 5624 313c 2677 56bb 20c1 ce3b ca8b 2a3d
00000030: 83f0 9f3b c675 7c3b a6b3 8aba 71b2 b93b
00000040: 90d1 be3b 511b abbb 3120 663c 76e4 75b9
00000050: c02c 82bc 60dc 14bd a08e 65bb 0ab5 663b
00000060: da38 893b 00fc 7e3c d2b4 a43b 4a6f fdbb
00000070: 34ce 9a3c 2a0d 2cbc 8fb0 b3bb c2a9 7e3b
00000080: 243d 1438 4962 333c bf5d 5a3c 505a 0d3c
00000090: aab7 2c3c f306 233c fac8 083d ce20 743b
000000a0: 2dc5 8b3c f447 8f3b eec3 163b 9605 34bc
000000b0: 8e81 8bbb 5739 ddbb 7d01 a93c 5218 a9bb
000000c0: 1b73 e6bc 84c8 23bc 76bf 253c bedd 02bc
000000d0: 5b6e 723c c3a7 8cbc 0a02 ad3c 2290 833c
000000e0: 5b28 c93c c09f 26bc 6a28 a9ba d4c9 a2b7
000000f0: 08a6 7dbc 2f6e 1bbc 4f98 41bc ec73 a53c

weight f4 [32, 64, 1, 1]
0.25143513 0.31140143 -0.14045124 -0.069960795 -0.17961743 0.11842159 -0.41429216 0.16188484
-0.06551379 0.17334661 -0.09650673 0.05011735 -0.092470296 -0.110967375 0.3980298 0.21740001
0.53624254 -0.0009983017 -0.12918547 -0.096863054 0.24085282 -0.17490686 -0.07526509 0.39943087
-0.18756658 -0.14437759 -0.37091807 0.20463243 0.31279445 0.12730747 -0.0034006743 0.014140201
-0.080971725 0.10084065 -0.1247106 -0.0479944 -0.19179167 0.19962573 0.17260905 -0.17803897
0.09352125 0.026828812 0.031529453 -0.27919966 0.08126368 -0.35723817 0.18054676 -0.019741502
0.003656958 0.42035836 0.036377255 0.26316163 0.2241848 0.2606382 0.061258398 -0.27380225
-0.18340261 -0.090724744 0.15934168 -0.101002686 -0.27528554 -0.46264142 0.18670928 -0.34901017
-0.25785083 -0.07396577 0.0051939823 0.2698118 -0.01660051 -0.21501014 0.25769085 0.25022012
0.24281627 0.060057703 -0.14366326 -0.060578108 -0.23364185 0.2295627 0.050988935 -0.025919903
-0.27957666 -0.043502524 -0.013060947 0.16657677 -0.005793873 0.22815965 -0.03772832 0.24969745
0.047050335 0.1580289 0.07977687 -0.19423732 0.28317836 0.29504505 -0.02385679 -0.17051992
-0.19566697 0.2561504 -0.0490384 0.036768533 -0.05950135 -0.04633345 -0.007831899 -0.12794392
0.07281539 0.22885598 -0.032263964 -0.2695228 -0.31056148 0.40524465 0.3198395 -0.12471464
-0.034569055 0.23903711 -0.22891049 -0.114290215 -0.21144594 0.32977563 0.054652505 -0.23197821
0.07667636 0.01840816 -0.0063779084 0.071429335 -0.31572437 0.14542201 0.2526489 -0.3037681
-0.17850097 0.044502165 -0.15071887 0.21153623 0.28129312 0.1989661 0.25094387 0.059680298
0.12835558 -0.14905308 -0.18630458 0.01123498 0.01494654 0.34089363 -0.208926 0.17469212
-0.61451644 -0.19724542 0.14633621 0.08894104 0.05046139 0.24328637 0.007318248 -0.39029452
-0.07633431 -0.1651314 -0.02879164 -0.14368685 0.0470106 -0.6813367 0.017183924 -0.099831335
0.19504662 0.22626641 -0.021378005 0.16526866 -0.25422895 0.23461358 -0.06263316 -0.03953318
0.056242835 -0.15379465 0.062168684 0.17036809 -0.49976772 -0.12877417 0.09581348 -0.1053512
-0.22105412 -0.23731282 0.25551164 -0.21345049 0.19225045 0.33030102 0.1436934 -0.17733097
-0.21849927 -0.135285 0.23514251 0.011121566 -0.0006074035 0.099135876 0.21197274 0.29469705
0.095308274 -0.12682918 0.1183939 0.25681555 0.25648007 -0.12626305 -0.11091481 0.13883132
-0.30624217 -0.16637298 0.07609457 -0.10339948 0.16715662 -0.04604232 0.13962889 0.14170438
-0.042329352 -0.026804026 0.2405733 -0.16836604 0.0062733176 0.09088884 0.24790893 0.3829395
0.17603178 0.26937246 -0.08398782 0.017386746 0.16620457 -0.25009602 -0.14535114 -0.3302372
-0.014764161 -0.061284162 0.24701098 -0.08209515 0.15315156 0.08915639 -0.4204182 0.2235802
-0.35494307 -0.12615207 0.14668132 0.23795506 0.13276596 0.24282897 0.04570303 -0.28073865
-0.35196084 -0.079973176 -0.03642138 -0.32454163 0.117011935 -0.1394145 -0.13318168 -0.0424393
0.11054568 0.27812168 0.011647826 0.08625532 -0.09366716 0.41627038 -0.1379489 0.09501375
00000000: 1bbc 803e 0270 9f3e 73d2 0fbe 9b47 8fbd
00000010: a2ed 37be 0587 f23d 1a1e d4be 24c5 253e
00000020: 182c 86bd c681 313e 52a5 c5bd da47 4d3d
00000030: 1161 bdbd dd42 e3bd 90ca cb3e 1c9e 5e3e
00000040: 3147 093f 72d9 82ba 3249 04be 2360 c6bd
00000050: 1fa2 763e c91a 33be 9524 9abd 3482 cc3e
00000060: 7411 40be b8d7 13be f9e8 bdbe 2a8b 513e
00000070: 9826 a03e e45c 023e d9dd 5ebb 4dac 673c
00000080: 81d4 a5bd 8b85 ce3d 4568 ffbd c795 44bd
00000090: 0965 44be b06a 4c3e 6dc0 303e d94f 36be
000000a0: 1288 bf3d 19c8 db3c 0725 013d 42f3 8ebe
000000b0: 926d a63d ece7 b6be 40e1 383e eeb8 a1bc
000000c0: 93a9 6f3b 3639 d73e 5100 153d 1fbd 863e
000000d0: b390 653e 5f72 853e 16ea 7a3d cf2f 8cbe
000000e0: e5cd 3bbe e5cd b9bd 772a 233e 7fda cebd
000000f0: 3af2 8cbe 56df ecbe b830 3f3e 76b1 b2be
00000100: 0605 84be 5e7b 97bd 4832 aa3b c624 8a3e
00000110: cbfd 87bc 9e2b 5cbe 0ef0 833e da1c 803e
00000120: d4a4 783e 11ff 753d 761c 13be c020 78bd
00000130: cf3f 6fbe 7c12 6b3e c6d9 503d fa55 d4bc
00000140: ac24 8fbe b42f 32bd 95fd 55bc 1a93 2a3e
00000150: 88da bdbb afa2 693e 0389 1abd b0b0 7f3e
00000160: dab7 403d 54d2 213e 0e62 a33d 26e6 46be
00000170: c1fc 903e 2510 973e 516f c3bc c69c 2ebe
00000180: ec5c 48be 2526 833e 7ddc 48bd 9a9a 163d
00000190: b0b7 73bd 25c8 3dbd 5e51 00bc bb03 03be
000001a0: 3c20 953d 3959 6a3e 3827 04bd e4fe 89be
000001b0: ea01 9fbe 3a7c cf3e 01c2 a33e 646a ffbd
000001c0: 4898 0dbd 25c6 743e 8367 6abe fd10 eabd
000001d0: 4985 58be 5ad8 a83e 4edb 5f3d b28b 6dbe
000001e0: 7f08 9d3d b6cc 963c c6fd d0bb 8b49 923d
000001f0: a0a6 a1be 82e9 143e 325b 813e 7e87 9bbe
00000200: f5c8 36be e747 363d 0c56 1abe f49c 583e
00000210: a705 903e c5bd 4b3e b77b 803e 5473 743d
00000220: a56f 033e 5fa1 18be a1c6 3ebe ec12 383c
00000230: 55e2 743c 9c89 ae3e b3f0 55be 7ee2 323e
00000240: f350 1dbf b4fa 49be 29d9 153e b826 b63d
00000250: 9ab0 4e3d 1020 793e eacd ef3b afd4 c7be
00000260: 2a55 9cbd 3518 29be 72dc ebbc a522 13be
00000270: 308e 403d 156c 2ebf 4dc5 8c3c 5f74 ccbd
00000280: 4dba 473e 62b2 673e ed20 afbc 303c 293e
00000290: 4c2a 82be 8b3e 703e d045 80bd 8bed 21bd
000002a0: e35e 663d 587c 1dbe 97a4 7e3d f974 2e3e
000002b0: 8ee1 ffbe 60dd 03be dc39 c43d 5fc2 d7bd
000002c0: 035c 62be 2202 73be 6cd2 823e c492 5abe
000002d0: 4ddd 443e 371d a93e 5d24 133e 4096 35be
000002e0: 46be 5fbe 2788 0abe 33c9 703e 3b37 363c
000002f0: 293a 1fba c007 cb3d 620f 593e 88e2 963e
00000300: fc30 c33d 82df 01be 8078 f23d 547d 833e
00000310: 5b51 833e 1a4b 01be 4e27 e3bd cc29 0e3e
00000320: c6cb 9cbe ae5d 2abe 78d7 9b3d 1bc3 d3bd
00000330: 1b2b 2b3e df96 3cbd e0fa 0e3e f41a 113e
00000340: 8b61 2dbd 1e94 dbbc d958 763e 2668 2cbe
00000350: 6790 cd3b ee23 ba3d d7db 7d3e a510 c43e
00000360: ad41 343e 30eb 893e ce01 acbd a66e 8e3c
00000370: 8831 2a3e 960c 80be eed6 14be da14 a9be
00000380: 61e5 71bc 1a05 7bbd 72f0 7c3e 8121 a8bd
00000390: c3d3 1c3e a097 b63d 0e41 d7be 35f2 643e
000003a0: 19bb b5be 022e 01be a133 163e 7eaa 733e
000003b0: cdf3 073e 28a8 783e 1a33 3b3d fabc 8fbe
000003c0: 3634 b4be fac8 a3bd 962e 15bd 522a a6be
000003d0: f4a3 ef3d adc2 0ebe c760 08be d5d4 2dbd
000003e0: c665 e23d f765 8e3e 86d6 3e3c a1a6 b03d
000003f0: 91d4 bfbd 6421 d53e 7a42 0dbe 9296 c23d

bias f4 [32]
0.00029808658 0.007890608 -0.0032897175 0.014511443 0.003845399 0.024244623 -0.013217538 0.00040355572
0.017164519 0.0037162267 -0.0015564165 0.009482128 -0.0055114906 -0.0054912767 0.007543907 -0.00148977
-0.013723074 0.0168164 -0.0002631457 0.0047194473 -0.006978597 0.011842852 0.014212224 0.026876006
0.010739262 0.03126398 -0.005775868 -0.010900606 0.014933204 -0.00091076206 -0.0023032024 0.0037881574
00000000: 8148 9c39 9c47 013c 4d98 57bb 67c1 6d3c
00000010: 1703 7c3b a99c c63c 5f8e 58bc 5594 d339
00000020: 9b9c 8c3c f08b 733b ac00 ccba ed5a 1b3c
00000030: bc99 b4bb 2bf0 b3bb e132 f73b 6344 c3ba
00000040: bfd6 60bc 8cc2 893c d1f6 89b9 98a5 9a3b
00000050: b7ac e4bb 8608 423c 63da 683c 122b dc3c
00000060: bbf3 2f3c a90e 003d 7e43 bdbb 7598 32bc
00000070: 66aa 743c 35c0 6eba 53f1 16bb bc42 783b

weight f4 [1, 32, 5, 5]
-0.06637492 0.043202978 -0.06874637 -0.07235118 -0.019602906 0.0212362 0.07228298 0.003913818
-0.0043126903 0.06732496 -0.013063732 0.029203093 0.06687478 -0.037509255 0.08343635 0.061792403
0.06735216 -0.04146834 -0.035955682 -0.033867825 0.038445458 0.08251706 0.035898276 -0.05446852
0.058415398 0.029062578 0.0670637 -0.06297623 -0.042823423 -0.04970555 0.042036805 0.056950808
-0.05075617 -0.08907573 0.05843041 0.037287794 0.07275605 0.068184234 0.074758016 -0.056222524
0.013491643 0.08191841 0.010926099 0.08206153 0.07593078 0.066320375 -0.06493039 -0.028724713
0.04839984 0.0072271344 -0.06618841 -0.015540171 -0.051284004 0.083152965 -0.010240628 -0.044800196
-0.035008408 -0.009570444 0.0054693413 -0.0018700506 0.08273632 0.05612405 -0.021837724 0.07756085
-0.03626061 -0.039260462 0.021861201 0.058209307 0.082042895 -0.043849055 0.015205649 -0.04949162
0.004261617 0.03936769 -0.013470469 0.030475946 0.07643077 -0.067099474 -0.05976791 -0.04264146
-0.06326708 0.06796171 -0.06866146 -0.057705954 -0.066479534 -0.0016701393 0.07871494 0.07338012
0.0805904 -0.024685381 0.04664989 0.032927256 0.015965411 0.038943425 -0.060073454 0.08222509
-0.013725591 0.07453031 0.05160408 -0.0069229533 0.06447751 -0.058355346 -0.06564621 0.06721326
0.00207168 0.0229774 -0.011612913 -0.066712916 0.018143587 0.01097983 0.029208763 0.038686708
0.078585714 0.043571554 0.077698216 0.042254522 0.064271115 -0.03233106 0.035790425 -0.05371391
0.030977482 0.08011192 0.016386224 -0.08317993 0.039728574 -0.022360219 0.020548688 0.039280083
-0.0751683 -0.051717963 0.012475848 -0.06767664 0.06709851 -0.01725361 0.03830102 -0.0692674
-0.076681845 0.020485023 0.06342578 -0.008527548 -0.005687912 -0.06399815 -0.049608644 0.07768805
0.07635682 0.07406601 0.096606255 0.035999402 -0.06381259 0.08731024 0.0023651205 0.059217826
-0.04111879 0.0013424756 -0.014637134 -0.0010739333 0.085160576 0.06000212 -0.0750162 -0.081291564
-0.058598798 0.018134074 -0.05246502 0.08327575 -0.07860451 -0.034937304 -0.059867732 0.05879441
-0.03775084 0.07125556 0.05533691 -0.036527228 -0.039728288 -0.048969526 0.06200039 0.040336907
0.057142727 -0.056716062 0.024946144 -0.007438027 -0.039504535 -0.07836864 0.058472805 -0.015339705
-0.0521721 0.036498874 -0.029662758 -0.06261277 0.0023200568 0.07899712 -0.052756302 0.031169381
-0.06322009 -0.017516268 -0.04488901 -0.06184882 -0.026606336 -0.061142065 0.03933296 0.05361935
-0.009356135 0.052943673 -0.061110064 -0.059150655 0.050343417 0.033704706 0.092423856 0.023515314
0.03962418 0.06186894 -0.06967107 0.087762505 -0.07971918 0.02755744 -0.002272658 -0.057597753
0.020643748 0.050768867 0.055962224 0.034026746 0.0140003525 0.0289433 -0.034263942 -0.0307345
0.07908337 -0.011043901 0.0667391 -0.03066812 0.04173161 0.041369602 0.038726985 0.07395546
-0.01970644 0.04484366 -0.011160673 0.043276165 0.08088388 0.042690955 0.049134206 -0.009576388
0.029874617 0.023957016 0.06458294 0.016908085 -0.061022654 -0.03537294 -0.05159749 -0.08142262
0.0029713663 0.006222454 0.046943367 -0.021787962 -0.01457231 0.064958416 0.050479162 -0.065320656
00000000: 93ef 87bd 9bf5 303d e6ca 8cbd db2c 94bd
00000010: 4696 a0bc 8af7 ad3c 1909 943d 7c3f 803b
00000020: 7851 8dbb abe1 893d 4309 56bc 533b ef3c
00000030: a5f5 883d 4ea3 19bd ade0 aa3d 081a 7d3d
00000040: eeef 893d b5da 29bd 4446 13bd fdb8 0abd
00000050: fc78 1d3d b4fe a83d 120a 133d 621a 5fbd
00000060: fc44 6f3d a514 ee3c b158 893d aff9 80bd
00000070: 9d67 2fbd 0c98 4bbd c92e 2c3d 4045 693d
00000080: b4e5 4fbd 566d b6bd ba54 6f3d 16bb 183d
00000090: 2001 953d 2da4 8b3d bb1a 993d 9749 66bd
000000a0: 0d0c 5d3c d7c4 a73d 6103 333c e00f a83d
000000b0: 9981 9b3d fad2 873d 39fa 84bd 1750 ebbc
000000c0: e93e 463d 99d1 ec3b ca8d 87bd 349c 7ebc
000000d0: 2d0f 52bd 1a4c aa3d 4fc8 27bc 6980 37bd
000000e0: fa64 0fbd 5acd 1cbc 2938 b33b 7c1c f5ba
000000f0: a971 a93d 55e2 653d 07e5 b2bc 39d8 9e3d
00000100: 0186 14bd 94cf 20bd 4316 b33c e26c 6e3d
00000110: 1b06 a83d 119b 33bd 1d21 793c bab7 4abd
00000120: 09a5 8b3b 0440 213d 3eb3 5cbc b1a8 f93c
00000130: bc87 9c3d 736b 89bd 32cf 74bd d0a8 2ebd
00000140: 2c92 81bd 822f 8b3d 619e 8cbd 145d 6cbd
00000150: 6c26 88bd 93e8 daba 4c35 a13d 5148 963d
00000160: 940c a53d ff38 cabc f413 3f3d bbde 063d
00000170: e5c9 823c 2483 1f3d 950f 76bd a165 a83d
00000180: 4de1 60bc 59a3 983d cd5e 533d f1d9 e2bb
00000190: c90c 843d 0406 6fbd 8571 86bd 1ba7 893d
000001a0: 06c5 073b 1a3b bc3c 1644 3ebc c8a0 88bd
000001b0: dca1 943c bfe4 333c 3747 ef3c f475 1e3d
000001c0: 8cf1 a03d 1678 323d 3e20 9f3d 1413 2d3d
000001d0: 93a0 833d 936d 04bd fb98 123d 1e03 5cbd
000001e0: 7dc4 fd3c b811 a43d 673c 863c 3d5a aabd
000001f0: 6eba 223d c72c b7bc b955 a83c 27e4 203d
00000200: d6f1 99bd 37d6 53bd 8067 4c3c 0d9a 8abd
00000210: f26a 893d 7157 8dbc 88e1 1c3d 11dc 8dbd
00000220: 5f0b 9dbd 35d0 a73c 60e5 813d 21b7 0bbc
00000230: aa61 babb 7611 83bd 6f32 4bbd ea1a 9f3d
00000240: f760 9c3d ecaf 973d 80d9 c53d 1c74 133d
00000250: 2db0 82bd b6cf b23d 2300 1b3b 648e 723d
00000260: 2d6c 28bd 02f6 af3a 97d0 6fbc 39c3 8cba
00000270: ab68 ae3d c8c4 753d 18a2 99bd 317c a6bd
00000280: 4b05 70bd e98d 943c 90e5 56bd 7a8c aa3d
00000290: 67fb a0bd 6b1a 0fbd de37 75bd 68d2 703d
000002a0: a0a0 1abd 6fee 913d f5a8 623d 939d 15bd
000002b0: 21ba 22bd 4594 48bd 1ff4 7d3d 5038 253d
000002c0: 7e0e 6a3d 1a4f 68bd db5b cc3c b1ba f3bb
000002d0: 82cf 21bd bd7f a0bd 2e81 6f3d 6353 7bbc
000002e0: 69b2 55bd d87f 153d 50ff f2bc 203b 80bd
000002f0: 180c 183b 3ec9 a13d fe16 58bd ee56 ff3c
00000300: 8979 81bd 477e 8fbc 8add 37bd 3055 7dbd
00000310: 88f5 d9bc 1a70 7abd 991b 213d f79f 5b3d
00000320: 794a 19bc 77db 583d 8c4e 7abd f547 72bd
00000330: e634 4e3d f20d 0a3d b848 bd3d 30a3 c03c
00000340: f74c 223d 496a 7d3d b5af 8ebd d4bc b33d
00000350: cf43 a3bd 24c0 e13c e0f0 14bb 9feb 6bbd
00000360: 141d a93c 04f3 4f3d a538 653d a15f 0b3d
00000370: bc61 653c 801a ed3c 5958 0cbd ebc6 fbbc
00000380: 76f6 a13d 7af1 34bc 82ae 883d b63b fbbc
00000390: c4ee 2a3d 2c73 293d 30a0 1e3d f675 973d
000003a0: 666f a1bc fcad 373d 41db 36bc 5942 313d
000003b0: 73a6 a53d b6dc 2e3d f340 493d 48e6 1cbc
000003c0: 9dbb f43c 8141 c43c 0f44 843d d382 8a3c
000003d0: e4f2 79bd 37e3 10bd e457 53bd e7c0 a6bd
000003e0: 41bb 423b bae5 cb3b b047 403d ab7c b2bc
000003f0: b3c0 6ebc eb08 853d 3dc3 4e3d d6c6 85bd
