modeldata/model_173_epoch.pth (torch_old, 43016 bytes, 5 tensors)

weight f4 [64, 1, 9, 9]
0.03150349 -0.0017539905 0.020861637 0.009223757 -0.03186681 -0.05133052 0.039496582 0.0067536295
-0.01249714 -0.010046631 0.007137519 0.005248201 -0.018968742 -0.023677818 0.0069974815 0.03338169
0.014306262 -0.014585165 0.008915784 -0.025529345 0.022896573 -0.0040146457 -0.042198934 -0.012294287
0.020378191 0.042015992 0.017259853 -0.02808455 0.030112356 0.06354748 0.03942624 -0.029072266
-0.00230608 -0.008163791 -0.064646825 0.016663523 -0.0033785831 0.0354567 0.10827697 0.062436827
-0.02177491 -0.02172381 0.0035072877 -0.043761007 0.030788654 -0.004435796 -0.056035843 -0.008871532
-0.06946644 -0.093766764 -0.0013030218 -0.11933836 -0.044059914 0.019173935 0.037543833 0.015318761
0.039295938 -0.010878001 0.019167772 0.02497114 -0.030600945 0.006861031 0.052689295 -0.026085177
-0.02644465 -0.020303942 -0.01992271 0.08748618 0.018632228 -0.046789892 -0.011045561 0.013077537
0.02023767 -0.013525198 -0.029153815 0.0074856654 0.055290744 0.004219742 -0.021548305 0.022710076
-0.041190892 -0.00044776473 -0.021082107 -0.007884507 0.029300401 0.05868754 0.037421294 0.052609596
-0.016133634 -0.032391407 0.029090656 -0.025712715 0.025686705 0.040303413 0.027292341 0.047652483
0.006779692 0.045964222 0.035816476 0.02900926 -0.0076816105 0.022662794 -0.01100663 0.023646742
0.04452749 -0.02243979 0.056436792 -0.0045997123 0.027953552 0.02470594 0.013507063 -0.006844683
-0.029605297 -0.0012237692 -0.011558249 0.03146542 0.010582324 0.01148814 0.010696579 0.02822183
-0.010354782 -0.040262546 -0.08745026 -0.03991377 0.018307935 0.07332227 0.02300028 0.03725212
0.051480915 0.002196521 -0.034265608 -0.06320269 -0.06117899 0.042611282 0.07026025 0.008380801
0.03664485 0.022785155 0.012257111 -0.0026065432 -0.05245388 -0.008841489 0.032077324 0.049258072
-0.0076679597 0.024556866 0.027644264 0.041970793 0.017268028 0.05469938 0.052239444 0.040275324
0.031843144 -0.01458395 0.029716821 -0.013540283 -0.0036952375 0.041350108 0.028219564 0.01921176
0.0038447261 -0.006714596 0.008029075 0.016524062 -0.03659385 0.007123016 0.001175663 -0.02896566
0.0070661907 -0.036175188 -0.00093058654 -0.039325718 -0.0064250664 0.016938224 0.04190981 0.0930645
0.04316536 0.13479596 0.030494548 0.043239616 0.010280534 0.08275238 0.017270606 -0.11316285
-0.19669974 -0.2975433 -0.2362243 -0.12525362 0.05914846 -0.034720488 -0.025745451 -0.04847608
0.012832573 0.11403466 0.13940935 0.08763302 -0.0055484283 -0.038397606 0.006227751 -0.009801148
0.021854095 -0.0004793661 -0.14195533 -0.0992777 -0.012336474 0.025453564 -0.012620748 -0.0008026283
-0.017818423 0.030167947 0.039611418 -0.022348434 -0.02336624 -0.03587745 0.030189008 -0.0274175
0.026182277 0.014056465 -0.025064016 0.02514823 0.104199246 0.06655437 -0.028375564 0.028511016
0.0023626976 -0.0019557243 -0.013404986 -0.03403362 -0.019398341 0.041594546 0.058729876 0.030687775
-0.017382152 -0.001619603 0.0011089393 0.021663394 0.00046193335 -0.0041637276 -0.009543954 -0.008539291
-0.041308034 -0.012535591 0.011693862 -0.006368967 0.0013883451 -0.04085697 -0.03174972 0.058124904
-0.021384917 -0.021484174 0.04727741 0.003691996 0.038482487 -0.005640752 -0.06589838 -0.0007128345
00000000: ce09 013d 28e6 e5ba 06e6 aa3c 3e1f 173c
00000010: c686 02bd f43f 52bd 2bc7 213d 8d4d dd3b
00000020: cec0 4cbc a09a 24bc d9e1 e93b 1af9 ab3b
00000030: 5664 9bbc fcf7 c1bc 214b e53b 3dbb 083d
00000040: d064 6a3c 9ef6 6ebc 8213 123c eb22 d1bc
00000050: 9891 bb3c 4a8d 83bb cad8 2cbd fa6d 49bc
00000060: 2af0 a63c f618 2c3d 8964 8d3c 9211 e6bc
00000070: 30ae f63c 2e25 823d 697d 213d f628 eebc
00000080: 9a21 17bb 6cc1 05bc 8e65 84bd f181 883c
00000090: 386b 5dbb 0b3b 113d 51c0 dd3d c2bd 7f3d
000000a0: 4c61 b2bc 22f6 b1bc 86da 653b be3e 33bd
000000b0: 7d38 fc3c 275a 91bb d785 65bd e759 11bc
000000c0: 6c44 8ebd ca08 c0bd 28ca aaba ac67 f4bd
000000d0: 2b78 34bd a812 9d3c 90c7 193d 8afb 7a3c
000000e0: c7f4 203d a539 32bc bb05 9d3c 4790 cc3c
000000f0: d5ae fabc 80d2 e03b bbd0 573d 95b0 d5bc
00000100: 73a2 d8bc 7454 a6bc f334 a3bc f42b b33d
00000110: 9da2 983c c2a6 3fbd 71f8 34bc 2a43 563c
00000120: 78c9 a53c cb98 5dbc fbd3 eebc 504a f53b
00000130: 8c78 623d c345 8a3b 1286 b0bc 7b0a ba3c
00000140: c8b7 28bd f7c1 eab9 62b4 acbc 052e 01bc
00000150: 6507 f03c 5962 703d 1247 193d 297d 573d
00000160: af2a 84bc daac 04bd 874f ee3c 79a3 d2bc
00000170: ed6c d23c 3115 253d 3094 df3c 402f 433d
00000180: 2e28 de3b fb44 3c3d 4cb4 123d d4a4 ed3c
00000190: 05b6 fbbb 53a7 b93c 2755 34bc d0b6 c13c
000001a0: 7562 363d a7d3 b7bc 442a 673d 2fb9 96bb
000001b0: d9fe e43c 1d64 ca3c ba4c 5d3c 5d49 e0bb
000001c0: cf86 f2bc e166 a0ba cf5e 3dbc e2e1 003d
000001d0: 7c61 2d3c c038 3c3c b440 2f3c 7831 e73c
000001e0: 1ba7 29bc 57ea 24bd 1f19 b3bd 9f7c 23bd
000001f0: 86fa 953c fc29 963d 156b bc3c ae95 183d
00000200: a7dd 523d 82f3 0f3b 185a 0cbd 6970 81bd
00000210: d296 7abd 2b89 2e3d 9be4 8f3d a14f 093c
00000220: e918 163d efa7 ba3c 0dd2 483c 8ad2 2abb
00000230: e1d9 56bd e5db 10bc 8363 033d d5c2 493d
00000240: 8243 fbbb 7b2b c93c 3976 e23c 91e9 2b3d
00000250: ae75 8d3c 750c 603d 07f9 553d bdf7 243d
00000260: f56d 023d 85f1 6ebc b170 f33c 10d8 5dbc
00000270: cc2b 72bb bb5e 293d b72c e73c fb61 9d3c
00000280: cdf7 7b3b 1d06 dcbb 628c 033c 785d 873c
00000290: 6fe3 15bd 3068 e93b b418 9a3a 6449 edbc
000002a0: 818b e73b 6f2c 14bd 9bf2 73ba 0114 21bd
000002b0: 5d89 d2bb 08c2 8a3c 9fa9 2b3d 9a98 be3d
000002c0: 29ce 303d f407 0a3e b4cf f93c 061c 313d
000002d0: af6f 283c 147a a93d 167b 8d3c edc1 e7bd
000002e0: a86b 49be 9857 98be c8e4 71be 7c42 00be
000002f0: a845 723d 1237 0ebd 20e8 d2bc db8e 46bd
00000300: b63f 523c 018b e93d 53c1 0e3e f178 b33d
00000310: 97cf b5bb cf46 1dbd 2912 cc3b ff94 20bc
00000320: 5c07 b33c 6e53 fbb9 bd5c 11be 1b52 cbbd
00000330: ec1e 4abc fe83 d03c 41c7 4ebc 7967 52ba
00000340: f1f7 91bc c522 f73c 953f 223d 1014 b7bc
00000350: 8f6a bfbc 3cf4 12bd f04e f73c aa9a e0bc
00000360: 377c d63c 164d 663c 0d53 cdbc a903 ce3c
00000370: 6a66 d53d a84d 883d df73 e8bc ef8f e93c
00000380: 7dd7 1a3b 9c2b 00bb 96a0 5bbc d666 0bbd
00000390: 45e9 9ebc 0b5f 2a3d bd8e 703d ee64 fb3c
000003a0: 0465 8ebc dc48 d4ba d459 913a 6e77 b13c
000003b0: a52f f239 e16f 88bb 3f5e 1cbc 62e8 0bbc
000003c0: 9d32 29bd 1462 4dbc 9d97 3f3c c4b2 d0bb
000003d0: 22f9 b53a a359 27bd ff0b 02bd 6114 6e3d
000003e0: 6c2f afbc 94ff afbc f5a5 413d 6af5 713b
000003f0: d09f 1d3d 0fd6 b8bb bbf5 86bd 83dd 3aba

bias f4 [64]
0.0026449696 0.036641218 0.0010278082 0.01973815 0.004591287 0.020285351 -0.017662918 0.0025219137
0.0007642871 0.010516009 0.006431363 -0.0034967137 0.0019795054 0.01653899 0.033659156 0.0019586293
0.0151031865 0.014651235 0.004035766 -0.0027659733 0.007060236 0.0025800616 -0.0044046035 0.0028342397
0.002782424 0.01087502 0.014167127 0.007403122 0.036381725 0.013666024 0.0039892746 0.026013425
-0.005094514 0.0096701775 0.0020894983 -0.002533208 0.015324412 -0.0030379826 0.0018358425 -0.009703174
0.010994018 0.01253901 -0.024553377 0.0058949413 0.01005587 0.0054553943 0.02041405 -0.0066952915
0.0030968096 -0.011420537 0.017888911 0.022279786 -0.001953556 0.023949275 0.0037820588 0.011370556
0.0083842 0.008651935 0.020998187 0.010074807 -0.005862411 0.00449277 -0.0069633187 0.011228378
00000000: 3a57 2d3b 1a15 163d 85b7 863a e7b1 a13c
00000010: 8272 963b 772d a63c d3b1 90bc b146 253b
00000020: 705a 483a 574b 2c3c 2fbe d23b 1f29 65bb
00000030: 97ba 013b c77c 873c 2fde 093d 595c 003b
00000040: 5b73 773c bc0b 703c 753e 843b 5545 35bb
00000050: 8d59 e73b 4016 293b 7e54 90bb a7be 393b
00000060: 5459 363b 242d 323c 3d1d 683c e395 f23b
00000070: 0105 153d 76e7 5f3c 76b8 823b 1b1a d53c
00000080: e2ef a6bb aa6f 1e3c f7ef 083b 2e04 26bb
00000090: 3e13 7b3c e418 47bb a7a0 f03a 10fa 1ebc
000000a0: 4120 343c 6b70 4d3c 2a24 c9bc 5a2a c13b
000000b0: 60c1 243c 2ac3 b23b 5e3b a73c 2d64 dbbb
000000c0: d8f3 4a3b 341d 3bbc c48b 923c 1984 b63c
000000d0: 3b07 00bb 4531 c43c 6bdc 773b 924b 3a3c
000000e0: e25d 093c d8c0 0d3c 6404 ac3c ce10 253c
000000f0: 7819 c0bb 1638 933b 8d2c e4bb 3bf7 373c

weight f4 [32, 64, 1, 1]
0.108016886 -0.2249655 -0.097273104 0.067312784 -0.09887291 0.0852011 -0.30038726 0.062435277
-0.041914042 0.15926996 -0.11452072 -0.31223592 0.17534477 0.2003499 0.19511762 -0.22746074
-0.19087668 0.04368565 -0.15321267 0.14539246 -0.1567008 -0.21465977 0.17284036 -0.1782866
0.16364743 0.032118354 0.087442756 -0.058953516 -0.030745089 -0.24009334 0.1858648 0.24736959
0.2586724 -0.1740207 0.10921669 0.35922205 -0.023199216 0.19150315 -0.10211103 0.08187373
-0.17846029 -0.14789733 0.24182695 -0.2695637 0.19988397 -0.011232754 0.06873862 -0.017297432
0.15209207 -0.13478665 0.10127602 -0.40903986 -0.21365729 -0.30267692 0.17311811 0.03865064
-0.23158814 -0.06544809 0.22759463 -0.01498212 -0.05777145 0.103346415 -0.46675014 0.07786018
-0.02767998 0.26870278 -0.34299996 0.048576217 0.23102804 0.0711857 -0.857676 -0.18308653
-0.055521157 -0.12881055 0.05087003 -0.10338035 0.009065397 -0.14054105 0.00869073 -0.1991933
-0.21450838 0.20944959 -0.07608958 0.17007157 -0.12617068 0.070040986 -0.062356107 -0.19369546
0.051207576 0.8492934 0.12848149 -0.18905775 0.009465412 -0.0407733 0.052339584 0.15474816
-0.25143912 -0.15660992 -0.26761028 0.2430786 -0.21153139 -0.1662455 0.12645012 0.12990962
-0.08972419 0.006645407 0.12115649 -0.22706066 0.20198283 0.015874464 0.11474133 -0.2833108
-0.16619419 0.1074667 0.19510224 0.5078277 0.28114936 -0.09242045 0.021250712 0.02254199
0.17992145 -0.12676373 -0.24076349 0.26505688 -0.11666536 -0.01271576 0.23796506 -0.15208718
-0.4339389 0.30622643 0.17512494 0.29126897 -0.1070971 -0.10221146 0.47264645 -0.205688
-0.60814625 0.2801204 0.18490493 0.103390835 0.15970261 -0.044556133 0.20903963 -0.08517035
0.047295682 0.35227743 -0.16410622 0.10465911 -0.5306595 -0.14100233 -0.036544513 -0.07953353
-0.2192383 0.009646245 -0.31975776 -0.1706225 0.28798705 0.50556016 -0.21996716 -0.08106934
0.8467614 0.008110919 -0.038852103 -0.55459505 -0.22773226 -0.10830252 0.09723286 -0.1943606
-0.056026395 1.0731852 -0.594808 -0.24617028 -0.07953203 0.27601126 0.722045 0.5648435
-0.29078728 -0.06204828 -0.073978975 -0.9763204 0.1861735 -0.24124016 -0.019338619 -0.12743768
0.3087457 0.24005303 0.093175404 0.335032 0.17260118 -0.010375318 -0.32498723 -0.30403337
0.30204788 -0.08346639 -0.22402202 0.33190355 0.111915156 -0.19273908 -0.122976035 -0.26363316
0.025859509 -0.096529305 0.1531947 0.1047466 -0.15454936 0.2347594 -0.18390821 0.18129487
-0.0027774263 0.008773951 -0.20019293 0.20825417 -0.29517344 0.34189326 -0.62753415 0.10882628
0.17746578 0.27274355 0.38052014 0.2306754 0.0049956064 0.23790981 -0.04298114 0.470245
0.1524152 -0.20608595 -0.3659449 0.18424419 0.22819485 -0.09413496 -0.17984675 0.13597195
0.10433464 -0.45369276 0.0899048 0.22322255 0.30132166 -0.005834382 -0.41235912 -0.6684394
0.10926006 -0.26778874 -0.06765499 0.19136243 0.08153028 0.03147063 -0.18999825 0.060218614
-0.3634223 -0.33308327 -0.14721805 0.2574157 -0.29318297 -0.27353147 -0.6673808 0.11292332
00000000: f537 dd3d 5b5d 66be 1f37 c7bd 49db 893d
00000010: e17d cabd ea7d ae3d 5ccc 99be 22bc 7f3d
00000020: 0fae 2bbd aa17 233e d789 eabd 63dd 9fbe
00000030: 948d 333e 8628 4d3e eacc 473e 78eb 68be
00000040: 2d75 43be b9ef 323d c8e3 1cbe c3e1 143e
00000050: 2d76 20be c5cf 5bbe 10fd 303e c390 36be
00000060: 3193 273e 898e 033d 3015 b33d 3e79 71bd
00000070: 20dd fbbc 07db 75be 5853 3e3e 744e 7d3e
00000080: b570 843e 7b32 32be 00ad df3d f4eb b73e
00000090: 480c bebc 6719 443e 961f d1bd 6aad a73d
000000a0: 4bbe 36be 6672 17be 7ca1 773e 4104 8abe
000000b0: 62ae 4c3e 9609 38bc d5c6 8c3d 58b3 8dbc
000000c0: 06be 1b3e 8305 0abe cd69 cf3d ac6d d1be
000000d0: fac8 5abe 78f8 9abe e045 313e 2250 1e3d
000000e0: 7125 6dbe a609 86bd 910e 693e 9177 75bc
000000f0: c2a1 6cbd 49a7 d33d e0f9 eebe 2875 9f3d
00000100: 20c1 e2bc 6993 893e b19d afbe dbf7 463d
00000110: 9d92 6c3e cfc9 913d a890 5bbf 097b 3bbe
00000120: 276a 63bd eae6 03be 185d 503d 14b9 d3bd
00000130: 0887 143c fee9 0fbe 9063 0e3c 54f9 4bbe
00000140: 16a8 5bbe f479 563e dbd4 9bbd 3e27 2e3e
00000150: e332 01be a671 8f3d 1e69 7fbd 1a58 46be
00000160: 09bf 513d 4b6b 593f a790 033e 5b98 41be
00000170: d114 1b3c e701 27bd 0862 563d 4d76 1e3e
00000180: a1bc 80be 5a5e 20be 3704 89be 99e9 783e
00000190: af9b 58be 433c 2abe 247c 013e 0707 053e
000001a0: 51c1 b7bd b7c1 d93b e520 f83d 9782 68be
000001b0: 96d4 4e3e 2a0b 823c 81fd ea3d 1d0e 91be
000001c0: cf2e 2abe 8017 dc3d e2c8 473e ff00 023f
000001d0: cff2 8f3e ef46 bdbd f915 ae3c fba9 b83c
000001e0: 543d 383e 5ace 01be b48a 76be 89b5 873e
000001f0: 40ee eebd c355 50bc 1dad 733e bebc 1bbe
00000200: 3d2d debe b6c9 9c3e f453 333e 3521 953e
00000210: b955 dbbd 3e54 d1bd b7fe f13e e09f 52be
00000220: 79af 1bbf f16b 8f3e b857 3d3e 93be d33d
00000230: 1589 233e 7e80 36bd 7c0e 563e cb6d aebd
00000240: 1eb9 413d b55d b43e 760b 28be 8457 d63d
00000250: 4dd9 07bf ea62 10be b3af 15bd 7ae2 a2bd
00000260: 0180 60be 490b 1e3c 4ab7 a3be aab7 2ebe
00000270: 0a73 933e 646c 013f 123f 61be af07 a6bd
00000280: 5bc5 583f a9e3 043c 6223 1fbd f1f9 0dbf
00000290: a532 69be b6cd ddbd 0622 c73d 7706 47be
000002a0: ef7b 65bd 225e 893f 5645 18bf 1014 7cbe
000002b0: b0e1 a2bd 5951 8d3e f1d7 383f 9599 103f
000002c0: 12e2 94be 5626 7ebd 4a82 97bd 22f0 79bf
000002d0: 44a4 3e3e a907 77be 066c 9ebc 067f 02be
000002e0: eb13 9e3e 76d0 753e bfd2 be3d 5089 ab3e
000002f0: 5dbe 303e 3dfd 29bc ba64 a6be 43aa 9bbe
00000300: 05a6 9a3e 6df0 aabd 0766 65be 43ef a93e
00000310: c633 e53d 655d 45be dcda fbbd edfa 86be
00000320: 52d7 d33c 28b1 c5bd 12df 1c3e 6385 d63d
00000330: 3042 1ebe c564 703e 6f52 3cbe 5da5 393e
00000340: 7b05 36bb 9ec0 0f3c 60ff 4cbe 9540 553e
00000350: f920 97be a20c af3e 14a6 20bf 50e0 de3d
00000360: 97b9 353e 0ba5 8b3e 89d3 c23e 2c36 6c3e
00000370: 2fb2 a33b a19e 733e fe0c 30bd f4c3 f03e
00000380: bb12 1c3e 3208 53be 215d bbbe 82aa 3c3e
00000390: e9ab 693e d4c9 c0bd bf29 38be 3b3c 0b3e
000003a0: 66ad d53d 6b4a e8be 0220 b83d 7494 643e
000003b0: d546 9a3e 582e bfbb bc20 d3be d81e 2bbf
000003c0: bdc3 df3d 9b1b 89be b38e 8abd 83f4 433e
000003d0: 59f9 a63d 59e7 003d e78e 42be cba7 763d
000003e0: 7d12 babe e489 aabe 54c0 16be fecb 833e
000003f0: 141c 96be 510c 8cbe 78d9 2abf 5744 e73d

bias f4 [32]
-0.020386301 -0.021640604 0.02933543 -0.044178795 0.0014027124 0.010206284 -0.0010050756 0.00058389467
-0.035210494 -0.005882516 -0.0103957 0.0043939347 -0.0073163263 0.012540017 0.005578467 -0.0018909228
0.007625907 0.011209607 0.008086349 0.0036850004 -0.010011442 0.014094013 0.02412007 0.0036074817
0.0017665152 4.9784336e-05 -0.007908168 -0.0010502149 -0.0012009218 0.015885523 0.003723251 -0.008935055
00000000: 2c01 a7bc a347 b1bc db50 f03c d3f4 34bd
00000010: 38db b73a 4238 273c bebc 83ba 8210 193a
00000020: e138 10bd 1fc2 c0bb ba52 2abc fffa 8f3b
00000030: cbbd efbb a574 4d3c 93cb b63b d7d8 f7ba
00000040: bfe2 f93b 80a8 373c 9b7c 043c 0c80 713b
00000050: 0807 24bc 93ea 663c 7497 c53c 806b 6c3b
00000060: 6a8a e73a 86cf 5038 4391 01bc 5da7 89ba
00000070: 4068 9dba 5b22 823c c901 743b 5664 12bc

weight f4 [1, 32, 5, 5]
-0.06248267 0.07102061 -0.09365417 -0.083589874 -0.019156674 -0.013458552 -0.008911459 0.029016236
-0.015310932 0.09694852 0.08678093 0.054676056 0.027180523 0.0021127309 -0.06467561 -0.030082492
0.043843027 -0.026376218 0.027715046 0.04707356 0.057271518 -0.00301767 -0.068018064 -0.08559229
-0.06408433 0.044236258 -0.06803583 0.036037352 0.10037323 0.048908774 -0.026000252 -0.019115502
-0.027413672 0.047944274 0.008113858 -0.08587071 -0.080546334 0.12096764 -0.08555048 -0.057905216
-0.04424031 0.038132466 -0.083980136 -0.056086067 -0.002576202 0.031104134 -0.021754216 -0.027828488
0.092042275 0.05663415 -0.011157226 0.07573449 0.072775155 0.0085179005 0.013959414 0.013680692
-0.05705456 -0.14246 -0.06286783 -0.05778468 -0.018698897 -0.051535755 0.2073521 0.096014924
-0.025502037 0.011820203 -0.06090739 0.0655315 0.05590901 -0.070915475 0.01923616 -0.016088353
-0.11927071 -0.0060220812 -0.01345799 -0.017214943 -0.043205585 0.005077859 0.024416436 -0.018170826
0.006661295 -0.05932056 0.039789874 0.035024427 -0.020237878 -0.09579806 0.08396672 0.1755666
0.048063666 -0.098688334 0.0573587 -0.06550131 0.036171425 -0.06561781 -0.008005698 -0.045364346
0.007372997 0.03164885 0.031201685 -0.036668662 -0.011347527 -0.048574697 0.008084612 0.045190066
-0.025830546 -0.018480958 0.033649325 -0.04346134 -0.08105341 0.032326393 0.0050988765 0.019011699
0.024975426 0.016068492 0.0090230955 -0.040153787 0.01575266 0.05545305 0.039513562 -0.07260015
-0.05045956 0.032817632 0.046708714 -0.0676746 -0.027544547 0.063561305 0.040165134 0.030085579
-0.06906204 0.050489664 -0.04046392 0.048223 0.045721654 0.01763173 0.0044405796 0.037676018
0.046473134 -0.015187469 0.053356253 -0.03909271 -0.08150646 0.030484028 -0.020842886 -0.044985898
0.079232745 0.05298797 0.030183291 -0.024651524 -0.051708855 -0.049652968 -0.062978625 0.009866809
-0.03240773 0.022921795 -0.033122063 -0.094395444 0.038623534 -0.0004478524 -0.09848402 0.008893105
0.037847113 0.12587257 0.059298895 -0.026004964 0.035721004 -0.044664066 0.04379068 -0.049878385
-0.054376196 -0.014379248 -0.05642435 0.07147402 -0.022158958 -0.021686371 0.03170785 0.069061026
0.045847233 -0.04882073 -0.024717243 -0.012014407 0.07893575 -0.011809727 -0.07516024 0.01349827
0.0028038693 -0.0048936326 0.06590272 -0.07246131 0.038544446 0.07028831 -0.05077195 0.08078892
0.04755642 0.031116687 0.076985516 -0.03605835 0.07600724 0.08443452 -0.0097023975 -0.062451903
0.054920666 0.051583104 -0.0010269149 0.010039161 0.00412294 0.029185368 0.08150609 0.04209066
0.065106824 -0.052031964 -0.08179828 -0.012852833 -0.059272163 0.07785448 0.056311358 -0.07770015
0.012688529 -0.064515784 -0.010304221 0.07226677 -0.061568137 -0.0034333454 -0.053735703 0.013017577
-0.06728493 -0.084596366 0.08009786 -0.044861246 -0.02488961 0.08416332 0.0465409 -0.038351227
-0.015172748 -0.030770775 -0.07768759 -0.051968366 0.009595905 -0.0142154535 -0.061932757 -0.069773205
0.008766879 0.034078203 -0.0676898 0.022732 0.059467465 -0.07462221 0.0575598 -0.018245162
0.021468729 0.07375677 -0.04457056 0.014153843 0.046107642 0.082188934 -0.01131109 0.014393252
00000000: d4ed 7fbd 4173 913d c2cd bfbd 2b31 abbd
00000010: 75ee 9cbc 4281 5cbc 5e01 12bc 75b3 ed3c
00000020: b4da 7abc f28c c63d 33ba b13d 00f4 5f3d
00000030: b0a9 de3c be75 0a3b a574 84bd 8f6f f6bc
00000040: bf94 333d f012 d8bc aa0a e33c 35d0 403d
00000050: 8a95 6a3d 1ac4 45bb 0e4d 8bbd 034b afbd
00000060: a53e 83bd 1431 353d 5f56 8bbd e79b 133d
00000070: 7b90 cd3d 9154 483d 7bfe d4bc 1d98 9cbc
00000080: a392 e0bc 3761 443d fdef 043c fcdc afbd
00000090: 7af5 a4bd e2bd f73d 1735 afbd 052e 6dbd
000000a0: 5435 35bd ca30 1c3d c7fd abbd 81ba 65bd
000000b0: 7fd5 28bb 19ce fe3c e635 b2bc 92f8 e3bc
000000c0: a980 bc3d 36f9 673d cccc 36bc af1a 9b3d
000000d0: 240b 953d aa8e 0b3c 07b6 643c fb24 603c
000000e0: 0bb2 69bd 09e1 11be d9c0 80bd a1af 6cbd
000000f0: 6e2e 99bc 2817 53bd 1c54 543e 79a3 c43d
00000100: a6e9 d0bc 86a9 413c 077a 79bd 6135 863d
00000110: d900 653d 223c 91bd 2795 9d3c b9cb 83bc
00000120: 3444 f4bd e154 c5bb e77e 5cbc 5a06 8dbc
00000130: 57f8 30bd 2b64 a63b fa04 c83c fcda 94bc
00000140: fe46 da3b 1efa 72bd b5fa 223d c675 0f3d
00000150: e8c9 a5bc c631 c4bd bef6 ab3d bbc7 333e
00000160: 68de 443d 1c1d cabd f5f0 6a3d 8d25 86bd
00000170: 7d28 143d a162 86bd 552a 03bc f7cf 39bd
00000180: 2e99 f13b 39a2 013d ad9a ff3c e131 16bd
00000190: faea 39bc 43f6 46bd 5275 043c 3819 393d
000001a0: 959a d3bc 6165 97bc e0d3 093d 8504 32bd
000001b0: 55ff a5bd ae68 043d 7a14 a73b 6cbe 9b3c
000001c0: 4499 cc3c 12a2 833c 9bd5 133c 4c78 24bd
000001d0: b90b 813c bd22 633d f9d8 213d 63af 94bd
000001e0: afae 4ebd c86b 063d a351 3f3d fb98 8abd
000001f0: 1aa5 e1bc 6e2c 823d 3284 243d 0876 f63c
00000200: 6670 8dbd 40ce 4e3d 7fbd 25bd 7b85 453d
00000210: a146 3b3d 6b70 903c 4882 913b 2b52 1a3d
00000220: 9d5a 3e3d ddd4 78bc 168c 5a3d ad1f 20bd
00000230: dcec a6bd a4b9 f93c b3be aabc 2243 38bd
00000240: c744 a23d ea09 593d f342 f73c fef1 c9bc
00000250: aacc 53bd e960 4bbd f0fa 80bd 65a8 213c
00000260: f8bd 04bd 7dc6 bb3c 00ab 07bd 6652 c1bd
00000270: b633 1e3d bbcd eab9 fdb1 c9bd 63b4 113c
00000280: 9305 1b3d bde4 003e 66e3 723d 5d08 d5bc
00000290: 3050 123d abf1 36bd db5d 333d 474d 4cbd
000002a0: 93b9 5ebd f096 6bbc 381d 67bd f960 923d
000002b0: b486 b5bc 9ea7 b1bc 17e0 013d de6f 8d3d
000002c0: 4fca 3b3d 3ff8 47bd d17b cabc 13d8 44bc
000002d0: 11a9 a13d 967d 41bc 9ded 99bd d927 5d3c
000002e0: 1fc1 373b c45a a0bb 01f8 863d 9866 94bd
000002f0: c8e0 1d3d 51f3 8f3d 40f6 4fbd a974 a53d
00000300: 85ca 423d 6ce8 fe3c 95aa 9d3d ecb1 13bd
00000310: afa9 9b3d 01ec ac3d cef6 1ebc 91cd 7fbd
00000320: 7ef4 603d ce48 533d 8c99 86ba 4b7b 243c
00000330: ba19 873b 2716 ef3c aaec a63d 4267 2c3d
00000340: ba56 853d 781f 55bd db85 a7bd b094 52bc
00000350: 5ec7 72bd 2b72 9f3d bda6 663d 4221 9fbd
00000360: 8ce3 4f3c da20 84bd 09d3 28bc 9a00 943d
00000370: df2e 7cbd fa01 61bb f819 5cbd ad47 553c
00000380: aecc 89bd dc40 adbd 590a a43d 6dc0 37bd
00000390: 4ce5 cbbc d25d ac3d aca1 3e3d 2d16 1dbd
000003a0: 1e97 78bc fe12 fcbc ac1a 9fbd c8dc 54bd
000003b0: 2538 1d3c efe7 68bc 34ad 7dbd 41e5 8ebd
000003c0: f5a2 0f3c 9695 0b3d f3a0 8abd 7638 ba3c
000003d0: 2894 733d 87d3 98bd d3c3 6b3d e176 95bc
000003e0: 30df af3c ca0d 973d 9f8f 36bd 85e5 673c
000003f0: 5edb 3c3d ac52 a83d 2652 39bc add1 6b3c
