modeldata/model_122_epoch.pth (torch_old, 43109 bytes, 5 tensors)

weight f4 [64, 1, 9, 9]
-0.0034692436 0.007577889 -0.03368349 0.030129598 -0.020742923 0.01704779 -0.039973404 0.004242081
0.018452609 -0.013504052 0.01802804 -0.0048546675 0.0400935 0.03513409 -0.0053814016 0.03613953
-0.00401909 0.008249924 -0.0021900395 0.004922861 0.038635567 0.0027657712 0.046719294 0.008731156
0.029778343 -0.03695714 -0.00530084 -0.008965768 0.0050385753 -0.019899804 -0.020358242 -0.041579552
-0.015726829 0.058210414 0.017549895 -0.0041711126 0.01066057 -0.009601856 0.0021759598 -0.087821186
-0.13236293 -0.038827606 0.00065597735 -0.01949092 -0.024052495 0.0075338855 0.04724446 0.025223326
-0.03613993 -0.09639524 -0.0029755584 0.020598669 0.018175608 0.017471151 -0.0069958097 -0.019908953
0.0098827155 0.03447841 -0.04422807 -0.0117696095 0.052723557 0.023655595 0.010808677 0.010348875
-0.0117856115 -0.008237924 0.029278366 -0.0057512345 -0.006614835 -0.00062005775 -0.0049243583 -0.0064123124
-0.00791452 -0.0118386885 -0.003906603 0.02674726 -0.009211299 -0.010542255 -0.027163802 0.007500708
0.010586126 0.003237406 0.0017253585 0.016717175 -0.029721096 0.019394534 -0.026170485 -0.0023211911
-0.019235665 -0.03334692 -0.034839015 -0.017729422 -0.018375626 0.023671743 -0.005230328 -0.03609946
-0.045314036 0.010387102 0.009677034 -0.023451908 0.0077901464 0.0029432585 -0.013679256 0.060704418
0.022784777 0.0004345265 -0.009279742 -0.0078969225 -0.043793354 0.021387763 0.04411329 0.0026092299
0.10936622 0.005712717 0.0026780188 0.010190611 -0.0062974803 -0.016585156 0.008674339 0.021840312
-0.041777447 0.011038029 -0.022596957 -0.0573174 -0.026382817 0.015651494 -0.0048104986 -0.007912587
-0.036265746 -0.013985844 -0.029149754 -0.01881155 0.022937058 0.013348898 -0.0055665644 0.018862545
0.019429315 0.020253496 -0.020254336 0.02734388 -0.016282974 0.000508099 0.00758058 -0.00417724
-0.026329674 0.017403277 0.01631909 -0.016959304 0.043269783 -0.009346795 -0.025699059 -0.00923188
0.0052427533 -0.023283463 -0.015763955 -0.007173133 -0.015464285 0.045830227 -0.011264654 -0.034528356
0.01096353 0.0045656916 0.025811547 -0.011979528 -0.014389274 -0.03566172 -0.024494438 -0.020775853
-0.031712577 -0.027982585 0.042875383 -0.00228912 0.016250072 0.021093111 -0.0044775596 -0.013422134
-0.012306642 -0.019022418 -0.0337255 -0.017857116 -0.011104571 0.0037331507 -0.0030105605 0.0051915473
-0.014018245 0.027034983 0.041519977 0.035310164 -0.002709401 -0.0001747254 -0.00928533 0.025855219
-0.0061987275 0.0339841 0.04607996 0.026235668 0.040020294 0.0087335985 0.025938988 -0.019666534
-0.035680134 -0.018891318 0.03431229 0.048441775 0.027183745 -0.0017909765 0.023511648 0.034174778
0.00014805018 0.018190252 -0.014383541 0.03181323 0.0091682905 0.024323946 0.031664945 -0.0025713784
0.0041685407 -0.0140689 0.004932403 -0.022631066 0.026082668 0.024755692 0.020280564 -0.009931096
0.034819677 -0.028930664 0.0052571963 -0.023614056 0.04199442 -0.005842608 0.02790622 0.008279401
0.009302642 -0.012437437 -0.01425302 -0.016813274 0.016319714 0.0025685073 0.032517426 0.026060764
-0.010041092 0.0017172074 -0.028012311 0.0066243396 -0.009481789 -0.014031473 0.00097565324 0.025492663
0.015005911 -0.008600541 0.009254534 0.0073030647 0.011906543 0.009544606 0.024869384 -0.055173676
00000000: 405c 63bb f14f f83b b3f7 09bd 59d2 f63c
00000010: 10ed a9bc cfa7 8b3c 27bb 23bd 2801 8b3b
00000020: ed29 973c 1940 5dbc 8aaf 933c e713 9fbb
00000030: 1539 243d c3e8 0f3d 7856 b0bb 0b07 143d
00000040: 92b2 83bb b02a 073c c486 0fbb f34f a13b
00000050: 5440 1e3d f141 353b bb5c 3f3d 1f0d 0f3c
00000060: b6f1 f33c 5f60 17bd abb2 adbb 28e5 12bc
00000070: a21a a53b ea04 a3bc 54c6 a6bc 524f 2abd
00000080: 8dd5 80bc 0b6e 6e3d ccc4 8f3c d4ad 88bb
00000090: aca9 2e3c 1a51 1dbc 8c9a 0e3b 98db b3bd
000000a0: 268a 07be b209 1fbd e5f5 2b3a 6cab 9fbc
000000b0: bd09 c5bc d0de f63b 6883 413d 26a1 ce3c
000000c0: 7707 14bd de6a c5bd 9601 43bb 8abe a83c
000000d0: 03e5 943c a91f 8f3c 1b3d e5bb 1a18 a3bc
000000e0: 1deb 213c 3c39 0d3d 7e28 35bd 52d5 40bc
000000f0: a8f4 573d 61c9 c13c e116 313c 548e 293c
00000100: 7018 41bc 5cf8 06bc 2fd9 ef3c da74 bcbb
00000110: 42c1 d8bb 5f8b 22ba 835c a1bb 601e d2bb
00000120: e7ab 01bc 0ff7 41bc f602 80bb 121d db3c
00000130: fdea 16bc 6cb9 2cbc 9f86 debc 80c8 f53b
00000140: 6e71 2d3c a92a 543b 6d25 e23a 75f2 883c
00000150: a879 f3bc 49e1 9e3c 7c63 d6bc 201f 18bb
00000160: 1d94 9dbc c896 08bd 5bb3 0ebd 4b3d 91bc
00000170: 7b88 96bc 3eeb c13c 2c63 abbb 07dd 13bd
00000180: 369b 39bd aa2e 2a3c 6c8c 1e3c 371e c0bc
00000190: 7c44 ff3b afe3 403b f51e 60bc 32a5 783d
000001a0: 24a7 ba3c 29d1 e339 0f0a 18bc 1862 01bc
000001b0: a960 33bd 6435 af3c 23b0 343d 9dff 2a3b
000001c0: 66fb df3d be31 bb3b b381 2f3b 85f6 263c
000001d0: 185b cebb 98dd 87bc d11e 0e3c 74ea b23c
000001e0: d41e 2bbd d9d8 343c 411d b9bc a6c5 6abd
000001f0: c720 d8bc 9037 803c 63a1 9dbb cca3 01bc
00000200: 648b 14bd e224 65bc 77cb eebc ae1a 9abc
00000210: 7fe6 bb3c 56b5 5a3c ba67 b6bb a085 9a3c
00000220: 3a2a 9f3c a9ea a53c 6cec a5bc 4600 e03c
00000230: df63 85bc f231 053a 8466 f83b 3be1 88bb
00000240: 54b1 d7bc 5191 8e3c 9daf 853c 3dee 8abc
00000250: a83b 313d 4d23 19bc d586 d2bc 5041 17bc
00000260: 67cb ab3b f6bc bebc 6923 81bc 9a0c ebbb
00000270: ea5d 7dbc 7ab8 3b3d 628f 38bc 9b6d 0dbd
00000280: 61a0 333c cc9b 953b bd72 d33c c845 44bc
00000290: fdc0 6bbc 0612 12bd 8fa8 c8bc 1f32 aabc
000002a0: 0ce5 01bd bc3b e5bc 199e 2f3d 1005 16bb
000002b0: df1e 853c 76cb ac3c 7eb8 92bb 83e8 5bbc
000002c0: cca1 49bc e7d4 9bbc c023 0abd 1649 92bc
000002d0: f2ef 35bc e0a7 743b d34c 45bb db1d aa3b
000002e0: c8ac 65bc 7878 dd3c da10 2a3d 64a1 103d
000002f0: 3590 31bb 7e36 37b9 7f21 18bc 53ce d33c
00000300: b21e cbbb e932 0b3d 57be 3c3d 2fec d63c
00000310: 52ec 233d 5e17 0f3c 007e d43c b61b a1bc
00000320: 5525 12bd f7c1 9abc 0b8b 0c3d e26a 463d
00000330: 72b0 de3c 33bf eaba 809b c03c dafa 0b3d
00000340: eb3d 1b39 b903 953c f2a8 6bbc 974e 023d
00000350: 9936 163c 0343 c73c 1ab3 013d 9284 28bb
00000360: 4198 883b 3e81 66bc ff9f a13b c964 b9bc
00000370: 52ab d53c 73cc ca3c 6d23 a63c 09b6 22bc
00000380: 149f 0e3d 0000 edbc 8f44 ac3b 4472 c1bc
00000390: 5702 2c3d 5973 bfbb 969b e43c 53a6 073c
000003a0: 1c6a 183c 64c6 4bbc 8085 69bc febb 89bc
000003b0: ecb0 853c 6754 283b fe30 053d 627d d53c
000003c0: 6483 24bc eb13 e13a 137a e5bc fd10 d93b
000003d0: 8159 1bbc 43e4 65bc fbc2 7f3a fdd5 d03c
000003e0: 5adb 753c 49e9 0cbc 54a0 173c 8c4e ef3b
000003f0: a913 433c fb60 1c3c e1ba cb3c cbfd 61bd

bias f4 [64]
0.029725932 -0.009446894 0.004698517 0.015308793 0.009250974 0.00028259924 0.017744496 0.014632729
0.019281175 -0.0032724827 0.0060592205 0.04079021 0.0055890563 0.00866292 0.0026572312 0.0071378876
0.0064500724 -0.005500422 0.013404507 -2.6330443e-05 -0.010993392 -0.054546773 -0.0022920277 0.00012711018
0.0035115287 0.01611672 0.0024937962 -0.0057787746 0.01921328 -0.004745467 -0.0091237305 0.0057563856
0.004321383 0.012871216 0.013922385 0.00990139 0.0061511644 0.0109071275 0.031800617 0.0034076192
0.018826867 0.0034198586 0.0015237093 -0.016564412 0.008846563 -0.0020788638 0.021044789 -0.008228032
-0.02018278 0.00063616014 0.009697389 -0.006497829 0.015222916 -0.021259641 0.020055778 0.015230052
0.02737776 0.001082449 0.0029452397 0.0029522332 -0.014536318 -0.010333706 -0.0029885739 0.024464346
00000000: cc83 f33c 25c7 1abc 04f6 993b bbd1 7a3c
00000010: 6691 173c d429 9439 e85c 913c 1dbe 6f3c
00000020: 8ef3 9d3c 2677 56bb 6d8c c63b a313 273d
00000030: 6724 b73b ecee 0d3c f124 2e3b f1e4 e93b
00000040: 215b d33b e23c b4bb 949e 5b3c 32e0 dcb7
00000050: a11d 34bc 706c 5fbd d835 16bb e148 0539
00000060: ad21 663b 3607 843c f56e 233b e05b bdbb
00000070: 2b65 9d3c dd7f 9bbb b37b 15bc 10a0 bc3b
00000080: 639a 8d3b cbe1 523c b71a 643c 7139 223c
00000090: b58f c93b cfb3 323c 5d41 023d 5d52 5f3b
000000a0: cd3a 9a3c b51f 603b 33b7 c73a 17b2 87bc
000000b0: 2df1 103c 8c3d 08bb 1f66 ac3c dece 06bc
000000c0: 5c56 a5bc fcc3 263a cce1 1e3c beeb d4bb
000000d0: 8a69 793c b328 aebc 044c a43c 7887 793c
000000e0: 5347 e03c f6e0 8d3a ec04 413b 417a 413b
000000f0: bd29 6ebc b44e 29bc f3db 43bb 7469 c83c

weight f4 [32, 64, 1, 1]
0.08885326 0.26893324 -0.13889048 -0.036673415 -0.18018916 0.118681036 -0.30609646 0.16279635
-0.14029148 0.17334661 -0.09638163 0.05121307 -0.09193208 -0.1316561 0.38953966 0.21484704
0.5391484 -8.257328e-05 -0.12710637 -0.094772965 0.23639667 -0.1775122 0.013136007 0.3923502
-0.18711463 -0.1446209 -0.26330197 0.20519893 0.3126329 0.07511433 -0.0027153457 0.022758232
-0.044270765 0.1003996 -0.124257155 -0.048683498 -0.19644313 0.19925612 0.17334257 -0.17707169
0.05596312 0.027805673 0.031159429 -0.26642254 0.09935084 -0.24643031 0.18127336 -0.16198164
0.07811622 0.35293227 0.033560064 -0.022317506 0.22560488 0.26244473 0.060913406 -0.27324665
-0.18554662 -0.09478616 0.13482647 -0.10143895 -0.2060562 -0.37288356 0.18630716 -0.3825852
-0.22611798 -0.029435202 0.0053738104 0.24707513 -0.015137362 -0.21476065 0.2479972 0.25082916
0.12824616 0.060057703 -0.14368281 -0.060148686 -0.23566973 0.2393574 0.03703054 -0.02622883
-0.31230554 -0.043435425 -0.011140967 0.16818206 -0.009528211 0.21691182 0.04787578 0.25901577
0.0474938 0.15863979 0.064535886 -0.19408861 0.28374758 0.2682289 -0.018038886 -0.16920574
-0.15376315 0.25745225 -0.04876174 0.03692846 -0.057763193 -0.047754295 -0.0075180405 -0.12622255
0.028490901 0.230306 -0.031132625 -0.28464475 -0.22524023 0.3988273 0.320366 -0.16628273
0.042354036 0.23343651 -0.23094994 -0.15543818 -0.21101837 0.2644483 0.054628227 -0.23304762
0.07676268 0.018375382 -0.057697654 0.07179479 -0.3316469 0.16299845 0.25474763 -0.24481146
-0.10462996 0.058167916 -0.14964059 0.26725787 0.28897187 0.2032509 0.17767373 0.056391086
0.23435573 -0.14905308 -0.18613955 0.013086161 0.012818512 0.27348673 -0.1520841 0.18108949
-0.5743864 -0.19337392 0.15158148 0.097318806 0.05513661 0.24270436 0.012345506 -0.13375404
-0.0731471 -0.16575609 -0.0038935156 -0.14236706 0.050888676 -0.68890417 0.019380549 -0.0868131
0.15636565 0.2308444 -0.019359052 0.16957946 -0.24984942 0.2384764 -0.06032067 -0.03558252
0.03329114 -0.15258668 0.06429297 0.19568413 -0.448256 -0.048858132 0.09995901 -0.12274525
-0.29528975 -0.23639792 0.25739086 -0.04532464 0.19200234 0.29274917 0.14232935 -0.18371874
-0.21793687 -0.15816669 0.25340766 0.014472714 -0.062982485 0.06546411 0.21210079 0.24700537
-0.124223344 -0.13216926 0.11752602 0.3007963 0.25545034 -0.12695955 -0.18800972 0.13745853
-0.28101104 -0.16637298 0.07459033 -0.103686854 0.16575526 -0.083843425 0.1995088 0.13986841
-0.047446895 -0.028672937 0.24201131 -0.1697171 -0.0027609835 0.11376192 0.25418115 0.38711894
0.17437434 0.26718765 -0.18725543 0.017024511 0.16531941 -0.2472577 -0.13929889 -0.2971864
-0.05636684 -0.060361866 0.24506855 -0.08374154 0.15441574 0.086207144 -0.42326885 0.22517462
-0.34173217 -0.12602316 0.1460879 0.20953932 0.15714338 0.2336252 0.044910144 -0.218991
-0.30221137 -0.060419343 -0.04056099 -0.24972697 0.11659228 -0.12257111 -0.13316968 -0.046052173
0.10934738 0.2711272 -0.010216958 0.08508547 -0.1057069 0.32440206 -0.13504395 0.078313276
00000000: b3f8 b53d 9eb1 893e 4e39 0ebe dd36 16bd
00000010: 8283 38be 0b0f f33d adb8 9cbe 16b4 263e
00000020: 92a8 0fbe c681 313e bb63 c5bd ccc4 513d
00000030: e346 bcbd dbd0 06be be71 c73e dd00 5c3e
00000040: a105 0a3f 312b adb8 2c28 02be 5418 c2bd
00000050: f811 723e c2c5 35be 6838 573c 20e2 c83e
00000060: fa9a 3fbe 8017 14be 84cf 86be ab1f 523e
00000070: 6b11 a03e 8bd5 993d f1f3 31bb 796f ba3c
00000080: 4355 35bd 4e9e cd3d 897a febd 5968 47bd
00000090: 6328 49be cc09 4c3e b780 313e 4852 35be
000000a0: 9639 653d b9c8 e33c 0f42 ff3c 8968 88be
000000b0: 7478 cb3d 3a58 7cbe b99f 393e 84de 25be
000000c0: 66fb 9f3d 8ab3 b43e 4776 093d 34d3 b6bc
000000d0: f704 673e 285f 863e 5680 793d fce6 8bbe
000000e0: efff 3dbe 3f1f c2bd f30f 0a3e 39bf cfbd
000000f0: 6600 53be 98ea bebe 4ec7 3e3e 35e2 c3be
00000100: 798b 67be 1822 f1bc ca16 b03b 4301 7d3e
00000110: b302 78bc 37ea 5bbe faf2 7d3e ae6c 803e
00000120: f652 033e 11ff 753d 9621 13be 785e 76bd
00000130: 6853 71be 1b1a 753e 56ad 173d d8dd d6bc
00000140: 83e6 9fbe 58e9 31bd 9a88 36bc eb37 2c3e
00000150: 371c 1cbc 221e 5e3e 6519 443d b79d 843e
00000160: dc88 423d 7872 223e 642b 843d 2abf 46be
00000170: 5d47 913e 4c55 893e 49c6 93bc 4544 2dbe
00000180: 1674 1dbe c8d0 833e 64ba 47bd 4c42 173d
00000190: 1999 6cbd 029a 43bd e559 f6bb 7c40 01be
000001a0: c065 e93c 56d5 6b3e d909 ffbc f5bc 91be
000001b0: 60a5 66be 1833 cc3e 0307 a43e 0546 2abe
000001c0: 6d7b 2d3d fb09 6f3e 247e 6cbe 302b 1fbe
000001d0: 3315 58be c465 873e d9c1 5f3d 09a4 6ebe
000001e0: c135 9d3d f887 963c 6054 6cbd 2609 933d
000001f0: 9fcd a9be 11e9 263e 486e 823e dbaf 7abe
00000200: 3c48 d6bd 7b41 6e3d 623b 19be 06d6 883e
00000210: 1ff4 933e 0121 503e 1af0 353e 57fa 663d
00000220: f3fa 6f3e 5fa1 18be 5e9b 3ebe 5667 563c
00000230: bc04 523c 7406 8c3e efbb 1bbe 866f 393e
00000240: fd0a 13bf d003 46be 2d38 1b3e 154f c73d
00000250: edd6 613d 7e87 783e ce44 4a3c d2f6 08be
00000260: 26ce 95bd f7bb 29be 5a2a 7fbb acc8 11be
00000270: a570 503d 065c 30bf f5c3 9e3c 11cb b1bd
00000280: 511e 203e 7962 6c3e e096 9ebc 3da6 2d3e
00000290: 87d8 7fbe 2833 743e cf12 77bd fabe 11bd
000002a0: 4a5c 083d af3f 1cbe 08ac 833d 6c61 483e
000002b0: cf81 e5be 771f 48bd 4fb7 cc3d dd61 fbbd
000002c0: 3830 97be 4c12 72be bcc8 833e 54a6 39bd
000002d0: 439c 443e 38e3 953e c9be 113e c420 3cbe
000002e0: d82a 5fbe 73f6 21be a6be 813e f61e 6d3c
000002f0: f6fc 80bd 0c12 863d f330 593e faee 7c3e
00000300: cf68 febd 6157 07be 7bb1 f03d f901 9a3e
00000310: 63ca 823e af01 02be 9f85 40be eec1 0c3e
00000320: aee0 8fbe ae5d 2abe d1c2 983d c659 d4bd
00000330: bfbb 293e 1ab6 abbd 094c 4c3e aa39 0f3e
00000340: ad57 42bd 82e3 eabc d0d1 773e 52ca 2dbe
00000350: 9ef1 34bb 02fc e83d 0824 823e 7434 c63e
00000360: 308f 323e d2cc 883e e3bf 3fbe fd76 8b3c
00000370: 7e49 293e 1f31 7dbe 5ea4 0ebe d128 98be
00000380: eae0 66bd 013e 77bd 40f3 7a3e af80 abbd
00000390: 291f 1e3e 5f8d b03d b2b6 d8be 2d94 663e
000003a0: 85f7 aebe 370c 01be 1198 153e 7a91 563e
000003b0: 32ea 203e 723b 6f3e b3f3 373d 2d3f 60be
000003c0: 73bb 9abe 467a 77bd 4823 26bd 6db8 7fbe
000003d0: efc7 ee3d 9006 fbbd a25d 08be 34a1 3cbd
000003e0: 85f1 df3d 2fd1 8a3e 0765 27bc 4a41 ae3d
000003f0: dc7c d8bd 0718 a63e f648 0abe b662 a03d

bias f4 [32]
-6.597628e-05 0.008373416 2.7507152e-05 0.013945937 0.0038404523 0.024851987 -0.007615411 -0.0007237361
0.021175755 0.0045250095 -0.0010630282 0.015252971 -0.0042995866 0.0015809927 0.0062937173 -0.0016134363
-0.012172465 0.008622257 -0.0025307385 0.004283471 -0.008172653 -0.0016782879 0.02005036 -0.009562102
0.014215059 0.03199063 -0.0046657557 -0.010900606 0.013948093 -0.00036923634 -0.0027527742 0.0064087897
00000000: bf5c 8ab8 a730 093c 29bf e637 807d 643c
00000010: 19b0 7b3b 6596 cb3c b38a f9bb 1cb9 3dba
00000020: c778 ad3c 8846 943b 4f55 8bba 99e7 793c
00000030: 8ce3 8cbb 5039 cf3a 873b ce3b f079 d3ba
00000040: 056f 47bc 5e44 0d3c bfda 25bb 5c5c 8c3b
00000050: 97e6 05bc fff9 dbba a740 a43c 5daa 1cbc
00000060: 47e6 683c 9b08 033d 32e3 98bb 7598 32bc
00000070: 8b86 643c 1096 c1b9 e367 34bb d300 d23b

weight f4 [1, 32, 5, 5]
-0.06639445 0.044131365 -0.06888385 -0.07156065 -0.019486288 0.02058959 0.07215532 0.0040734583
-0.0040303697 0.06648826 -0.012588979 0.028059795 0.0669858 -0.037184447 0.082905315 0.0632699
0.06684624 -0.04007509 -0.035323754 -0.035111643 0.03949229 0.081764914 0.0367364 -0.05477714
0.0570553 0.029988134 0.067391284 -0.06287323 -0.042611267 -0.05002907 0.043089364 0.057269394
-0.050305307 -0.088511795 0.05812671 0.038342293 0.07247901 0.0678426 0.07507669 -0.056098055
0.013966827 0.08174791 0.010579657 0.082424276 0.07580506 0.06648377 -0.06474322 -0.028091168
0.04891578 0.007431945 -0.06719131 -0.014957307 -0.05032912 0.082683146 -0.008947106 -0.044281367
-0.033049494 -0.008723849 0.0055287797 -0.0013014076 0.08273018 0.0564627 -0.023012532 0.078332774
-0.036829405 -0.038909037 0.023034438 0.057840373 0.0825196 -0.04437014 0.016319064 -0.04660604
0.0056566494 0.04057973 -0.012902933 0.030690376 0.07604642 -0.06719207 -0.05994186 -0.042951304
-0.06304662 0.06807709 -0.06867512 -0.05762576 -0.06629986 -0.0013634101 0.078980595 0.07304841
0.08055036 -0.02460501 0.04656818 0.03303635 0.015743725 0.03901543 -0.06001603 0.082283065
-0.0134870745 0.07433058 0.051586054 -0.0065209824 0.06465893 -0.058240626 -0.06539034 0.06743986
0.0021742599 0.023005078 -0.011580344 -0.066381395 0.018260464 0.010984747 0.02931507 0.038586356
0.07839291 0.043642905 0.07780018 0.04233539 0.064112835 -0.03231507 0.03602327 -0.053984597
0.030900346 0.07991219 0.016710551 -0.08316819 0.03928461 -0.02211525 0.020423727 0.038772713
-0.07541305 -0.051438183 0.012105978 -0.0677688 0.0670262 -0.01808539 0.03979085 -0.06929475
-0.07610137 0.020365015 0.06244901 -0.007340749 -0.006274172 -0.064707324 -0.049267728 0.077766925
0.07648634 0.074136436 0.09506531 0.036322597 -0.06391387 0.08707353 0.0020086889 0.0593732
-0.041157253 0.00045596366 -0.015771134 -0.0006212058 0.08581142 0.059383467 -0.07594348 -0.081384614
-0.058307655 0.018649368 -0.053436894 0.08276544 -0.07825156 -0.03480619 -0.059730906 0.05829247
-0.03837645 0.0713245 0.05491828 -0.037027635 -0.039814483 -0.049785037 0.06150425 0.040161025
0.057253752 -0.056895614 0.025166225 -0.007461318 -0.039561942 -0.07857671 0.058420394 -0.015253706
-0.05242175 0.03604694 -0.030278506 -0.06261571 0.00209151 0.07877771 -0.052918617 0.030944642
-0.06321164 -0.017489273 -0.044952482 -0.061775636 -0.026621107 -0.06104077 0.039400376 0.053375572
-0.0031722938 0.053612866 -0.05552855 -0.053145822 0.048935752 0.03176124 0.085967526 0.029905815
0.045044623 0.053488184 -0.068591386 0.08384668 -0.06992294 0.038221035 -0.0072294627 -0.041622877
0.014244612 0.05619122 0.06655511 0.03391766 0.021784918 0.027962413 -0.036869988 -0.02774601
0.078999065 -0.0110585755 0.06660631 -0.030530522 0.041753937 0.041098285 0.039125163 0.07409312
-0.019478407 0.045009505 -0.011477602 0.043546036 0.08085532 0.042573642 0.04927563 -0.009750714
0.029838255 0.024056604 0.06463206 0.016936278 -0.0612795 -0.035263658 -0.05123616 -0.08134643
0.0028485188 0.0061943657 0.046204384 -0.02135047 -0.014344439 0.06443718 0.05084205 -0.066001914
00000000: d0f9 87bd 17c3 343d fa12 8dbd 648e 92bd
00000010: b5a1 9fbc 80ab a83c 2bc6 933d a57a 853b
00000020: 3111 84bb ff2a 883d 0142 4ebc a8dd e53c
00000030: da2f 893d b84e 18bd 43ca a93d a693 813d
00000040: aee6 883d c725 24bd a4af 10bd 3ad1 0fbd
00000050: abc2 213d 5d74 a73d e878 163d ff5d 60bd
00000060: d1b2 693d ada9 f53c 7104 8a3d aec3 80bd
00000070: 2789 2ebd 48eb 4cbd 797e 303d 5093 6a3d
00000080: f00c 4ebd ac45 b5bd 4616 6e3d cf0c 1d3d
00000090: e06f 943d 10f1 8a3d cfc1 993d 13c7 65bd
000000a0: 1ed5 643c 736b a73d 4c56 2d3c 0fce a83d
000000b0: af3f 9b3d a528 883d 1898 84bd 731f e6bc
000000c0: ea5b 483d ac87 f33b 999b 89bd 7e0f 75bc
000000d0: e825 4ebd c855 a93d e296 12bc 6160 35bd
000000e0: e85e 07bd 7aee 0ebc c42a b53b fe93 aaba
000000f0: 716e a93d 6f45 673d c784 bcbc ef6c a03d
00000100: 6eda 16bd 155f 1fbd b8b2 bc3c 07ea 6c3d
00000110: 0900 a93d 77bd 35bd 8faf 853c fae5 3ebd
00000120: 6a5b b93b ee36 263d d366 53bc 626a fb3c
00000130: 3abe 9b3d ff9b 89bd 9985 75bd b5ed 2fbd
00000140: 961e 81bd 006c 8b3d 8ba5 8cbd fd08 6cbd
00000150: 39c8 87bd 74b4 b2ba 94c0 a13d 689a 953d
00000160: 96f7 a43d 7290 c9bc 47be 3e3d 2051 073d
00000170: fcf8 803c a5ce 1f3d 5ed3 75bd 0684 a83d
00000180: e4f8 5cbc a23a 983d e64b 533d f7ad d5bb
00000190: e76b 843d b98d 6ebd 5feb 85bd e91d 8a3d
000001a0: 077e 0e3b 2575 bc3c 7cbb 3dbc f8f2 87bd
000001b0: f896 953c 5ef9 333c 2826 f03c ba0c 1e3d
000001c0: 768c a03d e7c2 323d b355 9f3d e067 2d3d
000001d0: 974d 833d cf5c 04bd 238d 133d f41e 5dbd
000001e0: b922 fd3c 01a9 a33d 91e4 883c 1654 aabd
000001f0: e6e8 203d 0a2b b5bc a94f a73c 23d0 1e3d
00000200: 2872 9abd d8b0 52bd 2758 463c 5eca 8abd
00000210: 0845 893d d027 94bc bbfb 223d 68ea 8dbd
00000220: 09db 9bbd 88d4 a63c 88ca 7f3d aa8a f0bb
00000230: 9297 cdbb 4685 84bd f5cc 49bd 4444 9f3d
00000240: dfa4 9c3d d8d4 973d 9ab1 c23d 01c7 143d
00000250: 46e5 82bd 9b53 b23d 35a4 033b 5031 733d
00000260: 8294 28bd 680e ef39 7732 81bc 6ad8 22ba
00000270: e6bd af3d 143c 733d 4188 9bbd faac a6bd
00000280: 02d4 6ebd 8fc6 983c a5e0 5abd ed80 a93d
00000290: 5b42 a0bd ef90 0ebd 65a8 74bd 16c4 6e3d
000002a0: a030 1dbd 9412 923d fef1 603d 4aaa 17bd
000002b0: 8314 23bd 65eb 4bbd e1eb 7b3d e37f 243d
000002c0: e982 6a3d 600b 69bd 6629 ce3c 127e f4bb
000002d0: b40b 22bd d3ec a0bd 394a 6f3d aeea 79bc
000002e0: 30b8 56bd f5a5 133d a10a f8bc aa3c 80bd
000002f0: b711 093b 3556 a13d 31c1 58bd 9e7f fd3c
00000300: 1b75 81bd aa45 8fbc 1820 38bd 7308 7dbd
00000310: 8214 dabc e305 7abd 4a62 213d 58a0 5a3d
00000320: 42e6 4fbb 2a99 5b3d e871 63bd 6faf 59bd
00000330: db70 483d 1318 023d be0f b03d 0afd f43c
00000340: b680 383d 6d16 5b3d a479 8cbd cfb7 ab3d
00000350: c233 8fbd a98d 1c3d 21e5 ecbb c07c 2abd
00000360: 3c62 693c c428 663d 0c4e 883d 3fed 0a3d
00000370: 4976 b23c 6e11 e53c fc04 17bd 9a4b e3bc
00000380: 43ca a13d 072f 35bc e468 883d 251b fabc
00000390: 2d06 2b3d ad56 283d b541 203d 22be 973d
000003a0: 2e91 9fbc e35b 383d 8d0c 3cbc 545d 323d
000003b0: 7997 a53d b361 2e3d 3ed5 493d 75c1 1fbc
000003c0: 5b6f f43c 5b12 c53c d05d 843d f3bd 8a3c
000003d0: 3700 7bbd a070 10bd 02dd 51bd f598 a6bd
000003e0: 37ae 3a3b 1bfa ca3b cf40 3d3d 2ee7 aebc
000003f0: f004 6bbc a4f7 833d c13f 503d 032c 87bd
