modeldata/model_52_epoch.pth (torch_old, 43016 bytes, 5 tensors)

weight f4 [64, 1, 9, 9]
000000 34 39 35 3c 63 b6 8f 3b a7 bf d5 3c 26 ad 53 3b
       0.011061002 0.004385756 0.026092364 0.003229925
000010 1f be 87 ba 64 07 f8 bc 03 0a 94 3c 52 24 ed bb
       -0.0010356343 -0.030276962 0.01807118 -0.0072369957
000020 8c 5f 03 bc e2 bc e2 bc 9c e9 80 3c d3 c9 af 3b
       -0.008018386 -0.027677957 0.015736394 0.0053646355
000030 23 84 9a bc d2 3a 86 3c 28 73 b5 3c 5a a7 c5 bc
       -0.018861836 0.01638547 0.022149637 -0.024127651
000040 5a b8 80 ba 97 67 a8 bc 17 36 6f 3c 80 a5 4f bc
       -0.0009820566 -0.020557208 0.014600298 -0.012673736
000050 d3 14 b6 3b eb da ad bc 6b fe 92 bc cf ee 1b 3b
       0.0055566817 -0.021222552 -0.017943582 0.0023793464
000060 33 aa fb bc 0c cd f0 3c 20 e3 dd bc 8b a7 01 bd
       -0.030720806 0.029394649 -0.02708584 -0.031653922
000070 f4 ad 79 3c f5 85 01 bc 86 67 da bc f8 ea 9e bc
       0.015239228 -0.007905473 -0.026660692 -0.019399151
000080 eb 3a 3d 3c 17 73 83 bb 08 c6 00 bd 3d c1 f2 bb
       0.011549692 -0.0040115225 -0.031438857 -0.0074082897
000090 11 39 76 bc 90 52 a5 3b 51 d7 97 3c d2 64 9b 38
       -0.015028254 0.0050452426 0.018535288 7.409755e-05
0000a0 b1 85 65 3c 1c ef a7 bb 8c a0 ca 3c a5 e9 d2 bc
       0.014008925 -0.0051249396 0.024734758 -0.025746176
0000b0 f6 52 2c 39 8e 9a ac 3c b4 34 a0 bc 23 03 04 3c
       0.00016434104 0.021069791 -0.01955638 0.0080573885
0000c0 c2 f3 24 bc 4c 26 be bc 0f 4f a9 3c 51 e4 a0 bc
       -0.010067882 -0.02321162 0.02066758 -0.01964012
0000d0 78 e8 ad bc 86 1f ea bc 3e 00 0a 3c 8a 48 57 3b
       -0.021229014 -0.028579485 0.008422909 0.0032849633
0000e0 19 a0 01 3d c3 c4 be bb dd cb e3 bc 04 5c 04 bd
       0.03164682 -0.0058217957 -0.02780717 -0.032314315
0000f0 12 ac 37 3b fd 0b b3 bc 0c 9c cf 3b 79 ba e1 bc
       0.0028026146 -0.021856302 0.006335741 -0.027554737
000100 07 e8 40 bc 1f 5b dd bb 01 09 ba bc 58 2e 4e 3c
       -0.01177407 -0.0067552472 -0.022709372 0.012584291
000110 71 1e b9 bc ed dd d7 bc 99 47 e8 bc 32 15 f9 3c
       -0.022597523 -0.02635094 -0.028354453 0.030405615
000120 c9 1d af bb cf ce 50 bc cf 37 aa bc fe 04 16 3c
       -0.005344127 -0.0127446195 -0.020778565 0.009156464
000130 56 62 12 3c 0a e5 30 3b dc e0 02 bd fe e7 eb bb
       0.008934578 0.0026991987 -0.031952724 -0.0071992865
000140 96 b0 84 3c 95 17 07 bb 9e c4 a1 bc 38 c1 b8 bb
       0.016197484 -0.0020613421 -0.019747075 -0.005638268
000150 fc 21 ff 3c d2 37 77 3d b6 bd 27 3d 7b 3b 56 3d
       0.031144135 0.06035597 0.040952407 0.05230282
000160 e8 cf 85 bc c0 55 09 bd d3 c4 e9 3c 5b ab d4 bc
       -0.016334489 -0.033529043 0.028536236 -0.025960615
000170 f0 4b d4 3c f5 4c 1d 3d 39 70 d5 3c a8 fb 48 3d
       0.025915116 0.03840347 0.026054488 0.049068123
000180 94 fa b3 3b 35 6a 39 3d d6 82 13 3d b0 41 fd 3c
       0.0054925177 0.045267303 0.036013447 0.030915111
000190 d5 9c 06 bc e1 c4 be 3c 41 dd 3b bc d8 1b bd 3c
       -0.008216103 0.023287239 -0.011466325 0.023084566
0001a0 ea 80 35 3d 73 53 be bc 6b 20 6a 3d 8b f9 8c bb
       0.044312395 -0.023233151 0.057159822 -0.004302209
0001b0 53 1e 0b 3d 6e fa be 3c 7f 4d 51 3c 2e de ce bb
       0.033964466 0.023312774 0.012774824 -0.006313107
0001c0 a0 53 e4 bc 53 e5 91 bb c0 c7 81 bc d0 e8 06 3d
       -0.027871907 -0.0044523864 -0.015842319 0.03293687
0001d0 40 11 60 3c fd c0 5b 3c f8 8a 1d 3c ce 4e d8 3c
       0.013675988 0.013412711 0.009615652 0.026404765
0001e0 33 d9 2d bc 24 89 18 bd ec ae b3 bd 7b eb 37 bd
       -0.010610866 -0.037240162 -0.08773598 -0.044902306
0001f0 fa 8a 8c 3c f8 4c 9b 3d 1f ed b5 3c 61 75 19 3d
       0.017156113 0.0758304 0.022207795 0.037465457
000200 32 c6 51 3d 91 0c 7d 3a c5 2f 0f bd fb 5a 82 bd
       0.051214404 0.00096530566 -0.034957666 -0.063650094
000210 86 a4 82 bd be 7a 2d 3d 88 ee 94 3d d1 9d b2 3b
       -0.063790366 0.042353384 0.07272059 0.005450942
000220 30 60 11 3d 8c 3c a7 3c dd 53 f9 3b 33 4e ee bb
       0.035492122 0.020414613 0.0076088742 -0.0072725057
000230 15 a3 6a bd 8e 6d 5a bc 4b 31 01 3d 08 93 52 3d
       -0.057284433 -0.013331784 0.03154115 0.05140975
000240 b8 1e 1b bc 75 88 ce 3c 1f 1c e8 3c 4a 10 29 3d
       -0.009467773 0.025211552 0.028333722 0.0412753
000250 f2 a0 89 3c 40 7c 52 3d ab e9 4c 3d a8 fa 26 3d
       0.016800378 0.051388025 0.05002753 0.04076639
000260 4d ec 0e 3d 60 73 61 bc 70 7a ed 3c f7 c6 6a bc
       0.034893323 -0.013760418 0.028989047 -0.0143296635
000270 8d ec 46 bb d5 c5 37 3d ba 77 ee 3c db 5a 90 3c
       -0.0030353398 0.0448664 0.029109824 0.017621448
000280 62 af 05 3a 54 21 0a bc 16 31 c7 bc 80 e0 e1 bb
       0.00050996814 -0.008430798 -0.024315398 -0.0068932176
000290 45 09 0a bd 7b fd 05 bc ac ac a9 3b ee 72 9d 3c
       -0.033700246 -0.00817811 0.005178055 0.019219842
0002a0 64 3c 6d bc 5b 0d 40 bb 40 15 b6 3c c9 6f 51 bc
       -0.01447973 -0.0029304835 0.02222693 -0.012782999
0002b0 3e f4 d1 bc 8f c2 d6 bb 08 4b f2 bc 7b cf d3 bc
       -0.025629159 -0.006553955 -0.029576793 -0.02585577
0002c0 a5 7d fb bc ab 43 76 3c 4d cb 97 bc 9a 0f c1 3b
       -0.03069956 0.015030782 -0.018529559 0.0058917524
0002d0 cf ab 25 bd 50 ae 58 bc 89 e0 d9 bb 61 04 19 bd
       -0.040447053 -0.013225153 -0.006649081 -0.03735769
0002e0 ea 9e e5 bc 54 79 94 bc f1 c9 55 bd 5e 3e ce bc
       -0.028029878 -0.01812426 -0.05219454 -0.025176223
0002f0 f1 3b c9 bc e0 dc 9c bb e0 49 b9 3b 3a 91 b0 3c
       -0.024564715 -0.0047870725 0.0056545585 0.021553624
000300 69 4c 0d 3a 06 ca 81 3d 57 ca 47 3c 39 3f ea 3c
       0.0005390109 0.06337361 0.012194238 0.0285946
000310 91 55 4d bc 2e e9 14 bd 0b 79 86 bc b2 c4 b6 bc
       -0.012532608 -0.03635519 -0.01641514 -0.022310589
000320 ee 25 85 bc 44 86 59 bb 13 fe bf bc 47 7a 2e bc
       -0.016253438 -0.00331916 -0.023436582 -0.01064927
000330 1e ca 04 3d d1 eb ee bb 24 b7 f7 3a 12 e5 ec 3a
       0.032419316 -0.007291295 0.0018899185 0.0018073639
000340 bd 22 19 3c 81 e1 aa 3c 36 c7 8c bc 44 1b 15 bd
       0.009346661 0.020859482 -0.017184835 -0.036402956
000350 68 5c 2c bc b8 29 4f 3b ae a7 81 3c b6 af ce bc
       -0.010520078 0.003161056 0.015827026 -0.02523027
000360 21 3e 01 3c a6 7d ac 3c 57 00 ca bb b7 80 06 bc
       0.007888348 0.021056008 -0.0061645913 -0.008209399
000370 d0 fb 08 3d 2f c6 e7 3c 93 a6 18 bc 0c 24 a0 3c
       0.033443272 0.028292743 -0.009317058 0.019548438
000380 13 ac d5 bc 35 1d 0e 3b 3b 1c 17 bc 9a ec 03 bc
       -0.026083028 0.002168489 -0.009223039 -0.008052016
000390 74 74 92 bc 50 b1 84 3b 93 a2 b4 3c a6 82 13 3d
       -0.017877795 0.0040494576 0.022050178 0.036013268
0003a0 65 5a 99 bc 2b ce c6 bc a4 22 0d 3d 06 8e e4 3c
       -0.018719861 -0.02426823 0.034456864 0.027899753
0003b0 92 75 9c 3c 32 68 b7 3b 5f bf 04 3c 35 f0 34 3b
       0.01909903 0.005597138 0.008102267 0.0027608995
0003c0 ad 0e 76 bc bf 52 a3 3b 47 24 cb 3b e1 b8 e6 3a
       -0.015018147 0.0049842293 0.006199393 0.0017602706
0003d0 32 3c 44 bc 1a 78 e5 bc 92 7f f7 bb 11 20 34 3d
       -0.011977242 -0.02801137 -0.0075530494 0.043975893
0003e0 25 11 97 bc a0 af e3 bc 13 a2 25 3d d3 1f 8a 3b
       -0.018440792 -0.027793705 0.04043777 0.0042152195
0003f0 e7 c8 69 3c c8 17 b5 bb 0e 52 f3 bc 44 d0 98 3c
       0.01426909 -0.0055265166 -0.029702213 0.018653996

bias f4 [64]
000000 4d e1 8f bb c7 68 13 3d 23 b8 37 bb 4b 54 10 3c
       -0.0043908716 0.035988595 -0.0028033338 0.0088091595
000010 d6 ad 8b 3b 8e 52 97 3c 3c 5a 0c bb ca 7c 46 b9
       0.004262666 0.018471982 -0.0021416089 -0.00018929239
000020 74 7d 4c bb 20 ed 27 3c 9f fb 94 3b 38 3b e5 bb
       -0.0031202706 0.010249406 0.004546597 -0.006995585
000030 05 d4 21 3b d9 33 94 3c da 93 08 3d 12 42 2c 3b
       0.0024693024 0.01809113 0.033344127 0.0026284498
000040 f4 9f df 3b 5b 02 dc 3a ef 16 5f 3b 6e bb 8b bb
       0.006824488 0.001678537 0.003404077 -0.0042642867
000050 b7 35 88 ba a9 73 91 3b 51 50 2f bb dc b6 8d 3a
       -0.0010391985 0.0044388366 -0.0026750753 0.0010811943
000060 9c 8b 64 3b 64 79 b9 3b 3f 34 4a 3c 9d a5 6b 3b
       0.0034873253 0.005660223 0.012341558 0.0035956868
000070 ba 37 dd 3c c4 2d 0b 3c da 38 50 3b 77 5e a0 ba
       0.027004112 0.008494798 0.0031772167 -0.0012235184
000080 20 de 14 3c 45 27 ea 3b 5b b0 00 3b 36 6e 47 bb
       0.009086162 0.0071457946 0.0019636366 -0.003043068
000090 d7 47 8f 3c d6 3d 55 bb fa ae eb 3a 1a b2 ca ba
       0.01749031 -0.0032538078 0.0017981224 -0.0015464455
0000a0 e2 b7 c1 3b 0d 82 8b ba ee 5e 94 bb 8c 82 95 3b
       0.005911813 -0.0010643617 -0.004527918 0.0045626815
0000b0 92 e1 49 3a 84 e0 42 3a 09 49 53 bb 25 91 99 bb
       0.0007701154 0.0007433968 -0.0032239577 -0.004686492
0000c0 be 4c 7e ba 38 db a5 3b ac 5f 89 3c 49 61 b8 bb
       -0.00097007665 0.0050615333 0.016769253 -0.0056268317
0000d0 06 35 3b 3b 2b 5d 5c 3c 8e 6e 4d 3b 81 31 3e 3b
       0.002856554 0.013449947 0.0031346413 0.0029021206
0000e0 ae 18 b3 3b e3 d0 b5 3b 38 f0 01 3c 8f 9b 56 3a
       0.0054655885 0.005548583 0.007930808 0.0008186632
0000f0 df c0 b0 3b 2d 9b a3 3b fc d4 a3 3b 7e 1f f3 3a
       0.005394086 0.0049928636 0.004999755 0.0018548814

weight f4 [32, 64, 1, 1]
000000 70 52 37 3d 47 0d 72 be 64 36 43 be b6 4e 21 3e
       0.044756353 -0.23637877 -0.19063717 0.15752682
000010 e9 f0 28 be e7 a4 b3 3d 87 57 6a be a8 39 c0 3d
       -0.1649815 0.08771687 -0.22884952 0.09385997
000020 bf 7f 9c 3b c7 9a ca 3c 3b 53 0c be 8f 40 84 be
       0.0047759707 0.024732007 -0.13703625 -0.25830504
000030 d0 5a 32 3e a0 8e 31 3e ef 9e 3f 3e aa 24 70 be
       0.17417455 0.17339563 0.18712972 -0.23451486
000040 74 dd 3f be 40 be 85 3c 87 3e 19 be 2e e1 22 3e
       -0.18736821 0.01632607 -0.14965259 0.15906212
000050 56 9e cd 3d c6 17 75 be 24 f8 92 3d 39 78 19 be
       0.10039966 -0.2393485 0.07176235 -0.14987268
000060 a1 4c 13 3e 9f a1 33 3d 29 0f 01 3d da 6b c0 bd
       0.143847 0.043855306 0.0315086 -0.09395571
000070 fb 46 06 bd f2 f8 1a be c9 3a 2b 3e 75 c5 11 3e
       -0.032782536 -0.15134028 0.16721644 0.1423548
000080 5d be b5 3d 4b fd 37 be c0 72 ce 3d f7 da 74 3e
       0.088741995 -0.17967717 0.100804806 0.23911653
000090 2a 63 08 bb 37 7a 43 3e 37 e4 d4 bd 04 0a e6 3d
       -0.002081106 0.1908959 -0.10395091 0.11232379
0000a0 6c e1 29 be 7a f3 69 3e 87 38 81 3e b3 70 8f be
       -0.16589898 0.22846785 0.2523844 -0.2801567
0000b0 c1 51 26 3e ff 4f 6f 3c ab cc 05 3e 1a 73 77 3d
       0.16242124 0.014606475 0.13066356 0.060412504
0000c0 2a d6 3e 3e 6c 24 08 bd 5e b3 de 3d bf ab c7 bd
       0.18636385 -0.03323786 0.10874055 -0.09749555
0000d0 91 f2 4f be cc 5b 97 be 24 84 12 3e 8b c7 62 3c
       -0.20307375 -0.29562223 0.1430822 0.01384152
0000e0 c1 d0 52 be d7 44 57 bd bb ef 57 3e 0f 69 5d bd
       -0.20587446 -0.052555885 0.21087544 -0.05405527
0000f0 f7 e0 0c bd 33 f5 cc 3d 6c 47 08 be 30 8d 5a 3d
       -0.03439423 0.100077055 -0.13308495 0.053357303
000100 27 69 fe bb ad ee 78 3e e8 3e ea 3d 63 86 02 3b
       -0.007764 0.24309798 0.1143778 0.0019916527
000110 2b e1 3f 3e 3d fb 43 3d 6f ac 80 be 19 03 16 be
       0.18738239 0.04784702 -0.25131556 -0.14649619
000120 98 d2 3a 3d 77 e1 7c be e8 19 4e 3d 61 48 52 bc
       0.045610994 -0.24695383 0.050317675 -0.012834639
000130 45 18 a8 bb 33 11 60 be 40 c4 5c bc 0c 53 2a be
       -0.0051298463 -0.21881561 -0.013474524 -0.16633242
000140 0e a3 77 be 56 ab 3e 3e f7 a9 ba bd 22 d9 6c 3e
       -0.24183294 0.18620047 -0.091144495 0.23129705
000150 67 3d 64 be 4c b7 9f 3d 50 cc aa bd 2c 9d 82 be
       -0.22289048 0.07798633 -0.08339751 -0.25510538
000160 9b 95 a7 3d bf bc f1 3e 48 16 f0 3d 1f 04 fb bd
       0.08182832 0.47214314 0.11723 -0.122566454
000170 93 70 c1 3b 52 47 0b be 7b d6 0a 3d d3 6c 52 3e
       0.0059033125 -0.13601425 0.03389595 0.20549326
000180 52 fe f7 3d c0 5a 23 be 2d 28 71 be f5 75 20 3e
       0.121090546 -0.15952587 -0.23550482 0.15669997
000190 94 c1 38 be 82 5b 22 be 63 6c 08 3e 90 db da bd
       -0.18042594 -0.1585522 0.13322596 -0.106864095
0001a0 4d e0 f0 bd b9 90 07 3e 36 22 be 3d 90 94 3c be
       -0.11761532 0.13238801 0.09283869 -0.18416047
0001b0 cd 07 1d 3e 45 f2 c4 bc 2c 06 5f bd b6 43 ef bc
       0.15335007 -0.024041304 -0.054449245 -0.029207092
0001c0 53 19 f8 bd 65 cf 4a 3e a5 35 62 3e 7d a2 2f 3e
       -0.12114205 0.19805677 0.22090776 0.17151828
0001d0 c0 4b 5c 3e 87 90 03 be f8 42 b3 bb 90 9e c3 3c
       0.21513271 -0.12848102 -0.00547063 0.02387932
0001e0 69 b1 cf 3d 97 bc 06 be 10 ec 3a be ab ab 45 3e
       0.1014126 -0.13157879 -0.18254113 0.19303767
0001f0 fd 92 09 bd 3e 3e 2b bd bf b6 a9 3d cf 42 e9 bd
       -0.033587445 -0.041807406 0.08286809 -0.11389696
000200 7c 7e 5c be 34 26 93 3e de 26 28 3e 43 25 bd 3d
       -0.21532625 0.28740084 0.16421077 0.09235623
000210 83 d5 93 bd 6b 09 98 bd 41 bf 36 3e 2b 5e 19 be
       -0.072184585 -0.07423671 0.17846395 -0.14977328
000220 ce f8 cc be 5e 1c b3 3d 86 a8 4c 3e b8 d2 ed 3d
       -0.40033573 0.08745645 0.19986162 0.11612457
000230 c3 60 1b 3e be a5 dc bd cf c5 24 3e 38 5e 97 bc
       0.1517363 -0.107738 0.16091083 -0.018477544
000240 4f b6 47 3c ac 17 73 3e 03 1b db bd e2 02 99 bd
       0.012189462 0.23739499 -0.106985115 -0.07471253
000250 25 18 33 be 29 23 43 be d4 3f e2 bd 67 eb 12 be
       -0.17489679 -0.19056381 -0.110473305 -0.14347611
000260 88 d9 4b be e2 a9 54 3e 8e fd a1 bd 20 00 32 be
       -0.199072 0.2076793 -0.0790969 -0.1738286
000270 64 be 77 3e ad f4 57 3d cd 30 99 be 23 6c 1d be
       0.24193722 0.052723575 -0.29920045 -0.15373282
000280 00 a0 15 3e 07 52 a7 bc 0e d1 03 be 55 3e 05 be
       0.14611816 -0.020424856 -0.12872717 -0.13012059
000290 4d 92 ee bd 6d 7a b6 bd 64 15 b9 3d bd 4e 72 be
       -0.116489984 -0.089100696 0.09037283 -0.23662849
0002a0 b4 06 f6 bd 70 bf 43 3e f3 e9 03 be 42 a7 22 be
       -0.12012997 0.19115996 -0.12882213 -0.15884116
0002b0 83 0f dd 3d ba 82 1e 3e 47 7d 65 3d fe e4 98 3d
       0.10793974 0.15479556 0.056027677 0.07465552
0002c0 04 81 6b be 1a 80 5c be 64 e4 8f bd a0 aa 0f be
       -0.22998434 -0.21533242 -0.07025984 -0.14029932
0002d0 69 50 40 3e 0e c3 6b be e1 ac f0 bc c0 b0 e8 bd
       0.18780674 -0.23023626 -0.02937931 -0.113618374
0002e0 46 36 cb 3d e6 48 0d 3e 22 32 85 3d 55 99 48 3e
       0.09922461 0.1379734 0.06503703 0.19589742
0002f0 5a 00 2a 3e 22 15 86 bd 3d f5 2e be 34 2f 42 be
       0.16601697 -0.065469995 -0.17085738 -0.18963319
000300 cb 84 6b 3e cc ee f8 bd ab 49 45 3e d2 67 3b 3e
       0.22999875 -0.12154922 0.19266383 0.18301323
000310 8f 96 3b 3e 01 b3 2e be 12 19 c5 3c ed c0 52 be
       0.18319152 -0.17060472 0.024059806 -0.20581408
000320 83 18 4d 3c cc f6 bb bd 6d 4e eb 3d 76 35 47 3e
       0.012518051 -0.09177932 0.11489568 0.19453987
000330 39 1c 2f be 57 3e 4a 3e 71 58 74 be b3 f4 e1 3d
       -0.1710061 0.19750343 -0.23861863 0.11033001
000340 89 f1 04 bc 78 d7 35 bd e9 d9 11 be d4 75 b5 3d
       -0.008114227 -0.04439494 -0.14243282 0.088603646
000350 10 06 10 be ef 2d 35 3e 1c 48 f3 be a1 6b f0 bc
       -0.14064813 0.17693304 -0.47515953 -0.029348196
000360 19 07 30 3e 3b 8a 8e 3e 66 a9 99 3e 49 40 46 3e
       0.17190208 0.27839836 0.30012053 0.1936046
000370 e6 9d 3c bd 12 c9 cd 3d 67 3d ad bd d7 75 a2 3e
       -0.04604902 0.10048117 -0.08458977 0.3173053
000380 b3 2a 51 3e 48 b8 57 be 3f 5e 54 be cc cc 54 3e
       0.20426445 -0.21066391 -0.20739077 0.20781249
000390 cb 62 56 3e db 3b f8 bd e5 eb 57 be ef a5 19 3d
       0.20936124 -0.121207915 -0.2108608 0.037511762
0003a0 2a 09 f0 3d 8c 61 a2 bd e9 cb 1a 3e c2 91 4a 3e
       0.11720498 -0.07928762 0.15116848 0.19782165
0003b0 50 ca 47 3e 5b d6 c3 3d 77 87 96 bd 41 3b 91 be
       0.1951077 0.095623694 -0.073500566 -0.2836552
0003c0 14 97 20 3e 06 2d 74 be ea e0 c5 bd f9 59 19 3e
       0.15682632 -0.238453 -0.096620396 0.14975728
0003d0 2d 8c ea 3d 48 2d 94 3c 1c 73 23 be 4b 76 a2 bc
       0.11452518 0.018087998 -0.1596188 -0.019831797
0003e0 be 07 b0 be 14 f9 87 be cf c1 db bd 00 96 a8 3e
       -0.34380907 -0.2655722 -0.107303254 0.3292694
0003f0 1e 73 1c be 25 94 1b be 78 07 d7 be d4 43 80 3d
       -0.15278289 -0.15193231 -0.41997886 0.06262937

bias f4 [32]
000000 a1 f6 1c ba 89 09 1a bb a0 69 80 3c dd 1e f1 bb
       -0.00059876783 -0.0023504219 0.015675366 -0.0073584155
000010 d3 37 c4 ba 3b 12 38 3b ab a1 b1 3b d5 22 24 3b
       -0.001497025 0.0028087038 0.0054208837 0.0025045176
000020 7c b1 ed bc 7b 0b 8c bb ad 64 98 3b 87 a8 59 3b
       -0.029015295 -0.0042738295 0.0046506734 0.0033212022
000030 a9 9e 10 ba 21 31 90 ba f7 19 a0 3b d7 d8 f7 ba
       -0.0005516806 -0.001100097 0.0048859078 -0.0018909228
000040 27 dd c9 3b 19 1b f8 3b c7 0f b6 3b 8f 07 6f 3b
       0.0061603966 0.0075715897 0.00555608 0.003647301
000050 48 c6 1d bc f8 3c 67 bb 92 a9 01 3d 05 9c 93 3b
       -0.009629793 -0.0035284143 0.031655855 0.004504683
000060 a2 a3 4e 3b df 57 25 3b 09 28 78 bb 05 4c c4 ba
       0.0031530638 0.0025229377 -0.003786566 -0.0014976269
000070 40 68 9d ba d6 01 f1 ba 9a 90 67 3b ea 34 84 3c
       -0.0012009218 -0.0018387388 0.0035333992 0.016138513

weight f4 [1, 32, 5, 5]
000000 b8 6e 87 bd e0 f4 9b 3d a4 b6 97 bd 58 b2 98 bd
       -0.06612915 0.076150656 -0.07407883 -0.07455891
000010 81 06 39 bd a7 2f 9d bc 86 4e a8 bc c7 14 47 3d
       -0.04517222 -0.019187761 -0.020545255 0.0486038
000020 8e bc 58 3c 87 a6 a8 3d 1b 93 a4 3d 2e 90 04 3d
       0.013228549 0.082348876 0.08035871 0.032364063
000030 cd 77 6a 3c cf 91 2d 3c 3c 42 98 bd 37 7a 19 bd
       0.014310789 0.0105938455 -0.07434508 -0.03747007
000040 a1 c2 46 3d ea c4 e5 bc 94 d9 f5 3c a7 6a 32 3d
       0.048525456 -0.028047998 0.030010976 0.043558743
000050 64 8b 42 3d 6f 44 07 3b 7e d7 8a bd cc 8d a8 bd
       0.047496215 0.0020640155 -0.06779383 -0.082301706
000060 fa 75 81 bd 0c c1 dd 3c 72 5b 99 bd 1e 95 0d 3d
       -0.0632133 0.027069591 -0.07488145 0.034566037
000070 6a 52 a5 3d f8 6c 2e 3d c3 c4 92 bd 37 f7 0f bd
       0.0807236 0.04258439 -0.071664356 -0.03514787
000080 23 19 34 bd b9 a0 24 3d e2 e7 8c 3a 0b 5a 8d bd
       -0.043969285 0.04019234 0.0010750259 -0.0690194
000090 fa 41 92 bd 0f 9d 8f 3d b7 df 6c bd 43 d3 49 bd
       -0.0714149 0.070123784 -0.05783054 -0.04927374
0000a0 97 0d ad bd 2c 9c 8a 3d b9 11 b1 bd fd a4 57 bd
       -0.08449858 0.06768069 -0.086459585 -0.05264758
0000b0 9a 3e 46 bc af 54 c6 3b f5 8b 69 bd dd 6c 0f bc
       -0.012099886 0.0060525755 -0.05701824 -0.008753982
0000c0 cf 9b a6 3d f8 01 5d 3d 16 b3 63 3c b1 31 82 3d
       0.08135187 0.053956956 0.013897678 0.06357134
0000d0 d2 ed bc 3c df 27 4e bd 92 c2 dc bb b9 83 e8 3b
       0.02306262 -0.050330993 -0.006737062 0.0070957807
0000e0 b8 ab 7e bc 2a 74 b3 bd 88 47 f6 3b 7a 5c a0 bd
       -0.015543871 -0.08762391 0.0075158514 -0.078301385
0000f0 15 94 1b bd 04 84 4d bc 96 32 ea 3d b4 53 0a 3d
       -0.03798302 -0.012543682 0.1143543 0.03377123
000100 83 21 9f 3c 70 e4 20 bc ec 59 91 bc 25 65 cd 3b
       0.01942516 -0.009820089 -0.017743073 0.006268161
000110 3d bf d5 3c 2f a8 75 bd 20 c4 9b 3b 8c fa ac bc
       0.026092166 -0.059974845 0.0047536045 -0.021115564
000120 c9 54 ca bd 71 ae 27 3d 7b ce a4 bd e2 51 fb bc
       -0.09879453 0.040937845 -0.080471955 -0.030678693
000130 41 2d 58 bd 9c 5b fb 3a d7 99 3c 3d 69 e1 8b bc
       -0.052777532 0.0019177082 0.04604515 -0.017075257
000140 bc 08 eb 3c 22 01 0e bd 4e 55 c4 3c c3 3e 44 3d
       0.028690688 -0.03466905 0.023966458 0.047911417
000150 c4 dc 6a bc e8 74 5f bd c1 02 d3 3d 5b d1 f9 3d
       -0.014334861 -0.05455485 0.1030326 0.121981345
000160 d5 27 86 3d b3 f3 4e bd 31 5a 9b 3d e3 94 67 bd
       0.06550566 -0.05052538 0.07585562 -0.056538474
000170 54 6d 36 3d 46 49 0a 3d 3d 19 89 3b 85 c0 35 bd
       0.044537857 0.033761285 0.004183917 -0.044373054
000180 f5 64 bf bc 3e 9d 54 3d bc 49 32 3d 46 eb 73 bd
       -0.02336357 0.05190777 0.04352735 -0.059550546
000190 fa 97 38 bc a6 80 46 bd d8 3a fb 3b ec 07 3a 3d
       -0.011266703 -0.048462532 0.007666927 0.04541771
0001a0 02 76 d0 bc 0c 69 9d bc 81 31 09 3d ed 36 31 bd
       -0.025446896 -0.01921513 0.033494476 -0.043265272
0001b0 e9 25 a5 bd f9 a1 03 3d 0c 8f 9e 3b 96 d1 99 3c
       -0.080638714 0.03213689 0.00483883 0.018776696
0001c0 83 f5 c7 3c ba a1 85 3c 87 d2 0f 3c 3f 91 23 bd
       0.024409061 0.016312469 0.008778221 -0.03993344
0001d0 72 33 80 3c a6 b8 5f 3d 3f 67 22 3d 0d 10 95 bd
       0.015649531 0.054619454 0.039649244 -0.07278452
0001e0 6c f3 4c bd d9 fb 06 3d cf 87 3c 3d 40 66 8a bd
       -0.050036833 0.032955024 0.046027955 -0.06757784
0001f0 44 29 e1 bc d5 bd 81 3d d2 94 24 3d 5e f3 f8 3c
       -0.027485497 0.06335036 0.04018099 0.030389484
000200 b6 9f 8c bd 5f ea 4d 3d 22 7b 26 bd 0c fe 44 3d
       -0.068664 0.05027234 -0.040644772 0.04809384
000210 02 fa 39 3d 75 34 91 3c 32 56 8a 3b fc b3 1b 3d
       0.04540444 0.017725209 0.004221701 0.038013443
000220 97 35 3f 3d 14 a6 7e bc 1f c8 5a 3d 9e e9 1f bd
       0.046681967 -0.015542526 0.053413507 -0.039041154
000230 e7 09 a7 bd 42 71 fa 3c f1 65 a8 bc de f8 37 bd
       -0.081561856 0.030571584 -0.020556422 -0.044915073
000240 14 87 a1 3d 3e 85 58 3d 22 16 f3 3c 6f fc c8 bc
       0.07887092 0.052861445 0.02967364 -0.024534432
000250 58 eb 51 bd 77 b7 4c bd 1e 41 1e bd 35 2c d0 3c
       -0.051249832 -0.049979653 -0.03863632 0.025411705
000260 06 f5 db bc 26 3b d8 3c a4 a2 0b bd 36 ef 94 bd
       -0.026850235 0.026395392 -0.034090653 -0.07272188
000270 ad 66 62 3c 89 2b 35 bc 77 1a b5 bd 10 af ae bb
       0.013818425 -0.011057743 -0.088429384 -0.0053309277
000280 66 4a 0c 3d 30 b5 b4 3d 68 68 4f 3d 43 45 2e 3b
       0.03425064 0.08823621 0.05063668 0.0026591576
000290 e6 07 fd 3c 71 d4 ab bd cc 6a 06 3d fb e0 10 bd
       0.030887555 -0.08390129 0.032816693 -0.035370808
0002a0 bb 7b 28 bd 26 70 ca bc 95 ab 90 bd c3 3a 94 3d
       -0.041133624 -0.02471168 -0.07063977 0.072377704
0002b0 34 20 b8 bc 57 80 b2 bc 75 52 35 3d 48 c8 8e 3d
       -0.022476293 -0.021789713 0.04426809 0.06971794
0002c0 d5 d1 3a 3d 9c c0 4b bd ee ea c5 bc ae c2 32 bc
       0.045610268 -0.049744233 -0.024159875 -0.010910673
0002d0 de 9d a0 3d 89 3c 49 bc 9b f6 98 bd 1c 33 65 3c
       0.07842611 -0.012282499 -0.07468911 0.013989236
0002e0 ae a2 44 3b 77 8d bb bb c2 45 85 3d 5d 67 93 bd
       0.0030004191 -0.005723651 0.06507446 -0.07197449
0002f0 3a b0 1f 3d 40 79 8e 3d f3 47 4e bd 5c 0c a5 3d
       0.038986422 0.0695672 -0.050361585 0.08058998
000300 75 d2 3f 3d a0 f5 02 3d cd 5e 9e 3d 90 67 11 bd
       0.046831567 0.031972528 0.077329256 -0.035499156
000310 43 e3 9c 3d 51 1b ab 3d e5 1c 21 bc 67 30 7f bd
       0.07660534 0.083548196 -0.009833549 -0.06230202
000320 62 c6 60 3d 26 84 50 3d 3f a2 75 ba c0 22 2f 3c
       0.054876693 0.050907277 -0.0009370185 0.010689437
000330 49 79 83 3b d3 fd ec 3c ef 0b a6 3d e2 39 2c 3d
       0.004012261 0.028929627 0.08107745 0.04204739
000340 51 66 85 3d a3 76 57 bd ee fb a6 bd 9c 3e 58 bc
       0.06513656 -0.052603375 -0.081535205 -0.013198521
000350 6f 4c 74 bd 56 3a 9d 3d a1 3f 64 3d 90 6b a0 bd
       -0.059643205 0.07677142 0.055724744 -0.07833016
000360 3e 41 44 3c 7d 36 83 bd 7d 09 2f bc 42 5d 91 3d
       0.011978446 -0.06406877 -0.0106834145 0.07097866
000370 7a f7 7f bd 66 3d 9c bb 40 4e 5a bd 28 b8 61 3c
       -0.06249187 -0.0047680615 -0.05329728 0.013776816
000380 5d c3 8b bd c2 62 ac bd 48 6b a4 3d 7b 32 38 bd
       -0.06824372 -0.08417274 0.08028275 -0.044970017
000390 20 c2 c8 bc 9c eb a9 3d a6 22 3e 3d 88 d6 22 bd
       -0.024506629 0.08296892 0.046419762 -0.039755374
0003a0 a7 cf 7f bc 7c ca fa bc e1 d5 a2 bd 5b ed 57 bd
       -0.015613473 -0.03061413 -0.079509504 -0.052716594
0003b0 00 2e 10 3c e6 72 78 bc af cf 7f bd f6 bf 92 bd
       0.00880003 -0.015164113 -0.062453922 -0.0716552
0003c0 af 52 05 3c 4b d7 0a 3d 4a 2f 89 bd 03 c1 b5 3c
       0.008137389 0.033896726 -0.06698473 0.022186762
0003d0 17 4d 6e 3d 95 4e 9a bd f8 d9 67 3d 1f 56 9a bc
       0.058178987 -0.075345196 0.056604356 -0.018839894
0003e0 4c 93 a6 3c e5 c3 95 3d b2 44 64 bd 36 93 b2 3c
       0.020333908 0.073127545 -0.055729575 0.021798711
0003f0 5c 8d 08 3d f5 dd 93 3d bb d1 e3 bc ce 0b 8e 3b
       0.033337936 0.07220069 -0.027809968 0.0043349033
