modeldata/model_166_epoch.pth (torch_old, 43109 bytes, 5 tensors)

weight f4 [64, 1, 9, 9]
00000000: d719 ca3b 6923 5a3b f689 11bd 9966 ea3c
00000010: 3841 c5bc b942 b03b cf38 2ebd b6b0 223c
00000020: 0f01 a93c 1a8e cdbc 7c9b 0d3a 9fa2 28bc
00000030: eab4 433d c956 243d 70d6 99bc 6e77 b43c
00000040: 1cd6 31bc fc00 8fbb 59ff 1ebc 6de3 36bb
00000050: acea 433d a8a3 013d 79af a03d 83dd 033d
00000060: 579b 5a3d a912 bdbc 004b 423b c9c3 c63a
00000070: c0d0 f53b 8ea7 abbc 9721 98bc d755 49bd
00000080: 9327 8ebc 63a3 9b3d 8f4a ce3c 9c49 ae3b
00000090: 1748 d23c 1a47 f2bb 9ce6 84bc 5d0f f8bd
000000a0: 786b 4cbe 9881 bdbd a11c d8bb 37c4 f6bc
000000b0: 732e e4bc 7a61 ad3c e0d1 773d 719e 1b3d
000000c0: 7c35 bcbc 8171 e5bd 634f 3dbc ac89 4d3d
000000d0: a9f8 003d 1d62 f13c 76a8 e5bc 300e d5bc
000000e0: 9fa0 673c feb3 443d 054f 26bd 32ed 28bc
000000f0: 4114 7e3d 974c cd3b 58b0 60bc e0b0 a239
00000100: 6bfa 34bc d22e 4cbc bb29 193d 7efe c13b
00000110: 296b 1abb 4493 37ba 3daa 3bbc 19c0 24bc
00000120: 404c 733b 0515 363b fbc8 51bc c2c7 ae3c
00000130: a598 20bc 95f3 4fbc f2b1 dbbc c69a af3b
00000140: 02b5 643b 8261 a639 20bc 193b 8798 d03c
00000150: d8ea 59bc 904c 0e3c 77f3 83bc 6865 113b
00000160: 9379 83bc b14e 58bd d98f 41bd 5e50 d9bc
00000170: e8de 03bd ca99 c73c 3427 0ebc e764 62bd
00000180: 3534 51bd 1bf4 d73b 1e14 bdba ac89 75bc
00000190: 586e a7bb e0e3 d73b 8412 75bc c8a2 ca3d
000001a0: fbb5 e43c 9a81 abbc 32d3 02bd f95a 10bc
000001b0: f919 55bd 0c64 a43c e3e6 293d a9fa 92bb
000001c0: efe3 153e f2b8 503b 01de 823b 6b83 823c
000001d0: afbf b93b 9843 0cbc 814a 763c 179c 943c
000001e0: a977 54bd 29ba a03c 15b8 e6bc 6709 92bd
000001f0: 79e3 f2bc c566 043c 33e4 6d3b e52c 46bb
00000200: 8d36 2cbd 3f26 d7bc 4192 f3bc 7256 9ebc
00000210: 380c c13c bbda a63c 5e03 0abc 759b 8b3c
00000220: c809 973c 101d 313c 610e 09bd 0ac1 1d3d
00000230: bd24 4dbc 12c5 1f3c 02a0 a53c e9b7 ffba
00000240: 08b9 e4bc 97dd 513c ab6e 2b3c c414 d0bc
00000250: bbf6 663d b304 babc 026d f3bc 8d6b b9bb
00000260: 050f 183b 2d7b 98bc 86b0 05bc 3008 7f3a
00000270: 4dd9 89bc 49b4 483d 25cd 56bc ce83 53bd
00000280: 7f06 573c 4d14 383c 3e22 ce3c 53b9 6bbc
00000290: 9cf5 73bc 380f 27bd ce70 d1bc dbb0 9cbc
000002a0: 7423 06bd 1b59 fcbc 2016 453d b6cb 53bb
000002b0: 2783 4a3c c168 c43c 80b4 a4bb a039 5cbc
000002c0: c3b3 53bc 7951 99bc 0561 0dbd 81b4 38bc
000002d0: 9770 80bc e17c 043b 1544 903b 22c0 e73b
000002e0: 0a86 86bc 11b0 f63c f8b5 393d 3e40 0d3d
000002f0: d96a 65bb 4eec b9ba 9606 1dbc cb48 023d
00000300: f224 18bc 7b94 043d fa61 4b3d e009 d23c
00000310: 8d88 243d db74 063c 80b3 d93c 50b7 96bc
00000320: 41c2 13bd eaa8 d4bc 5690 133d 6214 623d
00000330: 4076 cf3c f125 5ebb e079 bd3c 78cc 053d
00000340: 6616 39bb bc41 8a3c b3f7 89bc 69a1 213d
00000350: 042f b13c 6d06 d63c d55c 013d 575a b7b9
00000360: 1aad dc3a 2834 b8bc 9584 b33b 8a9f b6bc
00000370: f235 d03c ded0 e63c 4398 ad3c 7078 37bc
00000380: cc69 0d3d 3160 d7bc 4039 29bb ad66 a8bc
00000390: 8f9f 483d a37c 47bb bec8 f93c 900d 233c
000003a0: c8e3 403c 0f12 24bc 70cc fdbb 746a bfbc
000003b0: 12fd 833c 6b47 d63b 6789 063d bda3 a23c
000003c0: f3b7 47bc 2e88 963b dbd1 cfbc e856 3c3c
000003d0: 2b34 64bc bbdb b4bc 4bf1 2b39 5f2b bf3c
000003e0: 30bd bd3c cece 01bc 2059 beb9 f4cd 8fb9
000003f0: 297c f83c 7518 da3b b127 4e3c 3636 85bd
0.006167631 0.0033285266 -0.03553196 0.028613375 -0.02407895 0.0053790477 -0.042534646 0.0099298265
0.020630388 -0.025092173 0.0005401892 -0.010292678 0.047779955 0.040121827 -0.01877901 0.022029605
-0.01085427 -0.004364131 -0.009704434 -0.0027906552 0.047831222 0.031650215 0.07845969 0.032193672
0.0533708 -0.023080187 0.0029646754 0.001516455 0.0075016916 -0.02095392 -0.018570704 -0.04915413
-0.017352855 0.07599523 0.025182037 0.0053188335 0.02566914 -0.00739373 -0.016223244 -0.12112305
-0.19962871 -0.09253234 -0.0065952097 -0.03012286 -0.02785418 0.021164645 0.060502887 0.0379929
-0.022974722 -0.1120329 -0.011554572 0.050180122 0.03148714 0.02946573 -0.02803443 -0.026007742
0.014137416 0.048023216 -0.040602703 -0.010310458 0.062031034 0.0062652337 -0.013713919 0.0003103083
-0.011046032 -0.012462335 0.037393313 0.0059202304 -0.0023562408 -0.000700284 -0.011454162 -0.010055565
0.0037124306 0.0027783525 -0.012804265 0.021335486 -0.009802018 -0.012692352 -0.02681825 0.0053590266
0.0034897928 0.00031734636 0.0023458079 0.025463356 -0.01330062 0.008685246 -0.016107304 0.0022185687
-0.016049182 -0.05280942 -0.047256324 -0.02652758 -0.032195 0.024365325 -0.008676339 -0.05527201
-0.05107518 0.006590379 -0.0014425551 -0.014986437 -0.0051095895 0.006588444 -0.014958028 0.09894329
0.027918806 -0.020935822 -0.031939693 -0.008810752 -0.052026723 0.020067237 0.041479956 -0.0044854474
0.14637731 0.0031848517 0.00399375 0.015931806 0.0056686024 -0.0085610375 0.015032412 0.018140836
-0.05187193 0.019620018 -0.028163949 -0.071306996 -0.029649483 0.008081143 0.0036299347 -0.0030239162
-0.04204421 -0.026263354 -0.029732825 -0.01932833 0.023565397 0.02036797 -0.008423654 0.017041901
0.018437281 0.010810152 -0.03346098 0.038514175 -0.012520966 0.009751575 0.0202179 -0.0019509766
-0.027920261 0.012809179 0.010463397 -0.025400527 0.056387644 -0.022707319 -0.029715065 -0.005658573
0.0023202312 -0.018613422 -0.008159762 0.0009728698 -0.01682725 0.04900006 -0.013110434 -0.05163937
0.013124107 0.011235309 0.025162812 -0.014387446 -0.014890101 -0.040785998 -0.025566485 -0.0191273
-0.032748654 -0.030804208 0.048116803 -0.0032317466 0.012360371 0.023975732 -0.0050264 -0.013441473
-0.0129212765 -0.018715607 -0.034516353 -0.011273504 -0.015678687 0.0020216035 0.0044026473 0.0070724646
-0.016421337 0.030113252 0.045339555 0.034485094 -0.0035006313 -0.0014184804 -0.00958409 0.031807702
-0.009286152 0.032368165 0.049653985 0.025639474 0.040169287 0.008206571 0.02657485 -0.018397957
-0.036073927 -0.02595945 0.03602632 0.05519522 0.02532494 -0.0033897127 0.023129404 0.0326657
-0.002824211 0.016877048 -0.016841745 0.039460573 0.021628864 0.02612611 0.031582672 -0.00034971788
0.0016836256 -0.022485808 0.0054784515 -0.022292871 0.025416348 0.028175768 0.021190768 -0.011198148
0.034524724 -0.026290985 -0.0025821477 -0.020556772 0.048980292 -0.003043928 0.03049123 0.009951964
0.011773057 -0.010014071 -0.007745318 -0.02336619 0.016111884 0.0065392754 0.03284588 0.019853467
-0.012189853 0.0045938706 -0.025368622 0.011495329 -0.013928453 -0.022077432 0.0001639772 0.02333611
0.0231615 -0.007922841 -0.00036306027 -0.00027428532 0.030332642 0.0066557475 0.012582705 -0.065044805

bias f4 [64]
00000000: f5e5 333d 8eb3 1cbc f261 833b 3255 103c
00000010: 61b2 2d3c 69e8 733a 26df 793c c07a 7a3c
00000020: 49f1 2e3c 2677 56bb ec80 d13b 1f79 293d
00000030: 677d 9f3b 24d7 c63b cf88 f737 35a9 c93b
00000040: 3527 c33b 5ca5 a3bb 205c 603c d1da 20b9
00000050: 9a5c 6dbc cc2e 2dbd 2f5f 3abb 10da 423b
00000060: e04a 853b 1a4b 833c c3e6 863b 03fe f3bb
00000070: 31be 9b3c 18de 21bc c4f1 cdbb cb57 a23b
00000080: c4f6 ff3a b90a 3b3c f6ee 5f3c 4514 123c
00000090: 3d9c 1f3c 7918 303c ef97 073d 604c 723b
000000a0: 8eaf 923c d3ce 883b a87a 103b 122b 44bc
000000b0: 095b a5ba c06a a9bb fd20 aa3c 47ff d5bb
000000c0: e477 e1bc 9da7 e9bb 4898 253c 9208 f6bb
000000d0: 1a75 763c 1bd8 90bc 9c15 ad3c 7233 823c
000000e0: 945a ce3c e47b fdbb 8201 50ba d96d c839
000000f0: a2bd 79bc 4afd 29bc 06c9 0cbc 7559 aa3c
0.043920476 -0.009564294 0.0040094787 0.008809375 0.010601611 0.0009304346 0.015250957 0.015288055
0.010677644 -0.0032724827 0.0063935425 0.041375276 0.004867244 0.006068127 2.9508401e-05 0.0061542043
0.0059556016 -0.0049940776 0.013693839 -0.00015340305 -0.01448741 -0.042280957 -0.0028438081 0.0029732026
0.0040677637 0.016027022 0.0041168644 -0.007446052 0.019011589 -0.009879611 -0.006284924 0.0049543134
0.0019528498 0.011416131 0.013667813 0.008915965 0.00974184 0.010748022 0.03310388 0.0036971793
0.017905977 0.004175046 0.0022045765 -0.011973159 -0.0012615632 -0.0051701963 0.020767683 -0.0065306756
-0.027522989 -0.0071305768 0.010107107 -0.007508346 0.015042568 -0.017681172 0.021128468 0.015893672
0.025189675 -0.007735716 -0.0007934795 0.00038228816 -0.015242966 -0.01037533 -0.00859285 0.02079461

weight f4 [32, 64, 1, 1]
00000000: 181a 5e3e aea0 9b3e 5e58 0fbe 704c 7dbd
00000010: 3f2f 38be 29b8 f23d e820 c9be 9311 263e
00000020: a6b4 bebd c681 313e ddc3 c5bd 709c 4e3d
00000030: 4e51 bdbd 9415 f1bd 1534 cb3e bdcc 5d3e
00000040: ee3b 0a3f f6be 5eba a0b2 03be e5b7 c5bd
00000050: 2301 753e 4b7e 39be b3a7 4fbd 9742 cd3e
00000060: 66f5 3fbe 44ed 13be 7f51 b5be fdb7 513e
00000070: c721 a03e bdf2 f43d d3de 48bb 94b9 6f3c
00000080: df91 90bd 1c20 ce3d 9739 ffbd bac4 45bd
00000090: a807 46be 043a 4c3e 4bd2 303e 4505 36be
000000a0: ba5a ad3d b8a0 dd3c 02ce 003d f276 8dbe
000000b0: 49e0 b83d 1200 adbe 601c 393e e2cc 5ebd
000000c0: a595 e43c 94ff ce3e dea2 113d 7893 4b3e
000000d0: cbfb 653e 87c2 883e 8419 7a3d 1d1e 8cbe
000000e0: fc75 3cbe 23ea bbbd 414a 1c3e 1c3f cfbd
000000f0: afb2 84be 8fe1 e3be d726 3f3e 3912 b6be
00000100: 586b 80be 1f07 81bd 528f ab3b 518c 863e
00000110: dca8 83bc 4809 5cbe 86b9 833e 4a34 803e
00000120: 3ae3 653e 11ff 753d a00f 13be fc98 77bd
00000130: f2c9 6fbe fb29 6e3e 8de9 483d b2d8 d4bc
00000140: d58f 92be 2ae7 31bd d2a1 4dbc c507 2b3e
00000150: 0828 e1bb 32c5 693e b3f0 82bc 4b9a 823e
00000160: c334 413d 0a05 223e 473a a53d 09eb 46be
00000170: b316 913e e1a5 943e 0d54 b3bc c6f7 2dbe
00000180: 377e 3ebe 025f 833e a174 48bd 16d4 163d
00000190: d43f 71bd 7874 3fbd 340b ffbb c78f 02be
000001a0: 3292 7c3d 9dc5 6a3e 43b5 02bd f2a3 8abe
000001b0: 0f5e 91be 7523 cf3e d0d1 a33e 67ae 10be
000001c0: 249f 84bc 8d08 743e 06f6 6abe 75d0 ffbd
000001d0: 1785 58be a168 a03e 6eba 5f3d 67d1 6dbe
000001e0: ca18 9d3d 6315 9a3c 246c b5bc f6a1 923d
000001f0: 57b1 a4be 5d3c 103e 539d 813e cfb0 92be
00000200: 3e4e 25be c8cb 4c3d 4aed 19be 6626 603e
00000210: 5098 913e 3385 4d3e d907 6c3e 07b7 6e3d
00000220: 342c 323e 5fa1 18be 2144 3ebe 3419 3d3c
00000230: 0feb 6a3c c1f5 a13e 006e 40be 9577 343e
00000240: 1446 1bbf b95f 48be 4a43 173e e991 ba3d
00000250: b1f9 533d d66e 753e 873c 3b3b 4f95 9dbe
00000260: 5c7d 9abd 886d 29be d7ed bcbc eb24 12be
00000270: 6e18 453d 0857 32bf d49c a33c e7f5 c1bd
00000280: 564f 433e 441e 693e 663d a9bc 6cf1 2a3e
00000290: c355 81be d240 713e 468c 7fbd a975 1cbd
000002a0: 7797 583d 3641 1dbe 5d52 803d 6123 383e
000002b0: dc91 f9be 244c c4bd 9ac2 c63d 4c1b e5bd
000002c0: 79a8 85be 7616 65be f606 833e 1d3e 25be
000002d0: 20aa 443e f619 a43e a0e7 123e ce39 37be
000002e0: 2d76 5fbe 0015 10be d1c7 7f3e f519 4a3c
000002f0: effa 77bd d2d6 8e3d 9e4e 593e cdc0 903e
00000300: 5138 743d f4af ffbd ff5e f13d 6e30 8a3e
00000310: 0628 833e c694 01be 2e0c 07be 8f93 0d3e
00000320: 871d 9bbe ae5d 2abe c0e6 9a3d 0add d3bd
00000330: e27c 2a3e 9864 60bd 5cce 1c3e 1281 103e
00000340: ba68 2ebd 72a4 dfbc 95a6 763e a3fd 2cbe
00000350: 6c9e 803b 15f6 b23d 0331 803e 9dab c53e
00000360: d5c0 333e 1c9f 893e 8afa e8bd 4438 8c3c
00000370: aee8 293e 9880 79be dbbe 12be 69d7 a2be
00000380: f9e0 eabc 923d 79bd 5967 7c3e 3e1b a9bd
00000390: d74d 1d3e c58d b43d eab7 d7be 2643 653e
000003a0: 4a3e b4be f731 01be fe03 163e a236 6e3e
000003b0: eed0 0d3e 6350 783e f5f7 393d c379 8cbe
000003c0: d1a8 b1be 9d6a 9abd 5490 1abd dc75 9bbe
000003d0: 69f6 ee3d 0593 0cbe e472 08be 03dc 31bd
000003e0: 9682 e13d 4484 8d3e 4f56 ab3b 7afa af3d
000003f0: d596 cfbd 7fd9 cf3e a7a5 0cbe 9a31 bd3d
0.21689641 0.30396026 -0.13998553 -0.061840475 -0.17986773 0.11851532 -0.39282918 0.16217642
-0.093118 0.17334661 -0.096564986 0.05044216 -0.09244023 -0.11771694 0.39688173 0.21660133
0.53997695 -0.00084970833 -0.12861109 -0.09654216 0.23926215 -0.18114583 -0.05069704 0.40089867
-0.18745956 -0.14445978 -0.3541374 0.20480342 0.3127577 0.11960361 -0.0030650392 0.014631648
-0.07059073 0.10064718 -0.12462156 -0.048283316 -0.19338858 0.19944006 0.1726772 -0.17775448
0.0846457 0.027054176 0.031446464 -0.2762981 0.09027154 -0.33789116 0.1807723 -0.05439461
0.027903387 0.40429366 0.035555713 0.19880474 0.22459333 0.26710913 0.06105949 -0.27366725
-0.18404382 -0.091755174 0.152627 -0.10119459 -0.25917575 -0.44508025 0.1866716 -0.35560778
-0.25081897 -0.06300186 0.005235591 0.26278928 -0.01607173 -0.21487916 0.2572748 0.25039893
0.22449961 0.060057703 -0.14361429 -0.06044863 -0.2341688 0.23258202 0.049050856 -0.025982235
-0.2862536 -0.043433346 -0.012550788 0.16702183 -0.006871227 0.2282913 -0.015983915 0.2550834
0.047169458 0.15822235 0.08067756 -0.19425596 0.2833763 0.29032806 -0.021890664 -0.1698905
-0.18602835 0.25658423 -0.04893935 0.036823355 -0.058898762 -0.046741933 -0.007783318 -0.12750159
0.06166286 0.22926946 -0.031911146 -0.27078205 -0.28392074 0.4045674 0.31996012 -0.14129029
-0.016189165 0.23831387 -0.22945413 -0.12490932 -0.2114452 0.31329826 0.054621153 -0.23224412
0.07670744 0.018809026 -0.022146292 0.07159798 -0.3216655 0.14085527 0.2531534 -0.2865052
-0.16143128 0.04999903 -0.15031925 0.21889648 0.28436518 0.20070343 0.23049869 0.058280017
0.17399675 -0.14905308 -0.18580677 0.011541653 0.014338269 0.31632808 -0.18791962 0.17623742
-0.60653806 -0.19567765 0.14771762 0.091098614 0.051751796 0.23968062 0.0028570013 -0.30777976
-0.07543442 -0.16545689 -0.02306263 -0.14271896 0.048119 -0.6966405 0.019972242 -0.0947073
0.19073233 0.22765452 -0.02065916 0.16693658 -0.25260743 0.23559883 -0.062389635 -0.038198147
0.052878823 -0.15356907 0.062657095 0.17982246 -0.48744094 -0.09584835 0.09705086 -0.11186847
-0.26105097 -0.2237185 0.25591248 -0.16136976 0.19205523 0.32051057 0.1434617 -0.17893144
-0.21822424 -0.14070511 0.24978568 0.01233529 -0.060542043 0.069745675 0.21221396 0.28272095
0.05962402 -0.12484732 0.11785697 0.26990074 0.25616473 -0.12654409 -0.1318824 0.1382582
-0.30295965 -0.16637298 0.07563543 -0.10344894 0.16649202 -0.054783434 0.15313095 0.14111736
-0.042580344 -0.027300093 0.24086984 -0.1689363 0.0039251354 0.08738343 0.25037393 0.38607493
0.17554028 0.26879203 -0.113759115 0.017116673 0.16592667 -0.24365461 -0.14330618 -0.3180497
-0.028671728 -0.060849734 0.24648799 -0.08257149 0.15361725 0.08816103 -0.42132503 0.22388896
-0.35203773 -0.12616716 0.1464996 0.23263028 0.13849232 0.24249415 0.045402486 -0.27436647
-0.3469911 -0.07539866 -0.0377353 -0.30363357 0.11668093 -0.13727959 -0.13325077 -0.04342271
0.110112354 0.27639973 0.0052287946 0.085926965 -0.10136191 0.40595624 -0.13735066 0.09237976

bias f4 [32]
00000000: 11f1 bc38 cd8f 033c d950 44bb a384 6c3c
00000010: 62df 823b b4f1 c83c 78c1 42bc 7384 5939
00000020: 8d2a a13c c54a 813b 7e8b 95ba 5ba6 163c
00000030: 5472 afbb b0a8 9ebb 5f03 f03b 73c9 d9ba
00000040: ba0f 53bc 2d24 913c a971 81ba 268f 9e3b
00000050: a23e fabb af14 3d3c 7802 593c ded1 b53c
00000060: b1f3 513c 7ef9 053d 97ad c8bb 7598 32bc
00000070: 22f0 733c 37b8 4bba 82a1 18bb 8171 913b
9.009441e-05 0.00802989 -0.0029955416 0.01443592 0.0039939145 0.024529316 -0.011886947 0.00020744074
0.01967361 0.003945681 -0.001140937 0.009194936 -0.005354205 -0.0048418865 0.0073246206 -0.0016615823
-0.0128821675 0.017717445 -0.0009875792 0.004838842 -0.007636861 0.011540576 0.0132452175 0.022194799
0.012814448 0.032708637 -0.006124209 -0.010900606 0.014888795 -0.00077712856 -0.0023289626 0.0044385795

weight f4 [1, 32, 5, 5]
00000000: 9412 88bd 7d29 323d a1ce 8cbd 1e79 93bd
00000010: 79c4 9fbc 772f ac3c df03 943d 1dda 813b
00000020: 5270 88bb 657a 893d b642 54bc b318 ed3c
00000030: c622 893d be3c 19bd 9584 aa3d b8d3 7e3d
00000040: 5ac2 893d 5438 28bd 488e 12bd 3266 0cbd
00000050: 82b8 1e3d c3b0 a83d 4f1b 143d 0e27 5fbd
00000060: b8f1 6d3d d744 f03c 6f94 893d 3fe9 80bd
00000070: 5428 2fbd 53e1 4bbd f660 2d3d 0ea7 693d
00000080: 196e 4fbd 0b1c b6bd 57ff 6e3d dbd1 193d
00000090: f3cb 943d 756f 8b3d 8d4a 993d 4a31 66bd
000000a0: 2213 5f3c adaf a73d 1b7c 313c 564b a83d
000000b0: d46f 9b3d bbd8 873d 8bdc 84bd 63d8 e9bc
000000c0: 2ed8 463d 0a62 ef3b fd29 88bd 51a3 7cbc
000000d0: f9d3 50bd aaf6 a93d fb9b 22bc bd0d 37bd
000000e0: 1636 0dbd aaf3 18bc 1e73 b43b d502 ddba
000000f0: a735 a93d 392c 663d a65a b6bc 914c 9f3d
00000100: b420 15bd c7c2 20bd 1f8d b63c dbfc 6d3d
00000110: 1334 a83d 42fc 33bd b4e7 7b3c 3c4b 47bd
00000120: 5301 993b 0db9 223d 46ca 58bc d654 fa3c
00000130: 7a5b 9c3d 7277 89bd de03 75bd 16eb 2ebd
00000140: 666d 81bd 0e41 8b3d 0ba7 8cbd 1f40 6cbd
00000150: d203 88bd d918 d1ba 4b5a a13d ec1b 963d
00000160: 590d a53d cbfb c9bc c4e6 3e3d 93ef 063d
00000170: c454 823c 2d96 1f3d 40f3 75bd 0c68 a83d
00000180: a2db 5fbc cc88 983d 9a59 533d bfa0 debb
00000190: a426 843d 6cd3 6ebd aa53 86bd 58c7 893d
000001a0: 18f3 0b3b 1b3b bc3c d120 3ebc 546d 88bd
000001b0: e2e4 943c 6432 343c a678 ef3c c64c 1e3d
000001c0: 87d9 a03d 1196 323d 7f2e 9f3d 942a 2d3d
000001d0: f287 833d 4765 04bd 24e3 123d 5c54 5cbd
000001e0: 6f9c fd3c 54f8 a33d d7f5 863c a45f aabd
000001f0: d83d 223d d16d b6bc f045 a83c 6f2e 203d
00000200: ec1d 9abd e549 53bd e1a0 4a3c 7ca9 8abd
00000210: 2361 893d 2257 8fbc 11bd 1e3d 1fd9 8dbd
00000220: d4b2 9cbd 14b8 a73c 185d 813d d1cf 05bc
00000230: d997 c0bb bb8b 83bd 3cde 4abd d122 9f3d
00000240: 938b 9c3d c3b5 973d 87ef c43d f4cb 133d
00000250: 1fd4 82bd 39c2 b23d 5159 123b 74a9 723d
00000260: d8aa 28bd aa57 873a 03cf 74bc 4a00 73ba
00000270: cdf1 ae3d cc06 753d 6929 9abd 5c50 a6bd
00000280: 9baf 6fbd b382 963c f331 58bd 8239 aa3d
00000290: 82b1 a0bd a82f 0fbd 4929 75bd 3929 703d
000002a0: 9f62 1bbd b1fb 913d 3fed 613d f150 16bd
000002b0: eaaf 22bd 4d85 49bd 0374 7d3d 8cdd 243d
000002c0: 8933 6a3d 6869 68bd 4bdd cc3c 482e f3bb
000002d0: b9f5 21bd 1295 a0bd a06a 6f3d 4a3b 7bbc
000002e0: aede 55bd 1602 153d b254 f4bc a640 80bd
000002f0: b8e3 133b 74b9 a13d 6254 58bd 71e3 fe3c
00000300: b178 81bd 1565 8fbc 3fee 37bd fa3d 7dbd
00000310: 66da d9bc 5148 7abd ad39 213d 8467 5b3d
00000320: c952 febb 498e 583d 995f 73bd 8138 6cbd
00000330: cb3e 4e3d 4828 033d 0bd1 b83d be84 d33c
00000340: 69e3 273d d2fa 733d 9598 8fbd 61f5 af3d
00000350: 7b7c 9cbd bd6f fc3c 06fe 7ebb ea93 5fbd
00000360: ddfe 9b3c 0f53 583d 8b55 723d 338c 0a3d
00000370: 2086 6f3c 4e18 eb3c 8a96 0cbd b453 f2bc
00000380: 9497 a33d 3af0 34bc b097 883d d7db fabc
00000390: ac10 2b3d b520 293d ca13 1f3d 4c87 973d
000003a0: bbef a0bc 0de7 373d b669 38bc 4f81 313d
000003b0: a79f a53d 64b8 2e3d aa5f 493d 7bee 1dbc
000003c0: 9bb1 f43c 2092 c43c ba4e 843d aead 8a3c
000003d0: af2a 7abd b3c3 10bd 14d8 52bd ceaf a6bd
000003e0: 1086 413b 6000 cc3b cd5b 3f3d 69c9 b1bc
000003f0: aeb6 6dbc 0ac4 843d 3451 4f3d ab47 86bd
-0.066441685 0.043496598 -0.06875349 -0.07200836 -0.019502865 0.021018727 0.07227301 0.0039627687
-0.0041637802 0.06712798 -0.012955358 0.028942442 0.06696086 -0.037411444 0.08326069 0.06221363
0.06726523 -0.041069344 -0.03578022 -0.03427715 0.03875018 0.082368396 0.036158856 -0.054480605
0.05809185 0.0293297 0.067177646 -0.06294488 -0.04276307 -0.049775433 0.042328797 0.05704408
-0.050642107 -0.088920675 0.05834898 0.03755365 0.07265463 0.06808368 0.074849226 -0.05619935
0.013615401 0.08187804 0.010832812 0.08217494 0.07589689 0.06633135 -0.06487378 -0.028545564
0.04854601 0.0073053883 -0.06648634 -0.015419797 -0.050983403 0.082990006 -0.009924884 -0.044690836
-0.03447541 -0.009335438 0.005506887 -0.0016861806 0.082621865 0.056194518 -0.022260021 0.07778276
-0.03640814 -0.039248254 0.022284089 0.05810247 0.08213057 -0.043941744 0.015375067 -0.048655733
0.0046693473 0.03972726 -0.0132318195 0.030558031 0.07634635 -0.067122355 -0.05981814 -0.042704664
-0.06319694 0.067995176 -0.068677984 -0.05767834 -0.06641354 -0.001595284 0.0787855 0.073295444
0.080591865 -0.024656197 0.046606794 0.03294332 0.01590956 0.03896158 -0.060046434 0.0822297
-0.013663204 0.07447967 0.051599123 -0.006794065 0.064526826 -0.058307096 -0.065589264 0.06727475
0.0021354612 0.022977402 -0.011604504 -0.06661478 0.018175546 0.010998342 0.029232334 0.038647436
0.0785399 0.043600146 0.0777254 0.042276934 0.06422414 -0.032323148 0.03586115 -0.05379139
0.030958382 0.08006349 0.016474647 -0.08319023 0.03960976 -0.022269161 0.020541161 0.039106783
-0.075252384 -0.051584143 0.012367458 -0.06770608 0.067079805 -0.017497603 0.038754527 -0.06926178
-0.07651296 0.020473517 0.06316584 -0.008167223 -0.0058774767 -0.06423136 -0.049528345 0.077703126
0.07643809 0.07407715 0.09615999 0.036083177 -0.06388115 0.08728451 0.0022331069 0.059243634
-0.041178554 0.0010325809 -0.014941934 -0.00092697574 0.085422136 0.059820935 -0.075274296 -0.08120796
-0.05851708 0.01837287 -0.05278201 0.0831175 -0.07846357 -0.034957558 -0.059853826 0.058633063
-0.03793585 0.071280845 0.055157896 -0.036698285 -0.039718546 -0.04919939 0.061878216 0.040250346
0.057178054 -0.05674115 0.025007864 -0.0074212886 -0.03954098 -0.07840933 0.058451295 -0.01533396
-0.052214317 0.036378942 -0.029825542 -0.06262331 0.002256615 0.078967005 -0.05281485 0.031114312
-0.06321848 -0.017504254 -0.044904944 -0.061826684 -0.026593398 -0.061104123 0.039361645 0.053565517
-0.0077613336 0.05287007 -0.05941734 -0.057671074 0.050352853 0.032020837 0.09024247 0.025820132
0.04098836 0.059565373 -0.070115246 0.08591724 -0.0764093 0.030815 -0.0038908734 -0.05458442
0.019042427 0.052813586 0.05916361 0.03382511 0.01461938 0.028698113 -0.034323253 -0.029580928
0.079878956 -0.011043603 0.06669557 -0.030622406 0.041763946 0.041290957 0.03883723 0.07398853
-0.019645562 0.04489808 -0.011255672 0.04333621 0.08087092 0.042656317 0.049163498 -0.009639378
0.029869845 0.02399546 0.064603284 0.01692852 -0.061075862 -0.035342883 -0.0514756 -0.08139001
0.002952937 0.0062256306 0.046718407 -0.021702485 -0.014508886 0.06482704 0.05061455 -0.06556638
