modeldata/model_114_epoch.pth (torch_old, 43109 bytes, 5 tensors)

weight f4 [64, 1, 9, 9]
-0.006497906 0.0085446425 -0.03084162 0.030022647 -0.019119993 0.021038096 -0.041055825 0.0021332507
0.01523101 -0.011065825 0.020809555 -0.0041882694 0.03596415 0.0341749 -0.0018418465 0.036829993
-0.002073079 0.010003542 0.00076429255 0.0069552977 0.036878675 -0.004049166 0.04210098 0.0057346853
0.024273392 -0.037286423 -0.0053513795 -0.008940145 0.006130816 -0.018257108 -0.01978678 -0.03737217
-0.015102805 0.05217441 0.017143419 -0.0055187135 0.009248749 -0.008487126 0.008267932 -0.07721184
-0.11265739 -0.02611736 0.00029220077 -0.016657282 -0.023255084 0.001983539 0.040487994 0.01865629
-0.040934484 -0.09095626 -0.0017461955 0.010890614 0.013262372 0.013400886 -0.001063845 -0.01945702
0.0069077793 0.030631026 -0.041961096 -0.011011801 0.049002558 0.0271153 0.017477967 0.013055683
-0.013470009 -0.009769328 0.025633208 -0.00747601 -0.0078024752 -0.0029105355 -0.0034250878 -0.002799305
-0.010250041 -0.016105928 -0.0025659122 0.027487941 -0.0074500535 -0.008728951 -0.028156215 0.0076885377
0.014267198 0.0060351123 0.0009711929 0.014205216 -0.033658206 0.018530194 -0.032879118 -0.0045500062
-0.01959337 -0.029944343 -0.028354172 -0.013237383 -0.016522987 0.023019155 -0.006516767 -0.0316789
-0.04374496 0.012278455 0.011713016 -0.021893634 0.009596797 -0.0009492028 -0.014238363 0.05095088
0.021618087 0.004841932 -0.002111087 -0.0038447068 -0.04133017 0.020609053 0.04226052 0.0037335218
0.10064599 0.008557125 0.0036471067 0.011224754 -0.0063777794 -0.017241945 0.0070660883 0.021587653
-0.038213447 0.010679973 -0.01774062 -0.052713826 -0.024838407 0.017241742 -0.005579951 -0.00956336
-0.036681473 -0.010172927 -0.02778352 -0.018425893 0.020794973 0.008611275 -0.0092150485 0.01890454
0.018477514 0.020315634 -0.016869074 0.024777278 -0.018298734 -0.004413715 0.0015128431 -0.008016777
-0.024326162 0.020153541 0.018116418 -0.012948881 0.041122478 -0.006001694 -0.025676947 -0.010378705
0.0062980093 -0.023657707 -0.017485546 -0.010321 -0.015394203 0.043377567 -0.009325394 -0.028563516
0.01354086 0.006808754 0.026039321 -0.011101543 -0.014269231 -0.03431024 -0.024262754 -0.02089668
-0.031672217 -0.027548421 0.042128634 -0.0013896849 0.017709902 0.020711336 -0.003922247 -0.0133531075
-0.012083951 -0.01930643 -0.033497438 -0.018917909 -0.010081178 0.004039531 -0.0049146325 0.004792793
-0.0138314245 0.02598939 0.040149227 0.035097755 -0.0027383002 0.00030824175 -0.009044344 0.024542961
-0.0053440314 0.03420209 0.045478035 0.02648501 0.040136013 0.0089388285 0.025798352 -0.019742953
-0.035898857 -0.0173148 0.033893112 0.047438513 0.027903583 -0.0012814695 0.023694292 0.034422494
0.0010106887 0.018038671 -0.013789042 0.030121721 0.0069576623 0.024196723 0.031844784 -0.0031407715
0.0048084892 -0.012336125 0.004154361 -0.022644797 0.025833009 0.02377099 0.01971545 -0.009781602
0.03447991 -0.029644279 0.0068767625 -0.024975924 0.040395897 -0.006806547 0.027089188 0.007677828
0.008819056 -0.01299105 -0.015284891 -0.014960203 0.016096579 0.0017783397 0.03233621 0.027280217
-0.009330264 0.0016020121 -0.02840674 0.0035686812 -0.00852062 -0.011792238 0.0029518434 0.025165567
0.0123106865 -0.009745446 0.011813504 0.010941641 0.007814863 0.010639937 0.027364885 -0.051851507
00000000: 63ec d4bb d4fe 0b3c 91a7 fcbc 0ef2 f53c
00000010: 88a1 9cbc 1658 ac3c 272a 28bd 02ce 0b3b
00000020: 7c8b 793c 6f4d 35bc cd78 aa3c c03d 89bb
00000030: 254f 133d fbfa 0b3d 1d6a f1ba 0cdb 163d
00000040: 7fdc 07bb e5e5 233c ce5a 483a 44e9 e33b
00000050: 180e 173d deae 84bb 1472 2c3d 07ea bb3b
00000060: fed8 c63c a6b9 18bd a05a afbb b079 12bc
00000070: 03e5 c83b ee8f 95bc e317 a2bc 8f13 19bd
00000080: c171 77bc d6b4 553d 5b70 8c3c 53d6 b4bb
00000090: 1188 173c 960d 0bbc 3876 073c 3e21 9ebd
000000a0: ebb8 e6bd 13f4 d5bc 8632 9939 da74 88bc
000000b0: 7281 bebc 43fe 013b bdd6 253d 13d5 983c
000000c0: ebaa 27bd 4747 babd 99e0 e4ba 8c6e 323c
000000d0: 6c4a 593c 648f 5b3c b770 8bba 5464 9fbc
000000e0: a75a e23b ebed fa3c 66df 2bbd d76a 34bc
000000f0: e8b6 483d e820 de3c f42d 8f3c 81e7 553c
00000100: 50b1 5cbc 880f 20bc bcfc d13c 51f9 f4bb
00000110: e8ab ffbb afbe 3ebb 7077 60bb 8b74 37bb
00000120: caef 27bc 94f0 83bc dd28 28bb 642e e13c
00000130: 941f f4bb e003 0fbc dda7 e6bc 21f0 fb3b
00000140: f7c0 693c 31c2 c53b a797 7e3a ffbc 683c
00000150: 30dd 09bd a2cc 973c 41ac 06bd 3818 95bb
00000160: 4682 a0bc d74d f5bc 0247 e8bc 9ce1 58bc
00000170: 375b 87bc ab92 bc3c 9b8a d5bb bcc1 01bd
00000180: ea2d 33bd 932b 493c f3e7 3f3c 475a b3bc
00000190: e23b 1d3c ecd3 78ba 0648 69bc dfb1 503d
000001a0: 6a18 b13c 12a9 9e3b 2a5a 0abb 7af7 7bbb
000001b0: d349 29bd 51d4 a83c 5e19 2d3d 1aae 743b
000001c0: 7c1f ce3d 2f33 0c3c 4c04 6f3b 08e8 373c
000001d0: b1fc d0bb fb3e 8dbc a58a e73b 97d8 b03c
000001e0: b485 1cbd 0efb 2e3c c754 91bc 74ea 57bd
000001f0: ea79 cbbc 8e3e 8d3c 06d8 b6bb a4af 1cbc
00000200: 503f 16bd 59ac 26bc 449a e3bc e6f1 96bc
00000210: 385a aa3c 4e16 0d3c b7fa 16bc b2dd 9a3c
00000220: 285e 973c f96c a63c 0331 8abc b8f9 ca3c
00000230: 3ae7 95bc eda0 90bb 974a c63a cd58 03bc
00000240: a947 c7bc 0a19 a53c e268 943c 8b27 54bc
00000250: 0b70 283d dca9 c4bb 7658 d2bc 720b 2abc
00000260: 885f ce3b cfcd c1bc d93d 8fbc 6919 29bc
00000270: f837 7cbc adac 313d 8ac9 18bc 09fe e9bc
00000280: 7cda 5d3c f81b df3b 6a50 d53c 3fe3 35bc
00000290: 7ec9 69bc e588 0cbd afc2 c6bc 842f abbc
000002a0: baba 01bd 3aad e1bc 138f 2c3d 1626 b6ba
000002b0: 5b14 913c d2aa a93c 3186 80bb fec6 5abc
000002c0: c4fb 45bc 8528 9ebc 9c34 09bd bbf9 9abc
000002d0: 862b 25bc 0b5e 843b ed0a a1bb dd0c 9d3b
000002e0: 339d 62bc b4e7 d43c 8473 243d aac2 0f3d
000002f0: 0e75 33bb 829b a139 ba2e 14bc 520e c93c
00000300: fc1c afbb 7e17 0c3d 2d47 3a3d 17f7 d83c
00000310: a965 243d 2a74 123c 1157 d33c f9bb a1bc
00000320: ae0a 13bd c4d7 8dbc 81d3 0a3d e34e 423d
00000330: 0e96 e43c fbf6 a7ba 881a c23c 9afe 0c3d
00000340: 1679 843a d6c5 933c 6feb 61bc d4c1 f63c
00000350: 1afd e33b 3538 c63c ad6f 023d 67d5 4dbb
00000360: 8890 9d3b 751d 4abc 4e21 883b 9581 b9bc
00000370: bf9f d33c 61bb c23c 4c82 a13c 0343 20bc
00000380: ce3a 0d3d 8fd8 f2bc 7756 e13b 4f9a ccbc
00000390: 2b76 253d 7409 dfbb 25ea dd3c 4a96 fb3b
000003a0: cd7d 103c 6ad8 54bc 7b6d 7abc a41b 75bc
000003b0: f9dc 833c 2e17 e93a f972 043d c37a df3c
000003c0: f7dd 18bc 9bfa d13a 40b5 e8bc 89e0 693b
000003d0: 129a 0bbc 3b34 41bc b773 413b 0528 ce3c
000003e0: c3b2 493c 5dab 1fbc 6d8d 413c 9244 333c
000003f0: e909 003c 2153 2e3c 532c e03c 3f62 54bd

bias f4 [64]
0.024103621 -0.009648684 0.004717004 0.015028206 0.008873366 0.00017650111 0.016534258 0.014473809
0.02223458 -0.0032724827 0.005972681 0.04068292 0.005668127 0.00765663 0.002919275 0.0071284412
0.005907096 -0.00555964 0.013265086 6.1124454e-05 -0.01036702 -0.0541929 -0.0019453834 -0.0007713353
0.0034635067 0.0159027 0.0016460716 -0.0049190028 0.019175615 -0.0035217688 -0.009515211 0.0054855444
0.004210725 0.013193029 0.013169866 0.010006427 0.005355052 0.010264719 0.031484716 0.0033328487
0.017767942 0.003334683 0.0012993347 -0.017212078 0.010938181 -0.0011156013 0.021019768 -0.008278586
-0.01808655 0.0024170931 0.00960689 -0.0048458483 0.013788033 -0.021768257 0.019458106 0.015080748
0.028021509 0.0032517212 0.0038866093 0.0037098264 -0.01375358 -0.008818429 -0.002516584 0.025485901
00000000: f574 c53c 8415 1ebc 1991 9a3b dd38 763c
00000010: 9861 113c 2813 3939 da72 873c 8e23 6d3c
00000020: 4b25 b63c 2677 56bb 7bb6 c33b 22a3 263d
00000030: b2bb b93b 78e4 fa3b 4f51 3f3b b395 e93b
00000040: 5090 c13b a42d b6bb ce55 593c f12f 8038
00000050: 6fda 29bc 60f9 5dbd 3cfc feba 7033 4aba
00000060: 00fc 623b 6146 823c ffc0 d73a 962f a1bb
00000070: 2e16 9d3c 7acd 66bb b0e5 1bbc 15c0 b33b
00000080: 1ffa 893b 9327 583c 6cc6 573c fff1 233c
00000090: 6f79 af3b 5a2d 283c 1ef6 003d ec6b 5a3b
000000a0: 138e 913c b28a 5a3b 704e aa3a 5800 8dbc
000000b0: 0e36 333c 5e39 92ba a631 ac3c e8a2 07bc
000000c0: 3f2a 94bc 1868 1e3b 3866 1d3c ecc9 9ebb
000000d0: 34e7 613c 5853 b2bc 9b66 9f3c 3e15 773c
000000e0: 5d8d e53c d41a 553b 7cb6 7e3b 8f20 733b
000000f0: b256 61bc 2c7b 10bc 46ed 24bb cfc7 d03c

weight f4 [32, 64, 1, 1]
0.05591527 0.2552655 -0.1387674 -0.032532293 -0.18006633 0.11873647 -0.2773842 0.16297366
-0.16109551 0.17334661 -0.096286006 0.051473793 -0.09176307 -0.13482544 0.38267383 0.21461497
0.53458625 0.00022368159 -0.12662593 -0.09437945 0.23600897 -0.17027341 0.021494087 0.38772336
-0.18698612 -0.14464736 -0.2383968 0.20521091 0.31263557 0.06307844 -0.0026137452 0.024261208
-0.042404413 0.10049817 -0.12408591 -0.04867859 -0.19674557 0.19928947 0.17364043 -0.17698412
0.04587968 0.028040316 0.031133788 -0.2628339 0.095694765 -0.23979588 0.18139218 -0.18114269
0.08302521 0.33910978 0.033144664 -0.05895251 0.22575079 0.25699395 0.060881715 -0.27328008
-0.18579601 -0.09578195 0.13296929 -0.10136505 -0.19473901 -0.35991728 0.18610892 -0.39006954
-0.2151105 -0.02386458 0.005421519 0.24436133 -0.014950805 -0.21471407 0.24000245 0.25091165
0.11525501 0.060057703 -0.14367262 -0.06008218 -0.23601466 0.239983 0.038062993 -0.026250951
-0.31556144 -0.043398213 -0.010820236 0.16853735 -0.009913788 0.2139623 0.06090037 0.2568446
0.04758277 0.15873213 0.05994081 -0.19402455 0.28381792 0.2625077 -0.01736115 -0.16944988
-0.14723995 0.25762197 -0.048716493 0.036972705 -0.057484645 -0.047914322 -0.0074217496 -0.12592924
0.02003994 0.2305506 -0.030946 -0.2870209 -0.21403019 0.39735764 0.32046762 -0.15536079
0.055173438 0.23060046 -0.231216 -0.1602377 -0.21087497 0.25630862 0.05464131 -0.23321211
0.076801695 0.018029677 -0.06492563 0.07181784 -0.33552063 0.17100592 0.2550319 -0.23653573
-0.100098334 0.06692271 -0.14964755 0.28003684 0.2891656 0.2032632 0.1668186 0.05611337
0.24905416 -0.14905308 -0.18641268 0.013156473 0.012547504 0.2688952 -0.15405905 0.18219006
-0.5640374 -0.1933231 0.15213308 0.098973945 0.05603202 0.24603832 0.019487804 -0.100276195
-0.07283961 -0.16571322 -0.0023797003 -0.14247502 0.051198915 -0.6803803 0.018538292 -0.084364876
0.14296785 0.23117454 -0.0193635 0.16984703 -0.24895492 0.23890814 -0.060333747 -0.03517665
0.026332106 -0.15230317 0.06487911 0.1970457 -0.43673608 -0.029677505 0.10028992 -0.118368775
-0.28503656 -0.24485278 0.25762987 -0.029811315 0.191667 0.28639257 0.1419336 -0.18492839
-0.21810743 -0.16144806 0.2482701 0.014504674 -0.015286596 0.05166632 0.21171407 0.23935242
-0.16871278 -0.13325298 0.11758164 0.30663642 0.25523776 -0.12699126 -0.20078146 0.13732852
-0.27529815 -0.16637298 0.074378006 -0.103820905 0.16572839 -0.09120872 0.2129712 0.13962792
-0.04666146 -0.028977808 0.24222235 -0.16964047 -0.0040533715 0.12305764 0.25087288 0.3862928
0.17414682 0.2668155 -0.20089982 0.017139975 0.16514456 -0.25061873 -0.13857096 -0.29564926
-0.05990121 -0.060391936 0.24473895 -0.08398957 0.15461156 0.085881 -0.42372507 0.22548974
-0.33750132 -0.12593378 0.14603065 0.20472698 0.1613149 0.23221807 0.04475921 -0.20777465
-0.2891357 -0.05895647 -0.04108572 -0.23977889 0.11670576 -0.11642225 -0.13320974 -0.046585917
0.10919297 0.2699825 -0.0132122645 0.084786765 -0.10160783 0.29035872 -0.13466483 0.07332927
00000000: 6907 653d 29b2 823e 0b19 0ebe 9540 05bd
00000010: 4f63 38be 1b2c f33d 4d05 8ebe 91e2 263e
00000020: 39f6 24be c681 313e 9931 c5bd 2fd6 523d
00000030: 47ee bbbd ae0f 0abe d3ed c33e 07c4 5b3e
00000040: a5da 083f 128c 6a39 3aaa 01be 034a c1bd
00000050: 56ac 713e 275c 2ebe 5e14 b03c ad83 c63e
00000060: 4a79 3fbe 701e 14be 4a1e 74be cf22 523e
00000070: c511 a03e 452f 813d 5e4b 2bbb 71bf c63c
00000080: 40b0 2dbd fcd1 cd3d c120 febd 3463 47bd
00000090: ac77 49be 8a12 4c3e ccce 313e 533b 35be
000000a0: 55ec 3b3d ceb4 e53c 490c ff3c 2a92 86be
000000b0: 9efb c33d 0d8d 75be dfbe 393e 787d 39be
000000c0: 1f09 aa3d cc9f ad3e b3c2 073d 3078 71bd
000000d0: 372b 673e b694 833e 1b5f 793d 5eeb 8bbe
000000e0: 4f41 3ebe 5429 c4bd 1a29 083e 7b98 cfbd
000000f0: aa69 47be 1447 b8be 5693 3e3e 32b7 c7be
00000100: ed45 5cbe a77f c3bc ffa6 b13b db39 7a3e
00000110: 39f4 74bc 01de 5bbe 34c3 753e 7e77 803e
00000120: d20a ec3d 11ff 753d ea1e 13be bb18 76bd
00000130: d4ad 71be 1bbe 753e f1e7 1b3d 3c0c d7bc
00000140: 4591 a1be 53c2 31bd 5c47 31bc 0e95 2c3e
00000150: 716d 22bc ef18 5b3e ab72 793d 2381 833e
00000160: 27e6 423d ad8a 223e 7f84 753d 5fae 46be
00000170: 9550 913e 6967 863e f838 8ebc 4584 2dbe
00000180: 12c6 16be 07e7 833e f28a 47bd b170 173d
00000190: 0575 6bbd cf41 44bd 2632 f3bb 98f3 00be
000001a0: cd2a a43c 7515 6c3e 7782 fdbc 67f4 92be
000001b0: bb2a 5bbe 7672 cb3e 5514 a43e e616 1fbe
000001c0: 8bfd 613d 8722 6c3e e3c3 6cbe 5a15 24be
000001d0: 9cef 57be e23a 833e 91cf 5f3d 28cf 6ebe
000001e0: 354a 9d3d f9b2 933c bbf7 84bd 3b15 933d
000001f0: 5cc9 abbe 2d1c 2f3e 8b93 823e 6c36 72be
00000200: 5b00 cdbd c60e 893d 353d 19be fd60 8f3e
00000210: 830d 943e 3a24 503e 7fd2 2a3e 22d7 653d
00000220: 0e08 7f3e 5fa1 18be f7e2 3ebe 3f8e 573c
00000230: 0c94 4d3c a2ac 893e a8c1 1dbe 0890 3a3e
00000240: c164 10bf 7ef6 45be c6c8 1b3e dab2 ca3d
00000250: d581 653d 78f1 7b3e e3a4 9f3c 9b5d cdbd
00000260: ef2c 95bd bab0 29be bff4 1bbb f9e4 11be
00000270: f4b5 513d 672d 2ebf 9edd 973c 7ec7 acbd
00000280: 2a66 123e 05b9 6c3e 34a0 9ebc 61ec 2d3e
00000290: 0aee 7ebe 56a4 743e 8520 77bd 6415 10bd
000002a0: 6eb6 d73c 5df5 1bbe 57df 843d 59c6 493e
000002b0: df9b dfbe 3d1e f3bc cd64 cd3d 546b f2bd
000002c0: 50f0 91be b0ba 7abe 10e8 833e dc36 f4bc
000002d0: 5b44 443e 0ca2 923e 0b57 113e de5d 3dbe
000002e0: 8e57 5fbe a452 25be 843a 7e3e 03a5 6d3c
000002f0: a174 7abc 10a0 533d 93cb 583e cd18 753e
00000300: 0bc3 2cbe 7873 08be a5ce f03d 73ff 9c3e
00000310: 86ae 823e ff09 02be a899 4dbe d99f 0c3e
00000320: e1f3 8cbe ae5d 2abe 7f53 983d 0ea0 d4bd
00000330: b4b4 293e a3cb babd 1f15 5a3e 9ffa 0e3e
00000340: 1620 3fbd de62 edbc 2309 783e 3bb6 2dbe
00000350: 25d2 84bb a505 fc3d 6972 803e 2bc8 c53e
00000360: 8b53 323e 0b9c 883e afb8 4dbe 2269 8c3c
00000370: a81b 293e 1951 80be 8ce5 0dbe 575f 97be
00000380: f95a 75bd 895d 77bd d99c 7a3e b902 acbd
00000390: 7e52 1e3e 61e2 af3d 7ef2 d8be c8e6 663e
000003a0: f9cc acbe c9f4 00be 0f89 153e f3a3 513e
000003b0: bc2f 253e 93ca 6d3e 6f55 373d e1c2 54be
000003c0: 9809 94be 577c 71bd 8049 28bd 9988 75be
000003d0: 6e03 ef3d ca6e eebd 2268 08be e0d0 3ebd
000003e0: 90a0 df3d 253b 8a3e 4178 58bc afa4 ad3d
000003f0: c417 d0bd e6a9 943e 94e5 09be a82d 963d

bias f4 [32]
5.2702755e-05 0.008467359 -0.0001498675 0.013505306 0.0037167945 0.025106695 -0.0069468627 -0.0010030323
0.021316638 0.0045575434 -0.0006099815 0.01781342 -0.004187156 0.0027482098 0.0060046157 -0.0013703835
-0.01209263 0.0047209845 -0.002771193 0.0040375483 -0.008118377 -0.0038755876 0.019012257 -0.005949348
0.0143714035 0.030512732 -0.0040673497 -0.010900606 0.013458383 -0.00018257656 -0.002918706 0.006649437
00000000: 270d 5d38 adba 0a3c c025 1db9 5c45 5d3c
00000010: 7795 733b 8eac cd3c 82a2 e3bb 2e78 83ba
00000020: 3ba0 ae3c 7257 953b 2ae7 1fba 73ed 913c
00000030: 6934 89bb 4f1b 343b 5ec2 c43b 719e b3ba
00000040: 2b20 46bc 7db2 9a3b e79c 35bb 694d 843b
00000050: f102 05bc 92fd 7dbb 98bf 9b3c c0f2 c2bb
00000060: 0976 6b3c d6f5 f93c 6747 85bb 7598 32bc
00000070: 8d80 5c3c 0672 3fb9 c347 3fbb 85e3 d93b

weight f4 [1, 32, 5, 5]
-0.06634766 0.04426445 -0.06889485 -0.071515545 -0.019493151 0.02054399 0.07214313 0.0040998273
-0.004010327 0.06636975 -0.012471968 0.027861949 0.06694821 -0.03714238 0.08283453 0.06347237
0.06673693 -0.039889332 -0.035224557 -0.035231628 0.03962983 0.081640705 0.036860146 -0.054831147
0.05686721 0.030118432 0.06742204 -0.06286449 -0.04256239 -0.050083302 0.043251716 0.057317257
-0.05023335 -0.088413246 0.05809239 0.03850287 0.07245078 0.06779865 0.07511222 -0.05608404
0.014035219 0.081730396 0.010541854 0.08246696 0.07578235 0.06652321 -0.06471837 -0.028013913
0.048977185 0.007444259 -0.06735359 -0.014850921 -0.05021014 0.082641855 -0.008726967 -0.044234704
-0.03274779 -0.00858973 0.0055148466 -0.0011991119 0.082740836 0.056525145 -0.023127072 0.078401856
-0.036890406 -0.038856566 0.023144914 0.057759553 0.08257444 -0.044449154 0.016540589 -0.04621472
0.0058233356 0.04073528 -0.012831831 0.030705243 0.07597815 -0.067203924 -0.05996057 -0.04300434
-0.063020915 0.068096474 -0.06865752 -0.05761662 -0.06628194 -0.0013178019 0.07902203 0.073004305
0.08053474 -0.024595024 0.046566658 0.033059057 0.01571443 0.03902894 -0.060017724 0.08229577
-0.013458973 0.07429873 0.051592465 -0.0064772153 0.06468438 -0.05823294 -0.065344416 0.06747047
0.0021575037 0.023012817 -0.011578129 -0.06634276 0.018268613 0.010971728 0.029342234 0.038578954
0.07836047 0.043641273 0.07781471 0.04235696 0.06409025 -0.03232115 0.036048375 -0.054015744
0.030895056 0.079869054 0.016747713 -0.08315509 0.039226346 -0.022083757 0.020389766 0.0387302
-0.07544419 -0.051443726 0.012051674 -0.06778036 0.067028865 -0.018198628 0.039958328 -0.069291286
-0.07602932 0.020326383 0.06229943 -0.0072136302 -0.0063166516 -0.06480286 -0.049197927 0.07779501
0.0764756 0.07417584 0.094851166 0.036392003 -0.063886456 0.08701592 0.0019677167 0.05942663
-0.041119047 0.00038810633 -0.015922524 -0.0006034606 0.08583346 0.059332736 -0.07604597 -0.081485935
-0.058293927 0.01864273 -0.053528775 0.082709044 -0.07825212 -0.03476934 -0.059721548 0.05824671
-0.03847082 0.07131303 0.054890897 -0.037092168 -0.03981877 -0.049897656 0.061412938 0.040168017
0.057274375 -0.056939837 0.025188163 -0.007481942 -0.039545745 -0.07861423 0.058419123 -0.015227892
-0.052478954 0.035991263 -0.030374948 -0.06260705 0.0020595584 0.07871552 -0.052934155 0.030896649
-0.06321525 -0.017494963 -0.044964872 -0.06177774 -0.026644353 -0.061036833 0.03939445 0.053344484
-0.0019638338 0.053817302 -0.054599464 -0.052256815 0.048543543 0.03272729 0.085390374 0.030554634
0.04584424 0.05218352 -0.06772584 0.08374113 -0.068960935 0.039620657 -0.0079879835 -0.03804068
0.013296982 0.056733053 0.06814225 0.03402566 0.024047099 0.02810686 -0.037768863 -0.027206989
0.07833572 -0.011066118 0.06659576 -0.030518098 0.041741148 0.041072242 0.039181214 0.074119575
-0.019450622 0.045027293 -0.011507063 0.043586075 0.080851346 0.04255799 0.04930017 -0.009757502
0.029820539 0.024064 0.06463313 0.016929856 -0.061329577 -0.035258565 -0.05120802 -0.08134768
0.0028209283 0.0061792126 0.04612222 -0.021251628 -0.01429766 0.064345725 0.05086192 -0.066073954
00000000: 48e1 87bd a44e 353d be18 8dbd be76 92bd
00000010: 1ab0 9fbc df4b a83c c7bf 933d d857 863b
00000020: 1069 83bb ddec 873d 3a57 4cbc be3e e43c
00000030: 251c 893d 9c22 18bd 26a5 a93d cdfd 813d
00000040: 5fad 883d ff62 23bd a047 10bd 0a4f 10bd
00000050: e352 223d 3e33 a73d aafa 163d a096 60bd
00000060: 97ed 683d eeba f63c 9114 8a3d 19bf 80bd
00000070: e755 2ebd 2624 4dbd b628 313d 80c5 6a3d
00000080: 7cc1 4dbd 0112 b5bd 49f2 6d3d 2fb5 1d3d
00000090: 1361 943d 05da 8a3d 70d4 993d 61b8 65bd
000000a0: faf3 653c 4462 a73d beb7 2c3c 70e4 a83d
000000b0: c733 9b3d 523d 883d 118b 84bd 6f7d e5bc
000000c0: 4d9c 483d f8ee f33b aef0 89bd 4751 73bc
000000d0: 26a9 4dbd 2240 a93d 8dfb 0ebc 732f 35bd
000000e0: 8c22 06bd f0bb 0cbc e3b5 b43b 852b 9dba
000000f0: 0774 a93d e986 673d fc74 bdbc 2791 a03d
00000100: 651a 17bd 1028 1fbd 679a bd3c 4895 6c3d
00000110: ca1c a93d 5110 36bd 2180 873c a54b 3dbd
00000120: aed1 be3b 09da 263d 9a3c 52bc 9089 fb3c
00000130: 6f9a 9b3d 36a2 89bd 3799 75bd 5225 30bd
00000140: 1c11 81bd 2a76 8b3d 509c 8cbd 68ff 6bbd
00000150: d3be 87bd 18ba acba 4dd6 a13d 4883 953d
00000160: 66ef a43d 817b c9bc aebc 3e3d ef68 073d
00000170: 8cbb 803c cfdc 1f3d 25d5 75bd af8a a83d
00000180: 0683 5cbc ef29 983d 9f52 533d d23e d4bb
00000190: 3f79 843d aa85 6ebd 4bd3 85bd f52d 8a3d
000001a0: e864 0d3b 6085 bc3c 31b2 3dbc b7de 87bd
000001b0: 0fa8 953c c3c2 333c 205f f03c f704 1e3d
000001c0: 747b a03d 31c1 323d 525d 9f3d 7e7e 2d3d
000001d0: c041 833d 2f63 04bd 76a7 133d 9d3f 5dbd
000001e0: a117 fd3c 6392 a33d 8032 893c 374d aabd
000001f0: ceab 203d ffe8 b4bc 7008 a73c 8fa3 1e3d
00000200: 7c82 9abd a8b6 52bd 6274 453c 6ed0 8abd
00000210: 6e46 893d 4a15 95bc 58ab 233d 97e8 8dbd
00000220: 43b5 9bbd 8483 a63c b02d 7f3d 5160 ecbb
00000230: eafb cebb 5db7 84bd c483 49bd fd52 9f3d
00000240: 3d9f 9c3d 81e9 973d 5441 c23d c80f 153d
00000250: e7d6 82bd 6735 b23d cff4 003b 5769 733d
00000260: 726c 28bd c07a cb39 f46f 82bc 8e31 1eba
00000270: 74c9 af3d e206 733d fdbd 9bbd 19e2 a6bd
00000280: 9dc5 6ebd a3b8 983c fd40 5bbd 5c63 a93d
00000290: a642 a0bd 4c6a 0ebd 959e 74bd 1a94 6e3d
000002a0: 9493 1dbd 910c 923d 47d5 603d f5ed 17bd
000002b0: 0219 23bd 7c61 4cbd 228c 7b3d 3887 243d
000002c0: 8998 6a3d bf39 69bd 6857 ce3c 142b f5bb
000002d0: b8fa 21bd 7f00 a1bd e448 6f3d 697e 79bc
000002e0: 2cf4 56bd 936b 133d e2d4 f8bc 2038 80bd
000002f0: a8f9 063b 9a35 a13d 7cd1 58bd f81a fd3c
00000300: ff76 81bd 9951 8fbc 162d 38bd a80a 7dbd
00000310: 4245 dabc c201 7abd 135c 213d bf7f 5a3d
00000320: aab3 00bb 886f 5c3d b0a3 5fbd 3e0b 56bd
00000330: 98d5 463d 0d0d 063d 26e1 ae3d b64d fa3c
00000340: 2bc7 3b3d 63be 553d d8b3 8abd 7880 ab3d
00000350: 643b 8dbd 4549 223d 08e0 02bc 8bd0 1bbd
00000360: 96db 593c eb60 683d 2a8e 8b3d 7e5e 0b3d
00000370: 6cfe c43c 5c40 e63c 86b3 1abd 31e1 debc
00000380: 7a6e a03d aa4e 35bc 5c63 883d 1701 fabc
00000390: c4f8 2a3d 5e3b 283d 7b7c 203d 01cc 973d
000003a0: e956 9fbc 8a6e 383d 1f88 3cbc 5087 323d
000003b0: 6495 a53d 4951 2e3d faee 493d eedd 1fbc
000003c0: 344a f43c de21 c53c 605e 843d 7bb0 8a3c
000003d0: b934 7bbd 496b 10bd 80bf 51bd 9d99 a6bd
000003e0: 53df 383b fe7a ca3b a7ea 3c3d e517 aebc
000003f0: bc40 6abc b1c7 833d 9754 503d c851 87bd
