modeldata/model_70_epoch.pth (torch_old, 43016 bytes, 5 tensors)

weight f4 [64, 1, 9, 9]
00000000: 7557 dc3c dcf0 4d3c 9636 f03c 2025 ca3a
00000010: 0aa9 91bb 9e89 51bc d746 123d cf20 26bb
00000020: c1ae 943c e5de abbc e0d3 903c 8b98 c73b
00000030: 74eb 9ebc 72bd 823c 3270 163d e2d1 3fbc
00000040: c02f 91bb bfe8 3abb f32f 423c b136 84bc
00000050: 1e51 a93b f17b 9fbc 71fa 9cbc 3e58 a23b
00000060: 7f2e e6bc 038b 873c 2fa0 8bbc 9a59 fdbc
00000070: 3dc3 a53c 1519 453b 8f0a 86bc 0582 b7bc
00000080: d66c a53b 2584 8dba fbc2 31bd 9d2d 523b
00000090: abd3 14bb 6203 d43c 82d5 363d 175f 913c
000000a0: a34b a13b cdb7 86bc 5a98 183d 4261 e0bc
000000b0: 67c4 903c ae3e fa3b 117a e2bc d1da 073a
000000c0: fa41 a2bc 6a72 23bd 6968 e438 7f99 28bd
000000d0: e69c 35bd c551 9bbc 4c59 8f3c 1162 623c
000000e0: 9d51 283d 6b27 b23b 4a66 a2bc b8d1 e0bc
000000f0: b0ab 883b c651 89bc 37de f33c da99 dfbc
00000100: 928c adbb 1197 f63a 8428 b8bb b401 023d
00000110: 1cc4 a8bc 2d1e 8dbc bd17 a3bc fef1 3f3d
00000120: ffc3 32bc d120 34bc bddb 35bc 26db ea3c
00000130: d0c5 c43c c3e8 b0ba b34f e3bc 7992 1cbb
00000140: b089 ba3c 07cf 26bb 68df a5bc 561f cfbb
00000150: b9f2 fc3c 5a5b 783d ac0e 273d f81e 5a3d
00000160: a1b4 82bc ca54 07bd 0eaa e73c db76 d5bc
00000170: 0854 d03c 2742 1e3d 3c66 d93c 0194 493d
00000180: 7815 cf3b ef23 3b3d 537f 153d 0748 f83c
00000190: 7f03 0abc 31d3 b83c a1a9 3ebc fece bf3c
000001a0: 594e 373d c3f0 babc 152c 693d 6f69 8cbb
000001b0: d338 073d 13f0 c23c ddb5 4f3c fd05 d4bb
000001c0: 6e4f e6bc f24f 59bb f560 6bbc 826c 063d
000001d0: e4a4 513c 5001 5b3c d9b8 243c d172 dc3c
000001e0: 242a 28bc 5d2b 1bbd f2bf b3bd 4765 32bd
000001f0: b043 923c 71ba 9a3d 0d42 b83c 2432 183d
00000200: 5c68 4f3d 8da2 713a e547 0fbd 57cd 82bd
00000210: 8607 82bd ee6d 2c3d 736f 933d 7d8a d03b
00000220: f995 133d 61fa a93c d3f9 0b3c 1432 c9bb
00000230: 1c5e 65bd 8666 47bc 2739 ff3c 4618 4f3d
00000240: 7cfd 20bc 8b33 ca3c 9204 e33c 2eb9 283d
00000250: dcec 8c3c c805 583d 5510 503d 1918 253d
00000260: 6b0e 0b3d 7c67 6bbc e020 ec3c f82c 6ebc
00000270: f5ed 69bb 1d50 353d bc30 f23c 1060 973c
00000280: 5c8b a13a eabf 04bc 10bf ebbc 3235 23bc
00000290: bda4 0bbd f070 77bb 2c84 383c 2f5b 853c
000002a0: d45f 92bc ac4d 09bb 98f9 f23c c88f 69bc
000002b0: 9531 c6bc 2c78 14bb c78f b0bc a9ec 4fbc
000002c0: 9286 e0bc 7fee 453c 7123 7cbc 0306 8c3c
000002d0: 43dc 1fbd be8d 4ebc a14e 20bc 6729 40bd
000002e0: f9cc 34bd 93a6 4fbd 8079 b6bd 88ef 61bd
000002f0: 779e cebc 3d80 36bc e558 8dbb 9602 293b
00000300: 6467 5d3c 4f00 a43d 2392 233d 5fbc 393d
00000310: e809 95b9 48b1 22bd 494f 9dbc f715 f8bc
00000320: 1531 adbc 925a ccbb 8557 33bd 3245 fbbc
00000330: 3a43 d83c 20e4 333b 8ef1 94b9 62a9 f23a
00000340: ab9f 293b 5fa7 893c a59b 36bc 9f31 19bd
00000350: 59f5 8fbc 35bc 9ebb 48ca be3c a4af bbbc
00000360: 889d 7f3c d9a6 ae3c 53fa 3cbc 3a3c 58bb
00000370: 1cdb 413d 40c2 203d 9208 64bc 2f0d d93c
00000380: a464 8cbc b0ab 043c 7918 f2bb 4239 53bc
00000390: da21 5bbc 2605 b23c 75ff 1f3d 02d9 063d
000003a0: 3fca 53bc 7d7c 6cbc 698c 0d3d d4fb d23c
000003b0: e557 1f3c f660 233b 26da 323c a3aa 4e3b
000003c0: 6cf7 fdbc 99b7 96ba d83a d53b 5afc 6cbb
000003d0: ccad c2ba e130 01bd 0f9e 1ebc 3c2f 4f3d
000003e0: 8e24 debc 76dd bfbc 2058 443d 8ed3 843c
000003f0: 1f90 583c ad0f 3fbc 7f22 49bd 6de1 563c
0.026897172 0.012569632 0.029322904 0.0015422441 -0.0044452 -0.012789158 0.03571209 -0.0025349145
0.018149735 -0.020980308 0.017679155 0.0060911826 -0.019399382 0.015959475 0.03672809 -0.011707755
-0.004430741 -0.0028520075 0.011852252 -0.01613936 0.0051671406 -0.01946828 -0.019162389 0.004954367
-0.028098343 0.016545778 -0.017044155 -0.030926514 0.020234698 0.0030074765 -0.016362457 -0.022400865
0.0050483746 -0.0010796828 -0.04339884 0.0032070645 -0.0022709172 0.02588052 0.04463721 0.017745538
0.0049223467 -0.016445065 0.03725467 -0.027390126 0.017671777 0.0076368665 -0.027646096 0.00051824475
-0.01980685 -0.039904036 0.00010891335 -0.04116201 -0.044339083 -0.01895989 0.017498635 0.013817326
0.041093457 0.005436828 -0.019824166 -0.027443752 0.0041708574 -0.016762625 0.029769046 -0.027295042
-0.0052962983 0.0018813332 -0.005620064 0.031739905 -0.020601325 -0.017226303 -0.01990878 0.04686164
-0.010910987 -0.010994152 -0.011099753 0.028668951 0.024020106 -0.0013497103 -0.027747964 -0.0023891015
0.022770733 -0.0025452988 -0.02024813 -0.006320874 0.030877458 0.060633995 0.040785477 0.05325219
-0.015955271 -0.033039846 0.02827933 -0.026057651 0.025430694 0.038637307 0.026538007 0.049213413
0.006319698 0.045688566 0.03649838 0.030307783 -0.008423685 0.022561641 -0.011637122 0.023414131
0.044752453 -0.022819882 0.056926806 -0.0042850296 0.033013176 0.023796117 0.012677637 -0.0064704404
-0.028114047 -0.0033159223 -0.014366378 0.032818325 0.012795661 0.013367012 0.010053837 0.026910217
-0.010263953 -0.03788315 -0.08776845 -0.043553617 0.017854542 0.07555092 0.022492433 0.037157193
0.050636634 0.00092176424 -0.034980673 -0.06386822 -0.06349091 0.042097025 0.071989916 0.0063641653
0.036031697 0.020749273 0.008543449 -0.006140003 -0.055997953 -0.01217044 0.031155182 0.05056026
-0.00982606 0.02468278 0.02771214 0.041192226 0.017202787 0.05273989 0.050796825 0.040306184
0.033949297 -0.014367934 0.02882427 -0.014537089 -0.0035694812 0.044265855 0.029564254 0.018478423
0.0012324858 -0.0081023965 -0.02877763 -0.009961413 -0.034092654 -0.0037756525 0.011261981 0.016278831
-0.01786796 -0.0020950837 0.029660031 -0.0142554715 -0.024193564 -0.0022654636 -0.021552933 -0.0126907015
-0.027407918 0.012080788 -0.015389309 0.01709271 -0.039028417 -0.012607036 -0.009784372 -0.046914484
-0.04414079 -0.050695967 -0.08909893 -0.055160075 -0.025222046 -0.011138973 -0.0043135756 0.0025788895
0.01351342 0.08007871 0.03993429 0.04534566 -0.00028426875 -0.03971985 -0.019202845 -0.030283911
-0.021141568 -0.0062363828 -0.043784637 -0.030672643 0.026399244 0.0027449206 -0.00028408732 0.0018513615
0.0025882523 0.016803442 -0.011145507 -0.037400838 -0.017573046 -0.0048442134 0.023289815 -0.0229109
0.015601523 0.021319794 -0.011534291 -0.0032994882 0.0473281 0.03924775 -0.013918059 0.026495544
-0.017137833 0.008097574 -0.0073881713 -0.012892069 -0.01337477 0.02173097 0.039061982 0.0329218
-0.012926637 -0.014433977 0.034557734 0.025754847 0.0097255455 0.002492962 0.010916268 0.0031534813
-0.031001769 -0.0011498808 0.006507259 -0.0036161155 -0.0014852821 -0.031540755 -0.009681239 0.050582156
-0.02711704 -0.02342103 0.047935605 0.016214158 0.013217955 -0.011661452 -0.049105164 0.013115269

bias f4 [64]
00000000: f1c3 98bc afa6 133d fc06 4fba ce7d 4b3c
00000010: ee6b 803b e0d9 9a3c 7de5 05bc 9c43 32bb
00000020: c94d 29bb 6761 363b 3912 a23b a42f 19bc
00000030: 9eba fb3a 6bc4 923c 904b 0a3d 73d6 443b
00000040: 25c2 f03b a9d5 a839 4517 6c3b 590b 503b
00000050: 3bca 7f3b 4c8e 913b 254a d1bb 0c27 5c3a
00000060: 0bc4 4c3b 1a34 3b3c 8307 4b3c eb0d a03b
00000070: adfe e63c 4def 273c e19c 5a3b 5f1f 1dbb
00000080: 1604 0b3c 4a5d 003c 7b39 323b 5a24 88ba
00000090: e8c6 803c a451 37bb 090f c13a 70c3 093c
000000a0: add0 003c 8527 d63b fb9a 29bc c969 9f3b
000000b0: d49a 2abb c9d1 8c3b af50 45bb 4047 cabb
000000c0: 85e4 023b b5d8 8c3b 633d 8f3c 15bd d5bb
000000d0: ce0d 783a 5f99 8a3c f9d2 343b 8440 8a3b
000000e0: b662 da3b da37 c53b f038 483c d9ab 963a
000000f0: 7ef2 c13b 43ab c33b 94c3 c7bb 2ebc e0ba
-0.01864812 0.036047634 -0.0007897464 0.012420131 0.003919116 0.018902719 -0.00817239 -0.0027200943
-0.0025833717 0.0027829052 0.00494602 -0.009349737 0.0019205397 0.017915925 0.03376347 0.0030035048
0.0073473626 0.00032202646 0.0036024612 0.0031745045 0.003903045 0.004442012 -0.0063870125 0.00083981524
0.003124478 0.011425996 0.012391928 0.0048844717 0.02819761 0.010249925 0.0033357667 -0.0023974997
0.008484861 0.007834742 0.0027194906 -0.001038681 0.015719846 -0.0027972246 0.0014729212 0.008408412
0.007862252 0.006535473 -0.010351892 0.0048649055 -0.0026032226 0.0042974693 -0.0030107906 -0.0061730444
0.0019972634 0.0042982944 0.017485326 -0.0065227845 0.0009462506 0.016918836 0.002759157 0.0042191166
0.0066645993 0.006018621 0.012220606 0.0011495306 0.0059188 0.0059713437 -0.006096313 -0.0017145926

weight f4 [32, 64, 1, 1]
00000000: 30fd 923c d747 6dbe f697 28be db7b 213e
00000010: fe1f 16be f48c b33d bb11 7dbe 0187 b63d
00000020: f21d aebb 3558 f93c 38cb 06be d27f 81be
00000030: a0b3 303e 21a2 323e ca44 4a3e bb4d 69be
00000040: 97b8 3abe 037a e03c becb 1abe f4e9 f93d
00000050: dcf0 c83d d36c 6ebe 0b3f f23d 6efa 1abe
00000060: aab6 173e 125f 353d 578f 153d 7f39 babd
00000070: cd4a 0bbd ef6a 56be 73e5 303e 46c3 233e
00000080: 4738 cf3d 9232 32be b4ba d73d b47e 753e
00000090: f3c2 0abc ed13 443e ae1c c5bd c184 a03c
000000a0: d299 29be 6825 653e 78d3 843e 24d6 8dbe
000000b0: cd28 323e 6c62 e73c b337 ef3d 8b93 413d
000000c0: cb57 2f3e 3b5d 2cbd 8baa e23d ceaa c9bd
000000d0: 3a7e 51be 10d2 96be cc3a 1c3e 8de4 443c
000000e0: 16e8 52be 06bf 4ebd 4bd3 583e 9f3d 27bd
000000f0: 23e1 19bd 56b5 c33d ffc8 1fbe 556c 7f3d
00000100: 9a64 08bd 4eb6 8d3e 3917 663d 079b ebbb
00000110: fddd 3e3e 938c 833d 774d cdbe 4532 18be
00000120: cf8a 5a3d 2818 61be fd42 163d 8525 17bd
00000130: 592b 003a 2bfe 42be 7aee bdbb 3e59 31be
00000140: a979 6cbe 13b6 3d3e 86be b3bd bd9e 7e3e
00000150: 4ab9 60be ef78 923d 69a6 8abd 9ddb 75be
00000160: 67f6 6a3d a695 193f b08d 043e a79e 17be
00000170: 2c72 0a3c 2529 29be 811b 013d d5f7 493e
00000180: 35fe da3d 5d8d 16be 53ea 74be d7b7 203e
00000190: 28c4 29be 0818 2cbe 8700 013e ab98 1cbe
000001a0: d2e0 dbbd 04eb 023e 9090 df3d 6358 36be
000001b0: 25ff 263e 7c2a b8bc d61b 64bd 3983 22bd
000001c0: 3d5f febd e242 3f3e c18b 503e 948f 303e
000001d0: 25e4 663e 6aa7 f8bd 8dc6 103b 883e 653c
000001e0: ffed ff3d e036 cbbd cb7c 42be 480f 563e
000001f0: 5e16 97bd 36fc debc e880 e13d 813e e4bd
00000200: e9f7 ffbd 129e 973e 4a88 ad3e 3aab 293e
00000210: 66f6 b2bd 32f2 a7bd e941 bc3e aed2 2fbe
00000220: fb9e febe de0d 223e d015 4a3e b867 073e
00000230: e839 1b3e 404e c5bd 673b 3e3e a75d eabc
00000240: 13ed d03c c021 873e 6c84 0cbe 3750 f83d
00000250: 5308 93be 3fdc 44be 1383 20bd 540e febd
00000260: 13a9 4dbe 0878 943e 3bc9 2abe 9e0c 3fbe
00000270: 2c74 813e 22e8 6e3e 9fe6 93be 2484 febd
00000280: 3498 763e ce5c 97bc 6a40 d7bd b976 53be
00000290: b491 1abe ed03 c7bd abbc d93d f678 95bc
000002a0: a41e e2bd c2be b53e b0be 59be 5335 3ebe
000002b0: a1d3 303d 000c 5d3e e38e f63d 41c0 993e
000002c0: a2e6 87be e54d 6cbe c3e1 81bd 7d09 37be
000002d0: 97e2 373e eaa4 7dbe 6cbd 8cbc e8a2 01be
000002e0: f088 0e3e 1ea6 333e 33bd ad3d 7c9f 5a3e
000002f0: f112 163e a379 85bd 71c9 63be 9f5d 5bbe
00000300: 2b72 673e 2870 04be bff7 cd3d 0d4a 513e
00000310: fa33 2e3e ba09 35be 8bb1 1f3d 6a68 63be
00000320: 1d66 6f3c 7b35 debd f4e5 033e a174 373e
00000330: 6b66 25be bc29 4b3e 095d 75be 7872 ee3d
00000340: e8bb 32bc 3d2a 26bd 2147 1bbe 89a2 4b3d
00000350: 0079 3fbe 9137 533e 892b 05bf df7f c2bb
00000360: 7599 3c3e 326e 963e 9f58 a33e 4878 5e3e
00000370: 010f 10bd 6d8a 093e 9b4e a6bd ad9a ad3e
00000380: b5f8 b43d e893 51be e8a8 80be 593f 6b3e
00000390: 4257 653e 902b d6bd 0872 47be 84e6 823c
000003a0: 7131 d63d bd10 60be e852 0b3e 8cd3 4b3e
000003b0: 9c3e 5f3e f3a5 af3d 6478 f1bd ab6d 9ebe
000003c0: 9117 153e 18cc 7bbe 0c3e b6bd f1d7 d43d
000003d0: 8305 e63d 8a98 f03c 038e 28be f1c2 053c
000003e0: 39c1 babe 825a 89be 9c3c fcbd 706f a83e
000003f0: a5e0 49be 4dc1 24be 226b f5be 900f 9a3d
0.017942995 -0.23171936 -0.16464218 0.15769903 -0.14660642 0.08767119 -0.24713795 0.08912469
-0.0053136284 0.030437568 -0.1316346 -0.25292832 0.17256021 0.1744466 0.19752803 -0.22783558
-0.18234478 0.02740193 -0.15116784 0.12202826 0.09811565 -0.232837 0.11828431 -0.15134594
0.14815775 0.04428012 0.036513653 -0.09092998 -0.034006882 -0.2093923 0.17275028 0.1599246
0.10118156 -0.17402104 0.10533658 0.23974115 -0.008469331 0.19148226 -0.09624611 0.019594552
-0.16562584 0.2237755 0.25942588 -0.2770244 0.17398377 0.028245173 0.11680546 0.04725985
0.17123334 -0.0420811 0.11067685 -0.098470315 -0.20458308 -0.2945714 0.15256804 0.012017381
-0.20596346 -0.050475143 0.21174352 -0.04083025 -0.037568223 0.095560715 -0.15604018 0.062359173
-0.033299066 0.2767815 0.05617449 -0.0071901116 0.1863937 0.06423297 -0.40098163 -0.14862926
0.053355034 -0.21981871 0.03668498 -0.036901016 0.0004889272 -0.1904227 -0.005796251 -0.173192
-0.23093285 0.18526487 -0.08776574 0.24865241 -0.21945682 0.071519725 -0.067700215 -0.24009557
0.057363894 0.5999397 0.12944674 -0.14806615 0.008450072 -0.16519602 0.03152037 0.19723447
0.106930174 -0.14702363 -0.23917513 0.1569513 -0.16578734 -0.16806042 0.12597857 -0.15292613
-0.107362404 0.12784964 0.10916245 -0.17807154 0.16308267 -0.022481196 -0.05569061 -0.039675925
-0.12420509 0.18677858 0.20365812 0.1724227 0.22547968 -0.12141307 0.0022091002 0.013991959
0.12496566 -0.09922576 -0.18992917 0.20904267 -0.07377313 -0.027219873 0.11010915 -0.11144734
-0.12498457 0.29612786 0.33893043 0.16569224 -0.08738403 -0.08200492 0.36769035 -0.17170212
-0.49730667 0.15825602 0.19734883 0.1322316 0.15158808 -0.09634066 0.18577348 -0.02860911
0.02550367 0.26392937 -0.1372239 0.12124675 -0.28717288 -0.19224642 -0.039187502 -0.124050766
-0.20084028 0.28997827 -0.16678326 -0.18657157 0.25283945 0.23330739 -0.28886887 -0.124275476
0.24081498 -0.01847687 -0.10510333 -0.20650758 -0.15094644 -0.09717546 0.10631689 -0.018246155
-0.110410005 0.354971 -0.21264148 -0.18575029 0.043170575 0.21586609 0.12038972 0.3002949
-0.26543146 -0.2307659 -0.06341889 -0.17874713 0.17957531 -0.24769941 -0.017180167 -0.126598
0.13919425 0.17543837 0.084833525 0.21349901 0.14655663 -0.06517341 -0.22244813 -0.21422432
0.22602145 -0.12933409 0.100570194 0.20438404 0.17012015 -0.17679492 0.038987678 -0.222078
0.014611748 -0.10850044 0.12880689 0.17915584 -0.1615235 0.19840139 -0.23961271 0.11642927
-0.010909058 -0.040567625 -0.15163852 0.049715552 -0.18698502 0.20626666 -0.52019554 -0.0059356536
0.18417914 0.29380947 0.3190355 0.21725571 -0.03517056 0.13431711 -0.081204616 0.3390707
0.088364996 -0.20466578 -0.25128865 0.22973384 0.22396567 -0.10457528 -0.19477093 0.015979059
0.10458649 -0.21881385 0.13605845 0.19904917 0.21801227 0.08576574 -0.11790541 -0.30943045
0.14559771 -0.24589574 -0.08898553 0.1039275 0.1123152 0.029369611 -0.16460423 0.008164153
-0.36475542 -0.26826864 -0.12316248 0.3289752 -0.19714601 -0.16089363 -0.47933298 0.075224996

bias f4 [32]
00000000: 45ee bbbb 994b d8bb fcb4 c23c e7a8 52bc
00000010: 40f7 a2ba ab0a 653b c280 233b 4563 083b
00000020: 688c fcbc a1ba 2dbb ac26 c03a e8f6 373b
00000030: 0608 34bb 4c86 15bb aedf a23b d7d8 f7ba
00000040: 3cc3 fb3b 41c6 1a3c 55fe 7f3b 4097 853b
00000050: 2caf 00bc b6e5 48bb 5d3b 053d 3be6 eb3a
00000060: 319e 283a 3ab7 213a caa9 9cbb 46b3 9dba
00000070: 4068 9dba 68fb eaba 3d91 903b 160e 7e3c
-0.005735191 -0.006600809 0.02376794 -0.012857652 -0.0012433305 0.0034948986 0.0024948572 0.0020811122
-0.03082867 -0.0026508945 0.0014659963 0.0028070752 -0.0027470603 -0.0022815643 0.0049705124 -0.0018909228
0.007683186 0.0094466815 0.0039061506 0.0040768683 -0.007854264 -0.0030654497 0.032527316 0.0017997691
0.0006432264 0.00061689655 -0.0047809826 -0.0012031577 -0.0012009218 -0.0017927708 0.004411845 0.015506288

weight f4 [1, 32, 5, 5]
00000000: ae6c 6abd 29d2 9e3d 7556 9fbd e419 9dbd
00000010: ea38 1cbd 8682 5bbc 44c3 66bc 2684 3a3d
00000020: 4770 c83b 360b ae3d a774 9c3d 477a 203d
00000030: 229d 8f3c f03d dc3b b2aa 96bd 2515 1bbd
00000040: 8496 453d 6421 dabc 32ae e83c 626c 3d3d
00000050: 1e00 663d ce88 6d3b 2979 87bd 6e2b aabd
00000060: f265 7ebd 11bd 073d 34e8 95bd d946 0e3d
00000070: e2f4 a73d d030 3e3d 7fe8 87bd 3187 0dbd
00000080: da89 33bd b378 263d 0126 b33b 0244 93bd
00000090: 7305 96bd 0aeb 9d3d 2667 80bd 3d28 4dbd
000000a0: 84cd a4bd a82a 803d da38 b1bd ef0a 4fbd
000000b0: 5857 13bc a6d5 4d3c d0d0 57bd c483 09bc
000000c0: 4570 ae3d 3ad6 593d 23e7 a53c ed33 903d
000000d0: f14e 0c3d 86d8 eebc 1801 913c 8074 de3b
000000e0: 82b2 05bd a360 dabd 20ed 46bc fc71 a5bd
000000f0: 0571 ddbc 85f6 4cbc 8c2c 0f3e d8de 583d
00000100: 0d6e 963b e6dc c93b c7c7 d2bc 4168 b63c
00000110: 6313 263d b06d 98bd d916 b13c 0944 abbc
00000120: c44a e6bd 3c85 043d 474c 91bd 608c c1bc
00000130: afd1 47bd e797 783b f7cb 333d 7f4a 86bc
00000140: 7600 c53c cbf0 33bd 297a cc3c b858 323d
00000150: 7904 9cbc 56a0 81bd d625 c93d ce94 0a3e
00000160: fe9e 843d 8185 7cbd af93 a43d 975f 95bd
00000170: b1ec 3f3d c6cb a13c ceb0 7c3b e76e e3bc
00000180: d9f9 d5bc 713d 343d 563d 393d bf98 4ebd
00000190: d66a 39bc 1cb7 46bd 1432 fc3b 7cce 393d
000001a0: d4c7 d0bc b157 9cbc 133f 093d fa74 31bd
000001b0: d553 a5bd 1aba 033d dee8 a03b 5406 9a3c
000001c0: 8c66 c83c 0417 853c 70c7 103c b77f 23bd
000001d0: 5c3f 803c be18 603d e734 223d de0b 95bd
000001e0: 6c45 4dbd c9dd 063d 5605 3d3d f058 8abd
000001f0: 34ac e1bc f2e9 813d 1b99 243d c3be f83c
00000200: 48b3 8cbd 221b 4e3d 7958 26bd c52c 453d
00000210: 1495 3a3d 7388 913c 7312 8b3b 6069 1b3d
00000220: 470d 3f3d 436d 7cbc 2eec 5a3d e5f3 1fbd
00000230: 0fdc a6bd a5b2 fa3c 1298 a8bc 73ab 37bd
00000240: 76d7 a13d 8fe1 583d 3885 f43c dc3d c9bc
00000250: 2132 52bd c675 4cbd 8a72 20bd 6c8d d23c
00000260: 05fc dcbc ea3c c63c 4d56 02bd 7f71 96bd
00000270: 3cf1 a83c 4a5c e8bb 822f bebd 309f 1ebb
00000280: c9e1 023d 053f c23d a0ac 613d 862b 76bb
00000290: 544d 043d 88b0 9bbd 3bc7 083d ef0f 17bd
000002a0: 72ce 35bd daf5 b5bc c996 8ebd 2b40 8c3d
000002b0: cb59 c1bc 1b51 acbc e1be 313d 6365 8e3d
000002c0: 4972 3a3d 105c 4bbd e4c6 c6bc 7afb 36bc
000002d0: 7df6 a03d d414 49bc e062 99bd 279d 633c
000002e0: 3f69 443b 6b9a b4bb ed75 853d 8daf 93bd
000002f0: 1a2d 1f3d a3c5 8e3d b1b2 4ebd 21ff a43d
00000300: 53c1 403d 9b74 023d 992b 9e3d ea0a 12bd
00000310: 5b8a 9c3d 398c ab3d 7b6f 1fbc 075f 7fbd
00000320: 2db0 603d 1156 513d 4163 5fba 61b9 2f3c
00000330: 0710 853b 2661 ec3c e649 a63d d6da 2c3d
00000340: 1976 853d 049e 57bd 9957 a7bd 7abf 57bc
00000350: 47f5 73bd 52b5 9d3d 8d7e 643d 2b0e a0bd
00000360: 2793 473c b98e 83bd b978 2dbc f43d 923d
00000370: 23ff 7ebd acc4 8ebb ae03 5bbd 76ef 5d3c
00000380: ab70 8bbd 1bc2 acbd 8cb1 a43d 30e4 36bd
00000390: af5a c9bc 4449 aa3d 9ab5 3d3d 7628 21bd
000003a0: 4e18 7dbc a00a fcbc 45ba a2bd 9626 57bd
000003b0: 9027 143c dc80 75bc 0354 7fbd 19fa 91bd
000003c0: de75 093c ebee 0b3d ee56 89bd 93ac b73c
000003d0: 3ad3 6e3d e1e9 99bd 8656 693d ec81 98bc
000003e0: 46d2 a83c 60cd 953d d95c 46bd d85d c53c
000003f0: 6614 0d3d 2ca9 963d ef73 bebc 32fd 023c
-0.05723255 0.077549286 -0.07780162 -0.07670954 -0.038140215 -0.013397818 -0.014084641 0.045536183
0.0061169 0.08498232 0.07639437 0.039179113 0.017530981 0.0067212507 -0.07356776 -0.037861962
0.048239246 -0.02662725 0.028403375 0.04624594 0.056152456 0.0036244872 -0.06614906 -0.08309065
-0.06210894 0.033139292 -0.0731968 0.034735534 0.082010046 0.04643327 -0.06636142 -0.034552757
-0.043832637 0.04064245 0.005467177 -0.07190706 -0.07325258 0.07710846 -0.06269674 -0.050087202
-0.080470115 0.06258136 -0.08653422 -0.050547536 -0.008992992 0.012563145 -0.052689373 -0.008393232
0.085175075 0.053182818 0.020251816 0.07041154 0.034254972 -0.02915598 0.017700717 0.00678879
-0.03264094 -0.10662963 -0.012141496 -0.080783814 -0.027031431 -0.012509947 0.13981837 0.052946895
0.004590756 0.0061603663 -0.025730027 0.022266509 0.040545832 -0.07442796 0.02161734 -0.020906465
-0.11244729 0.032353625 -0.07094627 -0.023626506 -0.048783954 0.0037932338 0.043895688 -0.016392944
0.024048071 -0.04393081 0.024960594 0.04354164 -0.019045101 -0.0632941 0.0982167 0.13533327
0.06475638 -0.061650757 0.08035981 -0.07293623 0.046856586 0.019750487 0.0038557532 -0.027762843
-0.026120113 0.044003908 0.04522451 -0.05043864 -0.011316976 -0.04851447 0.0076963995 0.045362934
-0.02548591 -0.019084783 0.033507418 -0.04332445 -0.0807263 0.032159902 0.0049105724 0.018801846
0.02446296 0.016246326 0.008836612 -0.03991672 0.015655212 0.054711096 0.039601233 -0.07277654
-0.050115034 0.032926355 0.046147667 -0.06755245 -0.027547933 0.0634345 0.040185075 0.0303644
-0.06870133 0.050318845 -0.040611718 0.0481384 0.04555233 0.01776526 0.0042441427 0.03794229
0.04664352 -0.015406909 0.053447895 -0.039050955 -0.081474416 0.030602762 -0.020580325 -0.04484124
0.07902424 0.052949484 0.02984868 -0.02456563 -0.051317338 -0.049917005 -0.039171733 0.0257022
-0.026975641 0.024198968 -0.031820584 -0.073458664 0.020622842 -0.00709108 -0.09286405 -0.002420377
0.031953607 0.09484676 0.05509627 -0.0037562563 0.03230031 -0.0760203 0.033393126 -0.03688043
-0.044386335 -0.022211958 -0.06962354 0.068481766 -0.023602387 -0.021034768 0.043394927 0.06952932
0.045519147 -0.049648345 -0.02426476 -0.011168355 0.07859514 -0.012273032 -0.07489562 0.0138924485
0.0029969958 -0.005511572 0.06516633 -0.07211218 0.03886137 0.0697129 -0.050463382 0.080564745
0.04705937 0.031849485 0.07723159 -0.03565494 0.07643577 0.08376355 -0.009731169 -0.062346485
0.054855514 0.05110747 -0.0008521565 0.01072535 0.0040607485 0.028854918 0.08119564 0.042200886
0.06516666 -0.05264093 -0.08171005 -0.01316821 -0.059560087 0.077006 0.05578475 -0.07815202
0.01218108 -0.064237066 -0.010587865 0.07140723 -0.062255036 -0.004356941 -0.053470306 0.0135458615
-0.06808599 -0.0843546 0.08041677 -0.04465121 -0.024579374 0.083147556 0.046315767 -0.039345227
-0.015447689 -0.030766785 -0.07945684 -0.052527033 0.009042636 -0.014984336 -0.06233598 -0.071277805
0.008389918 0.034163397 -0.06706034 0.022421157 0.05830691 -0.07515312 0.05696728 -0.01861664
0.020608079 0.07314563 -0.04842839 0.0240926 0.03444328 0.07356486 -0.02324864 0.007994937
