modeldata/model_43_epoch.pth (torch_old, 43109 bytes, 5 tensors)

weight f4 [64, 1, 9, 9]
00000000: 145a 0fbd 4b85 b6ba 30bf 88bc 4dda 8e3c
00000010: 0dd4 1ebd 116c c63c 6002 1cbd 8b3e 7b3c
00000020: ce29 9c3c 129f 11bd fb5f 023c 83ec 03bc
00000030: 559c 683b 9316 c53b d717 35bc 8b45 db3c
00000040: 67b0 3e3c 8731 c33c 8da8 8fbc ea33 81bb
00000050: 4e70 d03c da92 debc 2ec7 c63c 88de 75bc
00000060: e2cc 07bc 0adc f9bc 692b 573c 6abf c9bc
00000070: ce30 31bb 5932 93bc 21d2 28bb e913 3abc
00000080: b120 6abc 5798 a43c 1add b13c 6437 113c
00000090: d8ac 123b 2edb 3fbc 01c5 e33c a843 68bc
000000a0: 86fe f4bc f33a c23c cc6f a1ba 899f 6739
000000b0: 9296 09bc ab46 a9bc a699 8f3c 6c5c 8abb
000000c0: 1069 b0bc ab88 07bd 9a99 a53c d1c5 d0bc
000000d0: ab4c 83bc d6ca 73bc b9cb 8639 94e5 e1bc
000000e0: e54a aebc b37d ec3c 59f1 8bbc eb5b 63bb
000000f0: bf89 c23c a14f 4d3c 9a4e d73b 3919 5e3c
00000100: 467d 81bc 00be cabc dddb 953c c0c8 07bb
00000110: ba10 2539 7199 5bbb 808b b63a bd72 dc3a
00000120: 7e12 05bd 7c1e 04bd d113 16bc a565 cc3c
00000130: 4b94 11bc 77c2 09ba 3bdf d4bc cc5e 113c
00000140: 3582 a83c 8d73 7e3c adf5 213b 2fac f33b
00000150: c5f4 1cbd 7685 c33c 0ccf f0bc e29e 2fbc
00000160: 8125 cebc 819b 06bd f505 dabb 54b0 f23b
00000170: d9bb 3cbc 0ee6 a63c 899b d5bc 4bbf 043c
00000180: 511e 07bd d098 c53c 9c3f e63c 64b7 f83b
00000190: 1e0d bb3c 73a9 e7bb 78d3 c2bb b292 2d3b
000001a0: f848 b03c 87b4 a13c c1a8 933c 2f19 9b3c
000001b0: 0a1d efbc 04b7 a13c d9e3 d83c ec6c 0cbc
000001c0: fae6 f63c 4a21 263c 16f1 40b9 8ae3 5e3b
000001d0: 9b7f fabb 7297 7bbc 5b6d 4a3c fc56 d13c
000001e0: 5331 a8bc 6a2e 373b d684 0e3b dd7c 0fbd
000001f0: cac7 e5bc a78b 933c 08e7 5bbc 2b78 41bc
00000200: 4dc6 e3bc 3bcc aa3c 8942 bfbc 320c ebbc
00000210: dad6 b73c 8beb 66bc 336b ddbc 5a20 063c
00000220: 1b3f 3c3c e608 dd3c 3979 1b3c 0769 d33b
00000230: ddf9 f6bc c92c d9bb 06f5 c8bc 320d ecbc
00000240: de99 bebc 3e4f c73c 1365 ae3c 8155 dd3a
00000250: 4856 0c3c f4dc b73b 871a 68bc 880c c0bc
00000260: 37b5 64bb 09a1 77bc 10fe 75bc fcc0 abbc
00000270: d0e6 68bc c545 803c adc0 fd39 7316 303c
00000280: f40a c53c a421 4b3c eac6 993c 08a4 2cbc
00000290: db79 80bc 3884 e5bc a0af cfbc 6777 8abc
000002a0: 70a6 bfbc 3d23 f6bc 54ae ee3c d35c 233c
000002b0: 026c 053d 47b9 913c cdc5 ac3a 28e0 d5bb
000002c0: 1edf 8abb 50a4 e7bb 1b8a c5bc d289 babc
000002d0: 2baf 3fbc cf56 2039 6884 cabc 5e32 7bbb
000002e0: e077 72bc 4ed2 033c 8411 c33c d852 bd3c
000002f0: ccd1 76bc 439c 52bb 393c 3ebc 2da1 7b3c
00000300: b92b 303a a865 f83c 1246 093d b96d f43c
00000310: 77b0 113d 7e90 cfb9 0bbd 8a3c d5e0 b7bc
00000320: 09ea 00bd bfb1 a7bb ffd6 9f3c 9562 0d3d
00000330: 8e41 093d 22f7 11bb c4d7 743c ee2e 073d
00000340: 73ad a43b 0df8 8f3c 5699 1cbc 1a1b 3f3c
00000350: 521c eebb c92c ba3c cfc6 df3c c0c5 9bbc
00000360: 0e2f 6f3c 9a13 423b 2f9e 9abb 4ba6 abbc
00000370: 288a f43c c661 bf3c e71b 7a3c df1b 41bc
00000380: dd93 fd3c ccaa 05bd dc9d d53c 4365 fcbc
00000390: 2fb4 fd3c 48f8 35bb 92a0 e93c 17e3 933b
000003a0: 2a82 dd3b d1c2 5cbc 95cd f7bc dffd 693b
000003b0: 8fb3 963c 7fd3 17bc aa8e 013d 4981 0a3d
000003c0: a78a a2bb 39fb 79ba cbe0 fabc 6e76 8fb9
000003d0: cb93 793c 1b69 31ba a4d0 993c 70c3 80bc
000003e0: f526 263b dd81 33bc 11fe 43bb 2494 d23b
000003f0: 8cbe 2d3c 4d49 c03c 30b0 9f3c fd41 b8bc
-0.034998015 -0.0013925222 -0.016692728 0.017438078 -0.038776446 0.024221452 -0.038088202 0.015334736
0.019062903 -0.035552092 0.007957454 -0.008051994 0.0035493572 0.006014654 -0.011053047 0.02676656
0.011638737 0.023827327 -0.017536426 -0.003942956 0.025444176 -0.027169634 0.024264898 -0.015006669
-0.008288594 -0.03050043 0.013132908 -0.024627406 -0.0027037147 -0.017968344 -0.0025760012 -0.011357286
-0.014290021 0.020092173 0.021711875 0.008863304 0.0022380855 -0.011709971 0.0278039 -0.014176287
-0.029906522 0.02370975 -0.0012316643 0.00022089308 -0.008397715 -0.02066358 0.01752932 -0.0042224433
-0.021534473 -0.03308932 0.020214844 -0.025484951 -0.01602777 -0.014879903 0.00025710257 -0.027575292
-0.021275947 0.028868532 -0.017082857 -0.0034692239 0.023747323 0.012531192 0.0065706493 0.013555818
-0.015806805 -0.024748802 0.018293316 -0.0020719022 0.00015741857 -0.0033508206 0.0013927072 0.0016818863
-0.03248834 -0.032255635 -0.009159998 0.024950812 -0.008885453 -0.0005255113 -0.02598535 0.008872699
0.0205699 0.015530479 0.0024713085 0.0074362974 -0.038319368 0.02386735 -0.029395603 -0.010719033
-0.025164368 -0.032863144 -0.006653542 0.007406274 -0.011519396 0.02037337 -0.026075142 0.008102248
-0.032987896 0.024120718 0.028106503 0.0075902212 0.022833403 -0.0070697605 -0.005945619 0.0026485142
0.02151917 0.019739402 0.018024804 0.018932907 -0.029188652 0.019740589 0.026475834 -0.008570891
0.030139435 0.010139773 -0.00018400358 0.0034010136 -0.0076446063 -0.015355932 0.012355174 0.025554173
-0.020531332 0.002795125 0.0021746657 -0.03503119 -0.028049368 0.018010927 -0.013421781 -0.011808435
-0.027804518 0.020849338 -0.023347156 -0.028692339 0.022441316 -0.014094244 -0.027028656 0.008186424
0.011489655 0.026981782 0.009489351 0.006451729 -0.030148441 -0.0066276533 -0.024530899 -0.028814886
-0.023266729 0.024329778 0.02128843 0.0016886444 0.008565493 0.0056110565 -0.014166481 -0.023443475
-0.0034898052 -0.015114077 -0.0150141865 -0.020966046 -0.014215186 0.015658269 0.00048399475 0.01074754
0.024053074 0.012398157 0.018771607 -0.010537155 -0.015683105 -0.028017148 -0.0253523 -0.016902639
-0.023394793 -0.0300461 0.02913586 0.0099708615 0.032573707 0.017788542 0.0013181508 -0.0065269656
-0.0042380234 -0.007069148 -0.024113705 -0.022770796 -0.011699478 0.00015291128 -0.02472134 -0.0038329582
-0.014799088 0.008045746 0.023812063 0.023110792 -0.015064668 -0.0032136596 -0.011611038 0.0153582515
0.00067203824 0.030321911 0.03351409 0.029837476 0.03556868 -0.00039589772 0.016935846 -0.022446075
-0.031473193 -0.0051176245 0.019511698 0.034517843 0.033509783 -0.0022272547 0.014944021 0.03300374
0.0050255596 0.017574335 -0.0095580425 0.011664176 -0.0072665596 0.022726433 0.027316479 -0.019015193
0.014598621 0.0029613734 -0.004718564 -0.020953318 0.029851034 0.023362052 0.0152654415 -0.01178643
0.030954296 -0.032633588 0.02607625 -0.030810004 0.030969707 -0.0027766395 0.028518949 0.004513155
0.0067599015 -0.013474182 -0.030249396 0.0035704297 0.018396167 -0.009266733 0.031630196 0.033814702
-0.0049603763 -0.0009536031 -0.030624768 -0.00027363322 0.0152329905 -0.0006767676 0.018776245 -0.015718192
0.002535281 -0.010956255 -0.0029906074 0.006426351 0.010604512 0.023472453 0.019493192 -0.022492403

bias f4 [64]
00000000: e271 ddbb 89bd 41bb 20fa 953b 5f2a a23b
00000010: 5044 f73b 57c3 953a 70b4 56bb e5b0 3f3c
00000020: afff a6bb 2677 56bb 09d4 a43b e7f3 233d
00000030: 05fe da3b e19f bdbb cfdb 80bb 659f 513b
00000040: 50b4 173c 603f d6bb c0b6 b23b 2b68 e73a
00000050: be17 18bb 75e1 72bb 762b 4ebb ea4a f93a
00000060: 89ea 843b 4b91 433c 2d91 dfbb b41e fbbb
00000070: 6ab2 813c 7ceb 553c 2dd4 10bc e00e 5fbb
00000080: ed3a 75bb b371 0e3c 71ed 0a3c 2fac 083c
00000090: e21d 213b da18 333b bddc ef3c a93b 623b
000000a0: c362 733c 1928 6e3b d8fd 903a e116 553b
000000b0: 0016 82bb acab 5c3b 0889 973c 14c4 34bb
000000c0: 4cbe 8ebb 58c1 e2ba 457e 6d3b 3141 39b9
000000d0: 3e25 a93a 704a a2ba 942c d23b 92dd 873c
000000e0: 679d 0e3d cd57 e53b 84c3 7fb9 28bc c43b
000000f0: f05b 99bb 945d 0abc b9df 5339 8008 2b3b
-0.0067579607 -0.0029562435 0.0045769364 0.0049488987 0.0075459853 0.0011426014 -0.0032761358 0.01169989
-0.005096398 -0.0032724827 0.0050301594 0.040027525 0.0066831135 -0.0057868813 -0.003932453 0.0031985876
0.009259298 -0.0065383166 0.0054539144 0.0017654946 -0.002320751 -0.0037060652 -0.003145901 0.0019019519
0.004056279 0.011936496 -0.006822726 -0.007663572 0.015832145 0.013056632 -0.008839649 -0.0034035966
-0.0037419156 0.0086941 0.008479462 0.008341833 0.0024584462 0.0027328045 0.02928006 0.0034520424
0.01485509 0.0036339818 0.001106198 0.0032514858 -0.0039699078 0.003367166 0.018497959 -0.0027582692
-0.0043561812 -0.0017300053 0.0036238593 -0.0001766726 0.0012904776 -0.0012381803 0.0064140055 0.016585145
0.03481808 0.006998992 -0.0002439153 0.0060038753 -0.0046801493 -0.008445162 0.00020205871 0.0026097596

weight f4 [32, 64, 1, 1]
00000000: 3dd5 0abd 0861 2e3e 331c 11be 07a3 debb
00000010: a907 2ebe 12ac f03d f6b4 20be 9973 2a3e
00000020: 2e70 1cbe c681 313e ee2e bfbd 0832 573d
00000030: 5820 b5bd 6a8f 35be 14ee 993d 707c 583e
00000040: 3627 fb3e 6743 0c3c 2186 f6bd f044 b5bd
00000050: 99cd 713e 5129 99bd d009 4a3d e9f9 943e
00000060: 1362 3ebe faab 16be d9c5 17be 781b 513e
00000070: be19 a03e 286f 9abd 23ff e0bb 2176 703d
00000080: fbaa 113c 82d7 ca3d ee75 fabd 4fb5 4cbd
00000090: 05cc 45be 6c21 4c3e 81d9 393e e594 37be
000000a0: 95bc 28be 5665 fa3c 2098 f33c 36b1 4fbe
000000b0: 640f b23d cef5 64bd 1606 3b3e 82ad 5fbe
000000c0: 2476 853d 0141 d43d 45e5 ec3c ef96 69bd
000000d0: 8551 653e b973 7d3e 7974 723d ddaa 8cbe
000000e0: 5acd 41be a766 c0bd 8d70 f43d 4c0e cdbd
000000f0: 4b94 0fbe 86e4 b6be e0bb 3b3e a610 61be
00000100: c102 88bd 38ee e0bd bbf3 753b e17f 883e
00000110: 8867 7cbc 2ee3 5cbe e550 b33d 8ce6 7f3e
00000120: c94b 5b3d 11ff 753d 0875 13be f7ed 77bd
00000130: b9e2 75be 8909 373e 1649 0dbe 9988 d8bc
00000140: 060a 91be 90e7 31bd b16d 01bc cd14 2f3e
00000150: b373 2bbc 4e9a 0f3e ae83 f23d f5de 483e
00000160: b2b9 413d 08df 203e 4e0c 1d3d 6fb5 40be
00000170: 377a 903e 9d4d 053e 3742 97bc 94ee c5bd
00000180: be4e b7bd 75ce 833e 223c 4bbd a4d1 133d
00000190: 708c 60bd 5e14 4bbd 4bd7 e4bb 2195 fbbd
000001a0: 0abd 18be 9052 6e3e 3343 f9bc 9307 95be
000001b0: bc4a 41be 53a0 5d3e f10b a33e 48b6 f6bd
000001c0: 4ec5 3b3e 2ae7 3a3e c545 6fbe a9f0 24be
000001d0: 2ba9 55be 3be9 4e3e f1ef 603d 093a 70be
000001e0: 7888 9c3d d0cc 4c3c 88b5 3ebe 8464 903d
000001f0: cd42 69be 6b66 6c3e 2479 833e 5a8b 66be
00000200: d0a5 54be 79ef c73d 3ef1 15be f94b 8e3e
00000210: c84a 933e daf5 493e 15b5 0a3e 0bd9 523d
00000220: 9753 0a3e 5fa1 18be c911 3fbe 0d1b 363c
00000230: 9edc a7b9 03f2 443e f3a8 7dbd c10a 443e
00000240: 8aca d9be c819 41be dd4c 223e 2e86 ec3d
00000250: a8d0 8e3d b768 6b3e a415 fe3d 4e45 123e
00000260: f77d 8dbd ddbe 25be 6273 b73a d158 15be
00000270: d286 663d 26fb c7be 5360 4abb 77fe 4cbd
00000280: 4d75 8abd b180 743e 4d22 a2bc 4c52 3a3e
00000290: 81f1 66be 8772 733e 8c55 7abd a698 dabc
000002a0: 140f 3cbe d7b7 17be 6b56 933d 2f8c 3e3e
000002b0: 13b1 9ebe ab8a c13d 8f13 dd3d 2776 02be
000002c0: e397 2a3d 8a1c c6bd f5bb 813e e6ec ebbc
000002d0: 711a 3d3e 5a5f 323e cbfd 0b3e 763b 4ebe
000002e0: 96f6 5ebe ff70 37be 3c64 033d 27ef 733c
000002f0: e999 203e 8fb7 bfbc 9d49 523e 1ada 91bc
00000300: 0c78 68be 1378 21be 5102 ee3d 6f92 963e
00000310: 131f 803e 7e62 04be fb9b 70be 6e1b 093e
00000320: bd9d 80be ae5d 2abe c432 923d fb85 d6bd
00000330: e271 2a3e b0ef 5abe 5a59 4e3e 4a93 0b3e
00000340: e9f6 553b f232 0abd 3729 7b3e 5f76 2ebe
00000350: d45c 8cbc 2914 753d 77d8 493e 3471 9c3e
00000360: 65c4 2b3e 2a5f 833e ea4c 57be 8d1f c43c
00000370: 0379 233e 6464 81be 4510 14be 756e 31bc
00000380: bd9c b8bd 0d2d 7fbd c710 763e 5889 b2bd
00000390: 9d40 253e 50ee a23d e95f dabe 8636 6a3e
000003a0: 7ff2 debe 097d febd ba2a 153e 8f7e 423e
000003b0: a902 383e 3c82 013e a9fd 1f3d 0374 2fbe
000003c0: bdcb 0dbe b792 fcbd bc72 3abd 5ed2 20be
000003d0: be2d f33d 3ea6 3abd d8a4 08be 9d5e 5ebd
000003e0: 9a65 db3d b43b 853e b28a 51be e56b a53d
000003f0: a4ce c0bd c4ee 063e b262 06be 7cd2 0cbc
-0.033894766 0.17029202 -0.14170913 -0.0067943367 -0.1699511 0.1175157 -0.15694031 0.1664566
-0.15277168 0.17334661 -0.09335123 0.052537948 -0.0884406 -0.1773049 0.07516113 0.21141219
0.49053353 0.008560992 -0.12037302 -0.088510394 0.23613586 -0.074785836 0.049325764 0.29096916
-0.185921 -0.14714041 -0.14821567 0.20420635 0.3126964 -0.075407326 -0.006866352 0.058706407
0.008890863 0.09904386 -0.122295246 -0.049977597 -0.19316109 0.19934624 0.18149377 -0.17927893
-0.16478188 0.030565899 0.029735625 -0.20282444 0.08694342 -0.05589848 0.1826404 -0.21843532
0.06516674 0.10363961 0.028917918 -0.057028707 0.22394378 0.24751176 0.05919311 -0.27474108
-0.18925992 -0.093945794 0.1193553 -0.100124925 -0.14021413 -0.35721225 0.18333387 -0.21979007
-0.0664115 -0.109829366 0.0037529308 0.26660064 -0.015405543 -0.21571037 0.08755664 0.2499029
0.05353907 0.060057703 -0.14400113 -0.060529675 -0.24012269 0.17874731 -0.13797411 -0.026432322
-0.2832796 -0.043433726 -0.007899688 0.17097779 -0.010464597 0.14023706 0.11841522 0.19616301
0.047296233 0.1571008 0.038341813 -0.18819211 0.28218243 0.13017888 -0.01846419 -0.09664646
-0.08950566 0.25743452 -0.049617894 0.0360886 -0.05482143 -0.04957997 -0.0069836727 -0.122843035
-0.14915863 0.23273683 -0.03042755 -0.2910734 -0.18876165 0.2164319 0.31845048 -0.12046486
0.18336985 0.18252245 -0.23366459 -0.1610743 -0.20865314 0.20206158 0.054916326 -0.23459639
0.07643217 0.012500003 -0.18623936 0.07050422 -0.22779389 0.23085944 0.2567836 -0.22514096
-0.20766377 0.09762473 -0.14642808 0.27792338 0.2876799 0.19722691 0.1354564 0.05147652
0.1350845 -0.14905308 -0.18659128 0.011114848 -0.00032017095 0.19232945 -0.0619287 0.19144727
-0.42537338 -0.18857491 0.15849634 0.1154903 0.06973392 0.22989164 0.12406471 0.1428425
-0.069087915 -0.1618609 0.0013996179 -0.14584662 0.05628092 -0.390588 -0.0030880168 -0.050047364
-0.067606546 0.23877217 -0.019791747 0.18195456 -0.22553064 0.23774157 -0.06111674 -0.026684117
-0.18365127 -0.14816223 0.07194217 0.18608163 -0.30994472 0.09450277 0.10794746 -0.12740384
0.041648757 -0.09673412 0.25338712 -0.028799485 0.18467118 0.17419186 0.13671033 -0.2013987
-0.21773753 -0.17914198 0.032078013 0.014888561 0.15683712 -0.023402957 0.20535894 -0.017804194
-0.22702044 -0.15768461 0.116215356 0.29408595 0.25023708 -0.12928197 -0.23497002 0.1338937
-0.25120345 -0.16637298 0.07138589 -0.104747735 0.16645005 -0.21380496 0.20151272 0.13630405
0.003264839 -0.03373999 0.24527441 -0.17037342 -0.017134108 0.05983368 0.19711481 0.30555117
0.16774137 0.25658542 -0.21025434 0.023940826 0.15964131 -0.25271904 -0.14459331 -0.010829558
-0.090142705 -0.062298823 0.24029838 -0.087176025 0.1613793 0.07955611 -0.426513 0.22872362
-0.43544385 -0.12426192 0.1456708 0.18993591 0.17969765 0.12647337 0.03906027 -0.17134099
-0.13847251 -0.12332671 -0.045519575 -0.15705249 0.11873959 -0.045568697 -0.13344133 -0.05428945
0.10712738 0.26022112 -0.20463064 0.0807722 -0.094144136 0.1317702 -0.13123587 -0.008595105

bias f4 [32]
00000000: c0e7 56bb e0f6 ef3b 61d1 eb3a 5392 f23b
00000010: d397 813b a0fc d83c 544d 52bb 4108 43bb
00000020: 0fa9 893b f83c 373b 3bb6 073b 3355 823c
00000030: c26d aaba 6186 753c 6101 2d3b 9cd4 b03a
00000040: 812f b7bb 0d27 90ba ad48 133b 35a3 f23a
00000050: b5c1 bbba 2070 633b 5f3e 9aba 4202 76bb
00000060: de00 253c 8ce0 0c3c 108f 2a39 7598 32bc
00000070: 9721 ed3b 3e05 0d3b 51c8 92bb 544a 52ba
-0.0032791942 0.007323131 0.0017991477 0.007402697 0.0039548664 0.026487648 -0.0032089548 -0.0029759558
0.0042010616 0.0027959924 0.0020707983 0.015909767 -0.0013002681 0.014985652 0.0026398527 0.0013491097
-0.0055903797 -0.0010997966 0.0022473738 0.0018511774 -0.0014324697 0.0034704283 -0.0011767856 -0.0037537967
0.010071008 0.008598458 0.00016265758 -0.010900606 0.0072366702 0.0021518017 -0.004479446 -0.000802194

weight f4 [1, 32, 5, 5]
00000000: 32c3 88bd 9f04 3a3d 01be 8dbd b4b6 92bd
00000010: f867 9ebc 5f3b ad3c 10ac 943d f20c 663b
00000020: 17e5 8abb be4a 853d bf6a 2dbc 559f cf3c
00000030: 90b5 873d b0a3 0fbd efd8 a83d 2a70 853d
00000040: 9481 853d 2729 1dbd 0a3e 07bd a146 14bd
00000050: c9be 243d 5c8b a63d 5a0a 1b3d c6df 64bd
00000060: 403a 613d e466 fd3c c03a 893d e57c 80bd
00000070: d11e 29bd 5ad8 4ebd e7c9 353d 7e72 6b3d
00000080: 5c44 49bd 1c82 b1bd 872c 6c3d ea00 223d
00000090: 9227 943d f53d 8a3d f77f 9a3d 2652 68bd
000000a0: 3dfe 673c daeb a73d 4aa2 273c 2fce a93d
000000b0: 9a02 9a3d 7128 883d 6e8a 83bd adf7 e3bc
000000c0: af33 4b3d 4aca 003c d3ed 8dbd 4a03 5abc
000000d0: 2fc2 44bd 975d a83d 7a65 dcbb 9396 33bd
000000e0: 12fb f0bc 4461 d2bb a5c2 903b ce1b 2fba
000000f0: db73 ab3d 393e 693d 9dd7 c1bc ffd9 a23d
00000100: 88c3 10bd 20e6 1cbd d55c bd3c 0a10 673d
00000110: 18ae aa3d fada 35bd db55 983c c4d4 30bd
00000120: 862c e63b a56e 2b3d 1b6d 4dbc c421 f83c
00000130: 5496 993d bba2 88bd dff0 73bd 3630 32bd
00000140: 82c7 80bd 3d94 8c3d 4029 8bbd 4a34 6bbd
00000150: 7c86 87bd 81b4 65ba 95d9 a33d 04b7 943d
00000160: 8247 a43d 9693 c6bc d124 3e3d 05dd 083d
00000170: ed46 7c3c af15 213d b0db 75bd d2c1 a83d
00000180: 28a3 5cbc 0fee 963d bde8 533d ef61 ccbb
00000190: 92a4 843d dc84 6fbd 2d73 84bd 1c07 8c3d
000001a0: 462c e43a a401 be3c 8182 37bc 0650 86bd
000001b0: be22 993c 9758 2d3c a219 f43c 3185 1f3d
000001c0: 497f 9f3d 528a 313d 532a 9f3d 5867 2e3d
000001d0: 9df1 823d 9a90 05bd ed4c 153d 94da 5dbd
000001e0: e25d fc3c d295 a23d b00d 8b3c 7609 a9bd
000001f0: 743c 203d 3040 b2bc 0879 a03c 5786 1f3d
00000200: 271f 98bd 58fa 52bd 4303 3e3c 22a7 8abd
00000210: 2700 893d e2df 9bbc ca9f 283d 5712 8ebd
00000220: e8ac 98bd f406 a53c 6abd 763d 2344 cfbb
00000230: 1dbe ddbb accd 86bd d962 44bd 6eaa 9f3d
00000240: cac3 9c3d 9d6a 983d c06d bb3d 07c0 173d
00000250: 8a5b 81bd 0009 b13d e414 d93a f35c 763d
00000260: c2b0 25bd fefd 15b9 bb86 85bc d76b 9fba
00000270: 80dd ac3d 0fe3 713d 358c 9dbd 5046 a9bd
00000280: cf52 6fbd f11b 873c 67de 5ebd 41a1 a73d
00000290: a078 a1bd 2a2e 0bbd 60c3 7abd de93 6e3d
000002a0: 6ef7 22bd 418a 903d 8969 633d 3337 20bd
000002b0: 31b4 22bd 97da 52bd c198 733d 4d57 263d
000002c0: 65f3 6b3d 5455 6ebd 8568 cc3c 19d3 f2bb
000002d0: efd8 21bd 7f10 a2bd 2061 6f3d a07c 6ebc
000002e0: 57d8 57bd 9d59 0e3d c2bc 00bd d6eb 7dbd
000002f0: 6a1b 0e3b 3cdc 9e3d 8b03 5cbd 6097 f93c
00000300: e4f7 80bd 791f 92bc 6f0a 3abd bd02 7dbd
00000310: 7ef6 d5bc fbf7 78bd 65a7 1f3d d8cb 593d
00000320: 6ba7 0a3c 58dc 413d 977c 26bd b698 19bd
00000330: 15d0 073d 6223 353d a2f3 a43d 9229 2f3d
00000340: a2bb 4e3d 4cc7 a63c 9885 80bd f035 ab3d
00000350: 31b5 64bd da5b 443d 635b fdbc b5ba 8bbc
00000360: 895a 953b 4e55 693d 30f4 9f3d 2c47 f83c
00000370: 601a 1c3d cd40 373d 8aa9 4bbd e521 c5bc
00000380: 89d0 9f3d 3d8f 38bc 4a6a 883d 9ea9 f7bc
00000390: f52f 2b3d 8309 293d 0914 233d d9fe 983d
000003a0: fc9c 9bbc c6f9 393d d5b7 3cbc 7f59 343d
000003b0: 7774 a53d ecd4 2b3d f401 4b3d 0fcc 1abc
000003c0: f1d3 f13c 3f62 c63c a387 843d e5e6 8c3c
000003d0: 62f7 7cbd b92b 11bd 414a 50bd 28f5 a5bd
000003e0: 341f 353b 328a c23b c14b 3e3d 34d0 a0bc
000003f0: 37e0 62bc 72e4 813d 79d7 503d 676c 87bd
-0.066778556 0.045414563 -0.06921006 -0.07163754 -0.019336686 0.021146474 0.07259381 0.003510293
-0.0042387354 0.065083966 -0.010584532 0.02534453 0.06626427 -0.035068214 0.08244502 0.06515534
0.06518856 -0.038369324 -0.03301815 -0.03620017 0.04022101 0.081320494 0.03785167 -0.05587747
0.054987192 0.030932851 0.06700659 -0.06273822 -0.041289154 -0.050499298 0.044382002 0.057482235
-0.04913746 -0.086673945 0.057659652 0.039551653 0.0723411 0.067500986 0.075439386 -0.056718968
0.014159736 0.08199282 0.010231564 0.082912795 0.075200275 0.066483386 -0.06422888 -0.027828062
0.049609836 0.0078607295 -0.06930127 -0.013306448 -0.04803675 0.08220976 -0.006725964 -0.04384477
-0.029416595 -0.0064202864 0.0044177347 -0.00066798634 0.08371707 0.056944106 -0.023662383 0.07951736
-0.035342723 -0.0383054 0.023115555 0.05641178 0.08333987 -0.044398285 0.018595627 -0.04317166
0.0070243506 0.041853566 -0.01253822 0.030289538 0.07499376 -0.066716634 -0.059555884 -0.04350301
-0.06288053 0.06864212 -0.06794977 -0.057422914 -0.06617448 -0.0008762554 0.08000485 0.0726147
0.080214515 -0.024240296 0.04642183 0.033413906 0.015397769 0.03932732 -0.060023963 0.08240093
-0.013466634 0.07369625 0.05173563 -0.0062372605 0.06476702 -0.058476314 -0.064672805 0.068372935
0.0017408214 0.023194142 -0.011200548 -0.06558232 0.018693324 0.0105802035 0.029797379 0.03894538
0.077879496 0.043344803 0.077717446 0.042579025 0.0639374 -0.032608606 0.036450315 -0.05416353
0.030806486 0.07938732 0.0169743 -0.08253758 0.039120153 -0.021759123 0.019588962 0.038946476
-0.07427817 -0.051508278 0.011597457 -0.06770159 0.06689482 -0.019027654 0.04116801 -0.06937092
-0.07454854 0.020144917 0.060239233 -0.006325261 -0.006767048 -0.065821975 -0.04794583 0.07796179
0.07654531 0.0744221 0.091517925 0.037048366 -0.06316288 0.08644295 0.0016562012 0.060147237
-0.040451773 -0.00014304367 -0.016299596 -0.0012162876 0.08440685 0.05905443 -0.07692758 -0.08265364
-0.05842858 0.016492816 -0.05441132 0.081850536 -0.078843355 -0.033979572 -0.06122148 0.058246486
-0.03978675 0.0705762 0.055520568 -0.039115142 -0.039722625 -0.051477995 0.05947185 0.0406106
0.057605166 -0.058186844 0.024952183 -0.0074104187 -0.039513525 -0.07913303 0.058442235 -0.01455608
-0.052696552 0.03475343 -0.031430013 -0.06199249 0.002168382 0.0775685 -0.053714316 0.030467689
-0.062972814 -0.017837273 -0.045420107 -0.06177019 -0.026118513 -0.060783368 0.038978 0.053172916
0.008462767 0.047329277 -0.040646162 -0.037499152 0.033157427 0.044223197 0.08054282 0.042764254
0.05047191 0.020358704 -0.06275481 0.08359897 -0.05583686 0.04793916 -0.030927366 -0.017056802
0.004557912 0.05696612 0.07810247 0.030307375 0.03811109 0.044739533 -0.049722232 -0.024064014
0.07803447 -0.011264619 0.06660898 -0.030232247 0.041793782 0.041268837 0.03981403 0.07470483
-0.018995754 0.045404218 -0.011518438 0.044030663 0.080788545 0.041951105 0.04956241 -0.009448065
0.029520007 0.02421677 0.06471183 0.017199943 -0.06175936 -0.035442088 -0.050852064 -0.081034005
0.0027637007 0.0059368843 0.046458963 -0.019630529 -0.013847402 0.063424006 0.05098674 -0.06612473
