modeldata/model_181_epoch.pth (torch_old, 43016 bytes, 5 tensors)

weight f4 [64, 1, 9, 9]
0	0x3cee4b35	0.029088596
1	0xbb4d2a52	-0.0031305742
2	0x3cb23db5	0.02175794
3	0x3c425c62	0.011862846
4	0xbcfaedfa	-0.030631054
5	0xbd57e72a	-0.05271069
6	0x3d1e645a	0.03866992
7	0x3c03efff	0.008052825
8	0xbc754fa2	-0.014972599
9	0xbc175e2c	-0.009238761
10	0x3bf733c4	0.0075440127
11	0x3bc0ddad	0.005885801
12	0xbc9d7094	-0.01921872
13	0xbcd5df33	-0.026107406
14	0x3ba6d23e	0.005090981
15	0x3d0ca1a3	0.034333836
16	0x3c7d670e	0.015466465
17	0xbc71151e	-0.014714507
18	0x3c09d9cf	0.008413746
19	0xbcd54102	-0.026031975
20	0x3cbda788	0.023151174
21	0xbba50078	-0.0050354563
22	0xbd37af91	-0.044845168
23	0xbc4ad103	-0.012378934
24	0x3cbea3ca	0.02327146
25	0x3d30b249	0.043138776
26	0x3c9bd2fe	0.019021507
27	0xbcebc65a	-0.028781105
28	0x3cefe2d2	0.029282961
29	0x3d84507f	0.06460666
30	0x3d24b385	0.040210266
31	0xbcf753fa	-0.03019141
32	0xba6aa659	-0.00089511793
33	0xbbf7be53	-0.00756053
34	0xbd8a05e2	-0.06739403
35	0x3c79f174	0.015255321
36	0xbb83258f	-0.00400228
37	0x3d0e40a8	0.03472963
38	0x3de19ce0	0.1101625
39	0x3d83d154	0.064364105
40	0xbcadbc19	-0.021207856
41	0xbc9c3452	-0.019067917
42	0x3b3bd370	0.0028659962
43	0xbd3c5337	-0.045977797
44	0x3cedf22c	0.02904614
45	0xbb8edf6b	-0.0043601296
46	0xbd66a162	-0.05630625
47	0xbc1f021e	-0.009705095
48	0xbd952cdd	-0.072839476
49	0xbdc321e8	-0.095279515
50	0x3a8d55df	0.0010783038
51	0xbdf7434c	-0.12073383
52	0xbd30dae0	-0.043177485
53	0x3ca59248	0.020211354
54	0x3d189357	0.03724989
55	0x3c826d16	0.015921157
56	0x3d1e28b6	0.038613044
57	0xbc55dd96	-0.0130533185
58	0x3caedcd2	0.02134553
59	0x3ce314c9	0.027719872
60	0xbd0615ed	-0.032735754
61	0x3be2b836	0.0069189323
62	0x3d4ee71b	0.050513368
63	0xbcd87026	-0.026420664
64	0xbcd65b2e	-0.026166525
65	0xbcb0239c	-0.021501355
66	0xbca987da	-0.020694662
67	0x3dbab2c5	0.09116129
68	0x3ca448cc	0.020054244
69	0xbd490454	-0.049076393
70	0xbc2cce11	-0.010547177
71	0x3c2eab84	0.01066101
72	0x3cb31459	0.021860288
73	0xbc4d7d89	-0.012542137
74	0xbd01cbfa	-0.031688668
75	0x3ba4e97b	0.005032716
76	0x3d688227	0.056764748
77	0x3b2e952f	0.0026639213
78	0xbcb67586	-0.022272836
79	0x3cd21c04	0.025648125
80	0xbd289bf4	-0.041164353
81	0xb930d9fb	-0.00016865872
82	0xbcaccfeb	-0.021095237
83	0xbc021925	-0.007940565
84	0x3cefd856	0.029277962
85	0x3d6fd913	0.058556627
86	0x3d18ccbe	0.037304632
87	0x3d57d345	0.052691717
88	0xbc843894	-0.01614026
89	0xbd045953	-0.03231175
90	0x3cef636c	0.029222213
91	0xbcd23e86	-0.02566458
92	0x3cd32024	0.025772162
93	0x3d25c21f	0.04046833
94	0x3cdff692	0.027339254
95	0x3d42d8d4	0.047570065
96	0x3be0ea60	0.006863877
97	0x3d3c6b14	0.046000555
98	0x3d12a39c	0.03580056
99	0x3cedbc71	0.02902052
100	0xbbf9682e	-0.007611296
101	0x3cba24b2	0.022722576
102	0xbc32d539	-0.010915094
103	0x3cc1a875	0.023639897
104	0x3d36352c	0.044484302
105	0xbcb6e36f	-0.022325246
106	0x3d6763cd	0.05649166
107	0xbb95f3cd	-0.0045761825
108	0x3ce3416f	0.027741162
109	0x3cca970d	0.02473023
110	0x3c5e1d02	0.013556721
111	0xbbdeae04	-0.0067956466
112	0xbcf2da89	-0.029645221
113	0xba8f0940	-0.0010912791
114	0xbc390c0c	-0.011294376
115	0x3d00e2d8	0.031466335
116	0x3c2db700	0.010602713
117	0x3c3a1223	0.011356863
118	0x3c2ecb87	0.010668642
119	0x3ce756ef	0.028239695
120	0xbc296986	-0.0103401
121	0xbd25544f	-0.040363606
122	0xbdb2e741	-0.087355144
123	0xbd2249bb	-0.039621096
124	0x3c96211c	0.018326335
125	0x3d960ce4	0.073266774
126	0x3cbcacd0	0.023031622
127	0x3d1870a9	0.037216816
128	0x3d52fbb1	0.051509563
129	0x3b15bd21	0.0022848325
130	0xbd0c60ef	-0.03427213
131	0xbd815093	-0.063141964
132	0xbd79b3bd	-0.060962427
133	0x3d2ea315	0.042635996
134	0x3d8fd762	0.07023503
135	0x3c0bfbac	0.00854389
136	0x3d16134a	0.03663949
137	0x3cbb9f60	0.022903144
138	0x3c4c0493	0.012452262
139	0xbb256f22	-0.0025243242
140	0xbd56510f	-0.052323397
141	0xbc0dc19c	-0.008652117
142	0x3d03a4f5	0.032139737
143	0x3d49ab2d	0.04923551
144	0xbbf3b283	-0.0074370517
145	0x3cc98268	0.024598315
146	0x3ce2de11	0.02769378
147	0x3d2c2c8b	0.042034667
148	0x3c8caff6	0.017173748
149	0x3d5ffc58	0.054684013
150	0x3d561baa	0.052272476
151	0x3d24d0be	0.040238135
152	0x3d021b8d	0.031764556
153	0xbc7098ae	-0.014684839
154	0x3cf2bca1	0.02963096
155	0xbc5dbf9d	-0.013534454
156	0xbb73c7e4	-0.0037198002
157	0x3d286075	0.041107614
158	0x3ce58f6c	0.02802249
159	0x3c9cd22d	0.019143188
160	0x3b8016cb	0.003908967
161	0xbbdbb8b4	-0.006705368
162	0x3c2f56c6	0.010701841
163	0x3ca15ac6	0.019696604
164	0xbd19e1f9	-0.03756902
165	0x3bcd6081	0.0062676077
166	0x393257a7	0.00017008056
167	0xbce90fb6	-0.028449874
168	0x3c193945	0.009352033
169	0xbd0af300	-0.03392315
170	0xbb322b3d	-0.0027186417
171	0xbd2b6bed	-0.041850973
172	0xbbd1bf0b	-0.006400948
173	0x3c79e81e	0.015253095
174	0x3d301e62	0.042997725
175	0x3dc4ee4a	0.096157625
176	0x3d32554b	0.043538373
177	0x3e0bff01	0.13671495
178	0x3d082c10	0.033245146
179	0x3d2ae434	0.041721538
180	0x3c31883a	0.010835702
181	0x3db0db81	0.08635617
182	0x3c945de9	0.018111186
183	0xbde9a8ad	-0.114091255
184	0xbe4fbc2f	-0.2028663
185	0xbe9dc9fc	-0.30818164
186	0xbe792291	-0.24329592
187	0xbdfc5b52	-0.123221055
188	0x3d8280ab	0.06372198
189	0xbd10db67	-0.03536549
190	0xbcdee821	-0.027210297
191	0xbd4fa70a	-0.05069641
192	0x3c466206	0.012108332
193	0x3df062ca	0.117375925
194	0x3e14e9a8	0.14542258
195	0x3db7c352	0.08972801
196	0xbb9f24ae	-0.0048566675
197	0xbd1fbd2f	-0.03899878
198	0x3be240cd	0.0069046975
199	0xbc1014cc	-0.008794021
200	0x3cc857b8	0.02445589
201	0x3988cc9b	0.00026092384
202	0xbe159915	-0.14609177
203	0xbdcf9d11	-0.1013738
204	0xbc90e923	-0.017689293
205	0x3cc50075	0.02404807
206	0xbc176aa4	-0.009241734
207	0xba6118b9	-0.0008586753
208	0xbc980095	-0.018554965
209	0x3cfd2802	0.030902866
210	0x3d2bbff7	0.04193112
211	0xbcabf24e	-0.020989563
212	0xbcab69f6	-0.02092455
213	0xbd1aaeac	-0.037764236
214	0x3ced91d6	0.029000204
215	0xbcca9867	-0.024730874
216	0x3cd5a1dc	0.026078157
217	0x3c5a646b	0.013329606
218	0xbcd7deae	-0.0263513
219	0x3ccaf000	0.024772644
220	0x3dd68113	0.10473838
221	0x3d89efef	0.06735217
222	0xbcefe8ce	-0.029285815
223	0x3ce0398f	0.027371196
224	0x3b981775	0.004641468
225	0xbb1e4c10	-0.0024154224
226	0xbc581d5e	-0.013190595
227	0xbd0bbf37	-0.034117904
228	0xbca8e1fc	-0.02061557
229	0x3d22f4a9	0.039784107
230	0x3d6a525a	0.057207443
231	0x3cf2117a	0.02954935
232	0xbca2100b	-0.01978304
233	0xbaccdb5b	-0.0015629338
234	0xb9e3cdfe	-0.0004345029
235	0x3cb45ebb	0.022017827
236	0x3b144dc1	0.0022629353
237	0xbb3cb15b	-0.0028792236
238	0xbc260ab4	-0.010134388
239	0xbc119c88	-0.008887418
240	0xbd273fec	-0.040832445
241	0xbc5910c1	-0.013248623
242	0x3c5b6262	0.0133901555
243	0xbbaf45a8	-0.00534888
244	0x3a5779e9	0.0008219765
245	0xbd2261f3	-0.039644193
246	0xbcfd4eaf	-0.030921308
247	0x3d709001	0.058731083
248	0xbcaa12f2	-0.020760987
249	0xbcb2fda7	-0.021849466
250	0x3d3f2ea3	0.046675336
251	0x3a86f985	0.0010297751
252	0x3d233998	0.039849848
253	0xbbb28a6c	-0.00544863
254	0xbd86535b	-0.065588675
255	0xbac8c57d	-0.0015317645

bias f4 [64]
0	0x3b521034	0.0032053115
1	0x3d16419a	0.036683656
2	0x3a7c3645	0.0009621124
3	0x3c9c2bc7	0.019063843
4	0x3b964541	0.0045858924
5	0x3ca6f7df	0.020381866
6	0xbc91024e	-0.017701294
7	0x3b54d8a6	0.0032477765
8	0x3a47c408	0.00076204585
9	0x3c1ff7bf	0.009763657
10	0x3bd21136	0.006410743
11	0xbb3b2807	-0.0028557794
12	0x3b08fe09	0.002090337
13	0x3c884145	0.016632685
14	0x3d09f09c	0.03367673
15	0x3add4805	0.0016882425
16	0x3c7e9180	0.01553762
17	0x3c819ea7	0.015822722
18	0x3b83e060	0.0040245503
19	0xbb4e08e7	-0.0031438412
20	0x3bf7154b	0.00754038
21	0x3b13847f	0.0022509394
22	0xbb7ca808	-0.0038552303
23	0x3b420785	0.0029606533
24	0x3b37076d	0.002792801
25	0x3c2f8e56	0.010715088
26	0x3c676f9b	0.01412573
27	0x3bf4b562	0.0074679116
28	0x3d161817	0.036644068
29	0x3c4a3362	0.012341352
30	0x3b84b896	0.0040503247
31	0x3cd9a4bf	0.026567815
32	0xbbc09040	-0.005876571
33	0x3c21acf3	0.009867894
34	0x3b05e8d3	0.0020432964
35	0xbb0de7da	-0.0021653087
36	0x3c7b3b39	0.015333944
37	0xbb4664cb	-0.003027248
38	0x3afd00c6	0.0019302599
39	0xbc268907	-0.010164506
40	0x3c32e49d	0.0109187635
41	0x3c3e82c8	0.01162786
42	0xbcc246ce	-0.023715403
43	0x3bc225fb	0.005924938
44	0x3c322923	0.010874066
45	0x3baac2d6	0.0052112145
46	0x3ca6211f	0.020279465
47	0xbbdddaea	-0.0067704814
48	0x3b3436d3	0.0027498498
49	0xbc49365a	-0.012281025
50	0x3c9200e6	0.017822694
51	0x3cb9b0ab	0.02266725
52	0xbb09a8c3	-0.002100513
53	0x3cc4129d	0.023934657
54	0x3b7708f7	0.0037694552
55	0x3c3c65a1	0.01149884
56	0x3c0b618a	0.008507142
57	0x3c0a9933	0.008459377
58	0x3cae2a05	0.02126027
59	0x3c1e5e6b	0.009666066
60	0xbbee8a44	-0.007279666
61	0x3ba1d549	0.0049387557
62	0xbbdf8d38	-0.0068222545
63	0x3c4f541c	0.012654331

weight f4 [32, 64, 1, 1]
0	0x3df3b1f9	0.1189918
1	0xbe668725	-0.22512491
2	0xbda6c916	-0.08143823
3	0x3d7238c5	0.05913617
4	0xbdc62dfc	-0.096767396
5	0x3dae6a69	0.0851639
6	0xbea02566	-0.31278533
7	0x3d811109	0.06302077
8	0xbd2e123c	-0.04249786
9	0x3e260773	0.16213779
10	0xbde9b707	-0.11411863
11	0xbea26da4	-0.31724274
12	0x3e33c2a0	0.17554712
13	0x3e4e9451	0.20173766
14	0x3e464ab7	0.19364439
15	0xbe6b6cc0	-0.22990704
16	0xbe4499f6	-0.19199356
17	0x3d3cdfcc	0.046111867
18	0xbe1be11e	-0.15222594
19	0x3e18e1d5	0.14929898
20	0xbe30f7c3	-0.17282014
21	0xbe5a3c84	-0.21312147
22	0x3e2e08ec	0.16995591
23	0xbe38cbb6	-0.1804646
24	0x3e284c30	0.16435313
25	0x3cff8b9b	0.031194499
26	0x3dbb2594	0.09138027
27	0xbd62dfb9	-0.05538914
28	0xbcf526cc	-0.029925726
29	0xbe796d4b	-0.24358098
30	0x3e3f6c99	0.1869377
31	0x3e81eda1	0.2537661
32	0x3e8b79b9	0.27241305
33	0xbe31c97e	-0.1736202
34	0x3de1dd53	0.11028542
35	0x3ebc06ff	0.36724088
36	0xbcc0314b	-0.023461005
37	0x3e43e1a2	0.19129041
38	0xbdd56ca6	-0.10421114
39	0x3db7695d	0.08955643
40	0xbe37912f	-0.17926477
41	0xbe252ad8	-0.16129625
42	0x3e76f5d6	0.24117216
43	0xbe8ac060	-0.27099895
44	0x3e4ea460	0.20179892
45	0xbc779a19	-0.015112423
46	0x3d85883b	0.065201245
47	0xbcf43f0f	-0.029815225
48	0x3e1d685f	0.15371846
49	0xbe0d4614	-0.13796264
50	0x3dcfcc39	0.10146374
51	0xbed541e0	-0.4165182
52	0xbe5bf32f	-0.21479486
53	0xbe9ae153	-0.30250034
54	0x3e31d524	0.17366463
55	0x3d2a9705	0.04164793
56	0xbe6dd61f	-0.23226212
57	0xbd87b437	-0.0662617
58	0x3e6a5e7f	0.2288761
59	0xbc502664	-0.012704466
60	0xbd643c0a	-0.05572132
61	0x3ddd4ecc	0.10806045
62	0xbeefc5d7	-0.46830627
63	0x3d9e7215	0.07736603
64	0xbcc731bd	-0.02431571
65	0x3e878f22	0.2647639
66	0xbebb49d3	-0.3657976
67	0x3d60643b	0.054783087
68	0x3e705358	0.23469293
69	0x3d9142d7	0.07092827
70	0xbf5c38c3	-0.8602411
71	0xbe3ebaba	-0.18625918
72	0xbd68ead8	-0.05686459
73	0xbe02be9d	-0.12768026
74	0x3d5b5f38	0.053557605
75	0xbdd899d2	-0.10576214
76	0x3c11449d	0.008866456
77	0xbe0e2b49	-0.138837
78	0x3c157c28	0.009123839
79	0xbe4d2d2c	-0.20036763
80	0xbe5e6e9e	-0.21721885
81	0x3e58d5d6	0.21175322
82	0xbd99fc0c	-0.07518777
83	0x3e3c4724	0.18386513
84	0xbdfd350f	-0.12363636
85	0x3d8d83a0	0.06909871
86	0xbd83dd6f	-0.064387195
87	0xbe412eff	-0.18865584
88	0x3d544495	0.051823217
89	0x3f5bd0a9	0.85865265
90	0x3dff7c57	0.12474888
91	0xbe44e2bb	-0.19227116
92	0x3bf48b85	0.007462921
93	0xbd26ff6b	-0.04077093
94	0x3d5f1e7f	0.054472443
95	0x3e15ffd0	0.14648366
96	0xbe8cb366	-0.2748062
97	0xbe20b779	-0.1569499
98	0xbe8a67e5	-0.2703239
99	0x3e74d58a	0.23909584
100	0xbe594de6	-0.21221122
101	0xbe275acb	-0.16343229
102	0x3e035ff6	0.12829575
103	0x3e0cccda	0.1375002
104	0xbdb4bae7	-0.08824711
105	0x3b9ad0ec	0.0047246125
106	0x3e03b6f0	0.12862754
107	0xbe652216	-0.22376284
108	0x3e535583	0.20638089
109	0x3c88e070	0.016708583
110	0x3dfdd9b7	0.123950414
111	0xbe97516a	-0.29554302
112	0xbe2f6066	-0.17126617
113	0x3dc8b2cc	0.09799728
114	0x3e471120	0.19440126
115	0x3f0550e0	0.5207653
116	0x3e92075f	0.2852125
117	0xbdb95c98	-0.09050864
118	0x3cbffc63	0.023435777
119	0x3cccaaea	0.024983842
120	0x3e3db1e5	0.18524893
121	0xbe089405	-0.13337715
122	0xbe7ae225	-0.2450033
123	0x3e89d56b	0.26920637
124	0xbdf4d39b	-0.11954423
125	0xbc233a5d	-0.009962645
126	0x3e794584	0.24342924
127	0xbe204cf3	-0.15654354
128	0xbee3e16d	-0.44507924
129	0x3e9ca31e	0.305932
130	0x3e27ea36	0.16397938
131	0x3e9812d1	0.29701856
132	0xbddacedb	-0.10683986
133	0xbdd3eaa7	-0.10347491
134	0x3ef28512	0.4736715
135	0xbe52d520	-0.20589113
136	0xbf1b4005	-0.6064456
137	0x3e88ce7a	0.2672003
138	0x3e3d194e	0.18466684
139	0x3dcbfbd8	0.09960145
140	0x3e230c1f	0.15922593
141	0xbd2d8521	-0.04236329
142	0x3e55e065	0.20886381
143	0xbdb8720d	-0.090061285
144	0x3d3d44d5	0.04620822
145	0x3eb79bcf	0.3586106
146	0xbe27b347	-0.16376983
147	0x3dd0d799	0.10197372
148	0xbf08c776	-0.53429353
149	0xbe0d1195	-0.13776238
150	0xbd2755b5	-0.04085322
151	0xbda59262	-0.08084561
152	0xbe629aa0	-0.22129297
153	0x3c2195da	0.009862388
154	0xbea295f5	-0.31755033
155	0xbe2c255a	-0.16811123
156	0x3e93d0de	0.2887029
157	0x3f04cb87	0.5187306
158	0xbe5c6df1	-0.21526314
159	0xbda84f52	-0.08218254
160	0x3f5d6c34	0.8649323
161	0x3c12746a	0.008938888
162	0xbd20a442	-0.03921915
163	0xbf117c0a	-0.56829894
164	0xbe6accea	-0.22929731
165	0xbde131fa	-0.109958604
166	0x3dc31e39	0.09527249
167	0xbe51d8cb	-0.20492856
168	0xbd59de96	-0.05319079
169	0x3f89e3e8	1.0772676
170	0xbf18598f	-0.59511656
171	0xbe7d08f1	-0.24710442
172	0xbda4e1ec	-0.08050904
173	0x3e8cfa36	0.27534646
174	0x3f41d062	0.7570859
175	0x3f0dc9d2	0.5538608
176	0xbe92ab11	-0.28646138
177	0xbd898d48	-0.067164004
178	0xbd987017	-0.074432544
179	0xbf85566b	-1.0416998
180	0x3e3f76ae	0.18697616
181	0xbe74c9d5	-0.23905118
182	0xbc9f8c4e	-0.019476082
183	0xbdfeb3c6	-0.12436633
184	0x3ea04309	0.31301144
185	0x3e75808e	0.23974821
186	0x3dc1b18e	0.09457694
187	0x3eacd2eb	0.33754668
188	0x3e384c91	0.17997958
189	0xbbcf80ef	-0.0063325088
190	0xbeaa961d	-0.33317652
191	0xbe9dae8f	-0.3079724
192	0x3e8d598a	0.27607375
193	0xbda8debd	-0.08245609
194	0xbe6075c0	-0.21919918
195	0x3eaa89c6	0.33308238
196	0x3df7a9ae	0.12092911
197	0xbe4909c3	-0.1963263
198	0xbdfeda20	-0.12443948
199	0xbe84d4b5	-0.25943533
200	0x3cb1f6fd	0.021724219
201	0xbd9c8ce6	-0.07644062
202	0x3e203725	0.15646036
203	0x3dcc1069	0.099640675
204	0xbe21845b	-0.15773146
205	0x3e6f07d0	0.23342824
206	0xbe309f6c	-0.17248315
207	0x3e49b110	0.1969645
208	0xbba7d2d5	-0.0051215687
209	0x3cc120aa	0.023575146
210	0xbe4fd470	-0.20295882
211	0x3e58f4ca	0.2118713
212	0xbe96ced6	-0.29454678
213	0x3eafafe5	0.34313884
214	0xbf1eef70	-0.620841
215	0x3dfde9e0	0.12398124
216	0x3e34d75c	0.17660278
217	0x3e84495f	0.25837228
218	0x3ec84772	0.39117008
219	0x3e6a915c	0.22907013
220	0x3bb6e3bd	0.0055813477
221	0x3e711cec	0.23546189
222	0xbd11521c	-0.035478696
223	0x3ef87318	0.4852531
224	0x3e17c755	0.14822133
225	0xbe52132f	-0.2051513
226	0xbeb8934f	-0.36049888
227	0x3e585901	0.21127702
228	0x3e63c69c	0.22243732
229	0xbdca440e	-0.09876262
230	0xbe35fd6c	-0.17772454
231	0x3de0f5ef	0.10984408
232	0x3de71d83	0.11284926
233	0xbeeec057	-0.4663112
234	0x3db33758	0.0875079
235	0x3e697e95	0.22802193
236	0x3e99fda9	0.3007634
237	0xbc27da3c	-0.010244902
238	0xbee3406f	-0.44385096
239	0xbf2e1afd	-0.6800993
240	0x3dd821a7	0.10553294
241	0xbe8f8439	-0.28030565
242	0xbd839ea1	-0.064267404
243	0x3e4fa9e9	0.2027966
244	0x3da1cc95	0.07900349
245	0x3cf1cb5f	0.02951592
246	0xbe3d13fe	-0.18464658
247	0x3d77968d	0.06044631
248	0xbeb2f502	-0.3495255
249	0xbeac943a	-0.33706838
250	0xbe0fb7a0	-0.14034891
251	0x3e8b56c7	0.27214643
252	0xbe9d3d2a	-0.30710727
253	0xbe93e56c	-0.28885972
254	0xbf34a9c1	-0.70571524
255	0x3df36a0c	0.11885461

bias f4 [32]
0	0xbca92370	-0.02064678
1	0xbcbd5940	-0.023113847
2	0x3ceeb6f4	0.029139973
3	0xbd408c5e	-0.047008865
4	0x3ab2e57b	0.0013648713
5	0x3c2d32d5	0.010571201
6	0xba46e012	-0.00075864897
7	0x3a02cc75	0.0004989573
8	0xbd0e7883	-0.034782898
9	0xbbbb7882	-0.0057211528
10	0xbc2bc444	-0.010483805
11	0x3b9164da	0.0044370713
12	0xbbf39378	-0.007433351
13	0x3c551e6c	0.013007741
14	0x3bb6db02	0.005580307
15	0xbaf7d8d7	-0.0018909228
16	0x3bee110f	0.007265217
17	0x3c3a817e	0.011383412
18	0x3c0c5342	0.008564772
19	0x3b7039ff	0.0036655662
20	0xbc1abe39	-0.009444767
21	0x3c7b1a5c	0.015326109
22	0x3cc595b8	0.024119243
23	0x3b731b0e	0.0037094983
24	0x3af653a3	0.0018793236
25	0x39b08513	0.00033668484
26	0xbc0469fb	-0.008081908
27	0xba8e2959	-0.0010846063
28	0xba9d6840	-0.0012009218
29	0x3c8c1d25	0.017103741
30	0x3b69f2bd	0.0035697662
31	0xbc160b44	-0.009157959

weight f4 [1, 32, 5, 5]
0	0xbd80ec76	-0.06295101
1	0x3d90fcc8	0.07079464
2	0xbdc36fc2	-0.095428005
3	0xbdac90f3	-0.08426084
4	0xbc988773	-0.018619275
5	0xbc5e30cc	-0.013561439
6	0xbc0ab15e	-0.008465139
7	0x3ce18e7b	0.02753376
8	0xbc865757	-0.016399069
9	0x3dc7881b	0.09742757
10	0x3db3bcd1	0.08776248
11	0x3d668836	0.056282245
12	0x3ce5f0b2	0.028068874
13	0x3b349994	0.002755736
14	0xbd81e66e	-0.06342779
15	0xbcf6b2ee	-0.030114617
16	0x3d328297	0.04358157
17	0xbcd8e05c	-0.02647417
18	0x3ce1d8ff	0.027569292
19	0x3d3f13e9	0.046649847
20	0x3d65c32a	0.056094326
21	0xbb8808ee	-0.004151455
22	0xbd8c153e	-0.06839989
23	0xbdb06eb2	-0.086148635
24	0xbd8443c2	-0.06458236
25	0x3d30b640	0.043142557
26	0xbd8fca0e	-0.07020961
27	0x3d1078ed	0.035271574
28	0x3dceff3f	0.10107278
29	0x3d468e53	0.048475575
30	0xbcd074ad	-0.02544626
31	0xbc99c194	-0.018769063
32	0xbcd77e26	-0.02630527
33	0x3d46f43f	0.048572775
34	0x3c05947d	0.008153078
35	0xbdac05ad	-0.0839952
36	0xbda1c220	-0.078983545
37	0x3dfc6bf0	0.12325275
38	0xbdb0efbc	-0.08639476
39	0xbd6f5fbb	-0.058440905
40	0xbd2d0c37	-0.042247977
41	0x3d10aaf8	0.0353193
42	0xbdacf00e	-0.08444224
43	0xbd678188	-0.056520015
44	0xbb225f4c	-0.002477604
45	0x3cfcd8dd	0.030865127
46	0xbcaf33ac	-0.021386944
47	0xbcebce10	-0.028784782
48	0x3dbe5a29	0.092945404
49	0x3d689645	0.056783933
50	0xbc55cb8c	-0.013049018
51	0x3d9afaf8	0.075674
52	0x3d9620cd	0.07330475
53	0x3c065f0f	0.008201375
54	0x3c6457fb	0.013936992
55	0x3c4e6d84	0.012599353
56	0xbd65e440	-0.05612588
57	0xbe1231ef	-0.1427686
58	0xbd8565d2	-0.06513561
59	0xbd640580	-0.055669308
60	0xbc9788a1	-0.018497767
61	0xbd583bae	-0.05279129
62	0x3e560d1d	0.2090344
63	0x3dc64bbb	0.09682413
64	0xbcda18fc	-0.026623242
65	0x3c4610e2	0.012088986
66	0xbd7b997d	-0.061425675
67	0x3d864ab8	0.0655722
68	0x3d60e141	0.05490232
69	0xbd8ff6c2	-0.07029487
70	0x3c95704f	0.01824203
71	0xbc742e20	-0.014903575
72	0xbdf41f05	-0.11919979
73	0xbc061b4b	-0.008185218
74	0xbc4462dc	-0.011986461
75	0xbc8b047e	-0.016969915
76	0xbd34283b	-0.04398368
77	0x3b4f94f9	0.0031674488
78	0x3cc1507a	0.023597945
79	0xbc9256f8	-0.017863736
80	0x3bad52e2	0.0052894214
81	0xbd7c7f10	-0.061644614
82	0x3d1de4ea	0.038548388
83	0x3d10a7cc	0.035316274
84	0xbc9d1472	-0.019174788
85	0xbdc6ce93	-0.0970737
86	0x3dab10b0	0.08352792
87	0x3e33d91d	0.17563291
88	0x3d3dc93b	0.046334486
89	0xbdcc1799	-0.099654384
90	0x3d710f2f	0.05885237
91	0xbd7ab8ac	-0.061211273
92	0x3cf37044	0.029716618
93	0xbd95a0e1	-0.07306076
94	0xbbf7a95b	-0.0075580305
95	0xbd4c82a6	-0.049929284
96	0x3beb495e	0.007180377
97	0x3cfe13a0	0.031015217
98	0x3d1170e9	0.03550807
99	0xbceb2a4b	-0.02870669
100	0xbc39bb1b	-0.011336113
101	0xbd4700d0	-0.04858476
102	0x3c04f566	0.008115148
103	0x3d390e32	0.045179553
104	0xbcd3be21	-0.025847496
105	0xbc97122f	-0.018441288
106	0x3d09d4fd	0.033650387
107	0xbd320b27	-0.043467667
108	0xbda60957	-0.0810725
109	0x3d0460f9	0.032319043
110	0x3ba78ca6	0.005113202
111	0x3c9bd8b7	0.019024236
112	0x3cccebac	0.02501472
113	0x3c8388b0	0.016056389
114	0x3c13dd00	0.0090248585
115	0xbd248dec	-0.04017441
116	0x3c81045d	0.01574915
117	0x3d634dcf	0.055494126
118	0x3d21c450	0.03949386
119	0xbd94aa5a	-0.072590545
120	0xbd4ebb8b	-0.050471824
121	0x3d065a73	0.032801103
122	0x3d3f6366	0.046725653
123	0xbd8aa3e4	-0.06769541
124	0xbce1a742	-0.027545575
125	0x3d822dcf	0.063563935
126	0x3d248504	0.040165916
127	0x3cf65db5	0.03007398
128	0xbd8d7e6e	-0.0690888
129	0x3d4ed3a4	0.050494805
130	0xbd25a864	-0.040443793
131	0x3d458f7a	0.048232533
132	0x3d3b47dd	0.04572283
133	0x3c90452b	0.017611107
134	0x3b91d873	0.0044508516
135	0x3d1a45cb	0.037664216
136	0x3d3e4d67	0.046460535
137	0xbc78e4f9	-0.01519131
138	0x3d5a7590	0.053334773
139	0xbd20237f	-0.03909635
140	0xbda6f50b	-0.08152207
141	0x3cf99fb8	0.030471668
142	0xbcaadaa6	-0.020856213
143	0xbd38550f	-0.045002993
144	0x3da24445	0.07923178
145	0x3d590697	0.0529848
146	0x3cf75e8e	0.030196454
147	0xbcc9e5b2	-0.02464566
148	0xbd53dc33	-0.05172367
149	0xbd4b501b	-0.04963694
150	0xbd83f014	-0.06442276
151	0x3c0c678b	0.008569608
152	0xbd0605e3	-0.032720458
153	0x3cb7af44	0.02242244
154	0xbd0a4c0c	-0.03376393
155	0xbdc52b90	-0.096274495
156	0x3d21c23e	0.039491884
157	0x371aef18	9.234784e-06
158	0xbdca1888	-0.0986796
159	0x3c190b7e	0.009341119
160	0x3d1b0bf2	0.03785319
161	0x3e02e438	0.12782371
162	0x3d731633	0.059347343
163	0xbcde400a	-0.027130146
164	0x3d12e8ec	0.035866663
165	0xbd32744f	-0.04356795
166	0x3d367d54	0.044553116
167	0xbd4f88da	-0.05066762
168	0xbd602f0a	-0.05473236
169	0xbc64ffcf	-0.013977005
170	0xbd65a7be	-0.056068175
171	0x3d93bef6	0.07214157
172	0xbcb1f123	-0.021721428
173	0xbcb3ac72	-0.021932814
174	0x3cfe4e46	0.031043183
175	0x3d8d6bff	0.06905364
176	0x3d3bcc49	0.04584912
177	0xbd47bfed	-0.04876702
178	0xbccab162	-0.024742786
179	0xbc455973	-0.012045252
180	0x3da1a780	0.07893276
181	0xbc414cad	-0.011798066
182	0xbd99ec31	-0.07515753
183	0x3c5cd175	0.013477673
184	0x3b3638ad	0.0027804777
185	0xbba01173	-0.0048848926
186	0x3d870d71	0.065943606
187	0xbd9468fa	-0.07246585
188	0x3d1dd2d4	0.03853114
189	0x3d8ff950	0.070299745
190	0xbd50093c	-0.050790057
191	0x3da575ec	0.080791324
192	0x3d42ddc2	0.047574766
193	0x3cfe78ec	0.03106352
194	0x3d9da15c	0.076967925
195	0xbd13c6ec	-0.03607838
196	0x3d9b9aa7	0.07597857
197	0x3dacf794	0.08445659
198	0xbc1f67a1	-0.009729297
199	0xbd7fd94e	-0.062463097
200	0x3d60f551	0.054921452
201	0x3d5364f2	0.05160994
202	0xba8843f0	-0.0010396224
203	0x3c23f402	0.010006906
204	0x3b8745d5	0.0041281977
205	0x3cef7bf1	0.029233905
206	0x3da6fdc5	0.081538714
207	0x3d2c46b7	0.042059626
208	0x3d854ba5	0.06508569
209	0xbd54f4fc	-0.051991448
210	0xbda77db3	-0.08178272
211	0xbc521735	-0.012822916
212	0xbd72ce23	-0.05927862
213	0x3d9f80ea	0.0778826
214	0x3d66d83c	0.05635856
215	0xbd9f1937	-0.07768481
216	0x3c5056e6	0.012716031
217	0xbd84203a	-0.06451459
218	0xbc2881ad	-0.010284823
219	0x3d9413aa	0.07230313
220	0xbd7c1376	-0.061541997
221	0xbb5e4e17	-0.0033921057
222	0xbd5c198c	-0.0537353
223	0x3c550b2f	0.013003155
224	0xbd89b3f9	-0.0672378
225	0xbdad4a64	-0.084614545
226	0x3da3f26b	0.08005222
227	0xbd37e5be	-0.044896834
228	0xbccc4f66	-0.024940204
229	0x3dac7d95	0.0842239
230	0x3d3ec458	0.046573967
231	0xbd1cd9f1	-0.038293783
232	0xbc782c82	-0.01514733
233	0xbcfc1181	-0.030770065
234	0xbd9edb27	-0.07756644
235	0xbd54b036	-0.05192586
236	0x3c1d8c8b	0.009616028
237	0xbc689578	-0.014195792
238	0xbd7d9eb9	-0.061918948
239	0xbd8ec090	-0.06970322
240	0x3c0fb4b7	0.008771113
241	0x3d0b7a20	0.034052014
242	0xbd8ac67d	-0.0677614
243	0x3cba254c	0.022722863
244	0x3d73c47a	0.059513547
245	0xbd98cd5d	-0.07461045
246	0x3d6bcadd	0.057566512
247	0xbc95b362	-0.018274013
248	0x3cafe441	0.021471145
249	0x3d9715d1	0.07377208
250	0xbd344954	-0.044015244
251	0x3c62cd09	0.0138428295
252	0x3d403357	0.04692396
253	0x3da869c7	0.082233004
254	0xbc2cefae	-0.010555191
255	0x3c7edd92	0.015555756
