modeldata/model_8_epoch.pth (torch_old, 43109 bytes, 5 tensors)

weight f4 [64, 1, 9, 9]
000000 e5 7e 0f bd 71 7e 43 ba d2 09 5f bc 70 c5 a2 3c
       -0.035033125 -0.0007457501 -0.013613181 0.019869536
000010 96 d8 13 bd 33 2e d9 3c 7c 16 13 bd 0f 98 94 3c
       -0.036095224 0.026511287 -0.035910115 0.018138913
000020 3e 5f b9 3c 07 a0 11 bd 51 f0 0e 3c 53 b4 cb bb
       0.022628423 -0.035553005 0.008724288 -0.0062165647
000030 8e ba cb 3b 68 2a 18 3c 97 a7 15 bc 1b 62 e6 3c
       0.0062173074 0.009287454 -0.009134195 0.028122952
000040 7f 2b 64 3c b2 d8 dd 3c 1a c6 8f bc 5b f8 4e bb
       0.013926386 0.027080867 -0.017550517 -0.0031581137
000050 f7 60 db 3c e1 9c c3 bc 99 08 e7 3c a9 b2 53 bc
       0.026779635 -0.023878517 0.028202342 -0.012921014
000060 ad e0 ec bb bb 02 ea bc 90 e3 83 3c b8 1a ca bc
       -0.007228932 -0.028565755 0.016099721 -0.024670944
000070 4d f9 f8 ba b0 76 8a bc 00 c9 34 3a b9 6d f2 bb
       -0.0018995196 -0.016902298 0.00068964064 -0.007398334
000080 7e b9 3e bc 17 01 b2 3c e4 9c c2 3c 4d 26 3f 3c
       -0.0116409045 0.021729035 0.023756452 0.011666846
000090 fa 7e 0f 3b 82 58 31 bc eb a0 ed 3c 4d 1e 43 bc
       0.0021895752 -0.010824325 0.029007396 -0.01190908
0000a0 47 22 e0 bc f0 72 d5 3c 5a 76 2e 3a 69 8b 0f 3b
       -0.027360095 0.026055783 0.0006655209 0.0021903163
0000b0 b9 cd c3 bb 2c d9 a8 bc c0 b3 94 3c 04 78 64 bb
       -0.005975452 -0.020611368 0.018152118 -0.0034861574
0000c0 89 f6 a6 bc cc 6e fe bc 13 2a b9 3c 13 c1 bd bc
       -0.020381229 -0.031058691 0.02260307 -0.023163354
0000d0 b7 66 60 bc f6 f3 47 bc 73 b3 ab 39 03 c7 dd bc
       -0.013696364 -0.012204161 0.00032749362 -0.027072435
0000e0 c8 65 a5 bc f0 4a f9 3c bb 78 71 bc 32 d0 53 ba
       -0.020190135 0.03043124 -0.014738257 -0.0008080035
0000f0 13 7a d8 3c b9 75 7b 3c 97 dd 1f 3c 3c 97 5f 3c
       0.026425397 0.0153478915 0.009757421 0.013646897
000100 ba 12 7d bc c7 8c c0 bc e3 59 a6 3c ea ce 8d 3a
       -0.015446359 -0.023504628 0.020306533 0.0010819111
000110 b1 a3 5a 3b 0e 25 8f b9 09 bc 98 3b 28 70 ac 3b
       0.0033361728 -0.00027302693 0.0046610874 0.0052623935
000120 b0 b8 04 bd ea 16 03 bd 96 d8 00 bc ee 4b dc 3c
       -0.032402694 -0.032004274 -0.007864138 0.026891675
000130 7a 38 b0 bb 4f 04 3b 3b 6d 2a bb bc 6a 87 46 3c
       -0.0053778263 0.0028536504 -0.022847379 0.012117246
000140 4f b8 c4 3c 4f 42 88 3c 14 b2 7a 3b ff 1c 09 3c
       0.024013666 0.01663318 0.0038253115 0.00836873
000150 d2 11 1c bd d4 f4 ba 3c 47 25 ff bc 6e 9a 3e bc
       -0.038102932 0.022821821 -0.031145705 -0.011633499
000160 73 b9 d7 bc f5 4c 0b bd 94 9c d5 bb e0 08 ef 3b
       -0.026333546 -0.03400894 -0.0065189097 0.007294759
000170 c0 0d 45 bc 9c 66 9e 3c af ff e9 bc b3 a7 b8 3b
       -0.012027204 0.019336037 -0.028564302 0.0056352257
000180 b8 87 0e bd e4 81 b5 3c 4e 75 d6 3c f3 bb 04 3c
       -0.0347974 0.022156663 0.026178982 0.008101451
000190 d9 85 be 3c 5c 20 e8 bb 85 55 ca bb de 40 78 3a
       0.023257183 -0.0070839357 -0.0061747455 0.0009470115
0001a0 9a 48 9f 3c de df 9d 3c dc bd 8a 3c 30 be 93 3c
       0.019443799 0.019271787 0.016936235 0.018035024
0001b0 38 c6 fa bc 97 99 98 3c 7b 2d cd 3c cc 8e 28 bc
       -0.030612096 0.018627925 0.0250461 -0.010287952
0001c0 d7 2a df 3c bf 94 0e 3c e8 d3 f9 b9 df 95 20 3b
       0.027242107 0.008702456 -0.00047650863 0.0024503393
0001d0 32 7f 0b bc ae 21 89 bc 50 90 3f 3c 33 4b cc 3c
       -0.008514212 -0.016739693 0.011692122 0.024938202
0001e0 e8 96 ab bc 8a 22 0e 3b 97 c4 0b 3b fc b0 0c bd
       -0.020945981 0.0021688067 0.0021326893 -0.034348473
0001f0 4e 14 eb bc 11 be 8a 3c ed ae 5b bc 58 e4 39 bc
       -0.028696205 0.016936334 -0.013408405 -0.011345945
000200 e0 5a df bc 5f 8b af 3c 2a a9 bc bc 99 16 ec bc
       -0.027265012 0.021428762 -0.023029882 -0.02881937
000210 2c b3 c0 3c 00 7b 69 bc 68 ed dd bc 74 6e 09 3c
       0.023522936 -0.014250517 -0.027090743 0.0083881505
000220 f4 69 45 3c 0a b8 e1 3c 79 3c 24 3c db 37 d9 3b
       0.012049187 0.027553577 0.010024183 0.006628973
000230 26 8b f8 bc c2 98 b6 bb e0 c7 cb bc 92 08 ee bc
       -0.030339789 -0.0055724094 -0.024875581 -0.029056821
000240 48 23 c1 bc 11 3c c7 3c ea 4e ad 3c 79 36 be 3a
       -0.023576394 0.024320634 0.021155793 0.0014512084
000250 76 3d 01 3c b0 9c be 3b c0 47 57 bc 8f e6 c3 bc
       0.007888189 0.0058170184 -0.013139665 -0.02391365
000260 1d c8 7b bb e5 5d 84 bc 84 9e 81 bc 60 a6 b3 bc
       -0.0038418837 -0.016158054 -0.015822656 -0.02192992
000270 57 c7 77 bc 2e 42 6d 3c 6e 8d 4c 3a 9a 59 40 3c
       -0.01512321 0.0144811105 0.0007803057 0.011740113
000280 f7 0e c2 3c 67 57 46 3c 93 ec 6e 3c 38 09 4a bc
       0.023688776 0.012105799 0.014582771 -0.0123312995
000290 17 67 8f bc 04 f4 f1 bc 9c de d4 bc 0c 11 90 bc
       -0.017505212 -0.029535301 -0.025985055 -0.017586254
0002a0 0a ca b5 bc 86 e6 f8 bc f3 72 e1 3c ad 91 13 3c
       -0.022191066 -0.03038336 0.027520632 0.0090069
0002b0 c8 ef 07 3d b6 eb 8a 3c 1a ec 43 38 7f ed c9 bb
       0.033187658 0.016958099 4.671151e-05 -0.006162345
0002c0 4f 21 aa bb 0a 58 ec bb 66 1f be bc e8 6c b2 bc
       -0.005191959 -0.0072126435 -0.023208331 -0.021780446
0002d0 82 fb 49 bc bd b4 a3 b9 5a 99 cc bc 41 26 7b bb
       -0.012328031 -0.00031224443 -0.024975467 -0.0038322362
0002e0 8a 67 50 bc 98 7e f1 3b d8 de b5 3c f2 59 b3 3c
       -0.012719998 0.0073698275 0.022200987 0.021893475
0002f0 c8 60 81 bc a1 53 8d bb dc 00 4e bc a6 93 7a 3c
       -0.01579322 -0.004312948 -0.012573447 0.015293991
000300 09 3d 6f b9 64 6a ec 3c 7a 36 07 3d 0d e9 fb 3c
       -0.00022815554 0.028859325 0.033010937 0.030750776
000310 43 12 0d 3d d5 78 54 bb 88 99 85 3c 52 d9 bc bc
       0.034441244 -0.0032420654 0.016308561 -0.023052845
000320 fe 59 ee bc f7 20 ba bb b0 d0 72 3c 9e 9d 08 3d
       -0.029095646 -0.0056801992 0.014820263 0.03335344
000330 36 03 0c 3d 4e e5 57 bb a7 21 3d 3c d0 50 0d 3d
       0.03418275 -0.0032943073 0.011543668 0.034500897
000340 27 12 a4 3b 12 72 99 3c 32 02 23 bc 97 23 f7 3b
       0.0050070467 0.01873115 -0.009949254 0.0075420844
000350 7f 1b f8 bb d2 8e c4 3c 84 a9 db 3c 9b 5c b9 bc
       -0.007571637 0.023993883 0.02681423 -0.022627166
000360 77 96 8f 3c 1e 19 5d 3b e8 f2 cd bb 2b 37 af bc
       0.017527802 0.0033736895 -0.00628506 -0.02138861
000370 a7 ff f4 3c a3 c2 ca 3c 35 9e 82 3c 6d 3c 43 bc
       0.02990706 0.024751013 0.01594458 -0.011916262
000380 61 eb f9 3c 8c a5 fb bc 75 8a df 3c 62 42 01 bd
       0.030507745 -0.030718587 0.027287701 -0.03155745
000390 54 ec ff 3c a4 52 1c ba ef 25 f2 3c 70 25 a8 3b
       0.03124062 -0.0005963242 0.029559104 0.005131416
0003a0 64 14 00 3c db 05 50 bc ea 40 ee bc f4 ea b4 3b
       0.0078173615 -0.012696709 -0.029083688 0.0055211727
0003b0 da da 99 3c f4 b4 25 bc 28 60 02 3d 4f af 05 3d
       0.018781114 -0.010113943 0.031829983 0.03263789
0003c0 a5 e6 a9 bb 9f 91 f1 b8 e2 8c f7 bc 94 1d ce 3c
       -0.0051849657 -0.000115188996 -0.030218545 0.025160588
0003d0 3f 02 8d 3c 5f bb d2 3b c7 64 5f 3c 98 ce d4 bc
       0.017212985 0.006431028 0.013634867 -0.025977418
0003e0 90 3d a7 3c 58 87 a7 bc 17 0d 08 bc 85 e6 a8 bc
       0.020415097 -0.02045028 -0.008303902 -0.020617733
0003f0 5d fd d1 3c 49 85 80 3c d0 37 8b 3c 7d b9 05 bd
       0.025633508 0.015688555 0.016994387 -0.0326476

bias f4 [64]
000000 1f 32 26 bb 3a 77 90 bb 12 69 53 3b ed 3b 8c bb
       -0.0025359464 -0.004408744 0.0032258672 -0.0042796046
000010 24 ec 4b 3c a7 b0 f6 3a 2e a9 03 bb 8d fd be 3b
       0.012446437 0.0018820957 -0.0020089853 0.0058285655
000020 cc f9 91 bb 26 77 56 bb 24 89 13 3b 21 42 35 3d
       -0.004454827 -0.0032724827 0.0022512162 0.04425252
000030 96 e6 b3 3b af 9e 67 bb dc ec 96 bb eb 6c 07 3c
       0.0054901345 -0.0035342386 -0.0046058726 0.008265714
000040 3f 5d 49 bb 6d 5c 03 bc b6 82 c3 3b a7 d2 f5 3a
       -0.0030725745 -0.0080176415 0.0059665097 0.0018754796
000050 2c da d5 b8 75 16 f9 3a 38 fc 00 bb a7 15 d4 3c
       -0.00010197269 0.0019003885 -0.0019681584 0.02588923
000060 49 95 3f 3b 3a 2a a8 3b 94 34 be bb 45 d6 42 bb
       0.0029233268 0.005131987 -0.0058046076 -0.0029729765
000070 0a 4a 2b 3c 66 52 2f bb e1 29 3b ba b7 56 91 bb
       0.010454664 -0.0026751994 -0.00071397243 -0.004435386
000080 49 87 5c ba 11 09 bb 3b 03 dc a3 3b 92 ab 22 3c
       -0.0008412493 0.005707868 0.0050005927 0.009928601
000090 eb 34 45 3b 05 0c a7 3a 27 48 90 3c 4a 0c 26 3b
       0.0030091356 0.0012744671 0.01761253 0.0025336915
0000a0 b9 11 3b bb 3a 93 2d 3b 5f 05 1a 3b 19 8b 02 ba
       -0.00285445 0.002648546 0.0023501737 -0.00049798336
0000b0 a3 18 6f ba 1c 02 32 bb 9d 5a ce 3b d3 bd 36 bb
       -0.00091207976 -0.0027161902 0.006297423 -0.002788414
0000c0 46 d1 51 bb 95 8f 44 bb 2b 70 ec 3a 37 96 b3 bb
       -0.0032015606 -0.0029992808 0.00180388 -0.0054805535
0000d0 7d ff ec 3a 86 f3 39 3b 06 0d 47 3c 4a 3c 6d 3b
       0.0018081513 0.002837391 0.012149101 0.0036199265
0000e0 ee f4 38 3d 13 a2 9d 3b 5a fe 1e bb 64 f8 3f 3b
       0.04515546 0.0048105805 -0.0024260492 0.002929234
0000f0 4d 43 ac ba f1 74 67 bb f9 fa 2e 3b 71 88 52 bb
       -0.0013142616 -0.0035317505 0.0026699884 -0.0032124782

weight f4 [32, 64, 1, 1]
000000 7d 97 0c bd d3 d4 2d 3e 2b 50 0c be 19 cf 28 3c
       -0.034324158 0.16975717 -0.13702457 0.010303282
000010 bf c2 21 be 2a c6 f2 3d 0a 20 1f be 17 0f 25 3e
       -0.15796946 0.11854203 -0.15539566 0.16119038
000020 8e 3d 1a be c6 81 31 3e 97 61 be bd 19 f4 33 3d
       -0.15062544 0.17334661 -0.092959575 0.04393396
000030 45 37 b6 bd a8 54 2f be 1b d9 99 3d 53 9d 58 3e
       -0.088972606 -0.17122138 0.07512113 0.21153764
000040 3d cc 3b 3e f1 5a bd 3c d3 cc e6 bd 2d 97 b2 bd
       0.1833963 0.023114653 -0.11269536 -0.08720241
000050 3f 6f 79 3e de 16 04 be 6f c2 3f 3d 34 ae 13 bd
       0.24358843 -0.12899348 0.046816286 -0.036054805
000060 a0 28 3e be 54 c9 1a be 21 99 17 be 6f 93 51 3e
       -0.18570185 -0.15115863 -0.14804508 0.20466398
000070 0c c4 9b 3e fa 51 3f be 86 2a 06 3c 8c 8d 5f 3d
       0.3042301 -0.18683615 0.008188849 0.05457835
000080 2d 3b 0f 3c 93 3b d2 3d d3 27 fa bd 8e a5 58 bd
       0.008742136 0.10265269 -0.12214627 -0.05289226
000090 0c c8 49 be d3 ad 4d 3e 44 00 1c 3e b2 87 36 be
       -0.19705218 0.2008584 0.15234476 -0.17825201
0000a0 53 fc 0a 3d 84 61 fe 3c 08 e9 e0 3c 6d 5a 01 be
       0.03393204 0.031052358 0.027454868 -0.12632151
0000b0 d8 38 e9 3d 0c 84 1b bd de ce 33 3e b5 2f 5f be
       0.11387795 -0.037967727 0.17559382 -0.21795543
0000c0 c4 93 86 3d 76 9f d4 3d d9 31 da 3c e3 c5 65 bd
       0.06571153 0.10381977 0.026635097 -0.056096923
0000d0 c6 05 65 3e 42 54 82 3e 01 3a 58 3d 13 ab 84 be
       0.22365484 0.2545491 0.05278969 -0.2591177
0000e0 b8 f4 1d be 7a c8 b7 bd bd 9b ee 3d b5 bd d3 bd
       -0.15425384 -0.08973785 0.116507985 -0.10338918
0000f0 ed cc 0f be cd fe 85 be cd c7 35 3e 88 d7 1d be
       -0.14043017 -0.2617096 0.17751999 -0.1541425
000100 b8 a6 b4 bd fd 42 dc bd 23 9d 3d ba 21 2b 5f 3e
       -0.088208616 -0.107549645 -0.0007233193 0.21793796
000110 07 f4 8f bc 48 2c 5e be 1a f4 ad 3d 1e 3a 80 3e
       -0.017572416 -0.2169658 0.08493824 0.2504434
000120 24 d8 5b 3d 11 ff 75 3d 45 cf 12 be e9 69 84 bd
       0.053672925 0.060057703 -0.1433688 -0.06465513
000130 77 f7 76 be 52 28 34 3e a4 7c 0e be b5 0c dc bc
       -0.24117838 0.17593506 -0.13914734 -0.026861528
000140 87 39 cc 3d 5d 98 0f bd 82 5b 24 bc 58 27 30 3e
       0.0997191 -0.035057414 -0.010031583 0.17202508
000150 33 b5 55 3c 53 3d 0f 3e 09 1e f4 3d 0b 55 d5 3d
       0.01304369 0.13988237 0.11919791 0.10416611
000160 d1 49 3e 3d 41 f3 1a 3e cb 1e 11 3d ed f3 3e be
       0.046457116 0.15131857 0.035429757 -0.18647738
000170 30 e8 87 3e ca 66 97 3d 02 58 04 bd 1c 3e c3 bd
       0.26544333 0.07392652 -0.032310493 -0.09533331
000180 e4 d3 39 be 89 ed 6a 3e c4 47 55 bd d8 ed 93 3c
       -0.18147236 0.22942175 -0.052070394 0.018057749
000190 4c 04 64 bd a6 06 2a bd a0 21 c0 3c 10 3c fe bd
       -0.05566816 -0.041510247 0.023453534 -0.124138
0001a0 c7 ba 51 be 31 55 6d 3e 4a 66 07 bd 63 cd 2c be
       -0.20481406 0.23177029 -0.033056535 -0.16875224
0001b0 8e ba 1e be a4 a1 36 3e f9 3b 92 3e 59 88 f4 bd
       -0.15500852 0.17835099 0.2856138 -0.11940069
0001c0 30 76 3b 3e 9d 21 47 3e f9 4e 66 be 6f 87 21 be
       0.18306804 0.19446416 -0.22491063 -0.1577432
0001d0 fd 1a 58 be 60 36 37 3e d6 37 4b 3d c1 3c 66 be
       -0.21104045 0.17891836 0.049613796 -0.22484113
0001e0 4f 0b 3a 3d 2b 9f 62 3c ba a9 2e be 50 a8 90 3d
       0.04542094 0.013831894 -0.17056933 0.07063353
0001f0 ef 5e 70 be e5 51 70 3e 9f 81 83 3e 96 72 4b be
       -0.23473714 0.2346874 0.2568483 -0.1986793
000200 6f 2e 4f be 62 23 c8 3d ef 32 15 be 7e 3a 80 3e
       -0.20232557 0.09772374 -0.14570211 0.25044626
000210 8e ca 8e 3e 1e dd 44 3e bd e0 08 3e c4 2f 7b 3d
       0.27888912 0.19224975 0.13366981 0.06132485
000220 fa 7f 08 3e 5f a1 18 be 90 b5 3a be 16 2a d3 3c
       0.13330069 -0.14905308 -0.18233323 0.025776904
000230 4a cf 20 bc 3a 87 3f 3e 74 48 7c bd 8d 3f 42 3e
       -0.009815047 0.18703929 -0.061592534 0.18969555
000240 a0 ae 30 be 8b a6 49 be 10 af 1b 3e 38 58 f1 3d
       -0.17254114 -0.19692437 0.152035 0.117844045
000250 cd 00 70 3d 28 dd 67 3e 79 b8 fc 3d c9 12 53 3e
       0.058594514 0.22642958 0.12339873 0.20612635
000260 a1 5d 92 bd ad aa 23 be 98 7e 3d ba 50 85 19 be
       -0.071467645 -0.15983076 -0.0007228642 -0.14992261
000270 62 0b 57 3d 02 06 e5 bd 33 d5 a5 bc ea 8f 45 bd
       0.05250109 -0.111827865 -0.020243263 -0.04823295
000280 10 8b ab bd 66 af 71 3e c5 1e a0 bc 05 45 44 3e
       -0.083761334 0.23602065 -0.019545922 0.19166954
000290 11 89 62 be e9 ea 6c 3e c9 40 a3 ba 82 f2 94 bc
       -0.22122599 0.23136486 -0.001245522 -0.018182043
0002a0 f9 ce 8c 3d 5e 8a 15 be 03 2c 96 3d 5a cc fb 3d
       0.068754144 -0.14603564 0.07332613 0.12294836
0002b0 24 d2 17 be ff 56 bf 3d 30 4e c2 3d fe 0c 05 be
       -0.14826256 0.09342765 0.09487569 -0.12993237
0002c0 51 c3 2b 3d f2 f3 c9 bd 2c 97 7d 3e 2f 32 e0 bc
       0.041934315 -0.09860982 0.24764699 -0.02736768
0002d0 9a 7f 38 3e a8 cd 12 3e 6d aa 0a 3e 9a 7c 3e be
       0.18017426 0.14336264 0.13541575 -0.18602219
0002e0 de 41 3c be 26 14 39 be b7 cf 06 3d e0 a3 90 3c
       -0.18384501 -0.18074092 0.032912936 0.017656267
0002f0 f2 92 22 3e 09 5b ba bc f3 a9 52 3e 20 52 9f bd
       0.15876368 -0.022748487 0.20572643 -0.07779336
000300 fe ce 6a be c8 42 22 be dd 1e e4 3d 79 15 88 3d
       -0.22930524 -0.15845788 0.11138699 0.066447206
000310 59 de 79 3e d2 fc 06 be db 0d 66 be 91 dd 01 3e
       0.24401225 -0.13182381 -0.22466223 0.12682177
000320 d4 6d 7a be ae 5d 2a be 99 98 81 3d fd 9a d5 bd
       -0.24455959 -0.16637298 0.06327934 -0.10429952
000330 7b 01 28 3e 5d c2 5b be e7 35 4e 3e a0 5b 09 3e
       0.16406815 -0.21460862 0.2013775 0.13413858
000340 8c 31 8e bd e1 ba 5d bd 78 b9 79 3e 38 d2 30 be
       -0.06943044 -0.0541333 0.24387157 -0.17267692
000350 91 70 da bc 71 b7 55 3d 3a 8c 48 3e 1f e5 e3 3d
       -0.026665004 0.052176896 0.19584742 0.11127686
000360 7f 6a 27 3e 67 22 7b 3e 93 56 58 be 33 d1 cb 3c
       0.16349219 0.24524842 -0.21126775 0.024880027
000370 f8 71 0d 3e e9 ee 3f be 7f 12 21 be 4e cf 0c 3c
       0.13813007 -0.1874348 -0.15729712 0.008594347
000380 e3 de bd bd 89 b9 9f bd ee 4a 74 3e b7 7b c4 bd
       -0.09271028 -0.0779906 0.23856708 -0.09593909
000390 43 2e 25 3e f6 60 9f 3d 9f 90 96 be 4b 45 68 3e
       0.16130929 0.07782166 -0.29407212 0.22682683
0003a0 e7 32 77 be 4b 8b fc bd a4 a0 12 3e 73 c6 fa 3d
       -0.24140511 -0.123312555 0.14319092 0.122448824
0003b0 41 33 65 3e bb 17 f5 3d 83 51 b7 bb f5 0d 30 be
       0.22382833 0.11967417 -0.0055944338 -0.17192824
0003c0 06 fa 10 be 0d 7a 01 be 4f 6e 39 bd 97 9d 17 be
       -0.14157876 -0.12644215 -0.045271214 -0.1480621
0003d0 21 4d eb 3d c3 c7 32 bd 01 c2 09 be f0 59 74 bd
       0.114893205 -0.04364754 -0.13452913 -0.059656084
0003e0 97 bc ce 3d e9 ad 83 3e db 21 58 be 9c bf a5 3d
       0.100945644 0.2571862 -0.21106665 0.08093187
0003f0 bc 91 c3 bd e8 17 07 3e 5b 6f 07 be e2 8b d9 3d
       -0.09549281 0.13192713 -0.13226072 0.10622384

bias f4 [32]
000000 74 28 2c 3b 10 f7 6f 3b ef 4b 92 3b 65 0a 9d 3b
       0.002626923 0.0036615767 0.0044646184 0.004792499
000010 9f 25 53 3b e6 26 c8 3c fc 51 37 bb d9 9c 55 bb
       0.003221847 0.02443261 -0.002797245 -0.003259471
000020 15 b6 4b 3b d3 16 e1 3a 96 81 a5 ba bf bf 67 3c
       0.003108387 0.001717294 -0.0012627121 0.014144837
000030 b1 49 18 bb ab 01 34 3d 84 dc 08 3b f5 35 ed 3a
       -0.0023237283 0.043946903 0.002088339 0.0018097745
000040 e3 e8 97 3b 42 15 a8 ba d1 20 63 3b bb 0a 25 3b
       0.0046359166 -0.0012823718 0.0034657011 0.0025183398
000050 6f a5 fe b8 c7 b5 a7 b9 e9 bd 9a ba bb e8 f4 ba
       -0.00012142478 -0.00031988157 -0.0011805865 -0.0018685082
000060 65 ce a8 bb 58 43 dc bb 83 91 79 3b 48 4c 31 bc
       -0.0051515573 -0.006721895 0.0038081117 -0.0108214095
000070 8e f4 b1 3b 59 ba 97 3b e3 d2 91 bb e5 4b ae 3a
       0.0054307645 0.0046303687 -0.0044501885 0.0013297765

weight f4 [1, 32, 5, 5]
000000 f6 08 88 bd f8 f5 40 3d fd 97 90 bd 27 e0 94 bd
       -0.06642334 0.047109574 -0.070602395 -0.07269316
000010 59 d1 9d bc f2 a2 c0 3c 96 b7 96 3d 70 92 87 3b
       -0.019264864 0.023515198 0.07359235 0.0041373298
000020 ce 37 70 bb 9d f5 80 3d 91 0e 3e bc 3e db a5 3c
       -0.0036654356 0.06296847 -0.011600153 0.020246144
000030 96 f5 89 3d e9 5a fb bc e4 7a a4 3d 48 da 7d 3d
       0.06736295 -0.030682998 0.08031252 0.061975747
000040 c6 3c 73 3d e9 24 1e bd cb 73 f6 bc 7d 74 20 bd
       0.05938413 -0.03860942 -0.030084511 -0.039173592
000050 b0 cb 21 3d 71 a8 a7 3d 2c 69 1d 3d ae 63 6a bd
       0.039500892 0.081864245 0.038430378 -0.05722397
000060 da 8e 53 3d 35 ba 00 3d 3f 22 86 3d 03 dc 7a bd
       0.051649906 0.03142758 0.06549501 -0.061244976
000070 79 ec 1b bd 64 7c 4a bd ff da 34 3d 7b 73 6a 3d
       -0.038067315 -0.049435034 0.044154163 0.057239037
000080 5a cf 3d bd 53 90 ac bd 57 cf 65 3d d4 6c 18 3d
       -0.046340324 -0.08425965 0.056105938 0.03721316
000090 27 fb 92 3d b6 cc 8a 3d 82 88 98 3d 3d e2 76 bd
       0.0717681 0.06777327 0.07447912 -0.06027435
0000a0 05 9e 3e 3c 40 9b a8 3d ac 01 26 3c 17 05 a8 3d
       0.0116343545 0.082327366 0.010132235 0.08204096
0000b0 ec 50 93 3d e2 2f 87 3d f3 36 81 bd db ca e4 bc
       0.07193169 0.0660093 -0.06309309 -0.02792876
0000c0 9a 6e 46 3d 01 c0 d7 3b 92 46 8e bd 5f a9 2b bc
       0.04844532 0.006584168 -0.06947054 -0.010477393
0000d0 36 a1 3d bd 96 6e a8 3d fe ed d4 bb d6 e0 2c bd
       -0.04629632 0.082242176 -0.0064980974 -0.042206608
0000e0 94 92 d9 bc 8a b9 ac bb e6 1e a0 3b 93 54 7b ba
       -0.026559152 -0.0052711414 0.004886496 -0.00095874927
0000f0 ed a2 ab 3d 24 47 62 3d 6a 8b d5 bc c4 4a a3 3d
       0.08380685 0.055243626 -0.026067454 0.07973245
000100 b9 1b 0b bd c6 ae 1d bd d5 9b ab 3c e6 6e 60 3d
       -0.033961985 -0.038496755 0.02094833 0.05479326
000110 37 5b aa 3d c6 48 37 bd 97 94 a6 3c e7 91 2b bd
       0.08318179 -0.044747137 0.020334525 -0.04188719
000120 49 bb 08 3c 3d a7 29 3d b1 cb 59 bc 01 eb f4 3c
       0.0083454335 0.041419256 -0.013293193 0.029897215
000130 c8 23 99 3d 38 46 86 bd e3 37 70 bd 56 aa 30 bd
       0.07477528 -0.06556362 -0.058647048 -0.043131195
000140 eb 7c 80 bd 9f e5 8d 3d 72 9a 89 bd 47 7d 6a bd
       -0.06273826 0.069285624 -0.06718911 -0.05724838
000150 07 24 87 bd 2b 13 27 ba b4 80 a5 3d fa 74 93 3d
       -0.065986685 -0.00063734007 0.08081189 0.07200046
000160 aa ac a2 3d 22 b4 c4 bc 69 82 3d 3d ca 92 09 3d
       0.07943089 -0.024011675 0.046266947 0.033587255
000170 25 8e 73 3c 09 7f 21 3d 02 94 74 bd b1 2e a9 3d
       0.014865433 0.03942779 -0.059711464 0.08260859
000180 a6 d4 5e bc 2f ca 95 3d 33 8b 55 3d dc 5b ba bb
       -0.013600504 0.07313954 0.052134704 -0.00568722
000190 df b7 83 3d b7 4d 70 bd 7c 36 7a bd b5 65 93 3d
       0.06431555 -0.058667865 -0.061087117 0.071971335
0001a0 54 21 2b 3b bd d2 bd 3c 12 95 04 bc 4d e0 7c bd
       0.0026112394 0.023171777 -0.008092182 -0.061737347
0001b0 1d 3f a6 3c 4f ae 16 3c 88 5c e7 3c df e6 22 3d
       0.020293767 0.009196832 0.028242365 0.039770957
0001c0 4c 1b 9b 3d ed 8e 21 3d 66 07 98 3d f7 86 22 3d
       0.07573566 0.039442945 0.07423286 0.039679494
0001d0 bf a2 82 3d cf ec 06 bd b8 4e 16 3d 80 fa 62 bd
       0.063786976 -0.032940682 0.036696166 -0.055414677
0001e0 78 c5 fb 3c fa 6d a2 3d 86 94 8e 3c 96 07 a7 bd
       0.030733809 0.079311326 0.017404806 -0.08155744
0001f0 bc a4 1f 3d c6 8f cb bc 70 bb 88 3c 51 3a 29 3d
       0.038975462 -0.02484883 0.01669094 0.04131538
000200 2a f5 92 bd eb 4a 4e bd b3 79 3d 3c 5e 0f 83 bd
       -0.071756676 -0.050364416 0.01156466 -0.063994154
000210 c4 06 8d 3d 4d 17 a3 bc d5 41 2d 3d 7e d9 84 bd
       0.06886056 -0.019908572 0.04229911 -0.06486796
000220 23 a0 8b bd 19 e8 95 3c 30 ec 5f 3d 9c c5 02 bc
       -0.06817653 0.01829915 0.054668605 -0.007981684
000230 d2 2f c7 bb 14 06 83 bd dc 3a 4a bd f3 8a 9d 3d
       -0.0060786987 -0.06397644 -0.04937254 0.07692518
000240 4c 7f 9e 3d 13 9a 95 3d 67 13 b6 3d fa 20 0e 3d
       0.07739124 0.07304778 0.088904195 0.034699418
000250 bc 5b 7e bd 18 ab b2 3d 1e 7e c0 3a 67 3c 75 3d
       -0.062099203 0.0872404 0.0014686023 0.059872057
000260 98 fe 26 bd 0c c9 dc b9 f3 80 83 bc fe c0 9a ba
       -0.040770143 -0.00042111462 -0.016052699 -0.0011806784
000270 fc aa ab 3d ea 01 71 3d 84 d6 9d bd e3 51 a9 bd
       0.08382222 0.058839716 -0.07706931 -0.08267572
000280 28 d9 6e bd 57 c3 81 3c 70 6f 5f bd 43 93 a7 3d
       -0.058312565 0.015840216 -0.054549634 0.08182385
000290 22 95 a1 bd d9 8a 0a bd bd fb 7b bd 66 12 6f 3d
       -0.07889773 -0.03382382 -0.061519373 0.058367155
0002a0 7c 7f 24 bd 16 e4 8f 3d 62 28 64 3d 50 b1 20 bd
       -0.04016064 0.07025926 0.055702575 -0.0392316
0002b0 6a cd 22 bd 17 23 55 bd 72 7d 71 3d 97 e7 27 3d
       -0.03974668 -0.052035417 0.058957525 0.040992346
0002c0 c7 d6 61 3d 02 76 75 bd d1 52 c2 3c 92 4d 12 bc
       0.05513647 -0.059926994 0.02372113 -0.008929627
0002d0 d5 92 28 bd 04 f3 a6 bd 0f 57 78 3d d0 34 57 bc
       -0.041155655 -0.0815182 0.0606299 -0.01313515
0002e0 09 c3 60 bd b7 a7 03 3d 5c 24 01 bd 50 18 68 bd
       -0.0548735 0.032142367 -0.031528816 -0.05666381
0002f0 74 cf b0 3b 8c e2 98 3d 93 1a 67 bd cd 88 01 3d
       0.005395824 0.074650854 -0.056421828 0.031624604
000300 82 f6 72 bd 42 6d 8e bc eb 04 43 bd 21 ab 7d bd
       -0.05931712 -0.017386083 -0.047612112 -0.06193078
000310 cb 57 c2 bc e4 25 76 bd f8 ec 16 3d e2 58 52 3d
       -0.023723504 -0.06009473 0.036847085 0.051354297
000320 48 e3 e9 3b ea 34 3e 3d 4a b1 18 bd 06 95 0d bd
       0.0071376897 0.04643718 -0.03727845 -0.034565948
000330 c4 41 fd 3c 43 90 30 3d a7 72 9f 3d cd 27 41 3d
       0.030915149 0.04310633 0.0778554 0.047157098
000340 5d c5 53 3d d5 26 58 3c 0f 55 83 bd e7 c4 a1 3d
       0.051701892 0.013192852 -0.06412708 0.07898884
000350 1c 6f 56 bd 57 bd 41 3d b9 ae 16 bd 89 b2 92 bc
       -0.052352056 0.04729971 -0.036787722 -0.017907398
000360 ab f8 83 3a 29 bf 72 3d ed f1 a0 3d 6d b0 ee 3c
       0.0010068616 0.059264336 0.07858644 0.02913686
000370 16 4f 1b 3d 76 ba 41 3d 4c ca 4d bd 13 a8 c8 bc
       0.03791722 0.047296964 -0.050241753 -0.024494207
000380 c2 82 a7 3d f0 86 32 bc 32 34 89 3d 80 97 f5 bc
       0.08179237 -0.010896429 0.066994086 -0.029979467
000390 8e 24 2d 3d 44 df 2b 3d a4 4e 25 3d fa 04 9a 3d
       0.04227119 0.04196097 0.0403582 0.075204805
0003a0 15 e0 9a bc d9 4e 3c 3d 4b 17 38 bc 64 18 33 3d
       -0.018905679 0.045973632 -0.011236022 0.043724433
0003b0 cc 7c a4 3d 53 70 26 3d 4e 97 4a 3d 19 84 17 bc
       0.080316156 0.040634464 0.0494607 -0.009247803
0003c0 4f ba f0 3c cb 4a c7 3c 47 f4 84 3d 7b fe 91 3c
       0.029385714 0.024327656 0.06491905 0.017821541
0003d0 60 6c 7d bd bf 91 10 bd ac 65 4f bd 1d c3 a4 bd
       -0.061870933 -0.035295244 -0.05063407 -0.080450274
0003e0 ec 7c 4d 3b ee 4e bb 3b ca b3 3f 3d a4 df 9d bc
       0.0031354977 0.0057161963 0.04680232 -0.01927168
0003f0 ab 0f 64 bc 6e cd 80 3d dc 96 50 3d a0 8f 87 bd
       -0.013919751 0.062891826 0.05092512 -0.06619191
